rwgnn2/checkpoints/cora_best_model.pt (torch, 171713 bytes, 20 tensors)

adj_hidden f4 [12, 6]
0	0x3de29e20	0.11065316
1	0x3f1b1c60	0.6059017
2	0xbf720070	-0.9453192
3	0xbf7c37c2	-0.9852258
4	0x3afa7400	0.0019108057
5	0xbcbffc80	-0.023435831
6	0x3eeeb4f4	0.4662243
7	0x3cedd340	0.029031396
8	0xbe469870	-0.19394088
9	0xbc6ff800	-0.01464653
10	0x3f2ed42a	0.68292487
11	0xbf55b21a	-0.83474886
12	0x3e9f1e74	0.3107792
13	0xbf18bf60	-0.59667015
14	0x3f12b51e	0.5730761
15	0x3c2cd980	0.010549903
16	0xbf6ce7f2	-0.9254142
17	0x3ec87efc	0.3915938
18	0xbf00b80c	-0.50280833
19	0x3d5754c0	0.05257106
20	0xbcf0b880	-0.029384851
21	0x3e7b1858	0.24521005
22	0x3f468e40	0.77560806
23	0x3f18b172	0.5964576
24	0x3f78fc16	0.9725965
25	0xbecfc3a0	-0.40578938
26	0xbe9b596c	-0.3034166
27	0xbd980d10	-0.074243665
28	0x3ea72744	0.32647145
29	0xbe935eb8	-0.28783202
30	0x3f42346c	0.7586124
31	0x3f5cf504	0.86311364
32	0x3f48fcf8	0.78511
33	0x3efbf788	0.4921229
34	0x3ba14400	0.0049214363
35	0x3f6b9b44	0.9203379
36	0xbe663e70	-0.22484756
37	0x3efcd068	0.4937775
38	0xbf2c3ab8	-0.672771
39	0x3ec35fb4	0.38158953
40	0xbf5f8858	-0.8731742
41	0xbec681c4	-0.38770878
42	0xbf09b04a	-0.5378462
43	0xbe87b3a0	-0.2650423
44	0xbf0923c0	-0.53570175
45	0xbd7a7860	-0.061149955
46	0x3f149520	0.58040047
47	0x3f3a4954	0.7276814
48	0x3f737a3a	0.9510838
49	0xbe5006c0	-0.20315075
50	0xbe533c60	-0.206285
51	0xbd5a7fa0	-0.05334437
52	0x3ebdf104	0.37097943
53	0xbcf0f140	-0.029411912
54	0xbeb271e0	-0.34852505
55	0x3e8b47d4	0.27203238
56	0xbf1699c4	-0.5882838
57	0x3ef82d60	0.48472118
58	0x3e86b390	0.2630887
59	0x3f2308c6	0.6368526
60	0xbf219714	-0.6312115
61	0xbf220f78	-0.63304853
62	0xbf758ad2	-0.9591495
63	0x3f52b62e	0.82309234
64	0xbf2b5e48	-0.66940737
65	0x3eb1afc4	0.3470441
66	0x3f5fff58	0.87499
67	0x3f4391bc	0.7639425
68	0x3f269548	0.65071535
69	0x3ce7ee40	0.028311849
70	0xbf274412	-0.6533824
71	0xbf736e5c	-0.9509027

features_hidden f4 [12, 4, 24]
0	0x3e6b3c58	0.22972238
1	0x3f06e3a2	0.5269109
2	0x3f360e3e	0.7111548
3	0x3e28cdd4	0.16484767
4	0x3e206dc4	0.15666872
5	0x3f5c3105	0.860123
6	0x3f083a05	0.5321353
7	0x3e6b13dc	0.22956795
8	0x3f74eee4	0.9567702
9	0x3f17a31d	0.59233266
10	0x3e86ea00	0.26350403
11	0x3f062c3e	0.5241126
12	0x3cc1b0e0	0.02364391
13	0x3e71a86c	0.23599404
14	0x3f6d7f58	0.92772436
15	0x3f29e1a0	0.663599
16	0x3e3ee0d0	0.18640447
17	0x3f2836fb	0.65708894
18	0x3e9ae04a	0.30249244
19	0x3e12a4cc	0.14320678
20	0x3d8c9a68	0.06865388
21	0x3f603e8a	0.8759543
22	0x3f430381	0.7617722
23	0x3e1680d0	0.14697576
24	0x3da012e8	0.07816106
25	0x3f1a8e5d	0.6037348
26	0x3e12470c	0.14284915
27	0x3f3421cc	0.7036407
28	0x3dbe1830	0.09281957
29	0x3f1e7de5	0.6191085
30	0x3f2e7742	0.68150723
31	0x3ecf2910	0.40461016
32	0x3f16bfcd	0.58886415
33	0x3e5755cc	0.21028823
34	0x3d9a7df0	0.07543552
35	0x3f2d6cff	0.6774444
36	0x3ed27314	0.41103423
37	0x3f169424	0.58819795
38	0x3ef12d1a	0.47104722
39	0x3da7e490	0.08197892
40	0x3ef1b80e	0.47210735
41	0x3f496cfa	0.7868191
42	0x3ef1550c	0.47135198
43	0x3e907c74	0.2821995
44	0x3e37f9e8	0.17966425
45	0x3f5a0dbe	0.8517722
46	0x3d279060	0.04090917
47	0x3ef034ee	0.46915382
48	0x3e5976d8	0.21236742
49	0x3f201502	0.62532055
50	0x3f0cb542	0.5496408
51	0x3f0e9a11	0.55703837
52	0x3e5c64b0	0.21522784
53	0x3ea26ec0	0.3172512
54	0x3da30f20	0.07961869
55	0x3f69f05b	0.9138238
56	0x3f2f24a3	0.6841528
57	0x3ee71d1e	0.45139402
58	0x3f15f54e	0.5857743
59	0x3e9b9f38	0.30394912
60	0x3f57f93a	0.84364665
61	0x3eb56f22	0.3543635
62	0x3f216bb0	0.63054943
63	0x3e3163b4	0.1732319
64	0x3f6ae6ad	0.91758233
65	0x3f077852	0.5291797
66	0x3eccb538	0.3998201
67	0x3eab8f8a	0.3350795
68	0x3ee478d8	0.44623446
69	0x3ee2e162	0.44312578
70	0x3e8b21f2	0.27174336
71	0x3f341fee	0.7036122
72	0x3f78b2fc	0.9714811
73	0x3f09ee36	0.53879106
74	0x3f1a4a9a	0.6027008
75	0x3f251b86	0.6449512
76	0x3c041680	0.008062005
77	0x3f784152	0.9697467
78	0x3f25a67d	0.64707166
79	0x3f491750	0.785512
80	0x3ea36150	0.3191018
81	0x3d7bc8a0	0.061470628
82	0x3e627810	0.22116113
83	0x3f2fda41	0.68692404
84	0x3e51b9b8	0.20481002
85	0x3ed5796e	0.41694206
86	0x3eefe616	0.4685523
87	0x3ea94152	0.33057648
88	0x3ddccb48	0.1078096
89	0x3f5018f3	0.8128807
90	0x3f285f4a	0.657704
91	0x3f7df089	0.9919515
92	0x3f652c1b	0.89520425
93	0x3f05b206	0.5222477
94	0x3e39d634	0.18148118
95	0x3f1bd94c	0.60878444
96	0x3eef9788	0.46795297
97	0x3c374f00	0.011188269
98	0x3f270a32	0.6524993
99	0x3b09a900	0.0021005273
100	0x3f7ed487	0.9954304
101	0x3ee0dd62	0.43918902
102	0x3edb1500	0.4278946
103	0x3f3812c4	0.71903634
104	0x3f2e850a	0.6817175
105	0x3ece4fe6	0.40295333
106	0x3e81c0d4	0.2534243
107	0x3f4eca2f	0.8077726
108	0x3ea1d112	0.3160482
109	0x3ef3bf1c	0.47606742
110	0x3f0c7a66	0.54874265
111	0x3db7c170	0.08972442
112	0x3d0f7dc0	0.035032034
113	0x3d3c6980	0.04599905
114	0x3db0cb78	0.086325586
115	0x3dd50028	0.104004204
116	0x3f6da20a	0.92825377
117	0x3f389a10	0.7211008
118	0x3c9ed1c0	0.019387126
119	0x3e45343c	0.19258207
120	0x3f21ef37	0.6325564
121	0x3f10c041	0.56543356
122	0x3f6e79a3	0.9315435
123	0x3f4b4d52	0.79414856
124	0x3ea2174a	0.31658393
125	0x3ea463e2	0.32107455
126	0x3e435750	0.19076276
127	0x3df9ca50	0.12196791
128	0x3f498aff	0.78727716
129	0x3e9627d0	0.2932725
130	0x3ed06cfc	0.40708148
131	0x3f66fc82	0.90229046
132	0x3eb58fc2	0.3546124
133	0x3dc8d088	0.09805399
134	0x3ee20d9c	0.44151008
135	0x3e812cb0	0.25229406
136	0x3f448db5	0.7677873
137	0x3f12aff1	0.57299715
138	0x3e97b1e4	0.29627907
139	0x3f1c0dce	0.60958564
140	0x3eb272ba	0.34853154
141	0x3f031410	0.5120249
142	0x3f7115d1	0.94173914
143	0x3eced5bc	0.4039744
144	0x3dbfdb88	0.09368044
145	0x3eca42d4	0.3950411
146	0x3f41acd1	0.7565432
147	0x3f4edbf6	0.80804384
148	0x3dc03310	0.093847394
149	0x3f34420c	0.7041328
150	0x3e194cf8	0.14970767
151	0x3f653b0d	0.8954323
152	0x3d506ba0	0.05088389
153	0x3f3321a3	0.699732
154	0x3f7edb11	0.9955302
155	0x3e2bc210	0.16773248
156	0x3ea7b01a	0.32751542
157	0x3f0d0f18	0.55101156
158	0x3f33042b	0.69928235
159	0x3f236578	0.63826704
160	0x3f239926	0.6390556
161	0x3e838b16	0.25692052
162	0x3f5f1c67	0.87152714
163	0x3f6df9bc	0.9295919
164	0x3f67ac3d	0.9049719
165	0x3f5b2e34	0.85617375
166	0x3f09b734	0.5379517
167	0x3c8f3360	0.017480552
168	0x3e593e88	0.2121526
169	0x3f16c275	0.5889047
170	0x3f04f140	0.5193062
171	0x3e8f6904	0.28009808
172	0x3da83950	0.082140565
173	0x3ecbf662	0.39836413
174	0x3e81a98c	0.25324667
175	0x3f6dd388	0.92900896
176	0x3f44d023	0.7688009
177	0x3edf762c	0.43644845
178	0x3f09fcd7	0.5390143
179	0x3f17da49	0.5931745
180	0x3e841262	0.25795275
181	0x3e10d8d8	0.1414522
182	0x3eeb97de	0.46014303
183	0x3f612b7c	0.87956977
184	0x3e60802c	0.21923894
185	0x3f482852	0.78186524
186	0x3e9a583e	0.30145448
187	0x3f66e597	0.90194076
188	0x3e423154	0.1896413
189	0x3f57d7c2	0.84313595
190	0x3eb0adce	0.34507602
191	0x3e669668	0.22518313
192	0x3f1e43bc	0.61822104
193	0x3f334f12	0.70042527
194	0x3ecba590	0.39774752
195	0x3f6257fa	0.8841549
196	0x3c2b8c80	0.0104705095
197	0x3f6d2f3f	0.92650217
198	0x3d4b4ff0	0.04963678
199	0x3f2be0f0	0.671401
200	0x3f279ecc	0.6547668
201	0x3f155b81	0.5834275
202	0x3e021e8c	0.12706965
203	0x3f5f27dc	0.87170196
204	0x3e604dfc	0.21904749
205	0x3dbbdc50	0.09172881
206	0x3f0e8fe1	0.5568829
207	0x3f723ec3	0.94627017
208	0x3f4035c3	0.75082034
209	0x3f46caf3	0.77653426
210	0x3e915e7e	0.28392404
211	0x3f544400	0.8291626
212	0x3dd312c0	0.10306311
213	0x3ec51232	0.38490444
214	0x3ec59514	0.385903
215	0x3f42d256	0.761022
216	0x3f11be01	0.5693055
217	0x3e2a2f48	0.16619599
218	0x3f2af75c	0.6678369
219	0x3f655ea7	0.89597553
220	0x3e9dc8ec	0.30817354
221	0x3f6c03f3	0.92193526
222	0x3f2a5b83	0.66545886
223	0x3dc4afc0	0.09603834
224	0x3f73e44f	0.95270246
225	0x3f28e66e	0.6597661
226	0x3db63520	0.088968515
227	0x3e78edf4	0.24309522
228	0x3e34cef0	0.17657065
229	0x3f6740da	0.9033333
230	0x3f0fae04	0.561249
231	0x3d9afc70	0.0756768
232	0x3ef4c5ac	0.47807062
233	0x3e016fc0	0.12640285
234	0x3f2d56c2	0.67710507
235	0x3f5415d1	0.8284579
236	0x3edd7fd4	0.43261588
237	0x3e0edc64	0.1395126
238	0x3f66f205	0.9021304
239	0x3e91bef4	0.28465998
240	0x3f13432b	0.57524365
241	0x3e8673ea	0.2626031
242	0x3e0ee0e4	0.13952976
243	0x3f661550	0.8987627
244	0x3f55ddfd	0.8354185
245	0x3f4bd32d	0.79619104
246	0x3f62d265	0.88602287
247	0x3f6e91a9	0.9319101
248	0x3f18262f	0.59433264
249	0x3f0afd71	0.5429297
250	0x3e1fd668	0.15609133
251	0x3e986e26	0.29771537
252	0x3f458fc5	0.771725
253	0x3ec946e4	0.39311898
254	0x3f6bb6a2	0.9207555
255	0x3f2cdf4b	0.6752822

walk_encoder.feature_encoder.weight f4 [24, 1433]
0	0x3d968e7b	0.07351395
1	0x3d12066a	0.03565065
2	0x3c035dd7	0.008017979
3	0x3bf35da7	0.0074269357
4	0x3db83e20	0.089962244
5	0xbdded580	-0.10880566
6	0xbd18a2fc	-0.03726481
7	0xbdf5112e	-0.119661674
8	0x3cc2d179	0.023781525
9	0xbaf5eb24	-0.0018762094
10	0xbb83c036	-0.004020716
11	0xbd34312f	-0.043992218
12	0x3d961387	0.07327943
13	0xbbcc2f1c	-0.006231202
14	0xbba0d9fa	-0.0049087973
15	0x3df694b5	0.12040082
16	0x3d1773d7	0.036975708
17	0x3d9daf05	0.07699398
18	0x3d82c788	0.06385714
19	0x3d56d994	0.052453592
20	0xbcbba52d	-0.02290591
21	0xbd8fd6e1	-0.07023407
22	0x3d62b175	0.055345017
23	0x3d7c0faa	0.061538376
24	0xbd3fc894	-0.046822146
25	0x3b9acf08	0.004724387
26	0xbc87cf78	-0.016578421
27	0x3daf16ef	0.08549296
28	0xbd06045b	-0.032718997
29	0xbe0cd216	-0.13752016
30	0xbd743c84	-0.059628025
31	0xbdf52a36	-0.11970942
32	0x3ccf2fcc	0.025291346
33	0xbd9f1cfc	-0.077692
34	0x3ce266b0	0.027636856
35	0x3d8f7072	0.07003869
36	0x3cd97265	0.026543805
37	0x3d73b50a	0.059498824
38	0xbca6df51	-0.020370157
39	0x3cb29daf	0.021803705
40	0x3c8097a7	0.015697313
41	0xbd646646	-0.055761598
42	0xbd8bbde5	-0.06823329
43	0xbce43aaf	-0.027860014
44	0x3d66d5ba	0.05635617
45	0x3c99a2b5	0.018754343
46	0xbd618697	-0.055059996
47	0x3ca7a6c0	0.020465255
48	0x3d792585	0.060826797
49	0xbd560344	-0.052249208
50	0x3ae03888	0.0017106691
51	0x3db3a35f	0.08771395
52	0xbd6912bf	-0.056902643
53	0xbc8e8a14	-0.017399825
54	0x3b629cae	0.0034578252
55	0x3d311339	0.043231223
56	0x3bb80ebd	0.0056169913
57	0x3cf584e2	0.02997059
58	0x3d5ea276	0.054354154
59	0xbbd08915	-0.0063639977
60	0xbccea1c6	-0.025223624
61	0x3d026574	0.031835034
62	0x3d336bc2	0.043803938
63	0xbd3a7ebb	-0.045531016
64	0xbd748938	-0.059701174
65	0x3c85f4ab	0.016352018
66	0xbda4fb1a	-0.08055706
67	0xbd9a5111	-0.075349934
68	0xbd9ae098	-0.07562369
69	0xbda710b5	-0.081574835
70	0xbc827641	-0.015925528
71	0x3d79951e	0.060933225
72	0xbc972c00	-0.018453598
73	0xbd975464	-0.07389143
74	0xbce2e8b4	-0.027698852
75	0xbde48554	-0.11158243
76	0xbbbca2b3	-0.0057567
77	0x3e32da62	0.17466119
78	0x3dda1c16	0.10649888
79	0x3df8089f	0.12111019
80	0x3dd10e69	0.10207827
81	0x3cf9921d	0.03046518
82	0x3e098d9f	0.1343293
83	0x3c9c657d	0.019091362
84	0xbd816edf	-0.06319975
85	0x3a3db218	0.0007236316
86	0xbcd1dcda	-0.025618006
87	0x3c8aeb2c	0.016957842
88	0x3dd16811	0.10224927
89	0x3be4d633	0.0069835423
90	0xbccdd09a	-0.025123883
91	0x3b167c6b	0.0022962342
92	0x3d88edb2	0.06685962
93	0xbd0b91a3	-0.034074437
94	0xbe10eaea	-0.14152113
95	0x3d89bffb	0.067260705
96	0xbc5d410d	-0.013504279
97	0xbd5c3b0c	-0.05376725
98	0xbd672c23	-0.056438576
99	0x3db93464	0.09043196
100	0x3cfea2bb	0.031083455
101	0xbd8ce364	-0.06879309
102	0x3d607f46	0.054808877
103	0xbcad6303	-0.021165377
104	0xbc2d16b8	-0.010564499
105	0x3cdf37f7	0.027248366
106	0xbcb77451	-0.022394331
107	0x3d792d67	0.060834315
108	0xbe1ab378	-0.15107524
109	0xbd8a2452	-0.06745209
110	0xbbdd0221	-0.0067446386
111	0x3d3e11e2	0.046403773
112	0xbd5f3787	-0.054496314
113	0xbd35317a	-0.044236638
114	0xbb9c505d	-0.0047703222
115	0x3e0d6837	0.13809286
116	0x3cefb2be	0.029260036
117	0xbcc61e21	-0.024184288
118	0x3dfdb7e2	0.123885885
119	0xbc7d2796	-0.015451333
120	0x3cdace5c	0.026709728
121	0xbd147741	-0.036246542
122	0xbd9af951	-0.075670846
123	0x3cff6370	0.031175345
124	0x3c3bcc71	0.011462317
125	0x3c28504b	0.01027305
126	0x3cf044ed	0.029329741
127	0x3c5a7dc2	0.013335647
128	0x3e0b6c2f	0.13615488
129	0xbd806ac7	-0.06270366
130	0xbc330857	-0.010927281
131	0x3d8b3482	0.067971244
132	0xbc0e75c7	-0.0086950725
133	0xbc87b5f2	-0.01656625
134	0xbc9015f7	-0.017588599
135	0x3c8e03f9	0.017335879
136	0xbe04f9c4	-0.12985903
137	0xbda6cf9b	-0.08145066
138	0x3d3eb52d	0.0465595
139	0x3c8a0326	0.016847204
140	0x3df0f3d2	0.11765255
141	0xbbdf4ec7	-0.006814811
142	0xbd526cba	-0.05137322
143	0x3ce42bb1	0.027852865
144	0xbd3f244a	-0.046665467
145	0xbd7f9d40	-0.062405825
146	0xbd1c4d2f	-0.038159546
147	0xbb77f90c	-0.0037837652
148	0xbc2b78af	-0.010465785
149	0xbd0c3359	-0.034228656
150	0xbcfb04aa	-0.030641872
151	0xbcab83f6	-0.020936947
152	0x3da9338d	0.08261786
153	0x3d941a49	0.07231576
154	0xbcb98dce	-0.022650626
155	0x3d23972c	0.03993909
156	0x3d7f192c	0.062279865
157	0xbcb78ae3	-0.022405094
158	0xbc1a16c6	-0.009404844
159	0xbd20bd41	-0.039242987
160	0x3d021840	0.031761408
161	0xbd54f082	-0.05198718
162	0x3de7871e	0.113050684
163	0xbc32f5a0	-0.010922819
164	0x3c51a35e	0.012795297
165	0xbd27cf59	-0.040969227
166	0xbd91f9b7	-0.071277075
167	0x3d97d23d	0.07413147
168	0x3d9a59d4	0.075366646
169	0xbd6c17da	-0.057639934
170	0x3ce57e3c	0.028014295
171	0xbc61230f	-0.013741269
172	0xbd1aa32c	-0.03775327
173	0xbe1b9bac	-0.15196103
174	0x3d554ed9	0.052077148
175	0xbdec7dc1	-0.11547423
176	0xbd9788f7	-0.07399171
177	0x3daa1766	0.08305244
178	0xbd4b112f	-0.049576934
179	0xbd2bad9d	-0.041913617
180	0xbc93b2fd	-0.018029684
181	0x3dccf42f	0.10007512
182	0xbb82cda2	-0.0039917985
183	0x3c2df57a	0.010617608
184	0xbc57ba27	-0.013166941
185	0x3cee46f3	0.029086566
186	0x3a29d334	0.000647831
187	0xbd7a946c	-0.061176702
188	0x3d70c2f9	0.05877969
189	0xbc1ff594	-0.00976314
190	0xbd2bb754	-0.041922882
191	0x3b07af83	0.0020703978
192	0xbcc06da0	-0.023489773
193	0xbdb89473	-0.090126894
194	0xbdf7dbd0	-0.12102473
195	0xbe367fd5	-0.17822202
196	0xbce64418	-0.028108642
197	0x3d0bde3b	0.034147482
198	0x3d483ec4	0.048887983
199	0x3cead844	0.028667577
200	0xbdbc26ac	-0.091870636
201	0xbd24b0d4	-0.0402077
202	0x3d499e0b	0.049222987
203	0xbd34595b	-0.04403053
204	0x3bf57de4	0.007491814
205	0xbd4b4cbf	-0.049633738
206	0xbde4c9e6	-0.111713216
207	0xbe092a38	-0.13395011
208	0x3be8ecd8	0.007108312
209	0xbda431ec	-0.08017334
210	0x3d0a6ed3	0.033797096
211	0x3ceea61d	0.029131943
212	0x3d82176c	0.063521236
213	0xbb99b364	-0.0046905745
214	0xbb8e3069	-0.004339267
215	0xb9ae6de7	-0.0003326975
216	0x3cf0bdac	0.029387318
217	0xbd782738	-0.060584277
218	0xbcc243ae	-0.023713913
219	0xbd296559	-0.04135642
220	0xbd1f0f71	-0.038833085
221	0xbc80da04	-0.015728958
222	0xbd3dc65f	-0.04633176
223	0x3d54e68d	0.051977683
224	0x3cac6ba9	0.02104743
225	0x3b697877	0.003562478
226	0xbbd3a9ed	-0.0064594657
227	0x3d9e5999	0.07731933
228	0x3d6642e3	0.056216132
229	0x3d5a4cf3	0.05329604
230	0xbd938549	-0.072031565
231	0x3c9314a0	0.01795417
232	0x3e03f1a3	0.12885146
233	0xbad2f3d5	-0.0016094396
234	0xbd715a36	-0.058923922
235	0xbd0518b2	-0.032494254
236	0x3d9c8f9a	0.07644577
237	0xbdf89173	-0.12137117
238	0xbd9af43a	-0.07566114
239	0xbd3170fa	-0.043320633
240	0x3d6e7b1e	0.058222882
241	0xbdd0ad99	-0.10189361
242	0xbcd411be	-0.025887366
243	0x3c46d7e6	0.012136435
244	0x3dfb67ca	0.122756556
245	0x3b6ada13	0.0035835549
246	0xbda382ed	-0.079839565
247	0x3ceebdcd	0.029143238
248	0xbcad5c53	-0.021162188
249	0x3d7cbca9	0.061703358
250	0x3d1ba333	0.037997436
251	0xbdb135b0	-0.08652818
252	0xbd16e144	-0.036835924
253	0xbd844b98	-0.06459731
254	0x3d2f3b92	0.04278142
255	0xbd81a4e3	-0.06330278

walk_encoder.feature_encoder.bias f4 [24]
0	0x3cb9300a	0.022605915
1	0xbe1d20b8	-0.15344512
2	0x3dec9110	0.11551106
3	0x3e141e95	0.14464791
4	0xbe099076	-0.13434014
5	0xbb814c74	-0.0039458815
6	0x3d81d610	0.06339657
7	0x3de131fe	0.109958634
8	0xbda6b7ab	-0.08140501
9	0xbcedf189	-0.029045837
10	0x3d343570	0.043996274
11	0x3dd391ef	0.10330569
12	0x3c811ac9	0.015759842
13	0xbdaba2bc	-0.083806485
14	0x3d5b76cf	0.0535801
15	0xbc72e56e	-0.014825208
16	0xbd792c91	-0.060833517
17	0x3e1906df	0.14944027
18	0xbca261ac	-0.019821964
19	0xbb504489	-0.0031779131
20	0x3d6b454b	0.05743913
21	0x3d66c726	0.056342266
22	0x3e1f78f8	0.1557349
23	0x3dfd9b7c	0.12383172

walk_encoder.path_encoder.weight_ih_l0 f4 [72, 24]
0	0xbdb93524	-0.09043339
1	0x3d070d44	0.032971635
2	0x3cb9123a	0.022591699
3	0xbdc5da2f	-0.09660756
4	0xbd86e681	-0.06586934
5	0xbd827d68	-0.063715756
6	0x3e14e0e5	0.14538915
7	0x3d8b0e80	0.06789875
8	0xbe516f96	-0.20452723
9	0xbce819ce	-0.028332617
10	0x3d3a0630	0.045416057
11	0xbe016653	-0.1263669
12	0x3dbf37df	0.093368284
13	0xbe1de2d1	-0.15418555
14	0xbc92798b	-0.017880222
15	0xbcc075dc	-0.0234937
16	0x3e452cf8	0.19255435
17	0x3d18535c	0.037188873
18	0x3e0981d5	0.13428433
19	0x3db71394	0.08939281
20	0xbd6378d5	-0.055535156
21	0xbe1d661a	-0.1537098
22	0x3d8aa753	0.06770196
23	0xbda4b2c0	-0.08041906
24	0xbb6c20d4	-0.003603031
25	0x3d95a544	0.073069125
26	0xbd77679e	-0.06040155
27	0x3e6c86ab	0.23098247
28	0xbe7a66d1	-0.24453284
29	0xbdbdb012	-0.09262098
30	0xbdb590ab	-0.08865484
31	0xbc9fc145	-0.019501338
32	0xbce902a2	-0.028443638
33	0x3e410a2b	0.18851535
34	0x3e86db07	0.2633898
35	0xbc936079	-0.017990338
36	0x3e0064a9	0.12538399
37	0xbdf10db2	-0.1177019
38	0xbe47a36c	-0.19495934
39	0x3d030f88	0.031997234
40	0xbd8fe4a8	-0.070260346
41	0xbe1477dd	-0.14498849
42	0xbdbe909f	-0.09304928
43	0x3d3a48cc	0.04547958
44	0xbe1273bc	-0.14301962
45	0xbdbc4c3f	-0.0919423
46	0xbc3652e9	-0.011128166
47	0x3dfba273	0.12286844
48	0xb9b6fb78	-0.00034901104
49	0x3d78590b	0.060631793
50	0x3d3f8331	0.046755973
51	0x3deaae3b	0.11459013
52	0xbdea232e	-0.11432491
53	0xbe0b6412	-0.13612393
54	0x3d883aab	0.06651815
55	0xbdd7883e	-0.10524033
56	0xbc8ad42a	-0.01694687
57	0xbdc5d02b	-0.096588455
58	0xbd1dc506	-0.038517974
59	0xbc8cbe36	-0.017180543
60	0x3d0de9c2	0.034646757
61	0x3cbc44ea	0.02298208
62	0xbe6fbd74	-0.23412114
63	0x3d3cad59	0.046063755
64	0xbd597ea5	-0.053099293
65	0x3dcffe7f	0.10155963
66	0xbd9da7bf	-0.07698011
67	0xbcc6c492	-0.024263654
68	0xbe1c0ed2	-0.15240029
69	0x3dfb5159	0.12271375
70	0x3dd10e96	0.1020786
71	0x3ca180f2	0.019714806
72	0xbdcfb95a	-0.10142775
73	0x3d64f45d	0.055897105
74	0xbce8979c	-0.028392605
75	0x3d11dfeb	0.035613935
76	0xbde102af	-0.1098684
77	0x3d3b937e	0.045794956
78	0x3cf9ebc1	0.030507924
79	0x3d88b6f1	0.06675518
80	0x3dca7a55	0.09886614
81	0x3e0d0661	0.13771965
82	0xbd84b173	-0.06479158
83	0x3ce62be7	0.028097106
84	0x3d9f75b7	0.07786124
85	0xbc986abf	-0.018605588
86	0xbe7d1600	-0.24715424
87	0x3e1c037d	0.15235706
88	0xbe1f9595	-0.15584405
89	0x3dce1c37	0.10063975
90	0x3ca6b9d0	0.020352274
91	0xbd7f12ed	-0.06227391
92	0xbdad32e5	-0.08456973
93	0xbddff23a	-0.10934873
94	0x3ce29767	0.027660085
95	0x3d755470	0.05989498
96	0x3de55a43	0.11198857
97	0x3dab795c	0.08372757
98	0xbcf43805	-0.029811868
99	0x3cfb23e0	0.030656755
100	0xbd8141be	-0.063113675
101	0x3df489da	0.119403556
102	0xbd0e3bd2	-0.034725018
103	0xbdf4fec2	-0.11962654
104	0xbbd0371c	-0.006354226
105	0xbd99eb9b	-0.07515641
106	0x3d47804b	0.048706334
107	0x3d1ced87	0.03831246
108	0xba9d3d99	-0.0011996507
109	0xbe18cd4f	-0.14922069
110	0xbe179ab2	-0.14805105
111	0xbcba083e	-0.022709008
112	0xbe6d73db	-0.23188727
113	0x3e353724	0.17696816
114	0x3d28b78f	0.04119068
115	0xbde618a3	-0.11235168
116	0x3defabb0	0.11702669
117	0x3c910826	0.01770408
118	0xbe253fdc	-0.16137642
119	0x3e0083df	0.12550305
120	0x3e2ba141	0.16760732
121	0xbdc554dc	-0.09635326
122	0xba991f34	-0.0011682273
123	0xbe04e4ca	-0.12977901
124	0xbe2a9050	-0.16656613
125	0xbd3a8fb8	-0.045547217
126	0xbe1bb1b1	-0.15204503
127	0x3dc98a7c	0.09840867
128	0x3e1bb247	0.15204726
129	0xbe804648	-0.2505362
130	0x3c39f424	0.011349712
131	0x3cf26c5d	0.029592687
132	0xbd8674ab	-0.065652214
133	0x3d18a137	0.03726312
134	0x3de851f8	0.11343759
135	0xbd9a4f65	-0.075346746
136	0xbd0ad3b4	-0.033893302
137	0xbda24b26	-0.0792449
138	0xbe7016be	-0.23446175
139	0x3e4ada79	0.19809903
140	0x3e64e51c	0.22353023
141	0xbdf25e5a	-0.118344024
142	0x3d344169	0.044007692
143	0x3de3963f	0.111126415
144	0xbd64e061	-0.055878047
145	0x3b9993df	0.004686817
146	0x3d8a2ffe	0.06747435
147	0xbd861baf	-0.06548249
148	0xbc23b7d0	-0.009992555
149	0xbb027eaa	-0.0019911923
150	0x3d0acaa5	0.033884663
151	0xbce70da5	-0.028204748
152	0x3bc62749	0.0060471636
153	0xbd68649f	-0.056736585
154	0x3ce414b4	0.027841903
155	0xbdf62fae	-0.12020813
156	0xbd1f51c6	-0.038896345
157	0x3d5e7a50	0.054315865
158	0xbd649c2a	-0.055812992
159	0x3da0db7b	0.078543626
160	0x3d3b686d	0.045753885
161	0x3ca6deb1	0.02036986
162	0x3b918445	0.0044408166
163	0x3c0ffb03	0.008787873
164	0x3c055910	0.00813891
165	0xbd4f6764	-0.05063571
166	0x3d0da458	0.03458056
167	0xbc9c80e2	-0.019104425
168	0x3bf4260f	0.007450826
169	0x3cff44b9	0.0311607
170	0xbdef0218	-0.11670321
171	0xbd96fff4	-0.07373038
172	0x3d81be20	0.063350916
173	0x3db9161e	0.09037422
174	0x3e1c6582	0.15273097
175	0x3d9626fa	0.07331653
176	0xbdcafaca	-0.099111155
177	0xbd0313a2	-0.032001145
178	0x3c773438	0.0150881335
179	0x3e026d19	0.1273693
180	0x3e040646	0.12893018
181	0x3d3a71bc	0.04551862
182	0x3dd9cd37	0.10634845
183	0xbe110e60	-0.1416564
184	0x3e60bec6	0.21947774
185	0xbdb2af24	-0.08724812
186	0xbe0c38f0	-0.13693595
187	0x3ddcc18d	0.107791044
188	0x3e0517dc	0.12997383
189	0x3d2c5470	0.042072713
190	0xbe0b8427	-0.13624631
191	0x3cfc499b	0.030796817
192	0x3c402950	0.0117286
193	0x3e08528f	0.13312744
194	0xbd68487f	-0.056709763
195	0xbe18cf05	-0.14922722
196	0xbcb600ed	-0.022217238
197	0xbc9f4072	-0.01943991
198	0x3e4c33a7	0.19941579
199	0xbd6aa28d	-0.057283927
200	0xbcadb842	-0.021206025
201	0x3dddd0bd	0.10830829
202	0xbda6dce6	-0.08147602
203	0xbdff49b3	-0.12465229
204	0xbd7757f4	-0.060386613
205	0x3e54aa09	0.20767988
206	0x3d07f4a6	0.0331923
207	0x3d641855	0.055687267
208	0x3e22454c	0.15846747
209	0x3c96330d	0.01833489
210	0x3d2bc057	0.041931476
211	0x3e026a01	0.1273575
212	0xbdc7e5c1	-0.09760619
213	0xbe81b8a5	-0.25336185
214	0x3de5b02a	0.11215241
215	0xbe2a79ba	-0.16647997
216	0x3deec3e5	0.11658458
217	0xbd5c75f1	-0.053823415
218	0x3e4cbf36	0.19994816
219	0xbd1c72b8	-0.03819534
220	0x3c6181d6	0.013763865
221	0x3d8c28d2	0.06843723
222	0x3e41ae91	0.18914248
223	0xbd64fa4a	-0.055902757
224	0x3daa53b9	0.0831675
225	0x3e46f8fe	0.1943092
226	0xbd18363c	-0.037161097
227	0x3de5baac	0.112172455
228	0xbe28d01d	-0.16485639
229	0x3e41dfa6	0.18932971
230	0x3d2abf77	0.0416865
231	0x3d8d7065	0.06906203
232	0xbe05cee2	-0.13067201
233	0x3e066cdc	0.13127464
234	0x3cd90a91	0.026494296
235	0xbb4a2f06	-0.0030850782
236	0xbd31c6b6	-0.043402396
237	0xbde9a073	-0.114075564
238	0x3d242b36	0.04008027
239	0x3dc5d2df	0.09659361
240	0xbd14b037	-0.036300864
241	0x3cd85ed3	0.026412403
242	0xbd539d39	-0.05166361
243	0xbcc9ce9e	-0.024634656
244	0x3b6b63fe	0.0035917754
245	0x3bbe9321	0.005815879
246	0xbc810bad	-0.015752638
247	0x3c7bcf78	0.015369289
248	0xbcdcbcb7	-0.026945455
249	0xbbc04c8f	-0.0058685015
250	0x3da6d405	0.08145908
251	0x3d1c7a4f	0.03820258
252	0xbd39ae86	-0.045332454
253	0x3c0c00b1	0.008545087
254	0xbd5c2f62	-0.053756125
255	0x3ccc0be1	0.024908008

walk_encoder.path_encoder.weight_hh_l0 f4 [72, 24]
0	0xbe00f006	-0.12591562
1	0xbe2d775d	-0.16940065
2	0x3dae39f3	0.08507147
3	0x3d34f772	0.044181295
4	0xbb99815e	-0.004684611
5	0x3d974752	0.0738665
6	0x3d0c30bc	0.034226164
7	0xbc3e9078	-0.011631124
8	0x3d8a1daa	0.06743939
9	0xbda2c455	-0.079476036
10	0xbe0074f8	-0.1254462
11	0xbe00ca03	-0.12577061
12	0xbd8d20a8	-0.06890994
13	0xbd20d3a0	-0.03926432
14	0x398bd218	0.00026668678
15	0x3e803f80	0.25048447
16	0xbdbba843	-0.09162953
17	0x3cf0d7de	0.029399808
18	0x3d7192e2	0.05897797
19	0xbce3ccb5	-0.027807573
20	0xbdd149b2	-0.102191344
21	0x3b191356	0.0023357472
22	0xbd1db724	-0.038504735
23	0xbdabd4aa	-0.08390172
24	0x3c4dfedd	0.012572971
25	0xbe448c78	-0.1919421
26	0xbc8037b3	-0.01565156
27	0x3e1ed5ae	0.155112
28	0x3db91aa6	0.09038286
29	0xbd52fcb5	-0.05151053
30	0x3db00315	0.08594338
31	0xbbbc2a1d	-0.005742325
32	0xbe611098	-0.21978986
33	0xbd0857ba	-0.033286788
34	0x3cf743fe	0.030183788
35	0xbe10c011	-0.14135768
36	0x3d13b9b2	0.036065765
37	0xbe28c221	-0.16480304
38	0x3e824e4b	0.25450358
39	0xbaa00036	-0.0012207094
40	0x3d231240	0.039812326
41	0xbd91f1a7	-0.0712617
42	0x3d9332ff	0.07187461
43	0xbe6689c3	-0.2251349
44	0x3ce0f328	0.027459696
45	0x3e47ad3d	0.19499679
46	0xbe2c3e4e	-0.16820642
47	0xbe02e633	-0.12783127
48	0xbe0858ea	-0.13315168
49	0xbde06842	-0.109573856
50	0x3d2a3ff2	0.04156489
51	0x3d8939ee	0.06700502
52	0x3d252869	0.04032174
53	0xbdc3b67e	-0.09556292
54	0xbd824fee	-0.06362902
55	0xbb2bd18a	-0.0026217424
56	0xbcb8deb0	-0.022567123
57	0x3b64c4c9	0.0034907332
58	0xbd6e07c8	-0.05811289
59	0xbe12bbd6	-0.14329466
60	0xbdc3e67d	-0.095654465
61	0xbc4a2959	-0.01233896
62	0x3e24a544	0.16078669
63	0x3dee4cbf	0.11635732
64	0xbde68e35	-0.112575926
65	0xbb4dd37f	-0.003140658
66	0xbbb99219	-0.005663168
67	0xbd0260e9	-0.031830702
68	0x3c1ab0d4	0.009441573
69	0xbc768253	-0.01504572
70	0xbdae16f7	-0.08500474
71	0xbe0fe474	-0.14051992
72	0x3e04b2e0	0.1295886
73	0xbdea83a1	-0.114508875
74	0x3d167531	0.036732856
75	0x3d524c30	0.05134219
76	0x3dfc710a	0.12326248
77	0xbe06dff8	-0.13171375
78	0x3dae452c	0.08509287
79	0xbd5ab50f	-0.053395327
80	0xbd215e98	-0.039396852
81	0x3bb83e99	0.0056226966
82	0x3d2c9dc3	0.04214264
83	0xbd885af9	-0.06657977
84	0xbdcf7784	-0.10130218
85	0xbd1d33e7	-0.038379576
86	0x3d443f88	0.04791215
87	0xbd164d22	-0.036694653
88	0x3dde930e	0.10867892
89	0x3db1b4f8	0.08677095
90	0x3d4a0f30	0.04933089
91	0xbce700e8	-0.028198674
92	0x3e0ab7f3	0.13546734
93	0xbd23f9c7	-0.040033128
94	0xbde73da4	-0.11291054
95	0xbe0a2989	-0.13492407
96	0xbcdff0fb	-0.027336588
97	0xbde2638c	-0.11054143
98	0x3d9b7abc	0.07591769
99	0x3e74b516	0.23897204
100	0x3d81b3ee	0.06333147
101	0x3cf814a1	0.030283274
102	0x3e3b058e	0.18263838
103	0x3da77c5d	0.08178017
104	0x3d321b74	0.043483213
105	0xbe47913b	-0.19488995
106	0x3d742950	0.05960971
107	0xbd3176d2	-0.043326207
108	0x3e376ef1	0.17913415
109	0x3dcd477f	0.100234024
110	0x3d1aa25d	0.037752498
111	0xbced0b30	-0.028935999
112	0x3d935951	0.0719477
113	0x3d9c9ab4	0.07646695
114	0xbdabf879	-0.08397002
115	0x3dfc0e9e	0.123074755
116	0x3dcf08c0	0.10109091
117	0x3df76c3d	0.12081192
118	0xbdb04da3	-0.08608558
119	0xbe22079d	-0.15823217
120	0xbe22a421	-0.15882923
121	0x3b87c830	0.0041437373
122	0xbd1770e4	-0.036972895
123	0xbd569286	-0.05238583
124	0x3d2bd868	0.041954428
125	0xbe61abc9	-0.22038187
126	0x3d3911b1	0.045182887
127	0x3dd757b0	0.10514772
128	0x3d306f92	0.04307515
129	0xbd982dce	-0.074306116
130	0xbe5caf1e	-0.21551177
131	0x3c53d01f	0.012928038
132	0x3ca36fd5	0.019950787
133	0xbcafe558	-0.021471664
134	0xbd8762a5	-0.06610612
135	0xbdc10faa	-0.09426816
136	0xbe0125b4	-0.12612039
137	0xbcbaca87	-0.02280165
138	0xbe21ae0d	-0.15789051
139	0x3b4c5ad4	0.0031182067
140	0xbe32d039	-0.17462243
141	0x3cd5e3e5	0.026109645
142	0xbd235930	-0.039879978
143	0xbd43c246	-0.047792695
144	0xbd668550	-0.05627948
145	0xbd291e81	-0.041288856
146	0x3db43e91	0.08800996
147	0xbd727e1f	-0.05920231
148	0x3d11f630	0.035635173
149	0x3b82b840	0.0039892495
150	0xbd39c116	-0.045350157
151	0xbd1af5d3	-0.037832092
152	0xbc2b8446	-0.010468548
153	0xbd5bee9f	-0.053694364
154	0x3cbe142a	0.023202974
155	0x3d6b5b21	0.057459954
156	0x3c7a21b8	0.015266828
157	0xbd9762f5	-0.073919214
158	0xbc67adb0	-0.014140531
159	0x3d69c4a3	0.057072293
160	0x3d3df4fb	0.04637621
161	0xbc71ef8b	-0.014766584
162	0x3d3466ee	0.044043474
163	0xbd2500fb	-0.04028414
164	0xbd83fa94	-0.06444278
165	0xbda50640	-0.08057833
166	0xbd59b9a2	-0.05315555
167	0xbcd9d83c	-0.026592366
168	0xbbde8ed3	-0.0067919283
169	0xbdfaf60e	-0.122539625
170	0x3d5010c1	0.050797228
171	0xbe13c0ac	-0.14428967
172	0x3d5cfb6e	0.05395072
173	0xbd53a96e	-0.051675253
174	0xbd2adb28	-0.04171291
175	0xbd8ca518	-0.06867427
176	0x3d8f050b	0.06983384
177	0xbc0e8005	-0.008697514
178	0xbdeaf047	-0.114716105
179	0x3de0694f	0.10957586
180	0xbaa4b70a	-0.0012566757
181	0xbd8e95ca	-0.06962164
182	0xbd1d0a39	-0.038339827
183	0xbd13914c	-0.036027238
184	0x3c508e8e	0.0127293
185	0xbca420a1	-0.02003509
186	0x3b97defe	0.004634737
187	0x3dc3c961	0.09559894
188	0x3d0fe051	0.035126034
189	0xbce5b08b	-0.028038284
190	0x3e1274f1	0.14302422
191	0x3d35747b	0.044300538
192	0x3d2fc880	0.04291582
193	0x3e0d8451	0.13820006
194	0x3dcba6b3	0.09943905
195	0xbe141ece	-0.14464876
196	0x3d027db9	0.03185818
197	0xbda40d16	-0.080103084
198	0x3c458f98	0.012058161
199	0xbb8ab963	-0.0042335256
200	0x3d9ef0fe	0.07760809
201	0x3d7d0ee8	0.061781794
202	0xbd8c484d	-0.06849728
203	0xbd8dca12	-0.069233075
204	0xbabc2b9b	-0.0014356257
205	0x3da121e1	0.0786779
206	0xbdb80745	-0.089857616
207	0xbd7a6db0	-0.061139762
208	0x3e246527	0.16054212
209	0x3b946668	0.0045288093
210	0x3d6ef389	0.058337722
211	0xbd8dd5f4	-0.06925574
212	0xbdd62588	-0.10456377
213	0x3d799eca	0.06094245
214	0xbce53baa	-0.027982552
215	0xbd32dfe7	-0.04367056
216	0x3d8cca2e	0.068745
217	0x3e04de2a	0.12975374
218	0xbd499aaa	-0.049219765
219	0xbe38223c	-0.1798181
220	0x3c8541a0	0.016266644
221	0x3bdf5451	0.006815471
222	0xbdbc0c82	-0.09182073
223	0xbe1a787a	-0.1508502
224	0x3dedf648	0.1161924
225	0x3d2f1a9c	0.042749986
226	0x3e044701	0.12917711
227	0xbde1c730	-0.1102432
228	0xbbbac934	-0.005700255
229	0x3b288dc8	0.0025719274
230	0xbd5d23a8	-0.053989083
231	0xbd7efcaf	-0.062252697
232	0x3d74cf3c	0.059767947
233	0xbd17d643	-0.03706957
234	0xbbf0cfe2	-0.0073490003
235	0x3d770fed	0.060317922
236	0xbaf71eb4	-0.0018853755
237	0x3d697952	0.057000466
238	0xbdcea665	-0.10090331
239	0xbe33e147	-0.17566405
240	0xbd804f2d	-0.062651016
241	0xbe00e066	-0.12585601
242	0x3dc6f98e	0.097155675
243	0xbc917981	-0.017758133
244	0xbd090351	-0.03345043
245	0xbcf6442c	-0.030061804
246	0xbd48df82	-0.04904128
247	0x3d00cfb1	0.03144807
248	0xbc4f208e	-0.012642039
249	0x3d029db7	0.03188869
250	0xbde6b201	-0.1126442
251	0xbd3aa255	-0.04556497
252	0xbd399e9b	-0.045317274
253	0x3b7b5a1c	0.003835327
254	0x3dcdb854	0.100449234
255	0x3acbb4a1	0.0015541503

walk_encoder.path_encoder.bias_ih_l0 f4 [72]
0	0x3d7c952c	0.0616657
1	0xbc26d01d	-0.010181454
2	0xbb84a2fb	-0.004047749
3	0x3e129cc0	0.14317608
4	0x3dde431d	0.108526446
5	0x3ddef9e6	0.10887508
6	0xbd3b0fa1	-0.0456692
7	0x3cbc2be1	0.022970142
8	0x3e15d694	0.14632636
9	0xbba9ac44	-0.0051780064
10	0xbe146f73	-0.1449564
11	0x3e2954d3	0.16536264
12	0xbdc8c1ce	-0.0980259
13	0xbe06b75b	-0.13155882
14	0xbd0892f9	-0.03334329
15	0x3dfa2b2c	0.12215266
16	0x3de11939	0.10991139
17	0x3c3adf0f	0.01140572
18	0xbdb4df76	-0.08831684
19	0x3dc66a69	0.09688265
20	0xbcb8d624	-0.022563048
21	0x3d5e839d	0.054324735
22	0x3e0af425	0.13569696
23	0xbbd51aeb	-0.006503453
24	0x3e29c406	0.16578683
25	0x3bf04117	0.007331978
26	0xbd96b9b8	-0.07359642
27	0x3d7c4071	0.061584894
28	0x3d998467	0.07495957
29	0xbd1c9fa2	-0.038238175
30	0x3c542634	0.012948561
31	0xbd48b46d	-0.049000192
32	0x3ddfce3f	0.1092801
33	0x3e2ce07a	0.16882506
34	0x3e531ce3	0.20616488
35	0xbde1affa	-0.11019893
36	0xbd2e1b84	-0.04250671
37	0x3e417f7f	0.18896292
38	0x3e91e6fc	0.2849654
39	0x3dddddf6	0.10833351
40	0x3e4e640a	0.2015535
41	0x3d849358	0.06473416
42	0x3dc6b0e2	0.097017065
43	0x3db7038e	0.08936225
44	0x3d6d15bc	0.057882056
45	0x3e29328c	0.16523188
46	0x3df1d29f	0.11807751
47	0x3e0f0aa7	0.13968907
48	0x3e5516cd	0.20809479
49	0xbd754de2	-0.059888728
50	0xbe72972e	-0.23690483
51	0xbdcd9315	-0.10037819
52	0xbd9f226b	-0.077702366
53	0xbe658128	-0.2241255
54	0x3e9afa05	0.30268875
55	0x3d141226	0.03615012
56	0x3e069eb5	0.1314648
57	0xbe628174	-0.22119695
58	0x3e669537	0.22517858
59	0xbddbc17f	-0.10730266
60	0xbd2a6125	-0.04159655
61	0xbe489761	-0.19588996
62	0x3d757b7c	0.059932217
63	0xbe85bca2	-0.26120478
64	0xbdcf4cd6	-0.10122077
65	0xbe6a1fd4	-0.22863704
66	0x3cf9d2e4	0.030496068
67	0xbe43bf2a	-0.19115892
68	0xbe24c07e	-0.16089055
69	0x3e85044d	0.25979844
70	0xbe1b969f	-0.15194176
71	0xbe13adcb	-0.14421766

walk_encoder.path_encoder.bias_hh_l0 f4 [72]
0	0x3bda0ac8	0.0066541173
1	0xbdbe0441	-0.09278155
2	0xbd5dfaf1	-0.054194394
3	0x3b18f176	0.0023337281
4	0x3dd06129	0.10174782
5	0x3cae2308	0.021256939
6	0xbd1fddea	-0.039029993
7	0x3d24946d	0.040180612
8	0x3e17f544	0.14839655
9	0x3d58298c	0.052773997
10	0xbdb7405c	-0.089478225
11	0x3e62a8a8	0.2213465
12	0x3e5de3b5	0.21668895
13	0xbd096352	-0.033541985
14	0xbd3b04f7	-0.04565903
15	0x3e52e378	0.20594585
16	0x3db550b9	0.08853287
17	0x3dcffbcb	0.101554476
18	0x3bbc6b0d	0.005750066
19	0xbc299b17	-0.010351918
20	0xbce0bb6a	-0.027433116
21	0xbe090e95	-0.13384469
22	0x3e0d5d23	0.1380506
23	0xbe84f60c	-0.2596897
24	0xb78dfa00	-1.6924925e-05
25	0x3e858f20	0.26085758
26	0x3e5b5237	0.21418081
27	0x3ed44859	0.41461447
28	0xbceced11	-0.028921636
29	0x3e354b80	0.17704582
30	0x3e91b3c9	0.28457478
31	0xbd745ac7	-0.059656885
32	0xbc0bb72b	-0.008527557
33	0x3e636a3d	0.22208495
34	0x3e384242	0.17994025
35	0x3e6ae02a	0.22937074
36	0x3df76ce2	0.120813146
37	0x3e0a15c8	0.13484871
38	0x3e99ecc6	0.30063456
39	0x3e83eef1	0.25768235
40	0x3e64984d	0.22323723
41	0xbc72e51f	-0.014825135
42	0x3e8cb8a6	0.27484626
43	0x3c6f2d2e	0.014598174
44	0x3d785ab0	0.06063336
45	0x3e34e1e5	0.17664297
46	0xbd98bb4d	-0.074576
47	0xbab31b94	-0.0013664835
48	0xbe0832dd	-0.13300653
49	0xbd1b29da	-0.03788171
50	0x3d2be3fd	0.041965473
51	0xbe1c02f9	-0.15235509
52	0x3e617673	0.22017841
53	0x3e2a7918	0.16647756
54	0x3ddc83f2	0.10767354
55	0xbe0dcea8	-0.13848364
56	0x3ed65f3a	0.41869527
57	0xbd61e909	-0.05515388
58	0x3c93e1fe	0.018052097
59	0x3e1baf5f	0.15203618
60	0x3d506320	0.050875783
61	0x3c82e5ef	0.015978782
62	0xbd6d0211	-0.0578633
63	0xbcacf11b	-0.021111062
64	0x3dba0f5c	0.09084961
65	0xbe0ee691	-0.13955142
66	0x3e6f936c	0.2339608
67	0xbd9b1752	-0.07572807
68	0x3e2fcc8e	0.17167875
69	0x3dc30642	0.09522678
70	0xbd66a54c	-0.056309983
71	0xbdac5ca6	-0.08416109

bn.weight f4 [24]
0	0x3f800000	1.0
1	0x3f800000	1.0
2	0x3f800000	1.0
3	0x3f800000	1.0
4	0x3f800000	1.0
5	0x3f800000	1.0
6	0x3f800000	1.0
7	0x3f800000	1.0
8	0x3f800000	1.0
9	0x3f800000	1.0
10	0x3f800000	1.0
11	0x3f800000	1.0
12	0x3f800000	1.0
13	0x3f800000	1.0
14	0x3f800000	1.0
15	0x3f800000	1.0
16	0x3f800000	1.0
17	0x3f800000	1.0
18	0x3f800000	1.0
19	0x3f800000	1.0
20	0x3f800000	1.0
21	0x3f800000	1.0
22	0x3f800000	1.0
23	0x3f800000	1.0

bn.bias f4 [24]
0	0x00000000	0.0
1	0x00000000	0.0
2	0x00000000	0.0
3	0x00000000	0.0
4	0x00000000	0.0
5	0x00000000	0.0
6	0x00000000	0.0
7	0x00000000	0.0
8	0x00000000	0.0
9	0x00000000	0.0
10	0x00000000	0.0
11	0x00000000	0.0
12	0x00000000	0.0
13	0x00000000	0.0
14	0x00000000	0.0
15	0x00000000	0.0
16	0x00000000	0.0
17	0x00000000	0.0
18	0x00000000	0.0
19	0x00000000	0.0
20	0x00000000	0.0
21	0x00000000	0.0
22	0x00000000	0.0
23	0x00000000	0.0

bn.running_mean f4 [24]
0	0x00000000	0.0
1	0x00000000	0.0
2	0x00000000	0.0
3	0x00000000	0.0
4	0x00000000	0.0
5	0x00000000	0.0
6	0x00000000	0.0
7	0x00000000	0.0
8	0x00000000	0.0
9	0x00000000	0.0
10	0x00000000	0.0
11	0x00000000	0.0
12	0x00000000	0.0
13	0x00000000	0.0
14	0x00000000	0.0
15	0x00000000	0.0
16	0x00000000	0.0
17	0x00000000	0.0
18	0x00000000	0.0
19	0x00000000	0.0
20	0x00000000	0.0
21	0x00000000	0.0
22	0x00000000	0.0
23	0x00000000	0.0

bn.running_var f4 [24]
0	0x3f800000	1.0
1	0x3f800000	1.0
2	0x3f800000	1.0
3	0x3f800000	1.0
4	0x3f800000	1.0
5	0x3f800000	1.0
6	0x3f800000	1.0
7	0x3f800000	1.0
8	0x3f800000	1.0
9	0x3f800000	1.0
10	0x3f800000	1.0
11	0x3f800000	1.0
12	0x3f800000	1.0
13	0x3f800000	1.0
14	0x3f800000	1.0
15	0x3f800000	1.0
16	0x3f800000	1.0
17	0x3f800000	1.0
18	0x3f800000	1.0
19	0x3f800000	1.0
20	0x3f800000	1.0
21	0x3f800000	1.0
22	0x3f800000	1.0
23	0x3f800000	1.0

bn1.weight f4 [48]
0	0x3f892f9a	1.0717652
1	0x3f974ff3	1.1821274
2	0x3f7c018f	0.9843988
3	0x3f801760	1.0007133
4	0x3f99d257	1.2017316
5	0x3f741707	0.95347637
6	0x3f9415f4	1.15692
7	0x3f8b02dd	1.0860249
8	0x3f89acec	1.0755897
9	0x3f927a0a	1.1443493
10	0x3f78886d	0.9708317
11	0x3f99d9a7	1.2019547
12	0x3f8cfc2d	1.1014458
13	0x3f9bf953	1.2185463
14	0x3f800b3d	1.000343
15	0x3f8ec0d9	1.1152602
16	0x3f8c9e91	1.0985891
17	0x3f8ebfc1	1.1152269
18	0x3f97073b	1.1799082
19	0x3f9805c7	1.1876763
20	0x3f96472a	1.1740468
21	0x3f95153a	1.1647103
22	0x3f8f1d5e	1.1180837
23	0x3f91ee9d	1.1400944
24	0x3f85b783	1.0446628
25	0x3f92feaa	1.1483967
26	0x3f86137e	1.0474699
27	0x3f926d23	1.1439556
28	0x3f8971de	1.0737875
29	0x3f87d3ef	1.0611552
30	0x3f944c40	1.158577
31	0x3f93af8e	1.153795
32	0x3f944eb2	1.1586516
33	0x3f998a93	1.1995414
34	0x3f9a1b8b	1.2039655
35	0x3f8c2ca7	1.0951127
36	0x3f94e8ae	1.1633508
37	0x3f803942	1.0017474
38	0x3f8f429f	1.1192206
39	0x3f83a018	1.0283232
40	0x3f90a5bb	1.1300577
41	0x3f897742	1.073952
42	0x3f9dd3d4	1.233027
43	0x3f889fe9	1.0673801
44	0x3f9250c0	1.1430893
45	0x3f8d386c	1.1032844
46	0x3f9be305	1.2178656
47	0x3f848ece	1.035608

bn1.bias f4 [48]
0	0xbd42579f	-0.047446843
1	0x3e529a94	0.2056678
2	0xbbff60a8	-0.0077935047
3	0x3d7030fe	0.058640473
4	0x3e48f3fa	0.1962432
5	0xbc20439a	-0.0097817425
6	0x3dd39103	0.10330393
7	0x3d7c85ae	0.061650924
8	0x3e0cc29a	0.1374611
9	0x3e41fd46	0.18944272
10	0x3c1533ad	0.009106559
11	0x3e2ee31a	0.1707882
12	0x3d7202c8	0.059084684
13	0x3e3a7ff3	0.18212871
14	0x3ce791af	0.02826771
15	0x3ddf8e57	0.10915821
16	0x3c4c0375	0.012451996
17	0x3ceebb12	0.029141936
18	0x3e53b393	0.20673971
19	0x3e4bb154	0.19891864
20	0x3e1e394a	0.15451542
21	0x3e3cdee2	0.18444398
22	0x3c5be49a	0.013421202
23	0x3de9f3f0	0.114234805
24	0x3d69925d	0.05702435
25	0x3e273f25	0.16332681
26	0x3dbddccc	0.09270629
27	0x3c9838ea	0.018581826
28	0x3d95c8fd	0.07313726
29	0x3c0567d2	0.0081424285
30	0x3dc810db	0.0976884
31	0x3d2e3b3f	0.04253697
32	0x3e1b0a6b	0.15140693
33	0x3e26fd12	0.16307476
34	0x3d568afe	0.052378647
35	0x3d87c5db	0.06629535
36	0x3e358859	0.17727794
37	0x3bfc4350	0.007698454
38	0x3e192b4b	0.14957921
39	0xbd703c8a	-0.058651485
40	0x3e5334ce	0.20625612
41	0x3d9f2990	0.07771599
42	0x3e291fd3	0.16516046
43	0x3dbb2baa	0.09139188
44	0x3e2912cc	0.16511077
45	0x3db6f0c5	0.08932642
46	0x3e251f64	0.16125256
47	0x3d61397c	0.054986462

bn1.running_mean f4 [48]
0	0x3e5adac7	0.2137252
1	0x3ecff1ec	0.4061426
2	0x3dcac4ec	0.09900841
3	0x3d456d1a	0.04819975
4	0xbe2a7928	-0.1664778
5	0x3cfff807	0.031246198
6	0xbd03c14e	-0.03216677
7	0x3c2d6b63	0.010584685
8	0xbe42cc70	-0.19023299
9	0xbe34e66d	-0.17666025
10	0x3db1f306	0.08688931
11	0xbdac9675	-0.08427135
12	0x3e890d02	0.26767737
13	0x3dd0c220	0.101932764
14	0xbec5d91c	-0.38642204
15	0xbe13e52b	-0.1444289
16	0xbebd880a	-0.37017852
17	0xbe54b58c	-0.2077238
18	0x3e822618	0.25419688
19	0xbcb8e4b9	-0.022570001
20	0xbd5ecfae	-0.054397278
21	0xbeafa05d	-0.34302035
22	0xbddcdfd4	-0.10784879
23	0x3e040c12	0.1289523
24	0xbc070c38	-0.008242659
25	0x3dd68b3e	0.10475777
26	0xbdb2c1cd	-0.08728371
27	0xbd84d773	-0.06486406
28	0x3e555bf4	0.20835859
29	0x3c92b247	0.017907275
30	0xbe1b65a0	-0.15175486
31	0xbc9192bc	-0.017770164
32	0x3ec6d353	0.38833103
33	0xbd932116	-0.07184045
34	0xbde5f6f4	-0.11228743
35	0xbd22574b	-0.03963403
36	0xbde3fa9f	-0.111317866
37	0xbe6884ad	-0.22706862
38	0xbd63c90e	-0.055611663
39	0x3ebcbded	0.36863652
40	0x3d88530b	0.06656464
41	0xbe41a9d3	-0.18912439
42	0xbdbbef79	-0.09176535
43	0xbd948729	-0.07252342
44	0x3c3a1810	0.011358276
45	0x3e672926	0.2257429
46	0x3ac31617	0.0014883903
47	0xbeaa0f4b	-0.33214793

bn1.running_var f4 [48]
0	0x3d237e58	0.039915413
1	0x3d296ff1	0.04136652
2	0x3d3b05a0	0.04565966
3	0x3d109406	0.035297416
4	0x3d19925e	0.037493102
5	0x3d38a691	0.045080725
6	0x3d2df307	0.042468097
7	0x3d3f97c2	0.046775587
8	0x3d56d94c	0.052453324
9	0x3d26d706	0.040732406
10	0x3d4f3dd8	0.05059609
11	0x3d238715	0.039923746
12	0x3d44525c	0.047930107
13	0x3d2f5ddb	0.042814117
14	0x3d390c3e	0.04517769
15	0x3d4978e5	0.04918756
16	0x3d726583	0.05917884
17	0x3d7d6ac3	0.061869394
18	0x3d607a04	0.054803863
19	0x3d13a997	0.036050405
20	0x3d4cc42b	0.049991768
21	0x3d6d5a17	0.057947244
22	0x3d88260e	0.06647883
23	0x3cf61579	0.030039536
24	0x3d0caf28	0.03434673
25	0x3cb7c072	0.022430632
26	0x3d46ea98	0.04856357
27	0x3d1ea2c4	0.038729444
28	0x3d5b1d05	0.053494472
29	0x3d0b0ed7	0.0339497
30	0x3d51e34a	0.05124215
31	0x3d56ef43	0.05247427
32	0x3d438903	0.047738086
33	0x3d14c680	0.036322117
34	0x3d1591cc	0.036515996
35	0x3d35ccbf	0.044384714
36	0x3d5bc2d4	0.0536526
37	0x3d4d5ac7	0.0501354
38	0x3d659f8c	0.05606036
39	0x3d23166c	0.039816305
40	0x3d32a48d	0.04361396
41	0x3d59a179	0.053132508
42	0x3d14d743	0.036338102
43	0x3d314c24	0.043285504
44	0x3d671b08	0.056422263
45	0x3da9e9e6	0.08296566
46	0x3d24e234	0.040254787
47	0x3d97eb8a	0.074179724

fc1.weight f4 [48, 24]
0	0x3dd928b1	0.106034644
1	0x3e5da32f	0.21644281
2	0x3c90b160	0.017662704
3	0x3e12a707	0.14321528
4	0x3dd76da3	0.105189584
5	0x3e4d46fa	0.20046607
6	0x3d934cb0	0.07192361
7	0xbe5da78d	-0.21645947
8	0x3db31675	0.08744518
9	0x3d0c1390	0.034198344
10	0xbce2ab98	-0.027669713
11	0x3e597070	0.21234298
12	0xbd0104bd	-0.03149866
13	0xbe144bb3	-0.14482002
14	0x3e06d5c7	0.13167487
15	0x3db1f82f	0.086899154
16	0x3c94809f	0.018127738
17	0x3e3dc308	0.1853143
18	0x3df613de	0.12015508
19	0x3c426efd	0.011867282
20	0x3d2ba94c	0.0419095
21	0x3e87dae6	0.26534194
22	0xbe37d691	-0.17952944
23	0x3e16a316	0.1471065
24	0x3d9b1f75	0.07574359
25	0x3dd3d264	0.10342863
26	0xbd177db8	-0.03698513
27	0xbce2ebdf	-0.027700363
28	0x3df07bcf	0.117423646
29	0x3b0d3882	0.0021548574
30	0xbe16d8e9	-0.14731182
31	0xbd2902d0	-0.041262448
32	0x3d9a36f1	0.075300105
33	0xbcb678b7	-0.022274358
34	0x3d03ac85	0.03214695
35	0x3e63caa9	0.22245277
36	0x3c5d5b5b	0.01351055
37	0xbe86378f	-0.26214263
38	0xbe38df7e	-0.18054006
39	0xbe1365c5	-0.14394291
40	0x3caa7847	0.020809306
41	0xbe1225ec	-0.14272279
42	0x3e3f6384	0.18690306
43	0x3c6260a8	0.01381699
44	0xbdcdc77a	-0.10047813
45	0x3e51c54c	0.20485419
46	0xbe50b7e7	-0.20382653
47	0xbd20499d	-0.039132703
48	0xbda87e18	-0.082271755
49	0x3e23d45e	0.1599898
50	0x3c7626ac	0.0150238685
51	0xbdde73e0	-0.10861945
52	0x3d9b2755	0.07575861
53	0xbe28b125	-0.16473825
54	0xbd35d00a	-0.044387855
55	0x3e8babc4	0.27279484
56	0x3deb7737	0.11497348
57	0x3ddce85a	0.10786505
58	0x3e18ed75	0.14934333
59	0x3e0edcbd	0.13951392
60	0x3da07134	0.07834092
61	0xbd36b63f	-0.044607397
62	0xbdb98059	-0.090576835
63	0x3e36dacd	0.17856903
64	0xbd62fedc	-0.055418834
65	0xbe48266e	-0.1954591
66	0x3d6e919e	0.05824434
67	0xbde0c2db	-0.10974666
68	0xbe8e9a41	-0.2785206
69	0xbd9d31f8	-0.076755464
70	0x3bcfe345	0.0063442313
71	0x3de0c7fb	0.10975643
72	0xbe27a177	-0.16370188
73	0xbd5e5c5d	-0.054287303
74	0xbdc63665	-0.09678344
75	0xbdd1b0f9	-0.10238833
76	0x3d745300	0.059649467
77	0xbe429d96	-0.19005427
78	0xba107728	-0.000551092
79	0xbe01e9f9	-0.1268691
80	0x3e13558f	0.14388107
81	0x3a75a0f3	0.00093699916
82	0xbe009762	-0.12557748
83	0x3e591298	0.21198499
84	0xbe3e2732	-0.1856964
85	0xbc6a74de	-0.01431009
86	0xbe7d9a40	-0.24765873
87	0x3d4101b0	0.04712075
88	0xbdfcc1a2	-0.1234162
89	0xbca66902	-0.020313744
90	0x3d01abee	0.031658106
91	0xbe0d60f4	-0.13806516
92	0x3dbc2c47	0.09188133
93	0xbe19b2b6	-0.15009579
94	0x3e138e43	0.14409737
95	0xbda88468	-0.082283795
96	0xbce98378	-0.028505072
97	0xbe38ac6d	-0.18034525
98	0x3d40ce88	0.047071964
99	0x3e188ffa	0.14898673
100	0xbe631fda	-0.22180119
101	0x3d563448	0.052295953
102	0x3d8ee0b2	0.06976451
103	0x3cdf3790	0.027248174
104	0xbe1fbe4d	-0.15599938
105	0xbd9d6552	-0.07685341
106	0x3e33d37a	0.1756114
107	0xbdb7cf8b	-0.089751326
108	0x3e42e87d	0.19034
109	0xbc475028	-0.012165107
110	0x3e23d283	0.15998273
111	0x3d0ea8af	0.034828838
112	0xbdcd7ea5	-0.10033921
113	0xbe4a107c	-0.19732851
114	0xbe08906a	-0.1333634
115	0x3e6a305a	0.22870007
116	0xbde2261e	-0.110424265
117	0x3e48de77	0.19616114
118	0x3d6854cd	0.056721497
119	0x3e58da83	0.21177106
120	0xbdc17d23	-0.09447696
121	0xbdb6d0b4	-0.08926526
122	0xbe62d9a9	-0.22153343
123	0x3d864448	0.06555992
124	0x3e209bf1	0.15684487
125	0x3e6263a7	0.22108327
126	0xbd28557e	-0.041097157
127	0xbda2bc84	-0.07946113
128	0xbe5df88c	-0.21676844
129	0x3e34236b	0.17591636
130	0x3d477b26	0.048701428
131	0x3d76848b	0.060184997
132	0x3de4027e	0.11133288
133	0x3d816630	0.06318319
134	0x3e448110	0.19189858
135	0xbc50a5b2	-0.012734817
136	0x3e9f690c	0.31134832
137	0x3d878962	0.066180006
138	0x3e3f316f	0.18671201
139	0xbe277e96	-0.16356882
140	0x3e036ffb	0.12835686
141	0x3e0f178e	0.13973829
142	0xbdfcb891	-0.12339891
143	0x3e178186	0.14795503
144	0x3ad13578	0.001596137
145	0xbd98fdc2	-0.074702755
146	0xbdf2e5ae	-0.11860214
147	0xbc6b10e0	-0.014347285
148	0xbe4c91de	-0.19977519
149	0x3bb2a4a5	0.005451756
150	0xbe2e3ad8	-0.17014635
151	0xbe4d7f02	-0.20067981
152	0x3dced7f2	0.10099782
153	0x3cd2f7bb	0.025752893
154	0x3d828430	0.06372869
155	0x3dbedb68	0.09319192
156	0xbdfaa3e4	-0.12238291
157	0x3d646d3a	0.05576823
158	0xbe4ed45f	-0.201982
159	0xbc82cdf2	-0.015967343
160	0x3e15f2b5	0.14643367
161	0xbe1cec74	-0.15324575
162	0x3cc3648f	0.023851661
163	0xbcee7a34	-0.029111005
164	0xbe372442	-0.17884925
165	0x3d6cb66e	0.057791166
166	0x3df4482e	0.1192783
167	0x3e090fc7	0.13384925
168	0xbcb2ee79	-0.021842228
169	0xbdc8ae16	-0.09798829
170	0x3d4825c1	0.04886413
171	0x3e91f8fc	0.28510273
172	0x3e318689	0.17336477
173	0xbe09df33	-0.1346405
174	0x3dffe327	0.12494498
175	0x3dbcb6b0	0.092145324
176	0xbe156de9	-0.14592709
177	0xbe668a12	-0.22513607
178	0x3df1b97d	0.11802957
179	0xbe1b19b2	-0.1514652
180	0x3d02a2bf	0.031893488
181	0xbd999111	-0.07498372
182	0x3e2dc508	0.16969693
183	0xbcd3edb7	-0.025870187
184	0x3e0fc1df	0.140388
185	0xbda66315	-0.08124367
186	0xbdad0095	-0.08447377
187	0x3c976a7c	0.018483393
188	0x3e798025	0.2436529
189	0xbe87e9ef	-0.26545665
190	0xbd76624d	-0.06015234
191	0x3dd6d49e	0.10489772
192	0x3e39c8fb	0.18143074
193	0xbd843aaa	-0.06456502
194	0xbe25c6ef	-0.16189168
195	0x3ddc5c59	0.107598014
196	0xbdabc518	-0.08387202
197	0xbe8a1b38	-0.2697389
198	0xbd884764	-0.06654242
199	0xbd2bff69	-0.041991625
200	0xbd846752	-0.06465019
201	0x3dd98af2	0.10622205
202	0x3e7bf671	0.24605729
203	0x3c422c41	0.011851371
204	0xbe77ee28	-0.24211943
205	0x3e470fff	0.19439696
206	0xbdb36ca3	-0.08760955
207	0xbd121008	-0.03565982
208	0xbdad84cc	-0.084725946
209	0xbd24f1c5	-0.040269632
210	0xbd489031	-0.048965637
211	0x3e99b3d3	0.30020007
212	0xbb5f0f14	-0.0034036087
213	0xbe608818	-0.21926916
214	0x3d02d6a0	0.031942964
215	0xbdcc3bf0	-0.0997237
216	0x3e004086	0.12524614
217	0x3dc9121b	0.098179065
218	0xbe788f97	-0.24273525
219	0xbe49d76c	-0.19711083
220	0xbd5b288f	-0.053505477
221	0xbcbfcdfa	-0.023413647
222	0x3e075823	0.13217215
223	0x3d6e041b	0.058109384
224	0xbd6566e9	-0.056006346
225	0x3e4faea1	0.2028146
226	0xbd4bafe9	-0.049728308
227	0x3e11ce12	0.14238766
228	0xbdedbac9	-0.11607892
229	0x3dd386e5	0.103284635
230	0x3dab2a5f	0.08357691
231	0x3dbbe8d9	0.091752715
232	0xbe303682	-0.17208293
233	0xbe51a849	-0.20474352
234	0xbcbbe7b8	-0.02293764
235	0x3db6625e	0.08905481
236	0x3dceb7c5	0.10093645
237	0x3c1d94b8	0.009617977
238	0x3e8da6e5	0.27666393
239	0x3cc65fb1	0.024215551
240	0x3e0cfa85	0.1376744
241	0x3e50b57e	0.20381734
242	0x3d1f637e	0.038913243
243	0xbe50a7e5	-0.20376547
244	0xbe05a65e	-0.13051745
245	0xbd4bfaab	-0.049799602
246	0xbdda4801	-0.10658265
247	0x3d1eb1fb	0.038743954
248	0x3e86bceb	0.26316008
249	0xbc3250e7	-0.010883546
250	0x3d2393a2	0.039935715
251	0xbde3cf8a	-0.11123569
252	0xbe4d5343	-0.20051293
253	0xbdad0607	-0.08448415
254	0xbe828653	-0.25493106
255	0x3d15c1c7	0.036561754

fc1.bias f4 [48]
0	0x3c2806b1	0.010255502
1	0xbb124ec1	-0.0022324773
2	0xbb95dfe9	-0.0045738113
3	0x3c5a9864	0.013341997
4	0xbba725b3	-0.0051009296
5	0x3b95711d	0.0045606033
6	0xbbaf5e52	-0.00535182
7	0x3b7e0301	0.0038759115
8	0xbabd6155	-0.0014448563
9	0xb9926358	-0.00027921307
10	0xbc670278	-0.01409971
11	0x3bb292d4	0.005449632
12	0xba1f0f1f	-0.0006067622
13	0xbae255d3	-0.0017268009
14	0xbc3a4fd3	-0.011371571
15	0x3ab7b960	0.0014017038
16	0x3c679c11	0.01413633
17	0x3bc79b84	0.006091537
18	0x3c1a3df8	0.009414189
19	0x3b8bc9a2	0.00426598
20	0xbc5913dd	-0.013249365
21	0x3a875cb4	0.001032731
22	0xb86ddac0	-5.670893e-05
23	0xb9b03178	-0.00033606193
24	0xba29b58e	-0.0006473892
25	0xbb7a60d7	-0.0038204694
26	0xbb1e65f2	-0.002416965
27	0xbb84fb2c	-0.0040582623
28	0xbc67188d	-0.014104974
29	0xbb8157f9	-0.0039472547
30	0xb9a19a30	-0.00030823192
31	0xbc3bb0ae	-0.011455698
32	0x3a75bfff	0.0009374618
33	0x39fdb214	0.000483886
34	0xbc5893b6	-0.013218811
35	0xb9983ef2	-0.00029038597
36	0x39fa2b80	0.00047716126
37	0xbc26ae47	-0.010173387
38	0xbbc6d9de	-0.0060684523
39	0x3ad1b567	0.0015999497
40	0xbac66c1f	-0.0015138424
41	0x3b8a2a56	0.0042164726
42	0xbb3e1743	-0.0029005564
43	0xbb992c04	-0.0046744365
44	0xb9737c24	-0.00023220532
45	0x3aa98be7	0.0012935371
46	0x3aae5391	0.0013300051
47	0xbc6455dc	-0.013936486
