rwgnn2/checkpoints/cora_checkpoint.pt (torch, 235579 bytes, 16 tensors)

adj_hidden f4 [16, 10]
000000 04 93 e0 3e 52 79 16 3f 6a 8c 6f bf a0 a2 56 be
       0.43862164 0.5877887 -0.9357363 -0.20960474
000010 28 f0 be 3e 30 5d b4 be ce a9 34 3f 50 84 8b bd
       0.372926 -0.35227346 0.705716 -0.06812346
000020 70 20 bd 3e 68 ef 50 be 20 60 45 3e 30 4f 1e 3f
       0.3693881 -0.20403826 0.1927495 0.6183958
000030 20 c4 7f 3d 16 a1 61 3f 94 4f a3 be 3e cf 44 bf
       0.0624429 0.8813642 -0.3189665 -0.76878726
000040 14 c4 dc 3e d4 bb a0 3e 24 20 52 3f ea 8f 60 bf
       0.43118346 0.313933 0.8208029 -0.87719595
000050 00 bd 5e bd e8 b3 6f bf a0 0b 37 3f d4 c6 c2 be
       -0.054379463 -0.9363389 0.71502113 -0.3804232
000060 f0 37 29 be 2e f0 76 3f 0e 68 04 3f 22 41 50 bf
       -0.16525245 0.96460235 0.51721275 -0.81349385
000070 18 07 1c 3e b8 8b 2a 3e 0c d7 33 bf b2 68 51 3f
       0.15237081 0.16654861 -0.7025001 0.8180038
000080 a0 06 20 be 72 44 49 bf 20 e4 60 bd be e5 7c 3f
       -0.15627527 -0.78620064 -0.054905057 0.9878806
000090 00 a2 71 3f 20 a0 f3 3d 80 a6 0c 3f 90 47 56 be
       0.9438782 0.11895776 0.5494156 -0.20925736
0000a0 9e 81 1c bf 26 39 4b 3f f8 09 b9 be 10 35 9f be
       -0.6113528 0.79384077 -0.36140418 -0.3109517
0000b0 e4 98 35 bf 74 05 36 3f 6a 03 76 3f 8a 52 39 bf
       -0.7093642 0.7110207 0.9609896 -0.7239157
0000c0 d8 f3 61 3e 48 30 7b 3f 50 9a 88 3e 48 43 22 3e
       0.22065675 0.98120546 0.2668023 0.15845978
0000d0 cc 64 7e 3f d4 50 28 bf c0 bb 66 3e 32 4e 6d bf
       0.99372554 -0.65748334 0.22532558 -0.9269744
0000e0 3c 29 51 bf 78 9b 70 be 40 50 ed 3e 3c 29 4c 3f
       -0.81703544 -0.23496807 0.46350288 0.7975042
0000f0 04 f1 95 be 44 63 ff be ce 15 7e bf 58 f7 14 be
       -0.29285443 -0.4988042 -0.9925202 -0.14547479
000100 08 5f 45 bf 58 9d 77 3f ba c4 24 bf 82 35 15 bf
       -0.7709813 0.9672446 -0.6436268 -0.5828477
000110 44 a5 6e 3f 6c ba 4d bf 98 20 f3 be f8 d0 12 be
       0.93220925 -0.8036258 -0.47485805 -0.14337528
000120 a2 9e 57 3f cc 6a 7e bf f4 ea cb be 00 c7 8e bd
       0.8422643 -0.9938171 -0.39827693 -0.0697155
000130 ec a0 bc be 2e 40 47 bf 80 62 da 3c 10 4c f8 3e
       -0.36841524 -0.77832305 0.026658297 0.4849553
000140 72 f1 42 3f f0 1e 04 3f 88 ce 77 3e 90 17 10 bf
       0.76149666 0.51609707 0.24199879 -0.56285954
000150 50 b2 43 bf 6e ec 61 bf 30 58 2a bf 9e b9 2c 3f
       -0.7644396 -0.8825139 -0.66540813 0.6747073
000160 70 93 9b bd 48 82 15 3e 3a 84 34 bf a8 88 6b 3f
       -0.07596481 0.1460048 -0.7051426 0.92005396
000170 ee 94 4a 3f 1a 88 1d 3f 8e f6 1c 3f 00 2d 44 3f
       0.791335 0.615358 0.6131371 0.76631165
000180 1e 47 73 3f 32 66 66 3f 80 be 51 be a4 f6 ae 3e
       0.9503039 0.8999969 -0.20482826 0.34172547
000190 14 af f7 3e 34 fd 76 bf 1e 0e 1f bf 04 5d ce 3e
       0.48375762 -0.9648011 -0.62130916 0.4030534
0001a0 98 f7 72 bf e0 23 8f be 88 38 64 3f 64 a7 89 be
       -0.9490905 -0.27957058 0.8914876 -0.2688552
0001b0 92 52 2e bf f8 52 6d bf 6e d0 37 3f b8 4d a6 3e
       -0.6809474 -0.92704725 0.71802413 0.3248117
0001c0 38 6e 5c 3e 10 b8 19 be f8 9f 22 bf 88 4c 15 3f
       0.2152642 -0.1501162 -0.6352534 0.583199
0001d0 9a f7 3e bf c0 c0 f6 be e0 fa a2 be c2 70 60 3f
       -0.7459656 -0.48193932 -0.31832027 0.87672055
0001e0 80 b2 e9 3e d6 e4 56 bf 58 c8 40 bf 58 f0 fa be
       0.45643997 -0.83942926 -0.753057 -0.49011493
0001f0 e4 19 32 bf 00 89 cd 3e e8 7a 86 be a8 01 a2 be
       -0.69570756 0.40143585 -0.26265645 -0.3164189
000200 e4 b1 73 3f 40 82 86 bc dc 72 40 3f f6 e9 4c bf
       0.95193315 -0.01641953 0.7517526 -0.80044496
000210 4c eb 8b 3e 00 8e 34 bb 9c 4d dd be 2e 2e 3d bf
       0.27327955 -0.002755046 -0.43223274 -0.7389859
000220 a8 6b 6a be d0 da a2 be 24 bc 4d bf 1c 37 3c bf
       -0.2289263 -0.31807566 -0.80365205 -0.7352159
000230 e0 12 18 3f 60 2a 6f 3e 02 c9 4a 3f c2 00 23 bf
       0.594038 0.23356009 0.79212964 -0.6367303
000240 9e 66 64 bf 44 ef 31 bf 10 cb e2 be 28 ee ef 3e
       -0.8921908 -0.69505715 -0.4429555 0.46861386
000250 38 37 50 bf 86 a9 03 3f be 39 01 bf 30 c0 22 be
       -0.8133426 0.5143055 -0.5047873 -0.15893626
000260 9e 01 10 3f 78 a9 94 3e a0 78 99 be 98 19 eb 3e
       0.5625247 0.29035544 -0.29974842 0.45917964
000270 f2 57 77 bf e4 7d 86 be c2 f4 1b 3f e0 b8 ab 3d
       -0.9661857 -0.26267922 0.60920346 0.083848715

features_hidden f4 [16, 5, 32]
000000 04 91 1d 3f 20 49 66 3d c9 e1 13 3f 10 2f f4 3e
       0.615494 0.05622208 0.57766396 0.47692156
000010 b8 76 7a 3f b5 9d 11 3f 38 0b ff 3e f3 ad 06 3f
       0.978374 0.56881267 0.49813247 0.52609175
000020 ce b1 b8 3e c8 d0 ea 3e 92 f0 30 3f 98 65 fd 3e
       0.36073154 0.45862412 0.6911708 0.49491572
000030 fa a1 73 3f 2d 2a 06 3f 9c 61 0f 3e 9e d2 81 3e
       0.9516903 0.52408105 0.14002079 0.25356
000040 7a c3 d2 3e e8 56 ec 3d 76 03 87 3e 75 c0 4a 3f
       0.41164762 0.115400136 0.26369828 0.79199916
000050 04 a6 4c 3f a0 f3 2b 3f a4 55 e3 3e 36 82 43 3f
       0.7994082 0.6716862 0.44401276 0.7637056
000060 12 4e 6c 3f 20 8f c4 3e 57 90 4e 3f ec 3d e9 3e
       0.92306626 0.38390446 0.80688995 0.45555055
000070 74 a6 1a 3f 6c 47 1b 3e a9 96 1e 3f c8 6b cb 3e
       0.6041024 0.15163964 0.6194864 0.39730668
000080 2a 7d ee 3e 4c a2 95 3e cf 52 66 3f 7c 15 15 3f
       0.46579868 0.29225385 0.89970106 0.5823591
000090 e2 73 24 3f 1a 15 42 3f 4b 5b 53 3f ad 92 48 3f
       0.64239323 0.7581345 0.82561177 0.7834881
0000a0 7e 8a 1f 3f 36 79 d4 3e b3 44 1b 3f 00 3c 79 3d
       0.623207 0.41498727 0.606517 0.060848236
0000b0 4c e7 fb 3e e4 ad 66 3e 91 1b 63 3f ac f8 85 3e
       0.49199903 0.22527272 0.8871394 0.26166284
0000c0 2a c3 e7 3e 43 2f 54 3f ef bd 39 3f 14 6a db 3e
       0.45266086 0.82884616 0.7255544 0.4285437
0000d0 51 56 28 3f fc 50 24 3e 76 d0 46 3f bc 3f 19 3e
       0.6575671 0.16046518 0.77661836 0.14965719
0000e0 00 c6 3f 3b 50 e5 75 3e c0 09 82 3d 88 82 30 3e
       0.0029262304 0.24013257 0.06349516 0.17237294
0000f0 e0 17 59 3e 48 62 b5 3e b1 72 43 3f 78 55 34 3f
       0.21200514 0.35426545 0.7634688 0.70442915
000100 1d a6 59 3f 90 3d 25 3f 80 4a 04 3e 8f 5d 48 3f
       0.85019094 0.6454706 0.12919044 0.7826776
000110 1c 03 d5 3e 8c bb 2d 3f cc b3 85 3e 04 dc 8d 3e
       0.41603935 0.678643 0.26113737 0.2770692
000120 2e 88 b4 3e 96 47 3c 3f 74 d8 f4 3e d8 d5 9f 3e
       0.35260147 0.7354673 0.4782139 0.31217837
000130 ef 80 04 3f 6c d2 f6 3e 40 99 40 3f 9f 82 70 3f
       0.5175924 0.48207414 0.7523384 0.9394931
000140 e0 7d 37 3f 3b ca 3c 3f ef 5e 66 3f 9d 89 50 3f
       0.71676445 0.7374608 0.8998861 0.8145998
000150 41 6d 4b 3f 91 e1 16 3f 74 90 c9 3e 68 a0 a8 3e
       0.79463583 0.5893794 0.3936802 0.3293488
000160 3f 84 0b 3f e0 69 14 3e 76 24 2a 3f 3a a2 db 3e
       0.54498667 0.14493513 0.66461885 0.42897207
000170 11 e8 01 3f 10 50 2a 3e 44 6f 20 3f 38 ec be 3d
       0.5074473 0.16632104 0.6266978 0.09322399
000180 88 f7 2f 3f 3e e1 d0 3e 77 af 6b 3f 34 02 5f 3e
       0.6873708 0.40796846 0.92064613 0.21778184
000190 30 06 6f 3e 11 d4 4f 3f 43 ea 67 3f e2 b8 a4 3e
       0.23342204 0.8118296 0.9059183 0.32172304
0001a0 a0 42 8e 3c 30 61 3c 3d e0 b8 51 3d 06 d7 1f 3f
       0.017365754 0.045991123 0.0512017 0.62437475
0001b0 60 4e d5 3d c2 ec e3 3e d0 fc f7 3e 1d f1 1e 3f
       0.104153395 0.4451657 0.48435068 0.6208666
0001c0 10 10 1c 3e 00 51 bc 3e 76 a7 88 3e f0 14 da 3d
       0.15240502 0.36780548 0.26690263 0.10648525
0001d0 fa be 49 3f 90 8f b4 3d 26 72 a6 3e 90 a2 b1 3d
       0.7880703 0.08816445 0.32508963 0.086735845
0001e0 3f 87 49 3f 75 f4 25 3f bf bf 79 3f 1c 78 39 3f
       0.78721994 0.64826137 0.97558206 0.724489
0001f0 d8 f7 9e 3e 94 35 57 3e 89 ba 0e 3f 38 a9 f9 3e
       0.31048465 0.21016532 0.5575338 0.48761916
000200 3c 50 b5 3e 4a db 5e 3f d6 67 37 3f 74 d4 6c 3e
       0.35412776 0.8705336 0.71642816 0.2312792
000210 60 9a 40 3e 4f 51 46 3f e4 08 7d 3e 38 59 6d 3f
       0.1880889 0.7746782 0.24710423 0.9271426
000220 56 32 63 3f 7a c4 2e 3f f8 ba 5c 3e 60 63 66 3f
       0.8874868 0.6826855 0.21555698 0.89995384
000230 72 19 4a 3f 24 93 14 3f 72 62 d9 3e b0 01 0c 3d
       0.78945076 0.5803702 0.4245792 0.034181297
000240 34 f9 f7 3e c5 bb 6c 3f e5 14 4b 3f 24 fe 3b 3f
       0.48432314 0.92474014 0.7932876 0.7343466
000250 0a 08 da 3e d8 19 0f 3f cc 87 44 3f f4 14 5b 3e
       0.42584258 0.5589881 0.7676971 0.21394712
000260 c0 c9 8c 3e 80 f0 2b 3e b0 d0 b6 3e a0 a9 97 3c
       0.27497673 0.16790962 0.3570609 0.0185135
000270 9c 20 19 3e 50 c5 ac 3e d8 05 62 3e a4 b4 02 3e
       0.14953846 0.33744287 0.22072542 0.12764221
000280 ca 17 f4 3e 88 39 4a 3f 10 41 07 3d 0e 36 71 3f
       0.476744 0.78994036 0.033021033 0.94223106
000290 83 58 78 3f 21 e9 6f 3f 3d 97 33 3f 25 83 4f 3f
       0.9701006 0.937151 0.70152646 0.81059486
0002a0 d0 18 46 3f 8c 32 9f 3e df eb 47 3f d8 67 55 3e
       0.7738161 0.31093252 0.78094286 0.20840394
0002b0 58 04 66 3e 7d 05 4f 3f 13 a3 38 3f ee 1b 63 3f
       0.22462595 0.8086775 0.7212383 0.8871449
0002c0 dc ce 31 3e 34 45 10 3f 02 3f f6 3e 50 c4 78 3e
       0.17364067 0.56355596 0.48094946 0.24293637
0002d0 96 98 d0 3e 29 e9 4b 3f 38 9f 28 3f f2 1a a0 3e
       0.40741414 0.7965265 0.6586795 0.31270558
0002e0 60 03 db 3e 5a df 0b 3f f1 83 34 3f de 38 e0 3e
       0.42776012 0.5463768 0.70513827 0.43793386
0002f0 09 af 1e 3f 00 38 a2 39 e0 09 e9 3d 50 f0 2e 3e
       0.6198583 0.0003094077 0.11378837 0.1708386
000300 76 29 a8 3e c0 83 d0 3d 55 05 27 3f 18 35 bb 3e
       0.32844132 0.10181379 0.6524251 0.36563945
000310 2f f1 26 3f a7 23 1e 3f f0 6d ca 3d 96 5d 83 3e
       0.65211767 0.6177315 0.0988425 0.25657338
000320 a0 15 fd 3e ef 01 6c 3f 08 0e 01 3f b8 08 0d 3f
       0.4943056 0.9219045 0.50412035 0.5509143
000330 64 df 9d 3e e0 3e a1 3e 77 4b 5e 3f 27 fb 5a 3f
       0.30834496 0.31493282 0.868339 0.8553948
000340 2c e5 14 3e c8 32 08 3f 3f 1a 22 3f 5d 11 71 3f
       0.14540547 0.53202486 0.633213 0.9416712
000350 45 bb 3c 3f f0 93 18 3d 18 2a 07 3f 9b 99 68 3f
       0.7372325 0.03725046 0.52798605 0.90859383
000360 12 87 d6 3e e8 df 5a 3f 36 59 94 3e 70 7b 4c 3e
       0.41899925 0.85497904 0.28974313 0.19968963
000370 23 67 28 3f 8a 6e 28 3f 14 6a 23 3f f5 91 2c 3f
       0.65782374 0.6579367 0.6383374 0.6741021
000380 94 77 35 3e 99 b4 66 3f 44 4e 7c 3e 86 38 82 3e
       0.17721397 0.9011932 0.24639231 0.2543375
000390 d6 cb be 3e 28 dc 1e 3f 0e f2 7c 3f 16 9f 3f 3f
       0.3726489 0.6205468 0.98806846 0.7485212
0003a0 a0 52 02 3e a0 d0 9b 3c ea b7 35 3f c6 b2 5f 3f
       0.12726831 0.019020379 0.70983756 0.8738216
0003b0 f8 97 67 3f ed fa 28 3f bb 2b 22 3f 6f e0 5b 3f
       0.9046626 0.6600788 0.6334798 0.85889333
0003c0 ce 99 3e 3f 33 f8 6c 3f 10 cd f4 3e fc 91 e5 3e
       0.7445344 0.9256622 0.478127 0.4483794
0003d0 72 66 1e 3f 9d dc 7b 3f 56 a2 d2 3e bd f3 4f 3f
       0.6187507 0.98383504 0.41139477 0.8123129
0003e0 aa 29 31 3f 9b 4f 0d 3f d0 bd 07 3d 07 bf 71 3f
       0.692042 0.55199593 0.033140004 0.9443211
0003f0 c4 4e cd 3e 32 a1 3f 3f 88 e1 1d 3e e0 81 37 3e
       0.40099156 0.7485534 0.15418065 0.17920637

walk_encoder.feature_encoder.weight f4 [32, 1433]
000000 06 8b 0e 3c 79 ba 68 3d 0e b0 a9 bc e4 d0 c3 3c
       0.008700138 0.05681846 -0.020713832 0.023903318
000010 90 cb 94 bb e5 5d 92 bc 89 4a 23 bc 97 4e 6c 3d
       -0.004540868 -0.017867038 -0.009966501 0.057692137
000020 f1 a9 11 3d 31 09 cd bc 3a 1d 85 bb 81 43 be 3c
       0.03556246 -0.025028797 -0.004062322 0.023225548
000030 e3 13 80 bc 03 27 b9 bc 14 b2 50 3c 96 d6 83 bd
       -0.015634483 -0.02260161 0.01273777 -0.064374134
000040 f9 44 9a 3b 08 43 e0 bc 46 35 8d bc ad 77 80 3c
       0.004707929 -0.027375713 -0.017237317 0.015682066
000050 33 5a ee 3c f7 2a aa bc c3 2b 0b bd 52 ce 79 3d
       0.029095745 -0.02077244 -0.03397728 0.060987778
000060 a0 ec d7 3a 2c 8e 3d bd 04 10 9f 3c 5e b8 64 bd
       0.0016473718 -0.046278164 0.019416817 -0.05583989
000070 42 7c d9 bc ed 79 2c bd e8 6f c3 3c 39 d4 b7 bc
       -0.026548509 -0.042108465 0.023857072 -0.022440063
000080 c0 6e 05 3c 20 32 7a 3c 2f e9 f0 39 36 d9 85 bc
       0.008144081 0.01527074 0.00045950103 -0.016338926
000090 4c e8 86 3b b1 2f 06 bc c9 4e 86 bc 3a 01 97 bb
       0.0041170474 -0.008190081 -0.01639499 -0.0046083005
0000a0 ff 51 1b 3d 01 7e 87 bc 66 3b 8a ba 6c 6d d8 3b
       0.037919994 -0.016539576 -0.0010546267 0.006604841
0000b0 76 79 84 3c 92 03 0a bd 4d f0 94 bb 8f bf 3d bc
       0.016171198 -0.03369481 -0.0045452476 -0.011581316
0000c0 9c 00 78 bc a9 c1 90 bd b7 8e 8b bc fa d6 51 bd
       -0.015136864 -0.07068188 -0.017035825 -0.05123041
0000d0 a4 8d 1a bd 2b f1 28 3c d5 bf 25 3b 62 aa 4f 3d
       -0.037732735 0.010311405 0.0025291343 0.0506996
0000e0 9a b9 b3 bc 4a 9d 20 bd 29 7a 93 3c 87 73 cf bc
       -0.021939088 -0.039212503 0.018002586 -0.025323642
0000f0 d0 f5 a6 3c b0 13 ce bc 01 8e 86 3b bd 6c 87 bd
       0.020380884 -0.025155872 0.0041062837 -0.06612537
000100 0c b2 1c bd bc 66 c1 bc 02 10 f0 3b 78 b7 72 bd
       -0.038255736 -0.023608558 0.007326127 -0.059257
000110 77 6a 0d 3d 9f 43 90 bc f7 67 14 3d f7 0a ab bc
       0.03452536 -0.01761037 0.03623196 -0.020879252
000120 35 d7 3b 3d 14 2d 8f bd 6b 6f 98 bd 3a cf 4c bd
       0.045859534 -0.0699102 -0.07443126 -0.050002314
000130 b1 cb 78 bd 46 7c 0e bc 42 f5 38 bd bd d6 18 3d
       -0.06074113 -0.008696621 -0.04515577 0.037314165
000140 7e 90 50 bd 13 fd 8b bc 26 7b 57 3d 65 07 a8 3b
       -0.05091905 -0.017088449 0.052607678 0.0051278346
000150 8e 91 5e bc 6b 48 16 bd a3 ef 18 3d 84 45 24 bd
       -0.013584508 -0.036690157 0.03733791 -0.040105358
000160 0c 52 d2 bc 7a 9f 88 bc aa d6 0a bd e3 a6 c6 3c
       -0.025673889 -0.016677607 -0.033896126 0.0242495
000170 0e 78 1b bb 4c 33 40 bb c7 35 63 bd 32 10 67 bc
       -0.0023722681 -0.002932745 -0.055471208 -0.014102982
000180 93 0d d8 bc fc 39 79 bd 3b 22 d6 3c 47 58 e2 bc
       -0.02637366 -0.060846314 0.02613937 -0.027629985
000190 cd 34 05 3c ff 48 c3 3b 6a e5 07 bd f7 5b 51 bc
       0.0081302645 0.0059596295 -0.03317777 -0.012778274
0001a0 4f ba 29 bd ec 56 d0 3c db 98 b7 bc a3 8b cf bc
       -0.041437443 0.025432073 -0.022411754 -0.025335139
0001b0 07 0f 96 bc 7d a6 fc bc 02 0a d2 3b b2 b9 94 bc
       -0.018317712 -0.030841107 0.0064098844 -0.018154953
0001c0 75 6c c9 bc 5c d6 c9 bc 0c 64 65 bc 2c 10 10 bc
       -0.02458785 -0.024638347 -0.014000904 -0.008792918
0001d0 bb d1 d5 3b 1e 62 4e bc a4 d2 34 3c 66 02 a2 39
       0.006525246 -0.012596635 0.011036549 0.00030900835
0001e0 c5 79 51 bc 24 f2 81 bc 5f d3 53 3b ae 46 45 bd
       -0.01278538 -0.015862532 0.0032322032 -0.04816311
0001f0 d7 a0 05 bc c0 84 e4 b9 43 18 0b bc 6e 20 54 bd
       -0.008156023 -0.00043586455 -0.008489671 -0.05178874
000200 7d 30 d5 bc c5 0b 92 bc 94 fe c0 3c 11 e9 02 3c
       -0.026024098 -0.017827878 0.023558892 0.007990138
000210 bd 48 44 bd 6e f2 2e 3b 1d a4 3d 3d 93 64 3a bb
       -0.04792093 0.0026694792 0.04629909 -0.0028441295
000220 05 d9 47 bd 97 f8 86 3c e7 2c c0 3c 4d 19 11 bd
       -0.04879095 0.016475959 0.023458911 -0.03542452
000230 26 92 37 3c 14 37 ad 3c 3e 8a 87 bc 1a 20 35 bc
       0.011204278 0.021144427 -0.016545411 -0.011055017
000240 01 a1 8d bc 38 cd b4 3b b6 fe e2 bb dc 3f 33 3d
       -0.017288687 0.005517628 -0.0069273366 0.043762073
000250 4c 1d f6 3c a9 8d 69 bd ee f4 29 bd 50 c2 29 bd
       0.030043267 -0.057019863 -0.04149335 -0.041445076
000260 05 47 f7 3c f3 66 3d bc 26 44 35 3d 2c 45 84 39
       0.030185232 -0.01156019 0.044254445 0.0002522854
000270 c3 07 ac bc 96 ba 91 3c ef 5d 65 bc 80 00 17 bd
       -0.020999795 0.017789166 -0.013999446 -0.03686571
000280 a9 00 6f 3d 87 c8 a4 bb 92 89 40 bd 2f b5 be bc
       0.05835024 -0.0050287875 -0.047006197 -0.023279754
000290 40 b0 35 3c 58 dc 81 bb d4 47 46 bc 10 4d 9c 3d
       0.011089385 -0.0039630346 -0.012102086 0.07631886
0002a0 68 07 3c 3d 02 a8 19 bd 1a a7 84 bd dc 63 01 bd
       0.0459055 -0.03751374 -0.064771846 -0.031589374
0002b0 d5 99 0e bc cc 97 98 bd d5 60 c7 bc 5c bd ab bc
       -0.008703669 -0.07450828 -0.024338165 -0.020964317
0002c0 02 5c c4 bb 67 88 b6 bc 00 3d 24 3d 3b 24 77 bd
       -0.0059924135 -0.022281839 0.040097237 -0.060337286
0002d0 68 0a c9 3b fc 95 5f 3c 08 04 d9 bc 58 22 1a bc
       0.0061352737 0.013646599 -0.02649118 -0.009407602
0002e0 d0 8e 71 3d eb 5b 18 bc 24 62 58 3d 2a ef 5b 3c
       0.058974087 -0.009299259 0.05282797 0.01342372
0002f0 45 c7 07 bd 41 d2 0b bd 70 cd c0 bc b5 e8 00 3d
       -0.033149023 -0.03413606 -0.02353546 0.031471927
000300 ce a7 b6 bc 56 84 87 3d 82 79 db bc 42 d9 3e bd
       -0.022296812 0.06617038 -0.026791338 -0.046593912
000310 48 76 dc bc f8 14 91 bc d0 9c 1c bc 87 60 0b bc
       -0.02691187 -0.017710194 -0.009558871 -0.008506901
000320 bf 9a 77 bc 81 ac fd 3c 36 d7 fe 3c a7 15 bf 3a
       -0.015112578 0.030966045 0.03110848 0.0014578596
000330 e2 9e 88 3c 0b a5 cf bc 46 c4 eb bc 54 18 aa bd
       0.016677324 -0.025347253 -0.028780114 -0.083054215
000340 66 76 fe bc a2 6a 9b bc d4 36 6c 3d 36 43 38 3c
       -0.031062316 -0.018971745 0.057669476 0.011246493
000350 26 22 13 bc f3 05 86 3c 86 48 76 bc 90 9f 8c 3d
       -0.00898031 0.016360259 -0.015031939 0.06866372
000360 be d7 9c bc cc 5f bd 3b 58 0f 33 3c ca 48 06 bd
       -0.019145843 0.005779242 0.010928951 -0.03278426
000370 4c 1b 23 bd 10 a1 91 3d 0f 3a 1e bd f8 ac 6a bb
       -0.039820954 0.07110798 -0.038629588 -0.0035808664
000380 ee 91 00 3d 93 49 4b 3d 76 d3 6c 3d 98 bc 1d 3c
       0.03138917 0.049630713 0.057818852 0.009627484
000390 ee 9a a8 bd 67 14 a6 bd db e9 0e 3c b1 ed 3e 3a
       -0.082326755 -0.0810936 0.008722748 0.00072833436
0003a0 5c cb 4f 3c 66 d2 95 3c 24 08 89 bb ae 07 2d 3d
       0.012682762 0.018288802 -0.0041818786 0.042243652
0003b0 c7 4f e0 bc fd 0d dd bc f0 1a 2f bd ed a3 3e bc
       -0.02738179 -0.02698421 -0.0427503 -0.011635763
0003c0 de 2b 39 3d 4e 57 f4 3b e9 90 fe 3b e0 b8 a0 3b
       0.04520785 0.0074566966 0.0077687395 0.0049048513
0003d0 25 e7 28 bc d4 f4 b7 bc 19 d9 ed 3c c0 84 8a 3c
       -0.010309015 -0.02245561 0.029034184 0.016909003
0003e0 1b f1 8a 3c 58 2e 4e 3d 66 5c 06 bd 01 e7 30 bd
       0.016960671 0.050337166 -0.03280296 -0.043189052
0003f0 49 3f 03 bc b4 c0 ce bc dd f8 ca 3a 93 cd 44 bc
       -0.008010694 -0.025238372 0.0015485544 -0.012011903

walk_encoder.feature_encoder.bias f4 [32]
000000 18 d8 2d 3c 76 f3 07 bc 3c b1 1f 3d 1c 7e 47 bc
       0.010610603 -0.008297792 0.038987383 -0.012176063
000010 57 89 2d bd ee a4 7e 3c d1 e5 04 bd 6b c2 4f bd
       -0.042367306 0.015542252 -0.032445733 -0.05072252
000020 90 d3 38 3b 82 e5 00 3c 5e 67 1e bc d0 fd 38 bc
       0.0028202273 0.007867219 -0.009668199 -0.011290982
000030 a9 ed b3 bc e6 a0 75 3c 89 26 3f bb a7 34 84 3c
       -0.021963911 0.014991974 -0.0029167256 0.016138388
000040 9c 48 08 3b ff f5 aa ba 2a b2 50 bd 87 10 27 3d
       0.0020795232 -0.0013043283 -0.05095116 0.040787246
000050 1a 26 73 3c 20 1d b0 3b 78 d8 9d bc 44 56 50 bc
       0.014840627 0.0053745657 -0.01926826 -0.01271588
000060 04 ea f9 bc cc 58 57 bc 02 f0 45 3c b6 d2 ea bc
       -0.030507095 -0.013143729 0.012081148 -0.028664928
000070 2c c8 8f 3c 54 10 14 3d bf 3e 00 bc 5d c2 d1 3c
       0.017551504 0.036148384 -0.00782746 0.025605375

walk_encoder.path_encoder.weight_ih_l0 f4 [96, 32]
000000 af f9 fe bd d3 01 20 3e 8f f0 b8 bc 69 1b f1 3d
       -0.12449967 0.15625696 -0.022575645 0.11772806
000010 d7 46 c6 bd fe 64 d3 3c f4 ba 2f be 98 a0 66 be
       -0.096814804 0.025804993 -0.1716116 -0.22522199
000020 51 1b 6a be ff bd c0 3d 45 cf 61 3e 6c 23 ba bd
       -0.22861983 0.09411239 0.22051723 -0.090887874
000030 64 49 b8 3d 95 ee 12 be 3b 31 14 be 10 07 93 3d
       0.08998373 -0.14348824 -0.14471905 0.071790814
000040 4b f7 1c be 2d b9 34 3c d9 d3 55 be 0a 92 d5 3d
       -0.1532871 0.0110304775 -0.20881595 0.10428245
000050 d3 82 26 bd 5b e6 93 3d c1 b2 b3 3d c8 44 77 3d
       -0.040652107 0.07221671 0.08774329 0.06036833
000060 7f dd 43 be 38 84 f6 bd 3f 69 27 3e 8a 3f b6 3d
       -0.19127463 -0.120369375 0.16348742 0.08898838
000070 36 f5 3f 3e a1 bd bd 3d 10 67 14 3e e1 12 e2 bd
       0.18745884 0.092646845 0.1449244 -0.11038757
000080 b4 9f c0 bd af 78 5b bd 6e 03 48 bd 73 b3 ae bd
       -0.09405461 -0.05358189 -0.048831396 -0.08530321
000090 9a f7 e7 3d 33 99 4a be 2d e2 78 3b 8c a7 2b 3e
       0.11326523 -0.19785003 0.0037976608 0.16763133
0000a0 7f 7e 87 bc b7 3f 20 3b 88 96 05 bd da 94 f4 3d
       -0.01653981 0.002445204 -0.03261426 0.11942454
0000b0 04 5c 09 bd a1 8a db bd 70 b5 86 bc 3f e3 3b 3d
       -0.03353502 -0.10719801 -0.016443938 0.045871016
0000c0 e0 04 a0 3d bb d0 b0 bb 0a fc 62 3c 91 c0 49 3e
       0.0781343 -0.0053959764 0.013854036 0.19702365
0000d0 23 f6 2f 3e 14 a9 66 bc e8 1a 59 3e 0a b2 78 3d
       0.17183737 -0.014078397 0.2120167 0.060716666
0000e0 98 11 84 bd 57 dc c2 3d e5 9d 0c 3e af f8 0b be
       -0.06448668 0.09514683 0.13732107 -0.13669084
0000f0 05 5d 55 3d 0c 87 91 bd 5e ec 15 bd 1b 12 11 be
       0.052090663 -0.07105836 -0.03660237 -0.14167063
000100 81 97 a8 3c 6b bd b0 bd 06 e8 9c 3d 89 7d bc bd
       0.020580055 -0.086298786 0.076614425 -0.092036314
000110 14 d3 8b 3d 8c 3f 1a be 5e c1 d3 bc c7 f5 1b be
       0.06827369 -0.15063304 -0.02584904 -0.15230475
000120 0e 37 f8 3d 92 83 2f be b3 4f 2a 3e e9 66 1a 3e
       0.12119876 -0.17140034 0.16631965 0.1507832
000130 20 1b 3a bd 53 6a 1a be fe 4a b9 bd b1 b5 28 be
       -0.045436025 -0.15079622 -0.09047507 -0.1647556
000140 d9 55 f0 3d 9f 5a 93 bd ad a4 04 3e 2e 56 57 bc
       0.11735124 -0.07195019 0.12953444 -0.013143105
000150 02 4a 27 3d 8d fa ba bb 9e 8a 1e 3e ee 58 1e 3e
       0.040842064 -0.0057061375 0.15482566 0.15463611
000160 ee 9f ad 3d 3e 8b 19 be bb cc 0b 3e d0 df 84 bd
       0.0847777 -0.14994523 0.13652317 -0.06488001
000170 34 fd e4 bc 0c 75 bb 3d 34 f9 1f 3e e2 cf 00 3e
       -0.027952768 0.09153184 0.15622407 0.12579301
000180 66 30 2c 3e bf bd a4 bc bb 09 1b be 42 07 17 bd
       0.16815338 -0.02011001 -0.1514043 -0.036872156
000190 bc 3a ec 3d 50 8a 0b 3e 97 55 1f bd c2 38 68 3e
       0.1153464 0.13626981 -0.038899984 0.22677901
0001a0 82 83 76 3c 55 f5 05 be 81 95 ee bd 52 3c 26 3d
       0.015046002 -0.13081868 -0.11649609 0.04058487
0001b0 0e 14 f7 bb 00 d6 3e be aa 32 2f be b0 63 7c bd
       -0.0075402325 -0.18636322 -0.1710917 -0.061618507
0001c0 b5 35 0d 3e 88 20 30 be 3c ac db bd e9 73 6f bd
       0.13790019 -0.1719991 -0.107262105 -0.05846015
0001d0 af 6c 40 be d2 63 50 be b6 6a 0c be 99 ec 11 3d
       -0.1879146 -0.20350578 -0.13712582 0.035626028
0001e0 35 75 fb bd 6a f5 15 3d d2 1f e7 bd ef f7 14 3e
       -0.12278215 0.036611 -0.11285366 0.14547704
0001f0 ae 91 14 3e b9 2f 11 be b3 d3 0a be d1 27 15 be
       0.14508697 -0.14178361 -0.1355732 -0.1456597
000200 55 0a ce 3d 6b 21 8b 3d a2 1f b9 bd 5c 03 a9 bd
       0.100605644 0.06793483 -0.090392366 -0.08252594
000210 7d 1e 11 3e 45 2a 2e 3d 87 17 15 3e 65 db 9c bd
       0.14171787 0.04252078 0.14559756 -0.07659034
000220 bb af ec 3d 6b 7d bd 3c 95 dd 4d bd d5 01 00 be
       0.115569554 0.023131093 -0.050260145 -0.12500699
000230 b1 65 11 3e 09 38 0f 3e d3 06 00 3d 77 7b 8f 3d
       0.14198948 0.1398622 0.031256508 0.07005971
000240 4c 6f 4b 3e 89 7b d3 3c 78 84 f1 bd ca ca 39 be
       0.19866675 0.025815742 -0.117928445 -0.18143764
000250 cb d4 7b ba 25 46 41 be 57 1f 28 3d e9 ad 3d bd
       -0.0009606599 -0.18874414 0.041045513 -0.04630843
000260 63 f5 94 3d 15 fb b8 bd 29 7a 58 be 98 1d 5a 3e
       0.07273366 -0.09032265 -0.2114035 0.21300352
000270 af 35 b2 3d cc 14 9a 3d dd 4a 3c bc 60 30 3a bd
       0.087016456 0.07523498 -0.011492458 -0.04545629
000280 a2 db a2 bd 10 c6 fc bd f9 90 ea bc d5 44 2c bd
       -0.07952048 -0.12342465 -0.028633581 -0.04205783
000290 48 9f a5 3d cc e6 a6 bd 44 9d 89 3d 58 38 86 bd
       0.08087021 -0.0814949 0.06719449 -0.065537155
0002a0 8c 86 41 3d 5f cd 25 3c 84 ab 2c bd b9 4b 8d 3c
       0.047247455 0.010119765 -0.042155758 0.017248021
0002b0 51 8b c8 bd 73 15 30 bd 44 e1 10 3d 5e a0 46 3c
       -0.097921975 -0.042989206 0.03537108 0.012123195
0002c0 97 05 c8 3a 6d ad 01 be a3 32 0b be d5 33 0b 3e
       0.0015260455 -0.12663813 -0.13593535 0.13593991
0002d0 5a 08 de bd e9 61 dd bc 37 de 31 be 03 bf 19 3e
       -0.10841437 -0.027024226 -0.17369924 0.15014271
0002e0 95 d1 75 3d fa 1e c4 3c 1e b0 49 be 59 b1 ed bd
       0.060014326 0.023940552 -0.1969609 -0.11606092
0002f0 14 03 0f 3e d3 b9 7b bc d6 91 11 3e c7 b5 8f bd
       0.13966018 -0.015364128 0.14215788 -0.07017093
000300 5f 34 f3 bd ea 5a a2 bd 79 8a 8e 3d 10 02 28 3e
       -0.11875223 -0.07927497 0.06960005 0.16407037
000310 1e 00 4c bb 7a f9 72 3d dc f5 17 3d 0e fa 29 3e
       -0.0031128 0.05931995 0.037099704 0.16599295
000320 59 99 a2 bd 06 2f 10 be 2c b6 5e 3d 9f cc f7 bd
       -0.07939405 -0.14080438 0.05437295 -0.12099575
000330 0d 7f 3d 3d 1b c2 04 3e 51 61 db bd 85 ca 44 be
       0.046263743 0.1296467 -0.10711921 -0.1921788
000340 2e 22 31 3d c2 87 98 3d 3d a2 eb bd 03 16 a0 3c
       0.043245487 0.07447769 -0.11505554 0.019541746
000350 63 25 90 bd 23 ca da bd a2 88 a4 3d b6 98 ae 3d
       -0.07038381 -0.10683086 0.08033873 0.08525221
000360 5f e0 37 3e d0 7a 18 3e 07 ab e2 bd 86 38 5d 3e
       0.17956685 0.14890599 -0.11067777 0.21603593
000370 98 0e a8 3d 24 b3 f6 bd 67 44 02 3d 1f 7c 18 bd
       0.082059085 -0.12045887 0.031803515 -0.037227746
000380 4a b1 a2 3d 29 c9 38 3d b9 28 02 be 1c f0 ff 3d
       0.079439715 0.045113716 -0.12710847 0.12496969
000390 22 7f 6f 3d 52 dc f2 bd f5 1b c1 bc a4 86 0a 3e
       0.058470853 -0.11858429 -0.023572901 0.13527924
0003a0 54 84 c9 3d e4 2e 34 be 64 f4 f0 bd 3c 41 ad bd
       0.09839693 -0.17596012 -0.11765364 -0.08459708
0003b0 bc 0e 58 3d 18 78 0f be 4f 78 27 3c 86 6f 4c bd
       0.052748427 -0.14010656 0.010221555 -0.049911045
0003c0 4e 22 98 3d ab 3d 7c bd 05 33 e2 bd f0 15 c5 bc
       0.07428418 -0.06158225 -0.110448875 -0.024058312
0003d0 7e aa ef 3d 64 e5 01 be 0b 8c a4 3d 08 b3 64 3d
       0.11702441 -0.12685162 0.080345236 0.0558348
0003e0 c7 5c 2e 3d 63 d2 c1 bd 96 b5 5f bd 3c 48 d5 3d
       0.042568948 -0.09463956 -0.054616533 0.10414168
0003f0 a1 41 d9 38 10 dd 2d bc 31 33 27 be 5a c6 20 3e
       0.00010359591 -0.010611787 -0.16328122 0.15700665

walk_encoder.path_encoder.weight_hh_l0 f4 [96, 32]
000000 4c 64 2d 3c b5 80 0b be 73 4b 19 be 68 1a cf bd
       0.010582995 -0.13623317 -0.14970188 -0.101124585
000010 be a9 ae 3d a0 9b e5 3d 05 0c 1c 3d 8e df 32 be
       0.085284695 0.11211324 0.0380974 -0.17468092
000020 31 13 cf bd f2 11 06 be 04 cb a2 bd 46 fb d3 b9
       -0.10111082 -0.13092783 -0.079488784 -0.0004043227
000030 3a fa 92 3c 96 1e e9 bc 23 a8 46 be d6 ef c4 bc
       0.017941583 -0.028456967 -0.19400077 -0.024040144
000040 c0 5e 5a be 99 ff cc bd 95 c1 48 bd f4 a3 0f 3d
       -0.21325207 -0.10009689 -0.04901274 0.035068467
000050 74 6c 5c 3e 13 33 4c 3d 5d c1 c5 3d 79 18 49 3d
       0.21525747 0.049853396 0.09656022 0.049095605
000060 8f 6a 19 3e 47 e5 a2 bd 80 c2 86 3d 6e d5 bf 3c
       0.14982055 -0.079538874 0.06580067 0.0234172
000070 fd 52 81 be 69 77 15 3d 4c ab 89 bd 16 1a ec 3c
       -0.25258628 0.03649083 -0.067221254 0.028821032
000080 96 b8 56 be 53 f6 1c be 1a be 3c be 74 3e 32 bd
       -0.20968851 -0.1532834 -0.18431893 -0.04351659
000090 48 5c f1 3d f4 f5 39 bd 6e 81 f5 bd f5 31 14 bd
       0.117851794 -0.045400575 -0.119875774 -0.036180455
0000a0 08 d4 7b 3d f9 78 e6 3d d5 bb 3d bd 80 c5 b1 3d
       0.061481506 0.112535425 -0.04632171 0.08680248
0000b0 d9 58 5c 3e 15 02 9b 3c 32 31 e3 bd 0b d3 33 bd
       0.21518268 0.018921891 -0.11093368 -0.043902438
0000c0 5d a9 d2 3d 5e 37 f7 3d 7b 9c 5e bd 26 90 02 3e
       0.1028621 0.12071107 -0.05434845 0.12750301
0000d0 13 14 e1 3d 43 1e ea 3d 5b 92 05 3b 79 fe bc 3c
       0.10990157 0.11431553 0.0020381424 0.02307056
0000e0 4a 15 c5 3d fa 32 20 be 39 61 a6 bc e4 05 0e 3d
       0.09623201 -0.15644446 -0.020310031 0.034673586
0000f0 80 f3 12 3d aa 4e e1 bd 6e 5c 2f be cb b8 b0 3d
       0.03587675 -0.11001332 -0.17125103 0.086289965
000100 26 aa 8f bd bf de ca 3d 58 0d 47 be be 7e 2f be
       -0.07014875 0.09905767 -0.19438684 -0.17138192
000110 4b 61 33 3e 95 9c 0d 3e 00 5f 3f bd 93 a8 89 3d
       0.17517583 0.13829263 -0.04672146 0.06721606
000120 20 d4 cb 3d 99 87 53 bd f2 a1 20 3e db 2e 0a 3e
       0.09952569 -0.051642988 0.15686777 0.13494436
000130 48 68 28 3e 36 48 dc bc 8d ee 20 be 07 e3 e2 bd
       0.1644603 -0.026889902 -0.15716 -0.11078458
000140 ef c1 1e bd 53 20 bd bd 8f b4 9a 3d 80 fe 0e 3e
       -0.03875917 -0.09234681 0.0755397 0.13964272
000150 8c c7 0c 3e cc d5 29 3d 4d 2f 7b bd 8a 44 fd bd
       0.13747996 0.04146366 -0.061324406 -0.123665884
000160 2f e9 66 bc 21 44 a5 bd c9 c8 b9 3d 1d 91 10 be
       -0.014093681 -0.08069635 0.090715 -0.14117856
000170 36 c7 21 be a8 d7 09 be 25 e6 f3 bd 87 75 f6 bd
       -0.15798649 -0.13461173 -0.11909131 -0.12034135
000180 9c d1 82 3c f3 bd 31 bd 6f a0 11 be c5 67 d8 3d
       0.01596909 -0.04339404 -0.14221357 0.105666675
000190 b5 98 64 bd 34 52 3d 3e e9 95 d1 3d ae c5 3c 3e
       -0.055809695 0.18488389 0.10233671 0.18434784
0001a0 22 9b 5b be 3f 3a 1c 3e f0 cc 01 be 8d 6d 24 3c
       -0.21445897 0.15256594 -0.12675834 0.010035885
0001b0 0c 06 f9 bd 14 1c 10 3e e5 98 2f 3e d0 a4 89 bd
       -0.121593565 0.14073211 0.17148168 -0.067208886
0001c0 56 05 b0 3d 07 60 b3 bd c4 3b f3 3c 54 0a 27 3e
       0.08594768 -0.0875855 0.029691584 0.16312534
0001d0 e9 67 0b 3e 7b f0 24 be 3c 62 88 3d 11 a7 12 be
       0.13613857 -0.16107361 0.06659362 -0.14321543
0001e0 6e f6 d3 bd be 85 17 3e 5a fb 90 bd 50 be 84 3d
       -0.10349737 0.14797112 -0.070791915 0.06481612
0001f0 e8 c3 0b be 84 c9 2c be 79 e5 10 be 1f 51 7b 3d
       -0.13648951 -0.16873747 -0.14150037 0.06135666
000200 8c 6a 44 be 29 7f 51 3e 70 e8 8b 3d 7a 7d d7 bd
       -0.1918127 0.20458664 0.06831443 -0.1052198
000210 bc 96 1f 3e dc 3b 19 bd 73 10 de bc 9d e2 a8 3d
       0.15584844 -0.037410602 -0.027107453 0.08246348
000220 5b 13 46 be 92 64 39 bd 6c 6f f7 bc 38 94 c1 bd
       -0.19343321 -0.045261927 -0.030204497 -0.094520986
000230 21 fa a6 3d 7c 8c f2 bc cb 53 95 bd 09 db 0c be
       0.08153177 -0.029608004 -0.07291373 -0.1375543
000240 56 0c 2c 3d e2 66 2c 3d 4d 53 1b be 87 4d 89 3d
       0.042003952 0.042090304 -0.15168495 0.0670424
000250 42 68 c0 bc b9 ad de bd 26 ce 11 3e 29 bc 00 be
       -0.023487214 -0.10872979 0.14238796 -0.12571777
000260 ee 21 09 be 17 3c 2d bd 68 80 ed bb a6 cf 43 3e
       -0.1339185 -0.042293634 -0.0072479732 0.1912218
000270 71 29 29 3d b4 eb f9 3c 0c 6b 07 3e 52 2e f1 3d
       0.041299287 0.0305079 0.13224429 0.11776413
000280 b3 27 02 be 71 90 ab bd e3 2b 83 3d 34 7a 1a 3e
       -0.12710457 -0.083771594 0.06404855 0.1508568
000290 5f 5a 18 be b3 49 50 be 63 98 f3 bc c7 ef b7 3d
       -0.14878224 -0.20340614 -0.02973575 0.08981281
0002a0 9f 6f 99 3c 48 dd 4b 3c bd 72 07 3e ed da 15 be
       0.018729983 0.012442894 0.13227363 -0.14634295
0002b0 9d 07 cd bd 70 85 5d bd a7 32 0b 3e 41 aa f0 bd
       -0.10011218 -0.054082334 0.13593541 -0.11751223
0002c0 ce 77 c9 3d 38 36 1b 3e 9d 75 05 be e2 f1 e0 3d
       0.09837304 0.15157402 -0.13033147 0.109836355
0002d0 8a 32 4d be e2 f5 19 3e 54 f9 5b bd 3a 76 ef 3d
       -0.2003881 0.15035203 -0.053704575 0.11692472
0002e0 66 7f ac 3d 79 a3 d2 3c e7 3e 1a 3e 33 f2 0b 3e
       0.08422737 0.025712715 0.15063058 0.1366661
0002f0 3c 5b 56 bc b2 3a 0c bd c5 62 92 bd cc 5e 81 bd
       -0.013083275 -0.034235664 -0.07147745 -0.06316909
000300 c5 8c 21 bd 00 9a 82 3d 1e 93 34 3d 3f e5 19 3d
       -0.03944089 0.063770294 0.044085614 0.03757214
000310 bd 43 13 3e b1 b3 05 3e 07 12 b7 3d 5e d7 16 3e
       0.14381309 0.13056828 0.08938985 0.14730594
000320 86 91 7b be 10 d0 22 3e 15 ca 3b bd f1 47 56 be
       -0.24567232 0.15899682 -0.045847017 -0.20925881
000330 41 f6 43 bd 61 ed 49 bc 3f 9a 89 3d 0d dd 15 3e
       -0.047842268 -0.012324662 0.06718873 0.14635105
000340 9b 4c 24 3e 58 7d 76 bd a2 d1 10 3e 89 f1 64 bc
       0.16044848 -0.06017813 0.14142469 -0.013973602
000350 25 db 9f bd 66 f2 52 be b6 e4 18 3d f1 2c 37 bc
       -0.078054704 -0.2060028 0.03732749 -0.011180148
000360 d9 0e 46 bd 14 bf a6 bd e6 86 f4 3c 6f 07 e5 3c
       -0.048354004 -0.08141914 0.02984948 0.027957646
000370 43 cf 16 3e e4 ba 57 be e0 1b f5 bd 72 30 46 bd
       0.14727502 -0.21067387 -0.11968207 -0.048386045
000380 37 cb df bb 2e 3d 47 3c d6 19 a8 bd dd fa 62 bd
       -0.006829645 0.0121605825 -0.08208053 -0.055415023
000390 a0 20 1b 3d c8 44 ca 3d 78 07 00 3e 1c 71 68 be
       0.03787291 0.098764 0.12502849 -0.22699398
0003a0 d5 7a 37 3c 35 91 c6 bd 4e e9 59 3e ba a9 c9 bd
       0.011198719 -0.09695665 0.21280405 -0.09846826
0003b0 b3 d2 51 3b 3c a2 d2 3d 8d 4e d2 3d 58 af 65 3d
       0.0032016456 0.1028485 0.102688886 0.056075424
0003c0 7d 91 0b 3e 18 85 7a 3d 9a 68 04 3e 84 fa b6 3d
       0.13629718 0.061162084 0.12930527 0.08934501
0003d0 35 02 b6 3c 76 77 37 be 37 46 64 3e 67 d6 ed bd
       0.02221785 -0.17916664 0.2229241 -0.116131596
0003e0 a2 46 11 be 0d dd 14 3e 98 65 28 be 29 b3 77 3d
       -0.141871 0.14537449 -0.16445005 0.060473595
0003f0 0f 9a 79 3d 4e 31 8c bd 84 c2 11 3e c8 a3 87 3c
       0.060937937 -0.068453416 0.14234358 0.01655759

walk_encoder.path_encoder.bias_ih_l0 f4 [96]
000000 b2 6b 5a bd 71 aa 07 be 16 d6 62 bd 6d e7 c9 bd
       -0.053325363 -0.13248612 -0.05537995 -0.09858594
000010 64 23 37 be 3e 8d 10 be 48 86 05 be 8c 70 90 bd
       -0.17884594 -0.1411638 -0.13039505 -0.070527166
000020 0f c2 28 3d c8 b7 04 3e d7 68 69 3d 06 40 b0 bc
       0.041200694 0.12960732 0.05698475 -0.021514904
000030 d5 a5 6a 3d e6 f0 5d bd c3 e4 29 be 8d 1c 40 be
       0.057287056 -0.054184817 -0.16591172 -0.18760891
000040 b3 94 02 be df 3f d4 bb 6e b0 03 3e 59 9f 4f bd
       -0.12752037 -0.0064773406 0.12860271 -0.050689075
000050 da db 8f bd 7c 45 31 3e 62 a7 fa bd 47 ba 80 3d
       -0.07024355 0.17311662 -0.12238957 0.062855296
000060 d6 63 03 be be c6 08 3e 9b 33 5f be 21 6b 0b be
       -0.12831053 0.13357064 -0.2179703 -0.13615085
000070 0b f2 23 3d 79 5d dc 3d e3 c1 79 bd cf eb 09 be
       0.040025752 0.10760016 -0.06097592 -0.1346886
000080 2c 73 0a 3e 0e 9e 16 3e dc ab 2a be ac 45 48 3e
       0.13520497 0.1470873 -0.16667122 0.19557828
000090 d1 73 ba 3d f4 8d d7 bd 72 1a ee bb 25 53 68 3d
       0.091041215 -0.10525122 -0.007266336 0.056719918
0000a0 3c c6 fb 3d a0 c6 e7 bd 59 16 5a bd a6 5b 1e bc
       0.122936696 -0.113171816 -0.05324397 -0.009665405
0000b0 db 2d fd bc ea d2 68 3d 92 d4 6f 3d 9f 30 ae 3d
       -0.030905655 0.05684177 0.058552332 0.085053675
0000c0 46 50 46 bd d4 35 36 3d 40 22 ce 3d 10 f5 da 3d
       -0.0484164 0.04448493 0.100651264 0.10691273
0000d0 92 9f ef bc 5e 54 8b bd db 8b c2 3d 95 ca 00 bd
       -0.029250894 -0.06803201 0.094993316 -0.031443197
0000e0 df dc cb 3d 50 a0 5e 3d a1 8f 2f 3e f6 1e 2b 3e
       0.09954237 0.054352105 0.17144634 0.1671103
0000f0 47 0d db bc 8d f5 1e 3e 74 da 88 3c 86 34 e4 3d
       -0.02673973 0.15523358 0.016705729 0.111428306
000100 ee cd 6f 3d d1 fa d5 ba 94 64 ac bc ba 56 9b ba
       0.058546 -0.001632536 -0.021044053 -0.0011851408
000110 6b de 0c be 2e e4 99 bd e5 6f 01 bd b5 b4 35 bd
       -0.1375672 -0.07514225 -0.03160085 -0.04436179
000120 20 3a a8 3c 5d bc 2d bd cc c6 ce b9 57 8d e7 3d
       0.020535529 -0.042415965 -0.00039439497 0.11306255
000130 de 1a 46 3d 3f 8d bf 3d 1e e0 df bd 53 6d a5 3b
       0.048365466 0.093531124 -0.10931419 0.005048433
000140 4d 0a 32 be d8 56 b7 3d 80 02 27 be d4 13 9e 3d
       -0.17386742 0.08952111 -0.16309547 0.07718626
000150 71 de 8e 3d d9 e2 22 3d 71 64 ce bb 53 f2 4f 3d
       0.06976021 0.03976712 -0.0062985946 0.050768208
000160 72 81 0c 3e 2b 16 00 be 6f 46 be bd 56 a8 90 bd
       0.13721254 -0.12508456 -0.09290778 -0.070633575
000170 6b 05 37 be 4d 49 c9 bc db a5 0e be ab 91 70 bd
       -0.1787316 -0.024571085 -0.13930456 -0.05873267

walk_encoder.path_encoder.bias_hh_l0 f4 [96]
000000 2e d9 a5 3d db ed 20 3e 2c 4c a3 bd 95 59 4e be
       0.08098064 0.15715735 -0.07973513 -0.2015136
000010 dc 33 e5 bb 32 2b 05 3c 12 7c 4d be ae f7 28 3d
       -0.0069947075 0.008127974 -0.2006686 0.04125183
000020 13 0a 03 3e b8 18 1a be 4e 7c e7 bd 4e 08 38 bd
       0.12796812 -0.15048492 -0.11303006 -0.044929795
000030 a4 64 6d 3c 61 1e f0 3d 50 f2 1f be e7 52 5a be
       0.014489327 0.11724544 -0.15619779 -0.21320687
000040 f2 2b 8c 3d db ac da bd 94 fb a6 bc 4e 87 3f be
       0.068443194 -0.10677501 -0.020383634 -0.18703958
000050 7e f9 16 be 6d 1d 1b bd 7d d9 1a be ff 2b 8b bd
       -0.14743611 -0.03786986 -0.15122028 -0.06795501
000060 9f d0 8d bd 26 ea b1 3d 99 14 68 3d 80 c9 61 3d
       -0.06924557 0.086872384 0.05666027 0.055123806
000070 df 11 d3 3d 43 2e 16 be e9 85 91 bd 3b 5d ce bd
       0.10306143 -0.14666085 -0.071056195 -0.10076376
000080 22 d2 1c 3e d2 6a 3b 3e dd b6 13 bc 14 31 1d 3d
       0.15314534 0.18302467 -0.009015766 0.038376883
000090 82 37 90 bd fd bb 40 3e 78 0a 15 bd 28 b0 c3 3c
       -0.07041837 0.18821712 -0.036386937 0.023887709
0000a0 1a ed 60 3e c8 d3 c5 3c 56 62 89 bd ed e2 aa 3c
       0.21965447 0.024148837 -0.06708209 0.02086016
0000b0 a8 fd 47 3e 1a 84 20 3e 16 3a 01 be f9 61 e8 3d
       0.19530356 0.15675393 -0.12619814 0.11346812
0000c0 52 60 9b bd 94 33 03 3e 9e 0a 3b 3e c4 fe 20 3e
       -0.07586731 0.12812644 0.18265769 0.15722185
0000d0 76 25 1d bd 5f da c2 bd 03 c0 d2 3d 8f 58 73 3e
       -0.038365804 -0.09514307 0.102905296 0.23764251
0000e0 16 0c 77 bb 87 f6 b0 bc d3 91 1e 3e d7 80 41 bd
       -0.0037696413 -0.021601928 0.15485315 -0.047242012
0000f0 1c 63 9d bd 42 79 05 3e 06 62 97 bd a9 ec 3a 3e
       -0.07684919 0.13034537 -0.07391743 0.18254341
000100 72 58 a3 3c fc a6 ed bd 95 a3 74 bd fb 4a 9a 3d
       0.019939635 -0.11604115 -0.059726316 0.07533833
000110 a8 46 03 be 3c c0 88 3c 7e 85 99 3d de ba 0f 3e
       -0.12819922 0.016693227 0.07496165 0.14036128
000120 92 f9 f7 3c b9 a5 fc bc ea 6f c8 bd 51 45 dc 3d
       0.030270372 -0.030840741 -0.09786971 0.107554086
000130 7a e9 b3 bc 1a 39 01 3d 86 77 6e 3d 3a 0c 0a 3d
       -0.021961916 0.031548597 0.058219455 0.033703066
000140 66 68 9f bd 47 a3 ef 3c 14 75 12 be 69 4d ea 3d
       -0.07783584 0.029252661 -0.14302474 0.11440546
000150 5e 1f 8c bc 13 1a 03 3e 45 81 9f 3d f6 8a c4 3d
       -0.0171048 0.12802915 0.07788328 0.09596817
000160 52 3e 07 3e e0 6b fc 3d e4 16 bf bd 5a 85 1c be
       0.13207367 0.12325263 -0.09330538 -0.15285245
000170 18 a0 00 3d 7a f6 34 3e 21 96 f1 bd 85 e1 bc 3d
       0.031402677 0.17672148 -0.11796213 0.09222702

bn.weight f4 [32]
000000 00 00 80 3f 00 00 80 3f 00 00 80 3f 00 00 80 3f
       1.0 1.0 1.0 1.0
000010 00 00 80 3f 00 00 80 3f 00 00 80 3f 00 00 80 3f
       1.0 1.0 1.0 1.0
000020 00 00 80 3f 00 00 80 3f 00 00 80 3f 00 00 80 3f
       1.0 1.0 1.0 1.0
000030 00 00 80 3f 00 00 80 3f 00 00 80 3f 00 00 80 3f
       1.0 1.0 1.0 1.0
000040 00 00 80 3f 00 00 80 3f 00 00 80 3f 00 00 80 3f
       1.0 1.0 1.0 1.0
000050 00 00 80 3f 00 00 80 3f 00 00 80 3f 00 00 80 3f
       1.0 1.0 1.0 1.0
000060 00 00 80 3f 00 00 80 3f 00 00 80 3f 00 00 80 3f
       1.0 1.0 1.0 1.0
000070 00 00 80 3f 00 00 80 3f 00 00 80 3f 00 00 80 3f
       1.0 1.0 1.0 1.0

bn.bias f4 [32]
000000 00 00 00 00 00 00 00 00 00 00 00 00 00 00 00 00
       0.0 0.0 0.0 0.0
000010 00 00 00 00 00 00 00 00 00 00 00 00 00 00 00 00
       0.0 0.0 0.0 0.0
000020 00 00 00 00 00 00 00 00 00 00 00 00 00 00 00 00
       0.0 0.0 0.0 0.0
000030 00 00 00 00 00 00 00 00 00 00 00 00 00 00 00 00
       0.0 0.0 0.0 0.0
000040 00 00 00 00 00 00 00 00 00 00 00 00 00 00 00 00
       0.0 0.0 0.0 0.0
000050 00 00 00 00 00 00 00 00 00 00 00 00 00 00 00 00
       0.0 0.0 0.0 0.0
000060 00 00 00 00 00 00 00 00 00 00 00 00 00 00 00 00
       0.0 0.0 0.0 0.0
000070 00 00 00 00 00 00 00 00 00 00 00 00 00 00 00 00
       0.0 0.0 0.0 0.0

bn.running_mean f4 [32]
000000 00 00 00 00 00 00 00 00 00 00 00 00 00 00 00 00
       0.0 0.0 0.0 0.0
000010 00 00 00 00 00 00 00 00 00 00 00 00 00 00 00 00
       0.0 0.0 0.0 0.0
000020 00 00 00 00 00 00 00 00 00 00 00 00 00 00 00 00
       0.0 0.0 0.0 0.0
000030 00 00 00 00 00 00 00 00 00 00 00 00 00 00 00 00
       0.0 0.0 0.0 0.0
000040 00 00 00 00 00 00 00 00 00 00 00 00 00 00 00 00
       0.0 0.0 0.0 0.0
000050 00 00 00 00 00 00 00 00 00 00 00 00 00 00 00 00
       0.0 0.0 0.0 0.0
000060 00 00 00 00 00 00 00 00 00 00 00 00 00 00 00 00
       0.0 0.0 0.0 0.0
000070 00 00 00 00 00 00 00 00 00 00 00 00 00 00 00 00
       0.0 0.0 0.0 0.0

bn.running_var f4 [32]
000000 00 00 80 3f 00 00 80 3f 00 00 80 3f 00 00 80 3f
       1.0 1.0 1.0 1.0
000010 00 00 80 3f 00 00 80 3f 00 00 80 3f 00 00 80 3f
       1.0 1.0 1.0 1.0
000020 00 00 80 3f 00 00 80 3f 00 00 80 3f 00 00 80 3f
       1.0 1.0 1.0 1.0
000030 00 00 80 3f 00 00 80 3f 00 00 80 3f 00 00 80 3f
       1.0 1.0 1.0 1.0
000040 00 00 80 3f 00 00 80 3f 00 00 80 3f 00 00 80 3f
       1.0 1.0 1.0 1.0
000050 00 00 80 3f 00 00 80 3f 00 00 80 3f 00 00 80 3f
       1.0 1.0 1.0 1.0
000060 00 00 80 3f 00 00 80 3f 00 00 80 3f 00 00 80 3f
       1.0 1.0 1.0 1.0
000070 00 00 80 3f 00 00 80 3f 00 00 80 3f 00 00 80 3f
       1.0 1.0 1.0 1.0

fc1.weight f4 [64, 32]
000000 37 c5 19 3d 72 5f ec 3d 26 ac 80 3d f7 ef 37 3e
       0.037541594 0.11541642 0.06282835 0.17962633
000010 bb 83 c9 bd c4 04 79 3d d1 2f f1 3d 2f ba 2f be
       -0.09839579 0.06079556 0.117766984 -0.17160867
000020 25 76 48 3e 08 f4 12 3d 0b fa 1e 3e 8a 04 77 bd
       0.19576319 0.035877258 0.15525071 -0.060307063
000030 f0 4f 3b be a7 dc a3 3d f1 9b a8 3c 76 67 05 be
       -0.18292212 0.080010705 0.020582171 -0.13027748
000040 c3 88 27 3e 59 da 04 3d 4a 45 7f 3d 39 72 86 3d
       0.16360764 0.032434795 0.06232194 0.06564755
000050 b9 9b ec 3c 51 bc fd 3d 88 e4 82 3d 97 81 61 bd
       0.028882848 0.12389434 0.06391245 -0.055055227
000060 61 eb fc bd b7 cd 35 3e cb c3 48 3e d2 e9 90 bd
       -0.123495825 0.17754255 0.19605939 -0.07075848
000070 18 b4 e9 3c 58 34 c0 bd 87 65 08 3e 57 0b 84 bd
       0.028528258 -0.09384984 0.1331998 -0.064474754
000080 02 2d f2 bc ab 2a 1f be 53 40 f4 3d f7 70 3d bd
       -0.029562477 -0.1554362 0.11926331 -0.04625031
000090 ac b7 e4 3d 96 ec a8 bb 53 9f b5 bd 24 6d 6b bd
       0.11167845 -0.0051551564 -0.08868279 -0.05747713
0000a0 96 73 3e 3e 8f 4b 34 3d 3c 33 31 3e 20 3d fc 3c
       0.1859878 0.04401737 0.173047 0.030790865
0000b0 34 df 18 3d f9 de 4f 3e 51 ee cd bd 0c 0b 23 3e
       0.037322238 0.20299901 -0.10055221 0.15922183
0000c0 4a 89 3d bd 9e 36 c7 bd 3c 1e cf bc 47 00 23 3e
       -0.046273507 -0.09727214 -0.025282972 0.15918075
0000d0 46 72 d0 3d 33 36 45 3d af a2 8d 3c f2 a5 97 3d
       0.10178046 0.04814739 0.017289488 0.074046984
0000e0 3e 0b 7c 3d c1 1f 30 be a7 f0 30 be 68 65 29 be
       0.06153416 -0.17199613 -0.17279302 -0.1654259
0000f0 e9 bc b3 bd 61 e7 f3 3d 5c aa a4 bd 58 e9 ea bd
       -0.08776266 0.119093664 -0.08040306 -0.11470288
000100 ee eb 18 be 7d 19 1f 3d c0 84 2e 3c 6a 10 18 3e
       -0.1493375 0.038842667 0.010651767 0.14850011
000110 48 04 ca 3d ad 24 3f be df 12 da 3d c9 9f 0a be
       0.09864098 -0.18666334 0.106481306 -0.13537516
000120 78 aa 03 3d bf 11 8a 3d 12 f6 03 3e 09 ee ce bd
       0.032144994 0.06741666 0.12886837 -0.10103995
000130 93 77 b0 bd f4 98 26 be 5c 92 a4 bd 99 9d e5 bc
       -0.08616557 -0.16269284 -0.08035728 -0.02802925
000140 1b 58 34 bd 17 d7 d7 bd 37 c8 d7 3c e6 a8 01 3c
       -0.044029336 -0.10539072 0.026340587 0.007913804
000150 65 24 b8 bd 30 06 af 3d a4 a0 0d bd ad 58 9d bd
       -0.08991317 0.08546102 -0.034577027 -0.07682929
000160 f7 4d 10 be be a9 10 3e 73 73 ff 3c 96 aa 1d be
       -0.14092241 0.14127252 0.03118298 -0.15397105
000170 f5 4f 30 bd 82 05 73 bd b8 8b c4 3d db 65 3e 3e
       -0.043045003 -0.059331425 0.09596962 0.18593542
000180 3e f7 70 bd 23 f7 c1 bd d0 93 52 3c 29 9b 28 3e
       -0.05882954 -0.09470966 0.012852624 0.16465439
000190 ce b4 94 3d 40 df 6d 3b 42 9e 8b 3d d0 20 0f 3d
       0.07261048 0.0036296397 0.06817295 0.0349434
0001a0 0f 7c bc bd 28 36 e8 bc c1 eb 07 3e 8e 7f 9d 3d
       -0.0920335 -0.028346136 0.13273527 0.07690345
0001b0 55 f7 28 3e 02 db b4 bd 80 e4 1a bb 16 4e 29 be
       0.165006 -0.08830835 -0.0023634732 -0.16533694
0001c0 92 e3 9c 3d 70 4d c5 3c 3e b1 87 3d c7 20 d9 bd
       0.07660593 0.024084777 0.06625603 -0.10601955
0001d0 0e a7 1e be 7e 42 99 bd cc a9 0f 3d 80 9e 2c be
       -0.15493414 -0.074833855 0.03507404 -0.16857338
0001e0 60 e2 90 3b 58 15 c0 bc e8 1f d7 3c c0 bc d9 3b
       0.0044215173 -0.023447677 0.026260331 0.006644815
0001f0 f7 ee 15 be f8 f5 77 3d 4b 07 e5 bd 68 b9 3b bd
       -0.14641939 0.06053731 -0.11183032 -0.045831114
000200 14 bb 01 3d 6e 15 cd 3d ed f1 f5 bd 9f 9a 4b be
       0.031672552 0.10013853 -0.12009034 -0.19883202
000210 e9 43 a0 bd 5f 9a 8e bd 15 69 d8 bd 22 ea fc bc
       -0.07825453 -0.06963038 -0.10566918 -0.030873362
000220 94 2a ea bd a7 30 6b bd a3 e2 18 3d 35 c9 3d bd
       -0.114339024 -0.057419445 0.037325513 -0.046334464
000230 e2 f6 b9 bd b3 65 18 be 16 4c 44 3d c8 d1 17 be
       -0.09080292 -0.14882545 0.047924124 -0.14826119
000240 1c c2 8b bd b5 eb d2 3d bf 39 bd 3d d8 37 a2 bc
       -0.06824133 0.10298864 0.0923953 -0.019802019
000250 ed e8 81 bd fa 24 d3 3d 26 b9 34 be 97 c8 45 be
       -0.06343255 0.10309787 -0.17648754 -0.193148
000260 25 a4 78 3d b9 d8 64 3d fe 25 da bd 57 fb fd bd
       0.060703415 0.055870745 -0.10651778 -0.12401455
000270 28 9e 67 3d a1 76 ec bd 46 c1 1b bd 5c e9 d0 bc
       0.056547314 -0.11546064 -0.038026117 -0.0255019
000280 95 3f 1b be 83 59 a0 bd 65 c6 d3 3c dd 1f 26 3d
       -0.15160973 -0.07829573 0.025851438 0.04055773
000290 04 c7 5d be a2 dd 0a be 6b 81 16 3e 29 0a 18 3e
       -0.2165795 -0.13561109 0.14697807 0.14847626
0002a0 41 3f a4 bd 92 ff 2b bd 3d d1 05 be e4 49 11 bd
       -0.08019877 -0.041991778 -0.130681 -0.03547086
0002b0 b5 99 0d 3e aa 1d 06 3e e9 2e 55 3d 0b d6 0b bc
       0.13828166 0.13097253 0.05204669 -0.008534919
0002c0 b9 d4 89 bd 80 78 05 3e 41 04 a3 bd a1 67 55 3d
       -0.06730027 0.13034248 -0.07959796 0.05210078
0002d0 09 c5 b5 bd e3 0f 66 bd 5c 7d 6f 3d 7d 14 ae bd
       -0.08875472 -0.056167495 0.05846916 -0.085000016
0002e0 38 5f 8b bd e0 8e aa bd 55 c5 7b 3d 53 77 8b bd
       -0.06805271 -0.083280325 0.061467487 -0.06809869
0002f0 78 bb c1 bd be a1 f8 3d 9f 07 cc bc 47 60 0f 3e
       -0.09459585 0.12140225 -0.024905978 0.1400157
000300 8f 10 03 be 6c 0f a7 bd 12 e7 17 be c4 49 c1 bd
       -0.12799285 -0.08157238 -0.1483424 -0.09437898
000310 f8 11 c7 3b 9e 37 eb 3d 50 37 0c 3c 3b 1e e0 bb
       0.00607514 0.114852175 0.008558109 -0.0068395413
000320 2c 31 85 3d 00 45 05 3e 88 aa 34 3c 21 20 59 bd
       0.065035194 0.13014603 0.011026986 -0.053009156
000330 b6 e7 36 be 8a 43 a1 bd c2 a5 3a 3e 59 bc 95 bd
       -0.17861828 -0.0787421 0.18227294 -0.07311315
000340 05 83 4a 3c ea cf 99 bd ae 97 17 be 8f 97 eb bd
       0.012360339 -0.075103596 -0.14803955 -0.11503517
000350 c9 ae 24 3d c1 8b f0 bb 91 36 12 3e d6 69 1d bb
       0.04020575 -0.0073408787 0.14278628 -0.0024019382
000360 ca 7a 3e 3c 0c 82 2d be ac 1f bf bc 0e 3a 48 3e
       0.011625955 -0.1694414 -0.023330532 0.19553396
000370 68 bb d8 3d 79 9c cf 3a 91 36 a9 3c 55 ee 7d bd
       0.1058262 0.0015839479 0.020655902 -0.06199487
000380 5c 10 49 be 97 29 d7 bc 6b 28 da 3d fa 90 13 be
       -0.19635147 -0.026264949 0.1065224 -0.14410773
000390 13 86 40 be 45 5e 12 be 01 68 05 bd b4 08 01 be
       -0.18801145 -0.14293773 -0.03256989 -0.12600976
0003a0 22 79 fd 3d 14 ba 40 3d 4f 6f 00 be 79 34 f2 3d
       0.1237662 0.047052458 -0.12542461 0.118264146
0003b0 a8 14 8a bd d3 59 03 be 8c 5a 2c 3e ed 5b 8f bd
       -0.06742221 -0.12827234 0.16831416 -0.06999955
0003c0 54 e7 07 be ac 10 0e bd d4 9c 9b 3c 5a d7 05 3e
       -0.13271838 -0.03468387 0.01899568 0.13070431
0003d0 5a 95 46 be 3d 31 8b bd f8 10 c7 bd 9e e1 41 3c
       -0.1939291 -0.06796501 -0.097200334 0.0118335765
0003e0 f6 1d ab 3d d4 88 0b 3d 47 50 82 3d 2b 2a 24 3b
       0.08355324 0.034066036 0.06362968 0.0025049548
0003f0 85 bc 9d bd d4 e7 e0 bb 5d d4 2a 3e 6e 9f bb 3d
       -0.07701973 -0.0068635736 0.16682573 0.09161268

fc1.bias f4 [64]
000000 d1 46 d7 bc 3b 7c 1c 3e 18 46 0b 3e 2d 14 02 be
       -0.026278885 0.15281765 0.13600957 -0.12703009
000010 40 52 94 3c d1 ed 22 3e 5e 96 3b bd 44 28 d8 bd
       0.018105626 0.15911032 -0.0457977 -0.10554555
000020 fa 4c e9 bd 2e d0 91 3d ee d4 c5 3d 22 fb 0b be
       -0.11391635 0.07119785 0.09659754 -0.13670018
000030 be db e2 bc 60 a2 6e bc dc 6f db 3c 9f 3a 6b 3d
       -0.027692672 -0.01456508 0.026786737 0.057428952
000040 6f e9 a6 3d 7c 58 e3 3d 00 48 ed bb 03 9c 10 bd
       0.08149993 0.111008614 -0.007241249 -0.035305034
000050 86 68 1a be 94 f1 02 be 5d 64 e5 3d 80 21 0e bd
       -0.15078935 -0.12787467 0.112007834 -0.034699917
000060 65 2a fc bd ad 93 4c bd 72 be 32 bd fb 7c e1 bd
       -0.123127736 -0.049945522 -0.043638654 -0.11010166
000070 e6 c1 52 bb 8b fc 94 3c ac e4 11 3e 09 12 e4 bd
       -0.003215903 0.018186828 0.14247388 -0.111362524
000080 e9 32 0b be 1e ff 06 be 8f 93 ac bd 27 aa 1d be
       -0.1359364 -0.13183257 -0.08426582 -0.15396939
000090 fb fa f3 bd 9d 06 48 bc 04 5e 8f 3c 80 4b e4 bd
       -0.11913105 -0.012208608 0.017500885 -0.11147213
0000a0 0a a3 21 be dd 73 1a 3e 40 7b a7 3d 2a 5e 7e 3d
       -0.1578485 0.15083261 0.08177805 0.06210152
0000b0 08 a5 00 3e c7 1e c2 3d 15 55 fb 3d b9 4d b4 3c
       0.12562954 0.094785266 0.122720875 0.022009717
0000c0 f3 89 19 be 72 65 87 bd d5 c6 bf bd dc fa 00 3e
       -0.1499403 -0.06611146 -0.09364096 0.12595695
0000d0 bd 83 d5 bd 06 50 d8 3d 1c ef 75 bd 82 80 f3 3d
       -0.10425518 0.10562138 -0.060042486 0.11889745
0000e0 5d ad dd bd be 60 f6 bd 33 d3 1a 3e 80 b3 f5 bb
       -0.10824082 -0.12030171 0.15119629 -0.0074982047
0000f0 ea 1c 13 be 35 cd d3 3d 54 db 1e be bd 08 09 3e
       -0.14366499 0.103418745 -0.15513355 0.1338224
