rwgnn2/checkpoints/cora_best_model.pt (torch, 658793 bytes, 28 tensors)

adj_hidden f4 [8, 6]
0	0x3f173bea	0.59075797
1	0xbe76d0d8	-0.24103105
2	0x3ea418f4	0.32050288
3	0xbefda59c	-0.49540412
4	0x3f6cf482	0.9256059
5	0x3f556ec2	0.8337213
6	0x3f62f0ca	0.88648665
7	0x3b8ee800	0.0043611526
8	0xbf470c06	-0.7775272
9	0xbe9add0c	-0.3024677
10	0x3f4c64c6	0.7984127
11	0xbeca425c	-0.39503753
12	0x3eafeccc	0.3436035
13	0xbf324686	-0.6963886
14	0xbf307a3e	-0.68936527
15	0x3f2e66d8	0.6812568
16	0xbdb0ebd0	-0.08638728
17	0x3e88bd28	0.26706815
18	0xbeee715c	-0.4657086
19	0x3f0e4118	0.55568075
20	0xbf627334	-0.88457036
21	0xbf45b8ba	-0.77234995
22	0xbe030458	-0.12794626
23	0x3e1b6e20	0.15178728
24	0xbf30b934	-0.690326
25	0x3d9f04a0	0.07764554
26	0xbf1255cc	-0.57162166
27	0x3f5de204	0.86673
28	0xbeac7a18	-0.336869
29	0xbd99e540	-0.07514429
30	0x3f3b74fa	0.7322537
31	0xbe094128	-0.13403761
32	0xbe9d9b78	-0.30782676
33	0x3f779d48	0.9672437
34	0xbf0438e6	-0.5164932
35	0x3ede3c70	0.43405485
36	0xbed9f434	-0.42569125
37	0x3ed88d90	0.42295504
38	0xbe5a8410	-0.2133944
39	0xbd8cdc30	-0.06877935
40	0xbedf74c0	-0.4364376
41	0x3f4f531a	0.8098618
42	0xbdcf2620	-0.10114694
43	0xbe690688	-0.22756398
44	0xbea8e834	-0.32989657
45	0xbf4c49b6	-0.79799974
46	0xbf012a94	-0.50455594
47	0xbf4a4c12	-0.79022324

features_hidden f4 [8, 4, 64]
0	0x3f4b7404	0.794739
1	0x3f498d91	0.7873164
2	0x3ec356a2	0.38152033
3	0x3e8f6d1c	0.2801293
4	0x3e06e6c8	0.13173974
5	0x3c7310c0	0.0148355365
6	0x3f1046e5	0.56358176
7	0x3f2fa9b4	0.6861832
8	0x3f0b3b74	0.54387593
9	0x3e909bd0	0.28243876
10	0x3e87aa10	0.26496935
11	0x3eac75f4	0.3368374
12	0x3eee2af6	0.46517152
13	0x3f432d92	0.7624141
14	0x3d2ed980	0.042687893
15	0x3f573eb0	0.8408003
16	0x3ebf69a6	0.3738529
17	0x3f77ba4d	0.9676865
18	0x3e9e0f74	0.30871165
19	0x3f017387	0.50566906
20	0x3f42a1c8	0.7602811
21	0x3f762114	0.96144223
22	0x3d6e0610	0.05811125
23	0x3edb27ee	0.428039
24	0x3f02d3a7	0.51104206
25	0x3f241138	0.64088774
26	0x3f0e90f5	0.55689937
27	0x3f67b83a	0.9051548
28	0x3edfc2d0	0.43703318
29	0x3ed36998	0.412915
30	0x3f46ff99	0.7773376
31	0x3f5c52a9	0.8606363
32	0x3f184777	0.59484047
33	0x3e6bf1b0	0.23041415
34	0x3f293cba	0.66108286
35	0x3de3a720	0.11115861
36	0x3e9f313a	0.31092244
37	0x3e88cd5c	0.26719177
38	0x3e7e30f0	0.24823356
39	0x3dbc0698	0.09180945
40	0x3f1bac86	0.60810125
41	0x3ec78a6a	0.3897279
42	0x3db41758	0.08793515
43	0x3f43a413	0.7642223
44	0x3e882a1e	0.26594633
45	0x3f35b601	0.7098084
46	0x3d29f890	0.041496813
47	0x3f24d4e8	0.6438737
48	0x3e8e45e6	0.27787703
49	0x3ed15cc4	0.40891087
50	0x3f5fbcaa	0.87397254
51	0x3ef98136	0.48731393
52	0x3f74ad09	0.9557653
53	0x3f6e36cc	0.93052363
54	0x3e71b854	0.23605472
55	0x3f182ba1	0.5944157
56	0x3f69e48f	0.9136438
57	0x3e4e811c	0.20166439
58	0x3dbc77c0	0.09202528
59	0x3de97e98	0.11401099
60	0x3ee0d892	0.4391523
61	0x3f51a636	0.8189424
62	0x3dc22df8	0.09481424
63	0x3eab5eb8	0.33470702
64	0x3f4e2170	0.8051977
65	0x3f511f71	0.816886
66	0x3eba32e6	0.36366957
67	0x3f2a6bb4	0.6657059
68	0x3e647aa4	0.22312409
69	0x3f55919d	0.83425313
70	0x3f57833b	0.84184617
71	0x3ef2f4f6	0.47452515
72	0x3f270ad7	0.65250915
73	0x3f72eb01	0.9488984
74	0x3f5cb721	0.8621693
75	0x3ee9affc	0.45642078
76	0x3f369829	0.7132593
77	0x3ef86628	0.4851544
78	0x3eba7a42	0.364214
79	0x3eb8823e	0.36036867
80	0x3f2d539d	0.6770571
81	0x3e6484fc	0.22316355
82	0x3f42874d	0.759877
83	0x3f22ff12	0.63670456
84	0x3f4d3b1d	0.80168325
85	0x3f7b48b9	0.9815784
86	0x3ea6a350	0.32546473
87	0x3ed0f234	0.40809786
88	0x3f1be10f	0.6089029
89	0x3f448a18	0.76773214
90	0x3e8050ea	0.25061733
91	0x3dcda2c0	0.10040808
92	0x3f625b57	0.88420624
93	0x3e1c5fec	0.15270966
94	0x3f42ebbc	0.7614095
95	0x3f665dc2	0.89986813
96	0x3f0c0557	0.5469565
97	0x3f04d20a	0.51882994
98	0x3ec6cd3e	0.38828462
99	0x3e799558	0.24373376
100	0x3f4dad4b	0.8034255
101	0x3e2f47e0	0.17117262
102	0x3f42f066	0.7614807
103	0x3eadffa8	0.33984113
104	0x3f2ef8a4	0.68348145
105	0x3e8efa66	0.27925414
106	0x3f16f8a1	0.5897313
107	0x3dbda2a0	0.09259534
108	0x3e65d364	0.2244392
109	0x3f211163	0.62917155
110	0x3e94f1e0	0.29090786
111	0x3eb22362	0.3479262
112	0x3f1781fa	0.59182703
113	0x3f1e57a1	0.6185246
114	0x3f263d88	0.6493764
115	0x3ed27fa2	0.41113
116	0x3f6b17eb	0.9183337
117	0x3f156b29	0.5836664
118	0x3f403926	0.750872
119	0x3f28141d	0.6565569
120	0x3f0ea982	0.557274
121	0x3f0fc271	0.5615607
122	0x3f511877	0.81677955
123	0x3dbdabd8	0.09261292
124	0x3f273681	0.6531754
125	0x3ea99ef8	0.33129096
126	0x3e3125e0	0.17299604
127	0x3ef7e584	0.48417294
128	0x3e91e49c	0.28494728
129	0x3f4845e8	0.7823167
130	0x3f740fc2	0.95336545
131	0x3f4c1e78	0.7973399
132	0x3f50dbe5	0.8158553
133	0x3f69adea	0.91280997
134	0x3ed4d7c2	0.4157086
135	0x3f68ee90	0.9098902
136	0x3df0b5f0	0.11753452
137	0x3f044a82	0.5167619
138	0x3f443e46	0.7665752
139	0x3f56745e	0.8377131
140	0x3f7c9709	0.9866796
141	0x3ecad8e4	0.396186
142	0x3ebc36c4	0.36760533
143	0x3e59bf6c	0.21264428
144	0x3f2c1c36	0.67230546
145	0x3ee00dec	0.43760622
146	0x3eaa3d26	0.33249778
147	0x3f2dde80	0.67917633
148	0x3f0d8229	0.55276734
149	0x3f593b0c	0.84855723
150	0x3f57b007	0.8425297
151	0x3e69645c	0.2279219
152	0x3f33ab15	0.70182925
153	0x3f0a61da	0.5405556
154	0x3eec3d5c	0.46140563
155	0x3eb85c40	0.3600788
156	0x3e5b5cec	0.21422166
157	0x3f6b0a19	0.9181228
158	0x3f2a60ab	0.66553754
159	0x3ee2bb04	0.44283307
160	0x3f51f43b	0.8201329
161	0x3eba2fba	0.36364537
162	0x3ebd67f6	0.36993378
163	0x3e5d8194	0.21631461
164	0x3ee70512	0.45121056
165	0x3f62ff85	0.8867114
166	0x3f6ae110	0.9174967
167	0x3f646cba	0.89228404
168	0x3f37d386	0.71807134
169	0x3ea7dff4	0.3278805
170	0x3e6b5634	0.22982103
171	0x3eff72c2	0.4989224
172	0x3f030677	0.5118174
173	0x3e1e8bb4	0.1548298
174	0x3ea38f8a	0.3194545
175	0x3f08afa0	0.5339298
176	0x3f735951	0.9505816
177	0x3ec1638a	0.37771255
178	0x3ea33222	0.31874186
179	0x3efd2aba	0.4944666
180	0x3f3357c3	0.7005579
181	0x3f45b798	0.77233267
182	0x3e5e83b4	0.21729928
183	0x3f24fcc2	0.6444818
184	0x3e923b5a	0.28560907
185	0x3f47bdc4	0.78023934
186	0x3df7c768	0.120985806
187	0x3f72d372	0.9485389
188	0x3e8bb74e	0.27288288
189	0x3f7921b9	0.9731708
190	0x3ed15e08	0.40892053
191	0x3ed78c92	0.42099434
192	0x3f5f8e2c	0.8732631
193	0x3f34cee5	0.70628196
194	0x3f2bc7b5	0.67101604
195	0x3f7bae53	0.9831287
196	0x3d4d63f0	0.050144136
197	0x3e9adad2	0.30245072
198	0x3f451ecc	0.7700012
199	0x3e1d21e8	0.15344965
200	0x3cfa1660	0.030528247
201	0x3e6787a4	0.22610337
202	0x3f765600	0.96224976
203	0x3e9727ea	0.2952264
204	0x3e0dab74	0.13834935
205	0x3f7365e3	0.9507734
206	0x3ea50158	0.32227588
207	0x3f4e5065	0.8059142
208	0x3eb42f8e	0.3519253
209	0x3efd7490	0.49502993
210	0x3f09f9e8	0.5389695
211	0x3f360fbd	0.71117765
212	0x3f5ecc2d	0.870303
213	0x3f5e71a0	0.8689213
214	0x3f7453a4	0.95440125
215	0x3f0940bb	0.53614396
216	0x3c89cec0	0.016822219
217	0x3ed16260	0.40895367
218	0x3f49d245	0.7883647
219	0x3f430490	0.76178837
220	0x3f1774f5	0.5916284
221	0x3e129c58	0.14317453
222	0x3ea6f548	0.3260901
223	0x3f3bd841	0.7337685
224	0x3f6fa551	0.9361163
225	0x3e62e794	0.22158653
226	0x3e57056c	0.20998162
227	0x3f778e0d	0.9670113
228	0x3da3f7f0	0.08006275
229	0x3f3b70d5	0.73219043
230	0x3f5de380	0.8667526
231	0x3f29266a	0.6607424
232	0x3ee6f652	0.45109802
233	0x3f6f016e	0.93361557
234	0x3f44a7a8	0.76818323
235	0x3f715ca6	0.94281995
236	0x3f2c2cab	0.6725566
237	0x3c31f1c0	0.01086086
238	0x3f2f6cda	0.6852547
239	0x3e6c6524	0.23085457
240	0x3f0489a1	0.51772505
241	0x3e85376a	0.2601884
242	0x3e6b92b4	0.23005182
243	0x3ec157d0	0.37762308
244	0x3f0fe520	0.5620899
245	0x3eca05de	0.394576
246	0x3e6f88e8	0.2339207
247	0x3f4ec0a4	0.80762696
248	0x3db39038	0.08767742
249	0x3e1e7e74	0.15477926
250	0x3f136013	0.5756847
251	0x3edaf580	0.42765427
252	0x3f50ba76	0.81534517
253	0x3e21f8c0	0.15817547
254	0x3e024718	0.12722433
255	0x3e5753f8	0.21028125

walk_encoder.feature_encoder.0.weight f4 [64, 1433]
0	0x3ccbe44b	0.024889132
1	0x3d4ab40b	0.04948811
2	0x3d55ee7c	0.05222939
3	0xbcf92f94	-0.030418195
4	0x3cc9547c	0.024576418
5	0xbbef607a	-0.007305202
6	0xbcdc4aba	-0.026891101
7	0x3c740f17	0.014896176
8	0xbb9768b0	-0.004620634
9	0xbb3c2d0a	-0.0028713369
10	0xbca45707	-0.02006103
11	0xbbbeca85	-0.005822482
12	0x3d13136b	0.03590719
13	0xbc0e0a0f	-0.00866939
14	0x3cc75e8d	0.024337078
15	0xbd5aa125	-0.053376336
16	0xbce2be36	-0.02767859
17	0xbc97f0f4	-0.018547513
18	0xbbf34152	-0.0074235583
19	0xbb899a89	-0.00419933
20	0xbc9aafb0	-0.018882602
21	0x3ca1204f	0.019668726
22	0xbc95fc41	-0.01830876
23	0xbd1a3e87	-0.037657287
24	0x3a3a06ec	0.00070963684
25	0x3ba2f54a	0.0049730884
26	0xbca8ce7b	-0.02060627
27	0x3d68d5cb	0.056844514
28	0xb6fe8600	-7.5853895e-06
29	0xbbba843b	-0.0056920326
30	0x3b829184	0.003984632
31	0x3d8f1e18	0.06988162
32	0x3ca525a5	0.020159552
33	0x3d488960	0.048959136
34	0xbb54823b	-0.0032426256
35	0x3c93ebe4	0.018056817
36	0x3b586d76	0.0033024228
37	0x3cf29b8d	0.029615188
38	0xbb98f27e	-0.004667579
39	0xbbf566d5	-0.007489065
40	0xbd0166ae	-0.031592064
41	0x3d216fea	0.03941337
42	0xbcc8dfd1	-0.024520786
43	0xbbb4ab46	-0.0055135814
44	0xbced4b07	-0.02896644
45	0x3ca85ef5	0.020553092
46	0xbc8ac4bc	-0.016939513
47	0xbc9f44ad	-0.019441927
48	0x3c60a867	0.013712025
49	0x3b5940d7	0.003315022
50	0x3b622767	0.003450835
51	0x3db99244	0.09061101
52	0xbc28821f	-0.01028493
53	0xbc0e452f	-0.008683487
54	0x3d457989	0.048211608
55	0x3c70af02	0.014690163
56	0xbc9f7782	-0.019466165
57	0xbce19d97	-0.027540965
58	0x3d4cbf1b	0.04998694
59	0x3a22d6a0	0.0006211791
60	0xb9935e8a	-0.00028108462
61	0x3af543a7	0.0018712179
62	0x3c8fb0b3	0.017540311
63	0xbd0053d3	-0.03132994
64	0xbd3e5c14	-0.04647453
65	0xbc5673a7	-0.013089097
66	0x3b30c849	0.0026974848
67	0x3c9e2860	0.019306362
68	0x3ab3fc31	0.0013731775
69	0x3d5dd193	0.054154944
70	0xbd55277f	-0.05203962
71	0xbd14e6f8	-0.03635308
72	0x3c0d9c7d	0.008643267
73	0xbaf80436	-0.0018922153
74	0x3d2f7e9a	0.042845346
75	0x3c5a5e72	0.013328182
76	0x3c6c7c38	0.014433913
77	0x3d419955	0.04726537
78	0x3c85ec63	0.01634807
79	0xbce24cea	-0.027624566
80	0xbca8a73b	-0.020587554
81	0xbcc617ff	-0.024181364
82	0x3b6c4034	0.003604901
83	0x3cf59f99	0.029983329
84	0xbc125f83	-0.008933905
85	0x3c3979c8	0.011320539
86	0xbd0bf244	-0.03416659
87	0xbd4e8739	-0.050421927
88	0xbc598980	-0.013277411
89	0x3d9b06a3	0.07569625
90	0x3c598c54	0.013278086
91	0xbccd0128	-0.025024965
92	0x3d0d48a6	0.03449311
93	0xbd594cd4	-0.053051785
94	0x3cbf5eef	0.023360698
95	0x3bed85e5	0.0072486275
96	0xbc438b30	-0.01193504
97	0x3cf65f68	0.03007479
98	0xbc40e60b	-0.0117735965
99	0xbc000a5d	-0.007814971
100	0x3d4819a5	0.04885258
101	0x3c200ee2	0.009769173
102	0xbc9bed95	-0.019034186
103	0xbcd743ac	-0.026277386
104	0xbc951ef9	-0.018203245
105	0xbcb928ee	-0.022602525
106	0xbd0780fc	-0.033081993
107	0xbce055a5	-0.027384588
108	0x3931ee50	0.00016968814
109	0xbc6be297	-0.014397285
110	0x3c0cf344	0.008602921
111	0xbce661cc	-0.028122805
112	0x3bbb246d	0.0057111294
113	0xbc818f4e	-0.015815403
114	0xbcc122bc	-0.023576133
115	0x3bde0874	0.00677591
116	0x3da466a9	0.08027393
117	0x3d2e97e1	0.04262531
118	0xbd11d66c	-0.03560488
119	0x3b0e9fd9	0.0021762757
120	0x3b539cf8	0.0032289606
121	0xbce1bc49	-0.027555602
122	0x3aa6cdc3	0.0012726117
123	0xbbf51446	-0.0074792234
124	0x3b7a900d	0.0038232834
125	0x3cf5779c	0.02996426
126	0x3b6542ba	0.00349824
127	0x3b109805	0.0022063267
128	0xbd21d4a3	-0.039509427
129	0xba657ae4	-0.0008753969
130	0x3c4217e9	0.011846521
131	0x3d7b728c	0.061388537
132	0x3c214fa3	0.009845647
133	0xbd30fd6c	-0.043210432
134	0xbc2ab3c3	-0.010418835
135	0x3cb407c9	0.021976369
136	0xbc3551d7	-0.011066875
137	0x3c1737de	0.009229628
138	0xbcfe8fea	-0.031074483
139	0xbc42a23d	-0.011879501
140	0xbd852584	-0.06501296
141	0x39e70c82	0.00044069072
142	0xbcf3ca41	-0.029759528
143	0x3c872819	0.016498612
144	0xbc1babb4	-0.009501386
145	0xbc2cc110	-0.010544077
146	0x3b9dd385	0.004816475
147	0x3beab786	0.007162991
148	0xbc5cf088	-0.0134850815
149	0xbd0c1059	-0.034195278
150	0xbc8d501f	-0.017250119
151	0x3c8453f5	0.016153315
152	0x3c1316af	0.008977576
153	0xbcb60d83	-0.02222324
154	0x3c54d1e6	0.012989497
155	0x3b0593b4	0.0020382227
156	0x3cc645cc	0.024203204
157	0x3bcdf483	0.0062852516
158	0xbc834479	-0.016023861
159	0xbcc9932e	-0.024606314
160	0x3cba53c1	0.022745015
161	0x3cacf231	0.02111158
162	0x3cc7d147	0.024391783
163	0x3cedae23	0.029013699
164	0x3a766883	0.0009399729
165	0x3c70469f	0.014665275
166	0xbc09d5ca	-0.008412788
167	0x3b80fbfc	0.003936289
168	0xbcf7368a	-0.030177373
169	0xbcec2a9b	-0.02882891
170	0x3d4f2d55	0.05058034
171	0x3ca46a13	0.020070111
172	0xbd194e89	-0.037428413
173	0x3d02aa47	0.03190067
174	0x3bd1bf1d	0.0064009563
175	0x3d36f12e	0.0446636
176	0x3c5ce94f	0.0134833595
177	0xbd3326ac	-0.043738052
178	0xbc4d83b2	-0.012543606
179	0x3d0f8cd7	0.035046425
180	0x3c7852ba	0.015156442
181	0xbc94e3f6	-0.018175106
182	0x3c97249c	0.018450074
183	0x3cdc39b8	0.026882991
184	0xbd162dcd	-0.036664773
185	0xbcca030b	-0.024659654
186	0x3d2b788f	0.04186302
187	0xbcb6c459	-0.022310423
188	0xbc369621	-0.011144192
189	0xbb7ba3db	-0.0038397226
190	0xbc37f68f	-0.011228218
191	0x3cc4e905	0.024036894
192	0x3c7e93c5	0.015538161
193	0x3c144084	0.009048585
194	0x3d2a82a9	0.041628513
195	0xbb16da6a	-0.0023018369
196	0xbc96e212	-0.018418346
197	0xbb9c3aa1	-0.0047677313
198	0xbb48589e	-0.0030570398
199	0x3c2f0754	0.0106828995
200	0xbb6f0b97	-0.0036475414
201	0x3cdd2732	0.026996229
202	0x3ce45815	0.027874032
203	0x3ada4783	0.0016653392
204	0xbc0bcafc	-0.008532282
205	0xbc692fd6	-0.014232596
206	0xbb9805d0	-0.004639365
207	0x3c8f8ad6	0.017522257
208	0xbbd02188	-0.0063516535
209	0xbc8aa751	-0.016925486
210	0x3b390e22	0.0028237184
211	0xbd3c24ed	-0.045933653
212	0xbd11ddf9	-0.03561208
213	0xbbe49b2c	-0.0069765057
214	0xbc049802	-0.008092882
215	0xbcb15266	-0.021645736
216	0x3cdeb7ce	0.027187254
217	0x3ba1d386	0.0049385456
218	0x39a91a9f	0.00032254026
219	0x3c3728b4	0.011179138
220	0x3b44116c	0.002991761
221	0x39ed4aa2	0.00045259768
222	0xbd50a113	-0.050934862
223	0x3c00885c	0.007845011
224	0xbc827cc0	-0.015928626
225	0xbd4c271f	-0.049841996
226	0xbcd8829d	-0.026429469
227	0x3d21a1f9	0.03946111
228	0xbb533362	-0.0032226671
229	0xbc6907e4	-0.014223073
230	0xbca90146	-0.02063049
231	0xbc819cbd	-0.015821809
232	0xbd06a810	-0.03287512
233	0xbbd1c2d0	-0.0064013973
234	0xbc9cb356	-0.019128483
235	0x3c481c7c	0.012213822
236	0x3cee1651	0.029063376
237	0x3d02a5ba	0.03189633
238	0x3d9acd7b	0.075587235
239	0xbbb32387	-0.0054668817
240	0x3d5b5a33	0.053552818
241	0x38159600	3.5664067e-05
242	0x3c2af181	0.010433556
243	0xbcb03b9f	-0.021512805
244	0x3cd38a94	0.025822915
245	0x3c18d561	0.009328217
246	0x3bb35f72	0.0054740245
247	0x3db7c3a0	0.089728594
248	0xbaf01858	-0.0018317802
249	0xbce72322	-0.028214995
250	0xbca018f7	-0.019543154
251	0x3c7c93c3	0.0154160885
252	0x3c18f097	0.009334705
253	0x3cca6fc1	0.024711492
254	0xbcd76184	-0.026291616
255	0x3b7137ff	0.0036807058

walk_encoder.feature_encoder.0.bias f4 [64]
0	0x3bcac7b2	0.0061883563
1	0x3d4cfb98	0.050044626
2	0x3d36550c	0.0445147
3	0x3ca011e5	0.019539783
4	0xbd005cc3	-0.031338464
5	0xbc8eebf3	-0.017446494
6	0xbd33ef79	-0.04392955
7	0xbc8fa9d1	-0.01753703
8	0x3c5678c1	0.013090313
9	0x3c0a9e0a	0.008460531
10	0xbc82f020	-0.015983641
11	0xbcb323ac	-0.021867596
12	0x3cc4a82b	0.02400597
13	0x3d053b76	0.03252741
14	0xbcd05d38	-0.025435075
15	0x3ae383d2	0.0017358011
16	0x3cdd6d3b	0.027029624
17	0x3d28d543	0.041219007
18	0x3d03b3af	0.03215378
19	0x3b1eb909	0.0024219176
20	0x3d5ee763	0.054419886
21	0x3d43c4a4	0.047794953
22	0x3d22e40b	0.03976826
23	0x3d41fa69	0.04735795
24	0x3d151c9c	0.036404237
25	0xbd417008	-0.047225982
26	0x3d51098a	0.051034488
27	0x3cce1687	0.025157226
28	0x3c0cc679	0.008592241
29	0xbc7094a4	-0.014683876
30	0x3d1e0c7f	0.038586136
31	0x3c0aafcf	0.008464768
32	0x3c0e4908	0.008684404
33	0x3d518fea	0.051162638
34	0x3c55f209	0.013058194
35	0x3d38e72a	0.04514233
36	0x3b6b9b46	0.0035950704
37	0x3ce2618e	0.027634408
38	0xbc254e2a	-0.010089437
39	0xbc121456	-0.008915981
40	0x3b088d99	0.0020836352
41	0x3c91cd74	0.017798163
42	0x39db9f6d	0.00041889717
43	0x3c64cf73	0.013965475
44	0xbc2a6638	-0.010400347
45	0x3c63108e	0.013858927
46	0x3c84ab76	0.01619504
47	0x3cf3bb0c	0.029752277
48	0x3c74d109	0.014942416
49	0x3ce9b37a	0.028527964
50	0x3d34dbdf	0.044154998
51	0xbb230544	-0.0024874965
52	0x3cbe10cc	0.023201369
53	0x3a9e36bd	0.0012070757
54	0x3d333fe7	0.043762114
55	0x3d0ee42b	0.034885567
56	0x3d31be1d	0.043394197
57	0xbc8cc909	-0.017185705
58	0x3ca3dcd2	0.020002756
59	0x3cd71928	0.026257113
60	0x3d37b9d1	0.044854943
61	0x3be416cc	0.0069607254
62	0xbce0b090	-0.027427942
63	0x3bc5e5a6	0.006039339

walk_encoder.feature_encoder.3.weight f4 [64, 64]
0	0xbcbe8d98	-0.023260877
1	0x3d33e4eb	0.043919485
2	0x3c150e86	0.009097701
3	0xbcf439e0	-0.029812753
4	0xbd42b369	-0.04753438
5	0xbd5f955d	-0.054585803
6	0xbd8ba25f	-0.06818079
7	0xbd505a35	-0.050867278
8	0xbcba3085	-0.022728214
9	0xbd9b1592	-0.075724736
10	0xbd01064d	-0.03150015
11	0xbdb0ce9d	-0.08633158
12	0x3d31d6c3	0.043417703
13	0x3d9a7a73	0.075428866
14	0x3d2584c8	0.040409833
15	0x3d478d4c	0.048718736
16	0xbdddb057	-0.1082465
17	0x3cc06b49	0.023488658
18	0x3d0dce91	0.034620825
19	0xbd2e50f6	-0.04255768
20	0x3cbcc229	0.023041802
21	0xbd98f3e0	-0.074683905
22	0xbd8c837b	-0.068610154
23	0x3d0af1ae	0.03392189
24	0xbcf20898	-0.029545113
25	0xbd11f85b	-0.03563724
26	0xbd868120	-0.065675974
27	0x3d0beafc	0.034159645
28	0x3bebd529	0.0071970415
29	0xbd846ea3	-0.06466415
30	0x3c83857b	0.01605486
31	0xbddf56d0	-0.1090523
32	0x3d6ecfbd	0.058303583
33	0x3c5b01fa	0.0133671705
34	0x3cbf52b9	0.023354875
35	0x3df47bfd	0.119377114
36	0xbc797aa2	-0.015226992
37	0xbba24f55	-0.004953305
38	0x3e00d038	0.12579429
39	0xbd5cba36	-0.053888522
40	0xbd388e3f	-0.04505753
41	0xbdce1f49	-0.10064561
42	0xbd90a3c2	-0.07062484
43	0x3bc24f65	0.0059298747
44	0xbdb21041	-0.086945064
45	0xbd6b6d14	-0.057477072
46	0x3de01e91	0.1094333
47	0xbd637d98	-0.055539697
48	0x3da8d659	0.082440086
49	0x3da69250	0.08133376
50	0x3ba242b9	0.0049518016
51	0x3dbf9755	0.09355036
52	0xbd576989	-0.05259088
53	0xbd1db112	-0.038498946
54	0x3c8787ce	0.016544249
55	0xbdafaaa8	-0.08577472
56	0xbde9a327	-0.11408072
57	0xbd169e66	-0.036772154
58	0x3d99eb33	0.07515564
59	0x3d1f2d43	0.038861524
60	0x3d3b562a	0.04573647
61	0x3d6f42e0	0.058413386
62	0x38baaa20	8.9008594e-05
63	0xbd7d907f	-0.06190538
64	0xbd0737b2	-0.0330121
65	0x3dac90e5	0.08426074
66	0x3da907ed	0.08253465
67	0x3c7956ae	0.01521842
68	0x3d65f092	0.05613763
69	0xbd87d9c3	-0.066333316
70	0x3d6e704e	0.05821257
71	0xbd0634a6	-0.032765053
72	0x3d4eaba2	0.05045665
73	0x3dd38f96	0.10330121
74	0x3d3fac89	0.0467954
75	0x3d46500a	0.048416175
76	0xbcfb3e0b	-0.030669233
77	0x3dc01e7f	0.09380817
78	0xbc54806b	-0.01297007
79	0xbd57982f	-0.052635368
80	0xbd1cc3f5	-0.038272817
81	0xbda282b4	-0.07935086
82	0xbd9bb551	-0.07602943
83	0x3e159d31	0.14610745
84	0xbe04c07b	-0.1296405
85	0xbde09708	-0.10966307
86	0x3d0095d9	0.031392906
87	0x3da8a8b8	0.082353055
88	0xbcfd9ee0	-0.030959547
89	0xbd66f489	-0.05638555
90	0xbd10ea1d	-0.035379518
91	0x3d17a542	0.037022837
92	0x3dad3801	0.084579475
93	0x3d0eb49a	0.034840204
94	0x3ce19006	0.027534496
95	0x3d3e8f90	0.04652363
96	0xbd85f752	-0.06541313
97	0x3da899be	0.08232449
98	0x3d97aa07	0.07405477
99	0x3db3178e	0.08744727
100	0xbb9d6618	-0.0048034303
101	0x3cadd6b4	0.021220542
102	0xbb3d31de	-0.0028868834
103	0xbd70e7ed	-0.05881493
104	0xbdd77006	-0.10519414
105	0xbb20f5fa	-0.0024560676
106	0xbd7480c8	-0.059693128
107	0x3c874e0f	0.016516713
108	0x3dd0240d	0.10163126
109	0xbd3b4d7e	-0.0457282
110	0x3989301e	0.00026166526
111	0x3d94f826	0.07273893
112	0xbdaab836	-0.08335917
113	0xbd9567db	-0.072951995
114	0xbe07fbf1	-0.13279702
115	0xbd0dc96a	-0.03461591
116	0xbc9d85ed	-0.0192289
117	0x3974b710	0.0002333785
118	0x3c825777	0.015910847
119	0xbc9284d2	-0.0178856
120	0x3c11bc98	0.008895062
121	0xbddbbc96	-0.10729329
122	0x3d6349a9	0.05549017
123	0x3d043e25	0.03228583
124	0x3caec64c	0.02133479
125	0xbd951eec	-0.072812885
126	0xbd782896	-0.06058558
127	0x3cdd4f67	0.027015401
128	0xbd9ed137	-0.07754748
129	0xbe1068e8	-0.14102519
130	0xbc630c38	-0.013857894
131	0x3c7fdfe1	0.015617342
132	0x3cc9b5bc	0.02462279
133	0x3bc31e82	0.0059545645
134	0xbbb4b789	-0.005515043
135	0xbd3cff77	-0.046142068
136	0x3d62b874	0.05535169
137	0x3c0926fa	0.008371109
138	0x3d50ec2d	0.051006485
139	0xbdc4924d	-0.09598217
140	0x3c9e1ca2	0.019300763
141	0x3de08fd1	0.10964931
142	0xbdbddd0d	-0.09270678
143	0xbd42a019	-0.047515962
144	0xbe26802b	-0.1625983
145	0xbdc1ec5e	-0.094689116
146	0xbdb16b86	-0.086630866
147	0xbd4825eb	-0.048864286
148	0xbe2955fe	-0.1653671
149	0x3c13f9d0	0.009031728
150	0xbd3d2817	-0.04618081
151	0x3d1200a9	0.03564516
152	0xbd1f0efc	-0.03883265
153	0xbd7f7898	-0.062370867
154	0xbcbf5049	-0.023353713
155	0xbda5c5db	-0.080943786
156	0x3dbd1966	0.0923336
157	0xbb318f86	-0.0027093603
158	0xbd2b3fe0	-0.041808963
159	0x3a79ba3e	0.00095263484
160	0x3c08bf2a	0.008346358
161	0x3d2ee68a	0.042700328
162	0x3db64698	0.089001834
163	0xbd9221be	-0.07135342
164	0x3ce66997	0.028126521
165	0xbc9e7efd	-0.019347662
166	0xbe2c1711	-0.16805674
167	0x3dcb4bb7	0.09926551
168	0x3c8bf0d7	0.017082615
169	0xbd69ced0	-0.057081997
170	0xbe096f69	-0.13421406
171	0x3cf3f744	0.029780991
172	0xbd8e9b13	-0.06963172
173	0xbdb10bf3	-0.08644857
174	0xbe0ba69e	-0.13637778
175	0xbdbe8818	-0.093033016
176	0xbdd89aeb	-0.10576423
177	0x3c9fd953	0.019512808
178	0xbe328daf	-0.1743686
179	0xbd7180e6	-0.058960818
180	0xbe243b9a	-0.16038361
181	0x3c9f74c6	0.019464862
182	0xbe48a51b	-0.19594233
183	0xbdad108b	-0.08450421
184	0x3b767b02	0.003760994
185	0xbc932e96	-0.01796655
186	0x3d8e89a6	0.06959848
187	0xbd4ae2b0	-0.049532592
188	0xbcaf600c	-0.021408103
189	0xbe08776a	-0.13326803
190	0x3bb9e8c4	0.0056735
191	0xbda2db84	-0.079520255
192	0x3c22c47c	0.009934541
193	0x3a03f562	0.00050338183
194	0xbd925a13	-0.071460865
195	0x3da81fb6	0.082091734
196	0xbdc21bef	-0.09477984
197	0x3d33999b	0.04384766
198	0x39f2d3d5	0.00046315664
199	0xbbe9d5d8	-0.007136088
200	0xbe070535	-0.1318558
201	0x3deefa08	0.116687834
202	0x3ca0142d	0.01954087
203	0xbdef767f	-0.11692523
204	0xbdc5c309	-0.09656341
205	0x3e137f7b	0.14404099
206	0xbc97a20d	-0.018509889
207	0xbd5fcfa8	-0.054641396
208	0xbd091794	-0.03346975
209	0xbda4c5f9	-0.08045573
210	0xbd34d5d8	-0.04414925
211	0xbd2b7767	-0.041861918
212	0x3cab0f1b	0.020881226
213	0x3d5b77c9	0.053581033
214	0xbd67a45f	-0.05655324
215	0x3db178fe	0.086656556
216	0x3d13e51d	0.03610717
217	0x3d22c427	0.039737847
218	0xbe117c16	-0.14207491
219	0x3d007636	0.031362735
220	0x3c9af827	0.018917156
221	0xbdb846af	-0.08997857
222	0xbd9b9a8a	-0.07597835
223	0x3b4beeb0	0.003111761
224	0xbdcbc418	-0.09949511
225	0x3d7cd84d	0.061729718
226	0x3cbb353a	0.022852529
227	0xbadb0de6	-0.0016712516
228	0xbdb79547	-0.08964019
229	0xbe13a92e	-0.14420006
230	0xbc6643ee	-0.014054282
231	0x3ce70b6b	0.028203687
232	0x3cbb942a	0.022897799
233	0xbd8df2ec	-0.06931099
234	0x3d04c35d	0.032412875
235	0xbdc684a0	-0.09693265
236	0xbc810791	-0.015750678
237	0x3cf24465	0.029573629
238	0xbc22ebc1	-0.009943903
239	0xbdb8f246	-0.09030585
240	0xbc893096	-0.0167468
241	0x3dca465a	0.098767
242	0x3c928857	0.017887278
243	0xbd59e341	-0.05319524
244	0xbdeae5dd	-0.11469624
245	0x3c9295e6	0.017893743
246	0xbcb221b4	-0.021744587
247	0xbd035e54	-0.03207238
248	0x3b560776	0.0032658256
249	0xbdee61a2	-0.11639716
250	0x3d232a07	0.039835002
251	0x3dea19f3	0.11430731
252	0xbdc736b8	-0.09727234
253	0x3be9a338	0.007130053
254	0xbd8a80be	-0.06762837
255	0xbe11ebb3	-0.14250068

walk_encoder.feature_encoder.3.bias f4 [64]
0	0xbe15caca	-0.14628139
1	0x3d55e9b9	0.05222485
2	0x3d35d439	0.044391844
3	0x3c189d53	0.009314853
4	0x3d8d3559	0.06894941
5	0x3ccb2e26	0.024802279
6	0xbcf20d66	-0.029547404
7	0xbcf72e45	-0.03017343
8	0xbce5de66	-0.02806015
9	0xbd050666	-0.032476805
10	0x3d3f0238	0.046632975
11	0x3ca7cff4	0.020484902
12	0xbd904ba1	-0.07045675
13	0x3dbabe56	0.09118335
14	0xbdbdf6fe	-0.09275626
15	0xbda4eecb	-0.08053359
16	0x3d35907e	0.04432725
17	0xbc06d3cd	-0.008229208
18	0x398b9525	0.00026623267
19	0x3ca223f2	0.01979253
20	0x3c0d27e1	0.008615465
21	0x3d94e21b	0.07269689
22	0x3d9e2dba	0.077235654
23	0x3cb35504	0.021891125
24	0x3e016727	0.12637006
25	0xbdff2918	-0.1245901
26	0xbd9f8515	-0.07789055
27	0xbdc93538	-0.09824604
28	0xbd6b14f8	-0.057393044
29	0xbd89fa2b	-0.06737169
30	0x3da9601c	0.082702845
31	0x3cf2afb9	0.029624807
32	0x3ba4ae00	0.005025625
33	0x3cf43023	0.02980811
34	0x3c4fa3d0	0.012673333
35	0xbd8b087a	-0.06788726
36	0x3d69c28c	0.0570703
37	0x3db90871	0.09034813
38	0x3d829303	0.063756965
39	0xbc3d6b83	-0.011561277
40	0xbd4fb820	-0.050712705
41	0xbdcdfbf5	-0.100578226
42	0x3d5c8a90	0.05384308
43	0xbd852f48	-0.06503159
44	0x3d88f6f1	0.06687725
45	0x3d1cf6cb	0.038321298
46	0xbd136a92	-0.035990305
47	0x3d1cfdcc	0.038327977
48	0x3c38dbb6	0.011282852
49	0x3da31a88	0.07964045
50	0x3df5f318	0.12009257
51	0x3cd9688e	0.026539113
52	0xbc8057ea	-0.01566692
53	0xbdb2316d	-0.087008335
54	0xbc54abfa	-0.0129804555
55	0x3dc2fd57	0.09520977
56	0x3d3816d3	0.044943642
57	0xbc423789	-0.011854061
58	0x3de41345	0.11136488
59	0x3d23f8bb	0.04003213
60	0x3db500ec	0.088380665
61	0xba4cea7f	-0.0007816925
62	0xbd337fac	-0.04382293
63	0xbd58c4fd	-0.052922238

walk_encoder.path_encoder.weight_ih_l0 f4 [192, 64]
0	0xbc910fa0	-0.017707646
1	0x3c919901	0.017773153
2	0xbc754d3d	-0.014972028
3	0x3adeb534	0.0016991259
4	0x3cc39e71	0.023879262
5	0xbad7e564	-0.0016471562
6	0xbc1b0a2d	-0.009462875
7	0xbc4231d0	-0.011852697
8	0x3be306d0	0.0069283023
9	0x3ba3ae1d	0.004995121
10	0xbb73ab3f	-0.0037180928
11	0xbc984645	-0.018588195
12	0x3c92c3a6	0.017915558
13	0x3bbf8e3d	0.0058458135
14	0xbcd3f577	-0.025873883
15	0xbc8695f3	-0.016428923
16	0xbc738f3b	-0.014865692
17	0xbb605ac1	-0.003423378
18	0xbc19dd3d	-0.009391126
19	0x3c34b317	0.0110290265
20	0x3c2cf1bb	0.01055568
21	0x3c9aea5b	0.018910578
22	0x3c5eba46	0.013594216
23	0xbc5295e0	-0.012853116
24	0x3ce8a72f	0.028400032
25	0xbc8d22cf	-0.017228512
26	0xbc319c5b	-0.010840501
27	0xbd37c1f8	-0.044862717
28	0xbc9a36f5	-0.018825034
29	0x3b82d74a	0.0039929496
30	0x3c50e66b	0.012750248
31	0xbb1831d6	-0.0023223064
32	0xbc275555	-0.010213216
33	0x3b13274e	0.0022453847
34	0xbbcfc153	-0.0063401847
35	0xbccce1b8	-0.025009975
36	0xbca7f8f1	-0.020504447
37	0xbb0a01fc	-0.0021058312
38	0x3a55089b	0.00081265875
39	0x3c9a6fae	0.018852081
40	0xbc352610	-0.011056438
41	0xbbc126f6	-0.005894537
42	0x3c7bb2ca	0.015362451
43	0xbc3f9a45	-0.011694496
44	0x3c99f368	0.018792823
45	0x3c49d2ab	0.012318294
46	0xbc6762f2	-0.0141227115
47	0xbc95cf72	-0.018287394
48	0xbca83f1c	-0.020537905
49	0x3c44a5f6	0.012002459
50	0x3c025135	0.007953932
51	0x3c2c10bf	0.010502039
52	0xbc35fa49	-0.011107036
53	0x3c5cb9f4	0.013472069
54	0x3ce56824	0.02800376
55	0x3aae882e	0.0013315731
56	0x3b8051e3	0.0039160117
57	0xbc5d00a9	-0.013488927
58	0x3c40c1f1	0.011764989
59	0xbbcf8d7f	-0.0063340063
60	0xb8e4de30	-0.00010913273
61	0x3c8ba0aa	0.017044384
62	0xbc97b6a8	-0.018519714
63	0x3bab3a74	0.005225474
64	0x3b99d953	0.0046950965
65	0xba9bbf6a	-0.0011882607
66	0xbbf27e6c	-0.0074003246
67	0x3bcb1166	0.0061971424
68	0xbb460d50	-0.0030220337
69	0xbc89558f	-0.01676443
70	0xb9f71abc	-0.0004713143
71	0x3ad6b4a7	0.0016380743
72	0x3b9c50bf	0.004770368
73	0xbc8ad6ec	-0.016948186
74	0xbb6bffeb	-0.0036010693
75	0xbbb9bed8	-0.0056685023
76	0x3c02e5ed	0.007989389
77	0x3bbe8730	0.0058144554
78	0xbbc980eb	-0.0061494014
79	0xbc1c7ce0	-0.009551257
80	0x3baf8838	0.0053568147
81	0x3b6e9718	0.0036405977
82	0xbc1e6886	-0.009668475
83	0xbaf862ab	-0.0018950304
84	0x3c640a7e	0.013918517
85	0x3bea0f30	0.007142924
86	0xbb42d9e4	-0.0029731924
87	0xbbbd0519	-0.00576843
88	0x3bcf91ab	0.0063345036
89	0x3a83b37f	0.0010048001
90	0x3c6d1a8c	0.014471661
91	0xbc16ad58	-0.009196602
92	0x3b763676	0.0037569082
93	0x3c0a7899	0.008451604
94	0xbc56544b	-0.01308162
95	0xbc2905bd	-0.0103163095
96	0xbb18df48	-0.0023326445
97	0x3a9f336b	0.0012146061
98	0xbb13f401	-0.0022575858
99	0xbb5446ff	-0.003239095
100	0xbad18d1c	-0.0015987488
101	0xbb420b22	-0.0029608686
102	0xbae415fd	-0.0017401573
103	0x3c907959	0.017635988
104	0xbc8e8d9d	-0.01740151
105	0x3b45b1e0	0.0030165836
106	0xbbb54f85	-0.005533161
107	0xbc3ab665	-0.011396025
108	0x3c58458b	0.013200174
109	0xbb33818d	-0.002739045
110	0xb9868106	-0.00025654602
111	0xbc5575b5	-0.013028552
112	0xbc1010c6	-0.008793062
113	0x3c741c70	0.014899358
114	0x3bbe1954	0.005801359
115	0xbb68fc3a	-0.003555073
116	0xbb84204d	-0.004032171
117	0xbb98a689	-0.0046585244
118	0xbbbc7375	-0.0057510682
119	0x3b95be2d	0.00456979
120	0xbb9bfd48	-0.004760418
121	0xbc88bc45	-0.016691336
122	0xbc5e969c	-0.013585713
123	0xbaf87e7d	-0.0018958595
124	0x3bd30368	0.006439615
125	0x3ca83d1c	0.020536952
126	0xbbdf401f	-0.0068130638
127	0x3c6e5848	0.014547415
128	0xbc7e92f1	-0.015537963
129	0x3bad9918	0.005297791
130	0xbc379ee2	-0.011207314
131	0xbc2d3883	-0.0105725555
132	0x3c713cca	0.014723966
133	0x3c3f20f8	0.011665575
134	0xbc4562e4	-0.012047503
135	0xbc77adc2	-0.015117111
136	0x3b905080	0.0044041276
137	0x3c2d61a2	0.0105823595
138	0xbcb3d860	-0.021953762
139	0x3bdf3e8b	0.0068128756
140	0x3c40bcb3	0.011763739
141	0x3bcb6947	0.0062076184
142	0xbac1b064	-0.00147773
143	0xbbd5bb95	-0.0065226057
144	0xbcf0d96f	-0.029400555
145	0xbc0b9cac	-0.00852124
146	0xbc8f05ae	-0.017458763
147	0x3c2167e8	0.009851433
148	0xbc50d0f4	-0.012745131
149	0xbc2cf936	-0.010557463
150	0x3c4bcbb0	0.0124387
151	0xbc6a6bdd	-0.014307943
152	0x3cce1922	0.025158469
153	0xbc88d819	-0.016704606
154	0xbc8eb452	-0.017419968
155	0x3bc5f40a	0.0060410546
156	0xbceb2054	-0.028701939
157	0xbb410cec	-0.0029457165
158	0x3ce93b4d	0.02847066
159	0xbc26e618	-0.010186695
160	0x3c020bd5	0.007937391
161	0x3b18c316	0.002330964
162	0xbb6329b2	-0.0034662304
163	0xbc4b4669	-0.012406924
164	0xbc882349	-0.016618388
165	0xba9c6b9c	-0.0011933926
166	0x3bbaf8bb	0.0057059205
167	0xba46dc59	-0.0007585935
168	0xbbed8e0d	-0.0072496
169	0xbcc5fa1c	-0.024167113
170	0x3c0c9e24	0.008582626
171	0xbad439f1	-0.0016191584
172	0x3c0d4776	0.008622995
173	0xbbdadca7	-0.006679136
174	0xbc0297e7	-0.007970787
175	0xbb0f608e	-0.002187762
176	0x3bdf8617	0.0068214047
177	0xb9c5926a	-0.00037683855
178	0x3c155e4b	0.0091167195
179	0x3c35d032	0.011097001
180	0xbc0ef6ad	-0.008725804
181	0x3ba92c8f	0.0051627825
182	0x3c14d41c	0.009083774
183	0xbbd7ab43	-0.0065816953
184	0x3bc03663	0.0058658584
185	0x3c06e700	0.008233786
186	0x39068712	0.00012829553
187	0xbd0311db	-0.03199945
188	0xbc654e61	-0.013995738
189	0x3c93e2fc	0.01805257
190	0x3bff4045	0.007789644
191	0x3b8eb9dc	0.0043556523
192	0xbd3a19b7	-0.04543468
193	0x3d23b875	0.039970834
194	0xbd284b07	-0.041087177
195	0xbcbe482a	-0.02322777
196	0x3cb7b9a4	0.022427388
197	0xbc5b4f96	-0.013385674
198	0xbc59af6c	-0.013286453
199	0xbd1a7ef5	-0.037718732
200	0x3bfea91a	0.0077716233
201	0xbb4c2aee	-0.0031153518
202	0xbbd18d9a	-0.006395054
203	0x3c9eb3eb	0.019372901
204	0x3c83d7e1	0.01609415
205	0x3c26fc99	0.01019206
206	0xbc87e48e	-0.016588476
207	0xbbdbcb86	-0.0067076115
208	0xbd1bd682	-0.038046367
209	0xbbf15f9c	-0.007366134
210	0xbc94220b	-0.01808264
211	0x3c5a3588	0.013318427
212	0x3c119a45	0.008886878
213	0x3c7d937e	0.015477059
214	0xba905de8	-0.0011014314
215	0xbbb59baf	-0.0055422406
216	0x3d52c677	0.051458802
217	0xbd205f8a	-0.039153613
218	0xbc90a0fb	-0.017654886
219	0xbd30a5ae	-0.043126754
220	0xbd6ca379	-0.057773087
221	0x3cbdcdac	0.023169361
222	0x3d3577df	0.04430377
223	0xbca81ea4	-0.020522423
224	0xbb94e51c	-0.0045439135
225	0xbb8d553a	-0.0043131383
226	0x3c96971b	0.0183826
227	0xbcdb6bee	-0.026784863
228	0xbc842203	-0.0161295
229	0x3ca26496	0.019823354
230	0x3ac0f37f	0.0014721005
231	0x3c8f978d	0.01752832
232	0xbcd2d4ca	-0.025736231
233	0xbd10976b	-0.035300653
234	0x3c5a530c	0.013325464
235	0xbb52a34a	-0.0032140785
236	0x3ce66ae3	0.02812714
237	0xbc01f612	-0.007932203
238	0xbcaf13af	-0.02137169
239	0xbc8ac323	-0.016938752
240	0xbc2d85bb	-0.010590966
241	0x3cba989c	0.022777848
242	0x3cfed7ea	0.031108815
243	0x3c7c32eb	0.015392999
244	0xbc916f3a	-0.017753232
245	0x3c5d4a3c	0.013506468
246	0x3c6ec126	0.014572417
247	0x3c0b7d34	0.0085137375
248	0x3c00f63b	0.007871206
249	0xbcb95006	-0.022621166
250	0x3a1f1171	0.00060679676
251	0x3a1456d2	0.0005658689
252	0xbba23b0e	-0.0049508875
253	0x3cdda48e	0.027056005
254	0xbb7ae7c1	-0.0038285109
255	0x3c369241	0.011143268

walk_encoder.path_encoder.weight_hh_l0 f4 [192, 64]
0	0x3c7086c7	0.014680571
1	0xbd1929ac	-0.037393257
2	0xbd15be7a	-0.036558606
3	0xbcde7f0e	-0.027160194
4	0xb9eba7d6	-0.0004494774
5	0xbcd1074b	-0.025516173
6	0x3b247378	0.0025093239
7	0xbd0a7c3b	-0.03380988
8	0xbd098b3b	-0.033580046
9	0x3c79ab55	0.015238603
10	0xbd03ee57	-0.03220972
11	0xbd1bb199	-0.038011167
12	0x3d46876a	0.048468985
13	0xbbcc2746	-0.0062302677
14	0xbd0d2ff3	-0.034469556
15	0x3b388cb4	0.0028160037
16	0xbd17ada6	-0.03703084
17	0xbc51f540	-0.01281482
18	0xbbdea536	-0.006794597
19	0xbd52a846	-0.05143001
20	0x3bdfce37	0.0068300026
21	0xbb94351a	-0.0045229318
22	0xbcdf5f3c	-0.027267091
23	0x3c17d724	0.009267602
24	0x3d2695d2	0.040670224
25	0x3cc0d290	0.023537904
26	0xbd1f2b34	-0.03885956
27	0x3d3b16f6	0.045676194
28	0x3cafc933	0.021458244
29	0xbd123dcb	-0.03570346
30	0x3d42b19f	0.047532674
31	0x3b8c132c	0.0042747464
32	0xbd2524a9	-0.040318165
33	0xbc0d9225	-0.008640801
34	0xbc49e9fc	-0.012323853
35	0x3d35c6aa	0.044378914
36	0xbd36b822	-0.044609196
37	0x3ca95b52	0.020673428
38	0xbce4cbf6	-0.027929287
39	0xbd1fc425	-0.039005417
40	0xbca1e935	-0.019764522
41	0xbd5f1fdb	-0.05447374
42	0x3c760feb	0.015018444
43	0x3d3a4161	0.045472506
44	0x3c87b41b	0.016565373
45	0xbc109474	-0.0088244565
46	0xbd169baa	-0.036769547
47	0x3d60906e	0.05482524
48	0xbcb9ea7d	-0.02269482
49	0x3ce8644e	0.028368142
50	0xbc4442fd	-0.011978862
51	0xbaf2bd06	-0.0018519468
52	0xbd37e302	-0.044894226
53	0xbb88b7da	-0.0041723074
54	0x3c55cf85	0.013049965
55	0x3c0fb516	0.008771202
56	0xbc34c202	-0.011032583
57	0xbd1f8ce3	-0.03895272
58	0x3d3e468f	0.04645401
59	0xbcee7c2e	-0.029111948
60	0x3b2c4ab8	0.0026289653
61	0x3c4bac07	0.012431151
62	0xbc05a2f1	-0.008156524
63	0x3bee7e91	0.0072782715
64	0xbc639c48	-0.013892241
65	0x3c53ab5a	0.012919271
66	0x3b2d3d19	0.0026434122
67	0x3aec16a9	0.0018012124
68	0x3c61c7fa	0.013780588
69	0x3aaf9d69	0.0013398352
70	0xba36cca2	-0.00069732417
71	0x3c5050cd	0.012714577
72	0x3c5049aa	0.012712875
73	0xbc20f7d0	-0.009824708
74	0x3c0ec215	0.008713265
75	0x3c58ddd8	0.013236485
76	0x3af4a9c0	0.0018666312
77	0xbc01aa42	-0.007914128
78	0x3b7d22f2	0.0038625565
79	0x3ac5ef88	0.0015101293
80	0x3c295e31	0.010337398
81	0x3bf6c9a9	0.007531364
82	0x39cde6c6	0.00039272587
83	0x3b30e1e6	0.0026990115
84	0x3a07ea03	0.0005184712
85	0xba2e88a1	-0.00066579325
86	0xbbf40abd	-0.007447569
87	0xbb7ca18c	-0.0038548438
88	0xbc2ccb82	-0.010546567
89	0xbc1cf2f6	-0.009579411
90	0x3c2a20cf	0.010383799
91	0xbb83bc00	-0.004020214
92	0xbb45f999	-0.0030208586
93	0x3c7039e7	0.0146622425
94	0xbc110b09	-0.008852729
95	0x3b74245f	0.0037253124
96	0xb94afc6c	-0.00019358256
97	0x3bce00a3	0.006286697
98	0x3b9ab1fb	0.004720924
99	0xbb6e90b6	-0.0036402172
100	0x3c784dda	0.01515528
101	0xbc483f96	-0.012222191
102	0xbbedd825	-0.0072584325
103	0x3cb7d0c3	0.022438413
104	0x3c446060	0.011985868
105	0x3bb9fcb7	0.005675878
106	0x3ba6de45	0.0050924146
107	0xbc41b8bd	-0.01182383
108	0x39763b46	0.00023482469
109	0x3a76dd42	0.0009417125
110	0x3c740bfb	0.0148954345
111	0x3af97d6c	0.0019034571
112	0x3b63658b	0.0034697975
113	0xbcaec57d	-0.021334404
114	0x3c02f053	0.007991868
115	0x3bd7ce9e	0.00658591
116	0x3bae2d90	0.00531549
117	0xbaa7b81c	-0.0012795958
118	0xbc8cb10c	-0.017174266
119	0xbc3dc97e	-0.011583684
120	0xba4a1d48	-0.0007710052
121	0x3c27c62b	0.010240118
122	0xbbe5940b	-0.0070061735
123	0x3c87201e	0.016494807
124	0x3bdb8da1	0.006700233
125	0x3c3c3fe7	0.011489845
126	0xbabc521b	-0.0014367731
127	0xbbd20689	-0.0064094705
128	0xbcef5495	-0.029215137
129	0x3cfacb19	0.030614423
130	0x3d3570c5	0.044297
131	0x3d3542c5	0.04425313
132	0x3d12294c	0.035683915
133	0xbc9c0fe7	-0.019050552
134	0xbc269a41	-0.010168613
135	0x3cb5a584	0.02217365
136	0x3c3d7fd4	0.011566121
137	0xbbeca5b2	-0.007221901
138	0xbc961b93	-0.018323695
139	0x3cdd08d7	0.026981754
140	0xbccc79aa	-0.024960358
141	0xbcb418bf	-0.021984456
142	0x3d29a334	0.04141541
143	0x3c912058	0.017715618
144	0x3ceb64d6	0.028734606
145	0x3d24a698	0.04019794
146	0x3b93fb0c	0.004516011
147	0x3b8c8f79	0.004289564
148	0x3d0001a9	0.031251583
149	0xbc950273	-0.018189644
150	0xbcf84fb5	-0.030311445
151	0x3baef411	0.0053391536
152	0xbcd4b0e0	-0.025963247
153	0xbd2183c0	-0.039432287
154	0x3c8c1f36	0.017104726
155	0x3ca938ae	0.02065691
156	0xbd5bc7b3	-0.053657245
157	0x3cd16d96	0.02556495
158	0x3b70de85	0.0036753726
159	0x3cd30fce	0.025764372
160	0x3c9a2e6b	0.018820962
161	0xbb2cbed8	-0.002635887
162	0xbcc195ba	-0.023630966
163	0xbb8d621e	-0.004314675
164	0x3cac5ae7	0.02103944
165	0xbc18b269	-0.00931988
166	0xbd067179	-0.03282306
167	0x3d240384	0.040042415
168	0x3d4762d0	0.04867822
169	0x3cd63e0f	0.026152639
170	0x3c79630a	0.015221367
171	0xbc8e5699	-0.017375277
172	0x3c6f516e	0.014606817
173	0x3b160a57	0.0022894347
174	0x3d05b23d	0.032640684
175	0xbb5e725f	-0.0033942682
176	0xbace6f27	-0.0015749679
177	0xbd2247d9	-0.0396193
178	0xbbb58530	-0.005539559
179	0x3bbe4862	0.0058069685
180	0x3d2bbf96	0.041930757
181	0xbcf3e710	-0.029773265
182	0xbd70ab23	-0.05875696
183	0xbbf655ed	-0.0075175674
184	0xbadc9924	-0.0016830307
185	0x3c8c57e7	0.017131759
186	0xbcef8e2c	-0.029242598
187	0x3cdb0d04	0.026739605
188	0xbc927c96	-0.017881673
189	0x3cdbd3d2	0.026834402
190	0xbc8f513c	-0.01749479
191	0xbbea1e17	-0.0071447003
192	0xbd7bcd16	-0.061474882
193	0x3ce9ed49	0.02855553
194	0x3ce6f6db	0.028193882
195	0xbc7b7907	-0.015348679
196	0x3a4c3e8a	0.00077913015
197	0xb92308b0	-0.00015548128
198	0x3d2bd6df	0.041952964
199	0x3c5e6267	0.013573266
200	0x3d75c0c5	0.059998292
201	0x3cac99db	0.021069458
202	0xbc91f1c2	-0.017815474
203	0x3cd15d0b	0.025557062
204	0xbc379344	-0.011204544
205	0xbc45306f	-0.012035473
206	0xbc6f174f	-0.01459296
207	0xbcde5d0e	-0.027143981
208	0x3d0bd997	0.034143057
209	0x3ce4025f	0.027833162
210	0xbcd656b0	-0.026164383
211	0xba0b1620	-0.0005305726
212	0x3cf86a5b	0.030324152
213	0x3ce03f0d	0.027373815
214	0xbc0aec95	-0.008479257
215	0xbcb1bda2	-0.02169687
216	0xbd2b34f1	-0.041798536
217	0xbd245454	-0.040119484
218	0x3c5812a9	0.013188043
219	0xbc714ba5	-0.014727508
220	0xbd3caf5f	-0.046065684
221	0xbbc2ddea	-0.0059468644
222	0x3905edd0	0.0001277246
223	0xbc092631	-0.008370922
224	0x3c8c9646	0.0171615
225	0x3ce94168	0.028473571
226	0x3c2aa17e	0.010414479
227	0x3c88c64b	0.016696116
228	0x3c9ed5dc	0.019389085
229	0xbc8c959c	-0.017161183
230	0x3d060d67	0.032727625
231	0x3c85b45f	0.01632136
232	0xbb8b7e0a	-0.0042569684
233	0x3c84f28c	0.016228937
234	0x3d804c28	0.06264526
235	0xbc1287c0	-0.008943498
236	0x3c965260	0.018349826
237	0xbd5713a5	-0.05250897
238	0x3d85dc17	0.065361194
239	0xbb77e9ba	-0.003782852
240	0xbc6f30e0	-0.014599055
241	0xbd85be08	-0.06530386
242	0x3c642f78	0.013927333
243	0x3d2edd75	0.042691667
244	0xbcc8e99b	-0.024525454
245	0xbc7f3e0e	-0.01557876
246	0xbbd7daab	-0.0065873466
247	0xbd703041	-0.05863977
248	0x3cbe2518	0.023211047
249	0x3cac1918	0.02100806
250	0xbd82f24b	-0.0639387
251	0x3d8e9c56	0.069634125
252	0xbc853608	-0.016261116
253	0x3c095cbe	0.008383928
254	0x3d735028	0.059402615
255	0x3d1a5d75	0.037686784

walk_encoder.path_encoder.bias_ih_l0 f4 [192]
0	0x3d425bb3	0.047450732
1	0x3d087d05	0.033322353
2	0x3d1e8bbf	0.03870749
3	0x3ddbcd9b	0.107325755
4	0x3dba9976	0.091113016
5	0x3d9d17ba	0.07670541
6	0x3d88d57d	0.06681345
7	0xbcb6ddcd	-0.02232256
8	0xbb82beb7	-0.00399002
9	0xbd11179e	-0.035422914
10	0x3bb5007a	0.0055237385
11	0x3dc6e8c6	0.09712367
12	0x3de29116	0.11062829
13	0x3d40c71e	0.047064893
14	0xbd59a062	-0.05313147
15	0x3d040a73	0.032236528
16	0x3dab2a97	0.08357733
17	0x3dbcba76	0.09215252
18	0x3ce70221	0.028199257
19	0x3d394b93	0.04523809
20	0xbc89ee5b	-0.01683729
21	0xbc83417d	-0.016022438
22	0x3d99c03f	0.07507371
23	0xbc5c2e43	-0.013438764
24	0x3c160cff	0.009158372
25	0x3cd5bb00	0.026090145
26	0xbcad71a3	-0.02117235
27	0x3d12eb56	0.035868965
28	0x3dc75a63	0.09734037
29	0x3d03ef0d	0.0322104
30	0x3c0e0ca8	0.00867001
31	0x3d19fc86	0.03759434
32	0xbd2a6df1	-0.041608755
33	0x3c5cc35d	0.013474313
34	0xbc70d284	-0.014698628
35	0x3c4a307a	0.012340659
36	0x3ddb1ae1	0.10698486
37	0xbd539b58	-0.05166182
38	0xbc59b0fe	-0.013286827
39	0x3c8bf2c9	0.017083542
40	0xbbc2a8e9	-0.005940546
41	0xbca44163	-0.02005071
42	0xbd1087fb	-0.03528593
43	0xbd25c69f	-0.040472623
44	0xbc05061d	-0.008119133
45	0x3d35996e	0.044335775
46	0x3d363453	0.044483494
47	0x3cbe89f2	0.023259137
48	0xbcccb826	-0.024990153
49	0x3dd7760e	0.10520564
50	0xbcc7aacd	-0.024373436
51	0xbb98c2a0	-0.004661873
52	0xbc949ac2	-0.0181402
53	0x3d88aa6b	0.0667313
54	0x3d04139c	0.032245263
55	0x3bed72e1	0.0072463606
56	0x3d38754f	0.04503375
57	0x3d041189	0.032243285
58	0x3d91cd82	0.07119276
59	0xbc50f582	-0.012753846
60	0xbc36247b	-0.011117096
61	0xbceb2a9c	-0.028706841
62	0xbca7d824	-0.020488806
63	0x3d73c6dc	0.05951582
64	0xbda0cd1d	-0.07851622
65	0xbdadbdc3	-0.0848346
66	0x3d32713e	0.043565027
67	0x3ce85618	0.028361365
68	0x3d7747b9	0.060371134
69	0x3bc2ce6f	0.005945019
70	0x3deaab8a	0.114585
71	0xbd760c07	-0.060070064
72	0x3c0e4b13	0.008684891
73	0x3ad342c4	0.001611792
74	0x3dea9c44	0.114555866
75	0xbceea65e	-0.029132064
76	0xbda9aecf	-0.08285295
77	0xbc91bb00	-0.017789364
78	0xbc521b0b	-0.01282383
79	0x3cfb6441	0.030687453
80	0x3c341487	0.010991222
81	0x3d1bd126	0.038041256
82	0xbc58f6c4	-0.013242427
83	0xbd5ac771	-0.05341286
84	0x3d2c295f	0.042031642
85	0x3da654e4	0.0812166
86	0x3c0ea9fa	0.008707518
87	0x3c9d0ec3	0.019172078
88	0xbd39b2bb	-0.045336466
89	0xbd014bff	-0.031566616
90	0xbd1f4834	-0.038887218
91	0x3d82f726	0.06394796
92	0x3d4a6811	0.04941565
93	0xbc45e262	-0.0120779
94	0xbd18be07	-0.0372906
95	0x3b000832	0.0019536135
96	0xbc5170ee	-0.012783272
97	0x3e010b76	0.12602028
98	0x3dd6e634	0.104931265
99	0x3da550af	0.0807203
100	0x3da20f37	0.07913058
101	0xbd526377	-0.05136439
102	0x3c7dc4f0	0.015488848
103	0x3d5568f5	0.052102048
104	0x3db98081	0.09057713
105	0x3dd1aeae	0.10238396
106	0x3d1da131	0.038483802
107	0xbceefd7d	-0.029173607
108	0x3db35ea3	0.08758285
109	0xbb95034e	-0.004547513
110	0x3d76fdd2	0.060300656
111	0x3da618ba	0.08110185
112	0x3d454f45	0.0481713
113	0xbd755d25	-0.059903283
114	0xbce8ce18	-0.028418586
115	0xbd780d90	-0.06055981
116	0xbc274557	-0.010209403
117	0x3cf85d2e	0.030317869
118	0x3cac2026	0.021011423
119	0x3d8d6f15	0.06905953
120	0x3cc8c748	0.024509087
121	0x3d607bd3	0.054805588
122	0xbcffeaa0	-0.031239808
123	0x3d5f2c39	0.054485533
124	0x3d460778	0.048346967
125	0x3d77c497	0.060490217
126	0x3d3ea908	0.04654792
127	0xbdbfe6c2	-0.093701854
128	0xbe0cede4	-0.13762623
129	0xbcf2b742	-0.0296284
130	0x3c44b2c9	0.012005516
131	0xbcc0a932	-0.023518179
132	0x3d2b70c0	0.041855574
133	0x3d47b247	0.048754003
134	0x3df5d1e3	0.12002923
135	0x3dd17e5a	0.10229178
136	0xbc660d6c	-0.014041286
137	0x3d85edb4	0.06539479
138	0x3d7c2a38	0.0615637
139	0x3bffb05c	0.007803006
140	0xbd63c38e	-0.055606417
141	0x3ca8c7ff	0.020603178
142	0xbdba1d35	-0.09087602
143	0xbc4f6b2f	-0.012659832
144	0x3d468670	0.048468053
145	0xbdbd2b6a	-0.09236796
146	0xbdf649da	-0.12025805
147	0xbdb7ce45	-0.0897489
148	0x3ddf2d80	0.1089735
149	0xbdb7826c	-0.08960423
150	0x3dac44e3	0.084115766
151	0xbdbef160	-0.093233824
152	0xbe08f5de	-0.13375041
153	0x3d2f1def	0.042753156
154	0x3d762e4d	0.06010275
155	0x3df69a45	0.12041143
156	0xbd3afcec	-0.04565136
157	0xbd60ad5e	-0.054852836
158	0xbd1dc52c	-0.038518116
159	0x3dd4a417	0.1038286
160	0x3d0c143a	0.034198977
161	0x3d8ff0ff	0.07028388
162	0xbdcbd0c2	-0.09951927
163	0x3d22ba11	0.039728228
164	0x3def1474	0.11673823
165	0xbcbdc4cb	-0.023165127
166	0xbc8d50cf	-0.017250447
167	0x3ce6a94e	0.028156903
168	0x3cd533ae	0.02602562
169	0x3df4bb67	0.11949807
170	0x3e18b314	0.14912063
171	0x3bc48dd4	0.0059983525
172	0x3d856297	0.06512945
173	0xbda7fcd1	-0.08202518
174	0x3c96fde4	0.018431611
175	0xbd525026	-0.051345967
176	0x3da6d77d	0.0814657
177	0xbe05562e	-0.13021156
178	0xbc479564	-0.012181614
179	0x3dcb83ad	0.099372245
180	0xbd87830d	-0.06616793
181	0x3d14371c	0.03618537
182	0xbd940154	-0.07226816
183	0xbcd0f244	-0.025506146
184	0x3dc246a7	0.09486132
185	0x3dd53cbd	0.104119755
186	0xbdcac2fb	-0.09900471
187	0x3d8e8cb0	0.06960428
188	0xbdb17e35	-0.0866665
189	0xbc7cc13b	-0.015426929
190	0x3df047c6	0.1173244
191	0x3e032be6	0.12809715

walk_encoder.path_encoder.bias_hh_l0 f4 [192]
0	0xbc46cb7c	-0.012133475
1	0xbcac6565	-0.021044442
2	0xbc97e669	-0.018542485
3	0x3db6b25e	0.089207396
4	0x3d1004d6	0.035160862
5	0xbb02c8de	-0.0019956152
6	0xbd72eea8	-0.05930963
7	0xbcb9a78c	-0.0226629
8	0x3d92a65c	0.07160637
9	0xbca7c056	-0.020477455
10	0x3dbe849b	0.09302636
11	0xbd326877	-0.043556657
12	0x3dd086e6	0.1018198
13	0x3c5b212b	0.013374607
14	0x3de05201	0.10953141
15	0x3d46a989	0.048501525
16	0x3d98b838	0.07457012
17	0x3d6dac36	0.05802556
18	0xbd71eef4	-0.059065774
19	0x3d518abb	0.051157694
20	0xbc9a6055	-0.018844763
21	0x3d00891b	0.031380754
22	0x3da0b20e	0.07846461
23	0x3d1303f2	0.035892434
24	0xbc94e59b	-0.01817589
25	0x3ddc3cb5	0.107537664
26	0xbcebff70	-0.028808326
27	0xbbd93c00	-0.006629467
28	0x3df3e6a3	0.11909225
29	0x3cbf0b6e	0.02332088
30	0x3c6f3930	0.014601037
31	0x3c7bf0ef	0.015377267
32	0x3d2bade3	0.04191388
33	0x3dc7238a	0.097235754
34	0x3d9488e4	0.07252672
35	0xbc2736f3	-0.010205972
36	0x3d6d53fb	0.05794142
37	0xbd73d5b1	-0.059529964
38	0x3de63251	0.11240066
39	0x3dc4d825	0.09611539
40	0x3ce7d730	0.028300852
41	0x3d929e66	0.07159118
42	0x3c0c67c4	0.0085696615
43	0x3c8fbe9c	0.017546944
44	0xbcdb1565	-0.0267436
45	0xbcb0bee3	-0.021575397
46	0x3c01a216	0.007912179
47	0x3d7bfcd4	0.061520413
48	0xbc9bc67a	-0.01901554
49	0x3df56efa	0.11984058
50	0x3b0182d2	0.0019761813
51	0xbc3d3cde	-0.011550156
52	0x3dade7b0	0.084914565
53	0xbc44c994	-0.012010951
54	0xbafbd208	-0.0019212374
55	0x3db517dd	0.08842442
56	0x3c87fafd	0.016599173
57	0x3c055ad7	0.008139334
58	0xbcb7ed91	-0.022452148
59	0x3d119a74	0.03554769
60	0xbb7453bc	-0.0037281355
61	0x3ca95cfa	0.020674217
62	0xbcb9b319	-0.022668408
63	0xbd195178	-0.03743121
64	0xbdb415ee	-0.08793245
65	0xbdab70ac	-0.083711
66	0x3d3f77ab	0.046744984
67	0x3d6ee3a6	0.05832257
68	0x3d014b14	0.03156574
69	0x3df6c9c5	0.12050203
70	0xbcc868ba	-0.024464
71	0x3c78eed0	0.015193656
72	0xbbb73266	-0.0055907248
73	0x3d544510	0.051823676
74	0x3da80032	0.08203162
75	0xbd2ef9a6	-0.042718552
76	0xbcd31898	-0.025768563
77	0xbb4638ec	-0.003024633
78	0xbd9fd967	-0.07805138
79	0x3b0f793b	0.0021892327
80	0x3b65958e	0.0035031768
81	0x3cc3ab86	0.0238855
82	0x3d6d8ef3	0.057997655
83	0x3d376292	0.04477174
84	0x39e4f788	0.00043671974
85	0x3db229aa	0.08699353
86	0x3cbef64d	0.023310805
87	0x3c34097b	0.010988588
88	0xbcc32330	-0.02382049
89	0xbd51a24a	-0.05118016
90	0xbd1569ce	-0.036477856
91	0x3d92d11f	0.07168793
92	0x3cc74c7b	0.02432846
93	0x3dc2ac15	0.09505478
94	0x3c440a91	0.01196541
95	0xbb2942fe	-0.0025827284
96	0x3da29ac8	0.079396784
97	0xbd7ae560	-0.061253905
98	0x3dfe0bca	0.12404592
99	0xbcfae9fe	-0.030629154
100	0xbd11f8f9	-0.03563783
101	0xbd3c1a6b	-0.04592363
102	0xbc9e8359	-0.01934974
103	0x3da3ccdb	0.079980575
104	0x3cddc5e6	0.027071904
105	0xbd3b9dd7	-0.045804825
106	0xbdc410fc	-0.09573552
107	0x3d4377ca	0.04772166
108	0x3ddcf399	0.1078865
109	0x3dc882b4	0.09790555
110	0xbd367156	-0.04454168
111	0x3c0bee80	0.00854075
112	0x3d8b61f8	0.068057954
113	0xbdb58d4c	-0.08864841
114	0xbb98b2e7	-0.0046599987
115	0x3db15bbc	0.08660075
116	0x3cebefca	0.028800864
117	0x3cbc350b	0.022974512
118	0x3da29489	0.07938487
119	0x3d432686	0.04764416
120	0xbc3a5401	-0.011372567
121	0x3bd7d35d	0.0065864758
122	0xbd866936	-0.06563036
123	0x3db6463c	0.08900115
124	0x3cfe602e	0.031051721
125	0xbd421f22	-0.04739297
126	0x3d9733fa	0.073829606
127	0xbcb930e7	-0.022606326
128	0xbc186f24	-0.009303842
129	0xbd278927	-0.040902283
130	0x3dbdd97e	0.09269999
131	0x3dd81eea	0.105527714
132	0x3ddb38e3	0.1070421
133	0xbd4115c0	-0.047139883
134	0x3ddbb8f8	0.10728639
135	0xbd9c55a5	-0.07633523
136	0x38b5dc4b	8.671785e-05
137	0xbd04b63c	-0.032400355
138	0xbd31bccf	-0.043392953
139	0x3cb9a1c9	0.022660153
140	0xbcf036a4	-0.02932293
141	0x3d96ca4e	0.07362805
142	0xbdd3aee3	-0.10336091
143	0xbd165967	-0.036706354
144	0x3c6d3511	0.014477984
145	0x3ddb695e	0.107134566
146	0x3d7073ae	0.05870407
147	0xbd9fad90	-0.07796776
148	0xbcaaa724	-0.020831652
149	0x3ddd4ad7	0.1080529
150	0xbdf2a4bf	-0.11847829
151	0xbddb1213	-0.10696807
152	0x3d6d8390	0.057986796
153	0xbdbf5e30	-0.09344137
154	0x3b76b9d7	0.003764739
155	0xbd5f64b2	-0.05453939
156	0x3bc64d71	0.006051712
157	0x3c5d4173	0.013504374
158	0xbd9544a6	-0.07288484
159	0xbd89182a	-0.06694062
160	0xbd129685	-0.035788078
161	0x3d4f8625	0.05066504
162	0xbdb33067	-0.087494664
163	0x3bbee343	0.0058254316
164	0x3c7dacd7	0.015483103
165	0x3df7a1a0	0.120913744
166	0x3d914f24	0.07095173
167	0x3d01d0f1	0.031693403
168	0xbd7d7266	-0.061876677
169	0xbdd34d3d	-0.103174664
170	0x3a84e6e7	0.0010139615
171	0xbd8d6660	-0.06904292
172	0x3b94d979	0.0045425263
173	0xbd9d41e8	-0.07678586
174	0x3d79abeb	0.06095497
175	0x3d879e30	0.06621969
176	0x3c2f9759	0.010717236
177	0x3d742b0b	0.05961136
178	0x3d96be43	0.07360508
179	0x3c8293cc	0.015939616
180	0x3bbe6bde	0.0058111986
181	0xbd0e1f66	-0.034697913
182	0x3de32a2d	0.11092029
183	0xbde396f5	-0.11112777
184	0x3d9aca2a	0.07558091
185	0x3cad19f1	0.021130534
186	0xbdcc7264	-0.09982756
187	0x3d9827a8	0.07429439
188	0x3d91396d	0.07091031
189	0xbd4f1b4a	-0.050563134
190	0xbcb4a7e9	-0.022052722
191	0x3dec4901	0.11537362
