rwgnn2/checkpoints/model_fold_1.pt (torch, 68235 bytes, 16 tensors)

adj_hidden f4 [16, 10]
000000 20 4a 15 3d 98 ae 49 bf 70 30 77 be 7e 9a 46 3f
       0.036447644 -0.78782034 -0.24139571 0.77579486
000010 90 82 13 3e 90 b6 0a be 0a 22 42 3f 1e a6 0a 3f
       0.14405274 -0.13546205 0.7583319 0.54159725
000020 8e a9 0f 3f bc f3 f2 3e bc 31 af be 9a ea 63 bf
       0.56118095 0.4745158 -0.34217632 -0.8902985
000030 a2 98 17 bf ac 2a 18 bf 98 94 8e 3e fe 4b 4d 3f
       -0.59217274 -0.5944011 0.27847743 0.8019408
000040 60 a5 6c 3f e0 fe 4c 3f 58 4c 11 3e d8 4d 30 3f
       0.9243984 0.8007641 0.14189279 0.6886878
000050 20 91 4d 3d 18 cd ed 3e 26 79 29 bf 6c 96 76 3f
       0.05018723 0.46445537 -0.6620048 0.96323276
000060 00 b2 ec 3e 00 c0 c0 3a 74 45 cb be a0 58 33 3e
       0.46229553 0.0014705658 -0.39701426 0.17514277
000070 c0 ed eb bd 1a b3 25 bf d2 9b 1e bf 28 3b cc be
       -0.115199566 -0.6472641 -0.6195651 -0.39888883
000080 c0 10 6b 3e f4 10 25 bf fc 14 0d 3f 2e fe 0c bf
       0.22955608 -0.64478993 0.55110145 -0.5507535
000090 a0 e9 19 3f 80 4b 0d 3d 00 74 e1 3a 30 4a 0a 3e
       0.6012211 0.03449583 0.0017200708 0.13504863
0000a0 00 20 f7 bb 18 0f fd 3e 70 c8 a3 bd a4 c3 b4 be
       -0.0075416565 0.49425578 -0.07997215 -0.35305512
0000b0 a0 80 d5 3d 70 e5 15 bf 2c f0 cc 3e 20 02 ce 3d
       0.10424924 -0.5855322 0.40026987 0.10058999
0000c0 7c 23 01 3f e8 91 33 be 00 1d b9 bb 94 cc f3 be
       0.5044477 -0.17536128 -0.005649209 -0.47617018
0000d0 20 d9 e5 be 00 a3 ca 3c 2c 0c 03 3f b8 b6 c1 be
       -0.44892216 0.024735928 0.5119045 -0.37834716
0000e0 d2 2f 49 3f 70 dc ac be d0 82 52 be ae 22 4d 3f
       0.78588593 -0.3376193 -0.20557714 0.8013104
0000f0 88 dd 39 be c0 3a 0b 3f 50 a7 c9 bd 42 2a 18 3f
       -0.18150914 0.5438652 -0.098463655 0.5943948
000100 30 2e 05 3e d8 42 f1 be c4 a2 28 bf b8 f7 17 3f
       0.130059 -0.4712131 -0.6587336 0.59362364
000110 f8 a3 7b 3e 18 0a 1f be a0 a3 43 be 88 87 d4 be
       0.24574268 -0.15531194 -0.19105387 -0.41509652
000120 fe 50 31 bf 30 2b 63 3e e4 ab 59 bf 00 64 59 bc
       -0.6926421 0.22184443 -0.8502791 -0.013268471
000130 94 f0 36 3f 84 98 e9 3e cc 4e 0a 3f 18 46 3d 3e
       0.71460843 0.45624173 0.54026484 0.1848377
000140 6c 31 0f bf 38 80 02 3f 82 c5 47 3f f0 8f d1 3e
       -0.55934787 0.50976896 0.7803575 0.40930128
000150 1e 50 32 3f b4 b4 4e bf 68 c3 5e bf e0 26 6d be
       0.696535 -0.8074448 -0.87016916 -0.23159361
000160 40 b9 86 3e 28 7b 24 3f 54 51 96 be 14 a6 e2 be
       0.2631321 0.6425042 -0.29358923 -0.44267333
000170 24 1c 25 3f 80 0e fb bc 50 e6 8a 3d f2 40 74 bf
       0.64496064 -0.030646563 0.0678221 -0.954116
000180 40 3b be bd 90 63 f8 3e 82 37 77 3f 80 d2 be 3d
       -0.09288645 0.4851346 0.96569073 0.093174934
000190 fa 9b 22 3f 50 56 0e 3e 52 08 4a bf 60 07 0a bd
       0.6351925 0.13900113 -0.78918946 -0.03369844
0001a0 10 f7 ae be 38 0f 0b be e8 26 c7 be f0 5f 3f 3f
       -0.3417287 -0.13580024 -0.3889687 0.74755764
0001b0 34 fb 50 bf 5c e0 19 bf ec fa 9e be d4 7a 56 3f
       -0.81633306 -0.6010797 -0.31050813 0.8378117
0001c0 20 8b 51 be a8 ed d0 3e 98 05 fb 3e 82 1d 5b 3f
       -0.20463228 0.40806317 0.49027705 0.855919
0001d0 70 47 6b be 18 4a 3f 3e 1c e5 f9 be b0 ab 9b bd
       -0.2297647 0.18680608 -0.4880761 -0.07601106
0001e0 20 63 5b bf 90 e1 50 bf 90 42 8b 3e 88 33 44 bf
       -0.8569813 -0.8159418 0.2719922 -0.7664113
0001f0 b6 cc 05 3f 3a 36 3d 3f 18 a7 b3 3e 20 ff c3 3e
       0.5226549 0.7391087 0.3508842 0.38280582
000200 d0 96 68 bf 80 c4 ec be 04 d7 38 bf 80 be 72 bf
       -0.9085512 -0.46243668 -0.7220309 -0.9482193
000210 c8 a9 d9 3e 28 78 6a 3e 22 94 73 3f dc 0f 8d be
       0.42512345 0.22897398 0.9514791 -0.27551162
000220 4a 7f 29 bf ec 5e 5c bf 00 3c 7c 3d 80 4c 0c bf
       -0.6620985 -0.8608234 0.061580658 -0.5480423
000230 60 aa 35 3e c8 56 29 3f a6 e2 5a 3f 00 02 27 be
       0.17740774 0.6614804 0.8550209 -0.16309357
000240 9a 77 26 bf 7c 02 0b bf a2 93 22 3f a0 7f 84 3e
       -0.6502625 -0.54300666 0.6350652 0.2587862
000250 d0 ac 81 3d c4 b9 78 bf b4 e3 09 3f 20 f3 21 3f
       0.063317895 -0.97158456 0.5386307 0.63261604
000260 60 5b d3 3d 98 84 38 be 90 f6 f2 be 80 d1 05 3c
       0.10320163 -0.1801933 -0.47453737 0.0081676245
000270 80 7c 4b 3d 64 6e 90 3e 80 99 2d bd 20 b5 72 3f
       0.04967928 0.2820922 -0.042382717 0.94807625

features_hidden f4 [16, 5, 32]
000000 55 82 52 3f fc e5 1c 3f 80 c9 65 3d 02 c4 85 3e
       0.8223012 0.6128843 0.05610037 0.26126105
000010 f6 15 32 3f 54 1d 35 3e 84 af 23 3f 03 6f 1f 3f
       0.6956476 0.17686969 0.6393969 0.62278765
000020 8c 1a 3e 3e 05 64 19 3f e6 e3 de 3e 94 56 5f 3f
       0.18564814 0.5991824 0.43533248 0.8724148
000030 98 85 c7 3e 75 b4 6f 3f e4 35 6f 3f ec 1f ab 3e
       0.3896911 0.9363473 0.93441606 0.33422792
000040 58 7a 15 3f 32 05 ba 3e b6 7f 66 3f a6 5e 3d 3f
       0.58389807 0.3633209 0.9003862 0.7397255
000050 d3 59 00 3f a0 68 4d 3f 68 c8 c9 3d 6e 88 be 3e
       0.5013706 0.8023777 0.098526776 0.37213463
000060 e3 20 1a 3f 00 6a d7 3c 94 e0 6f 3f 2d 84 0a 3f
       0.6020643 0.026295662 0.93702054 0.54107934
000070 8f 14 71 3f da 7d b5 3e 0f 9f 07 3f ee 64 b9 3e
       0.94171995 0.3544758 0.5297708 0.36209816
000080 a6 0a 97 3e 38 23 a1 3e db 86 58 3f 07 02 73 3f
       0.29500312 0.31472182 0.84580773 0.9492497
000090 57 d5 24 3f 82 79 47 3f d8 ad 37 3f 12 29 00 3f
       0.6438803 0.7791978 0.7174964 0.5006267
0000a0 80 e5 02 3e 41 1c 20 3f 9c 08 a8 3e 55 02 31 3f
       0.1278286 0.6254311 0.32819068 0.69144183
0000b0 ec d9 32 3e 92 99 ee 3e a2 5f 9b 3e 50 69 19 3d
       0.17465943 0.4660154 0.303464 0.03745395
0000c0 d0 a2 1a 3d 70 18 76 3f b4 b8 ff 3e 60 44 8d 3d
       0.037752926 0.9613104 0.49945605 0.06897807
0000d0 20 fd 14 3f 08 ef ef 3e d9 72 69 3f 4c a2 78 3f
       0.5819874 0.46862054 0.9119087 0.97122645
0000e0 34 33 be 3e e0 c5 4c 3e fc 95 5a 3e 9a ee bb 3e
       0.3714844 0.19997358 0.21346277 0.36705476
0000f0 5c f2 66 3e 42 5f 73 3f dc 25 9e 3e 72 f2 41 3f
       0.2255339 0.95067227 0.3088826 0.7576057
000100 3e ed 39 3f 70 ed 1d 3f 5d 66 3e 3f e2 63 6c 3f
       0.7262763 0.61690426 0.74374944 0.9233991
000110 2f 76 36 3f be 52 38 3f 68 ce a4 3d 16 50 e9 3e
       0.71274084 0.72001255 0.08047181 0.45568913
000120 9b f4 02 3f ab 3e 64 3f dc b1 36 3f aa 8b 63 3f
       0.5115449 0.89158124 0.7136514 0.88884985
000130 90 01 63 3f 4e 96 88 3e b0 28 12 3f 54 0d 7a 3f
       0.8867426 0.26677173 0.57093334 0.9767659
000140 38 40 2d 3f 56 5f 48 3f 53 07 34 3f 7e a3 af 3e
       0.67676115 0.7827047 0.70323676 0.34304422
000150 ca 90 1e 3f e0 3a 1e 3e 78 16 76 3f e1 52 07 3f
       0.6193968 0.15452147 0.96128035 0.5286084
000160 c9 30 63 3f 24 15 18 3e a0 96 26 3d 7b 53 0f 3f
       0.88746315 0.14851815 0.04067099 0.55986756
000170 8a 33 df 3e c6 72 98 3e d7 10 43 3f 2c ef 32 3e
       0.4359401 0.29775065 0.7619757 0.1747405
000180 2a 2a 70 3f 80 dd 42 3c 16 40 1a 3f 68 a2 54 3e
       0.9381434 0.01189363 0.6025404 0.20765078
000190 b9 c4 1b 3f f8 68 7e 3f d8 45 e1 3e 24 c3 1d 3f
       0.6084705 0.9937892 0.439986 0.61625886
0001a0 0a 41 9b 3e 00 45 79 3e 28 4c 95 3d b1 e1 49 3f
       0.30323058 0.24342728 0.07289916 0.7886
0001b0 2a 28 fd 3e 68 53 2c 3f b8 72 ec 3d c0 74 ab 3d
       0.49444705 0.6731477 0.11545318 0.08371878
0001c0 c0 c7 39 3d 38 f1 58 3e b2 b6 de 3e 8e 5f d9 3e
       0.045356512 0.21185768 0.4349876 0.42455715
0001d0 32 48 38 3f ae fd 84 3e af b8 7c 3f ca 56 8b 3e
       0.7198516 0.25974792 0.98719305 0.27214652
0001e0 80 1f f4 3c c5 d3 60 3f d4 f3 36 3e e2 32 0c 3f
       0.029800177 0.87823135 0.1786645 0.5476514
0001f0 d2 48 e7 3e 80 99 ca 3e 3b 15 00 3f 40 4b 08 3c
       0.45172745 0.39570236 0.50032395 0.008318722
000200 23 1a 73 3f e4 9e 33 3e cb 0a 4e 3f 94 3e 51 3e
       0.94961756 0.1754108 0.8048522 0.20434028
000210 14 f6 c0 3e 16 f2 f9 3e 52 19 9b 3e e2 17 91 3e
       0.37687743 0.4881751 0.30292755 0.28338534
000220 30 11 a2 3d 18 57 20 3e 14 fd f3 3e 46 2a b5 3e
       0.079134345 0.15658224 0.4765402 0.35383815
000230 66 0c dc 3e 1e a7 20 3f 40 2e df 3e 80 91 da 3c
       0.4297821 0.62755 0.43589973 0.026680708
000240 22 d9 a1 3e a8 2d 27 3f 39 11 2e 3f b7 f0 3d 3f
       0.31610972 0.6530404 0.6799503 0.74195427
000250 97 16 07 3f c8 82 57 3f fc a1 21 3e f0 a8 a4 3d
       0.52768844 0.8418393 0.15784448 0.08040035
000260 6c be bb 3e fc dc 00 3f e8 ef 5c 3f 24 bc 58 3e
       0.36668718 0.50337195 0.8630357 0.2116552
000270 ec 6a 19 3e 02 13 f9 3e e5 8c 20 3f e0 10 34 3d
       0.14982194 0.48647314 0.6271499 0.043961406
000280 04 ce 98 3e 50 99 db 3d 9e e9 1d 3f c5 f0 0b 3f
       0.29844677 0.107226014 0.61684597 0.5466426
000290 20 d4 62 3d dc 10 2b 3e 3e eb 05 3f 94 29 bc 3e
       0.05537808 0.1670565 0.52312076 0.36750472
0002a0 70 f8 e7 3d d8 6c b2 3e 30 27 27 3d b6 c4 e2 3e
       0.113266826 0.34848666 0.040808856 0.44290704
0002b0 12 29 e2 3e a5 b5 06 3f 2e df 0a 3f 70 68 d3 3e
       0.4417196 0.5262092 0.54246795 0.41290617
0002c0 31 26 66 3f e2 57 a4 3e 46 d8 39 3f 8e 53 30 3f
       0.89902025 0.320983 0.7259563 0.68877494
0002d0 22 9f e0 3e 44 c9 08 3e 98 2b a1 3d 68 6e 23 3f
       0.4387141 0.13358027 0.07869643 0.6384034
0002e0 57 22 27 3f 01 a2 4d 3f ce ae 8e 3e 53 58 67 3f
       0.65286773 0.80325323 0.2786774 0.9036915
0002f0 e1 fb 7f 3f 54 48 d7 3e 32 3d 9c 3e 8c 96 af 3e
       0.9999371 0.4204737 0.30515438 0.34294546
000300 28 bd 85 3d 5d ca 49 3f 29 f3 0d 3f 84 f8 3a 3f
       0.06530219 0.78824407 0.5544916 0.73035455
000310 8a 3d 52 3f 80 48 93 3e 21 31 01 3f 77 79 67 3f
       0.8212515 0.2876625 0.5046559 0.90419716
000320 00 98 ea 3d d2 89 70 3f 81 8f 42 3f a8 99 af 3e
       0.11454773 0.939603 0.7600022 0.34296918
000330 98 e4 bb 3d 3c 5e 44 3f d6 11 3d 3f 28 11 8c 3e
       0.0917446 0.7670629 0.7385534 0.2735684
000340 57 f0 3c 3f 43 fd 25 3f 7e ff 7d 3f 8b 79 41 3f
       0.7380423 0.6483957 0.99217975 0.75576085
000350 15 c3 13 3f 80 c9 a6 3b 51 2c 68 3f 80 e6 6d 3f
       0.57719547 0.0050899386 0.9069262 0.9292984
000360 3a 0a b9 3e fa fa eb 3e c0 06 f6 3e 2e 5e f0 3e
       0.36140615 0.46089917 0.48052025 0.46946853
000370 0d 95 45 3f 23 4d 11 3f 20 6e 85 3d ca 2e 29 3f
       0.7718056 0.56758326 0.06515145 0.6608702
000380 5c 80 45 3e bb 8b 24 3f 5e b7 37 3f 6c c2 85 3e
       0.19287246 0.6427571 0.7176417 0.26124895
000390 cc b5 56 3f cf 44 03 3f 5c 7c 7e 3e cc ae 6d 3f
       0.8387115 0.5127687 0.24852127 0.92844844
0003a0 97 ca 51 3f b5 99 5d 3f 64 78 1f 3e 08 96 f3 3d
       0.8194975 0.86562663 0.15573269 0.118938506
0003b0 f0 54 77 3d a5 c1 52 3f ed a6 4a 3f 00 e5 47 3e
       0.060383737 0.8232673 0.7916096 0.1952095
0003c0 f0 2d 32 3f 4a ba 19 3f 64 07 93 3e a2 64 04 3f
       0.69601345 0.6004988 0.28716576 0.51716053
0003d0 a8 1c 4b 3e 38 0c b5 3e a4 9c 32 3f 50 13 12 3f
       0.1983515 0.35360885 0.69770265 0.5706072
0003e0 e4 fa 02 3e 35 36 20 3f 4c ea cc 3e a4 e0 07 3e
       0.1279102 0.62582713 0.40022504 0.13269287
0003f0 b0 79 1a 3d 1c 85 05 3f a8 2e 07 3e 08 06 47 3e
       0.037713706 0.52156234 0.13201392 0.19435894

walk_encoder.feature_encoder.weight f4 [32, 136]
000000 9b 43 86 3d dd 81 a4 3d f0 44 6c 3c 64 ca b6 3d
       0.065558635 0.08032582 0.014420733 0.08925322
000010 92 8a 32 3d c7 dd 4e 3d cc 38 16 3d d9 81 8e 3d
       0.043589182 0.050504472 0.03667526 0.0695836
000020 52 16 07 3d be c6 25 bc 8a be c8 3c 46 ca 20 bd
       0.03298027 -0.010118185 0.024504919 -0.039255403
000030 e4 7c ed 3d da 28 49 bd 04 46 b4 bc 24 47 52 3d
       0.115960866 -0.049111225 -0.022006042 0.051337376
000040 f1 41 75 ba f2 94 0b bd 06 79 3d bd 60 5d 43 3d
       -0.00093558343 -0.034077592 -0.046257995 0.04769647
000050 f0 56 f8 bc ff 12 f2 3b 66 45 45 3b 7a 9f ce 3d
       -0.030314893 0.0073875184 0.003010118 0.100890115
000060 7d d9 da bd 5d 33 fb bd 4d 9e db bb a4 52 8e bd
       -0.10686014 -0.12265656 -0.0067022205 -0.06949356
000070 81 78 3a 3d ed 67 c0 bd c2 08 dc 3d 5a 2e f9 bd
       0.045525078 -0.09394822 0.10743858 -0.12167044
000080 f0 a1 f6 3d 43 22 87 3d fa 45 bd bd ba 89 6c 3d
       0.12042606 0.06598332 -0.092418626 0.057748534
000090 e0 81 f5 3c b9 8d 0d 3d 01 f0 67 3d a9 46 08 bd
       0.029969156 0.034558985 0.05662537 -0.03327051
0000a0 81 1c fc bb b3 9c 6c 3c 39 6a 92 3d 3a 11 81 3d
       -0.0076938276 0.014441657 0.071491666 0.06302114
0000b0 49 41 94 3d 66 8c 90 bc 8e c0 4a 3d 58 60 7b 3c
       0.07239015 -0.017645072 0.04950004 0.015342794
0000c0 ce 5d 32 3d 32 ef ae bc dc 76 d6 bd 7d d1 d2 39
       0.04354649 -0.021354292 -0.104718894 0.00040210402
0000d0 4c b3 86 bd 3b 19 90 3d 6f 86 33 bc fc 12 88 3d
       -0.06577167 0.07036062 -0.010957344 0.06644246
0000e0 49 89 60 3d 3d 17 f1 3c f9 6f 89 3d 6d 52 a7 bd
       0.054818425 0.029430026 0.0671081 -0.08170018
0000f0 aa 33 e7 3c 5c ba 6f bd 16 f6 6a 3d 06 ea f1 bc
       0.028222878 -0.058527336 0.057363592 -0.029530536
000100 c6 b3 0b 3c 8e 50 81 3c 3d a7 91 3d 96 2c 50 bd
       0.008526748 0.015785482 0.07111976 -0.05082377
000110 86 34 00 bd 27 7c 51 bd 8b f4 9d 3d 04 19 88 3b
       -0.03130009 -0.05114379 0.077126585 0.0041533727
000120 37 fc a8 3d 36 ee 90 bd 19 30 ae bd fb 64 89 bd
       0.08251231 -0.07076685 -0.08505268 -0.067087136
000130 9a 44 6c bd 0a 43 0e 3d 88 88 fb 3c 23 ec 91 3d
       -0.05768261 0.034731902 0.030704752 0.07125118
000140 35 62 35 bd e0 6f 6f bd be 5a 3a 3d 08 f5 41 bc
       -0.04428311 -0.0584563 0.045496695 -0.011838205
000150 56 2b 55 3d 9c b1 a6 bc 4e eb 48 3d 67 72 88 bd
       0.05204328 -0.020348363 0.04905253 -0.066624455
000160 68 3f 31 bd b8 29 d6 3c 44 81 94 3c 0c 19 b3 bc
       -0.04327336 0.02614294 0.018128045 -0.02186253
000170 62 5b 51 3d ce c4 6e 3d b5 b3 7e bd 92 82 3b bd
       0.05111254 0.058293156 -0.0621831 -0.04577882
000180 b5 cd a0 3d 40 08 ed bc 6e 08 f9 bc 77 ec a9 bd
       0.078517355 -0.028934598 -0.030399527 -0.08297055
000190 71 23 49 bd 04 7a af 3c 78 70 39 bc c8 f3 7e bd
       -0.049106065 0.021420486 -0.011318319 -0.062244207
0001a0 a0 d1 03 3b 08 eb 6f bd a5 fd 94 bd a3 68 41 bd
       0.002011396 -0.058573753 -0.07274941 -0.04721893
0001b0 31 b3 99 bd 14 a4 5f bd bd 8b af 3d 40 ad 84 3c
       -0.07504881 -0.054599836 0.08571575 0.016195893
0001c0 24 78 d8 3c fe ca a3 bd 96 ad 66 bd 3a d1 e9 bc
       0.026424475 -0.07997702 -0.05631789 -0.02854215
0001d0 38 b0 5b 3c e8 86 9a bd cc 55 17 bd 13 45 52 bd
       0.013408713 -0.075452626 -0.036947057 -0.051335406
0001e0 00 2e 79 39 88 b1 02 bd a0 b5 c2 bb d6 00 6e bd
       0.00023763627 -0.03190759 -0.0059420615 -0.058106266
0001f0 fb 14 71 bd 5e e8 4c bd 1c 73 f0 bc f5 9b 8a bd
       -0.0588579 -0.05002629 -0.029351763 -0.06768028
000200 5d 3f 93 3d a4 69 8b bc 23 19 97 3d 98 df da 3c
       0.0718982 -0.017018147 0.07377841 0.026717946
000210 ba b5 94 bd 1a 10 73 3d 1a 47 c1 bc a1 a2 06 bd
       -0.07261224 0.059341528 -0.023593474 -0.03286994
000220 c0 c5 91 bd df d7 9b bd 28 b2 56 bd da e5 c2 bd
       -0.07117796 -0.076095335 -0.052415997 -0.09516497
000230 53 7c 2c 3c 72 21 3d bd 14 67 cc 3d 5e 1d 2d bc
       0.010527688 -0.046174474 0.09980598 -0.010566084
000240 53 81 55 bd 50 f0 0d 3d b4 fc be 3d f1 d4 fd 3d
       -0.052125286 0.034653008 0.09325543 0.12394131
000250 60 71 62 3c 3d 12 c3 bd a6 1f a7 bc 2f db 30 3c
       0.013820976 -0.09524963 -0.020400833 0.010794445
000260 16 e7 a8 3a c1 97 83 3c f5 c1 ed 3d 97 2e b4 bc
       0.0012886252 0.016063573 0.1160926 -0.021994872
000270 9c fa 87 bc d8 05 5b 3d c8 6b bb 3d 9f 00 93 bd
       -0.016598992 0.05347237 0.09151417 -0.07177853
000280 4d e6 4d 3d 80 ca a1 3a 67 91 ac bd 16 4f c3 bd
       0.05026846 0.0012343675 -0.08426171 -0.09536569
000290 35 f8 42 3d 4b b5 60 bd f4 0d c9 bc b3 ff 07 3e
       0.04759999 -0.054860394 -0.024542786 0.13281135
0002a0 0b 83 0d bd 50 f3 53 bc 6d 62 2c 3c c2 40 85 3c
       -0.0345488 -0.012936428 0.010521513 0.01626623
0002b0 85 10 84 3d 57 ca a9 3c 8e 24 fa bd c0 c6 2f 3c
       0.06448463 0.020726366 -0.122140035 0.010728538
0002c0 78 2d c4 bd 5e fa 6c 3d 0c 73 8d 3d f3 06 d2 bc
       -0.09578985 0.057855956 0.06906709 -0.02563808
0002d0 b8 cb 2e 3d 60 5b 83 3d a8 c0 7e 3c a4 29 fa bc
       0.04267475 0.06413913 0.0155488625 -0.030537434
0002e0 3e 52 37 3d 16 b3 67 3c 55 ce 48 3c a4 36 98 3c
       0.044756167 0.0141418185 0.012256225 0.018580742
0002f0 08 03 ba bc 98 4c 16 3c 28 f0 55 bd f8 04 b0 3b
       -0.022706524 0.009173535 -0.052230984 0.005371686
000300 b2 e7 a8 3d 2a 42 d6 3d 40 15 0b bc ce 70 a7 3c
       0.082473174 0.104618385 -0.008488953 0.020439532
000310 9b 31 c5 3c 30 c5 a7 bb c6 19 53 3d 38 da c4 3c
       0.024071505 -0.005119942 0.05153825 0.024029836
000320 8b 0e cd bd 43 c0 03 3b e3 e3 93 3d b2 d2 08 3d
       -0.100125395 0.002010361 0.072212 0.03340406
000330 e3 2c 7f 3c 0f c2 53 bd 3d e2 56 bd 59 78 13 bd
       0.015574667 -0.05169874 -0.05246185 -0.036003444
000340 98 f9 e4 bc 1c 39 ed 3c 86 f3 5f 3d 5a 29 22 3d
       -0.027951047 0.028957896 0.0546756 0.039590217
000350 c2 3b 9b bd 4b 37 53 bd 20 b8 5d bc 73 e1 a9 3d
       -0.07579757 -0.051566403 -0.013532668 0.08294954
000360 50 3b 4b 3c 88 ea b5 bc 10 4f 11 3d b5 58 21 bc
       0.012404278 -0.02220656 0.03547579 -0.00984781
000370 c4 55 63 bd c7 2d 80 3d 5a b4 1f bd cc d1 8c bc
       -0.055501714 0.06258731 -0.038990356 -0.017189883
000380 bd b3 ae bd 3a 11 6b 3d 39 0d 85 3d 3c 01 00 3d
       -0.08530376 0.057389475 0.06496663 0.031251177
000390 2a e7 74 bd 2d 52 ad bd 65 a1 8e bd af f4 82 3d
       -0.059790768 -0.084629394 -0.06964377 0.06394326
0003a0 8a a0 28 3d c9 c7 93 3d 92 ff 37 3d 64 c9 b1 3c
       0.041168727 0.0721584 0.044921465 0.021702476
0003b0 80 20 5c ba 51 8e 85 bd 2f 76 96 bd c6 42 a4 bd
       -0.0008397177 -0.06521285 -0.073467605 -0.080205485
0003c0 a2 c7 0f 3d 37 71 2c bd 1c 5f 8d bc 5a 22 4a bd
       0.035102494 -0.042100158 -0.017257266 -0.049349166
0003d0 24 01 80 bc 11 35 77 bd a4 7f 65 bd 54 03 e9 3c
       -0.015625544 -0.060353342 -0.05602993 0.02844397
0003e0 9e c4 d0 bc 32 d4 58 3d d0 5a e1 bc 38 d3 80 bd
       -0.02548438 0.05293674 -0.027509123 -0.06290287
0003f0 c8 e1 77 bc e5 41 2a bd 42 e9 d6 bc 2d 2f a7 bd
       -0.015129514 -0.04156675 -0.026234273 -0.08163295

walk_encoder.feature_encoder.bias f4 [32]
000000 eb a7 84 ba 3c 89 a6 bc 3e 4f 42 3d d1 f4 b0 bd
       -0.0010120844 -0.02032911 0.047438852 -0.08640445
000010 9f 85 5a 3d fd a8 09 3d 02 bf 86 bd b7 e6 8d bc
       0.053350087 0.033608425 -0.065794006 -0.017321927
000020 aa 92 35 bd 5f d6 58 bd 45 c8 93 bd 93 20 93 3d
       -0.044329323 -0.052938815 -0.07215933 0.071839474
000030 e7 56 55 3d 78 94 7e bc 01 90 2d 3d 9e a0 33 bd
       0.05208483 -0.015538327 0.04237366 -0.04385435
000040 a7 6a 2b bd bd 77 0c 3c b1 3c 9e bd fa 12 64 3c
       -0.04184976 0.00857347 -0.0772642 0.01392054
000050 d1 a3 01 be d3 f1 42 bd 35 17 5d bd d9 c5 a1 3c
       -0.12660147 -0.047593903 -0.05397721 0.019747661
000060 50 70 bc 3d 43 bb 86 bd 3d d6 4d bd 16 a8 0d be
       0.092011094 -0.06578686 -0.05025314 -0.13833651
000070 30 e1 6c bb 7e 48 5a 3c 44 3b 83 bb f8 6c cb 3b
       -0.0036144964 0.013322948 -0.0040048677 0.0062080584

walk_encoder.path_encoder.weight_ih_l0 f4 [96, 32]
000000 3b 49 1b 3e 75 67 57 be ed 61 1c bd ea 5d 01 be
       0.15164654 -0.2103556 -0.038179327 -0.12633482
000010 81 58 8f bd d6 94 20 3e 83 e6 4a bd a2 dd df bd
       -0.06999303 0.15681776 -0.04953624 -0.10930945
000020 d0 83 44 3e d6 62 41 be bf 9a 2b 3c c6 1e 1d 3d
       0.19190907 -0.18885359 0.010473906 0.038359426
000030 94 03 37 3e a5 ef 1a 3e 52 37 29 bd bf 16 b3 3d
       0.17872459 0.1513048 -0.041312523 0.08744573
000040 b5 e7 d0 bd b5 c2 8c bc 70 ae 00 be f8 24 8d 3d
       -0.102004446 -0.017182687 -0.12566543 0.06891817
000050 3b 81 b2 bd ba 24 d2 3c d1 2b e0 3d b1 ed a6 3d
       -0.08716055 0.025652278 0.10945857 0.08150805
000060 6c ba 6c bd 0b 22 f8 3d 15 ba 75 be f8 61 93 bd
       -0.057794973 0.12115868 -0.23996766 -0.071964204
000070 fe 53 cf 3d 82 2c 3a 3d 2d 90 c8 3d 1d 85 8c bd
       0.10123442 0.045452602 0.09793124 -0.06861327
000080 a5 e7 14 3e 74 d8 14 be a8 73 2a be 37 24 95 bd
       0.1454149 -0.14535695 -0.16645682 -0.07282298
000090 56 90 4a be 29 59 d2 bd 49 b0 63 be 3a 0a 0b 3e
       -0.19781622 -0.10270912 -0.22235216 0.1357812
0000a0 db a5 ed bb 31 c6 ee bd 3a 7f 59 bd f7 47 17 be
       -0.0072524375 -0.11658896 -0.05309985 -0.14773546
0000b0 7d e4 af bd a8 7a 24 be 18 5d 04 be 1f 94 40 3e
       -0.085885026 -0.16062415 -0.12926137 0.18806504
0000c0 79 76 0f be 39 70 91 bd 0e 89 6c be f8 ff d0 3d
       -0.14010037 -0.07101483 -0.23099157 0.10205072
0000d0 ca 0c a4 bd ad d8 1b be 82 37 dc 3d 39 b7 c3 3d
       -0.08010252 -0.15219374 0.10752775 0.09556431
0000e0 0f 2c d3 bd 68 97 c6 3d 21 e2 e6 3c 05 ef 37 bd
       -0.10311138 0.09696847 0.028183999 -0.04490568
0000f0 3a 48 05 3e 07 37 b1 3c ca 83 d6 3d 3b 3d 18 3e
       0.13015833 0.021632684 0.104743555 0.14867108
000100 f3 25 3b be bc 91 cc bd 6d dd 54 be fd 56 d0 3d
       -0.18276195 -0.09988734 -0.20787592 0.10172842
000110 4d 6c 0d be 26 a3 43 be 63 db 10 be aa d2 ff bd
       -0.13810845 -0.19105205 -0.1414619 -0.12491353
000120 d0 d9 e6 bd 71 f5 51 3e ea 40 7f 3c 95 b5 8e 3d
       -0.11272013 0.20503785 0.015579442 0.06968228
000130 a5 3d 99 bd 1c 70 97 bd 8a cb 93 bd 95 c7 c1 39
       -0.07482461 -0.0739443 -0.07216556 0.0003696053
000140 ef 7f 31 be d6 9a 27 3d 24 54 68 bd f3 43 06 3c
       -0.17333959 0.040919147 -0.056720868 0.008194911
000150 7c 1b c5 3d 15 c8 3f 3d fb 18 08 3e ba b4 fb bd
       0.09624383 0.046821672 0.1329078 -0.1229033
000160 70 4a 94 3c f7 9d f1 bd 74 ab 0d 3d 6f d8 8d bc
       0.0181019 -0.117977075 0.03458734 -0.017315118
000170 ea 93 8c bd f7 63 20 be 48 17 bb bd de 57 81 bc
       -0.0686415 -0.15663134 -0.091353 -0.015788969
000180 b4 d2 2f bd dc 1a 11 be 28 37 eb 3d bd fe b2 3d
       -0.04292555 -0.14170402 0.114851296 0.08739994
000190 45 29 1b be 53 0d 8e 3d 4e 99 21 3e 0b 16 0f be
       -0.15152462 0.06936135 0.15781137 -0.13973252
0001a0 a7 ed 36 be 78 38 a4 3d ef d1 c6 bc 36 5b d2 bc
       -0.17864095 0.08018583 -0.024270026 -0.025678258
0001b0 48 cf 85 3b a5 7b 42 bc c5 56 27 3e d1 7c c7 bd
       0.0040835477 -0.0118702995 0.16341694 -0.09740604
0001c0 29 6a a3 bd f3 bc 07 be b2 7a 56 3c d6 5b 05 3e
       -0.07979233 -0.13255672 0.013090776 0.13023314
0001d0 81 2e 0a be 68 69 10 bd d6 cb 36 3e 93 2b c9 bd
       -0.13494302 -0.035256773 0.17851195 -0.09822764
0001e0 6c 52 55 bd 6c 70 9b bd 92 7b c2 bc 38 3a b3 3d
       -0.052080557 -0.07589802 -0.023740564 0.08751339
0001f0 40 4d 2d be 34 ed df 3d 54 3b fa bd d3 d9 5b bb
       -0.16924 0.10933915 -0.12218347 -0.0033546581
000200 8b 74 58 3d 9f 7b fb 3d b3 6c aa bd 70 4f 39 be
       0.05284552 0.12279438 -0.08321514 -0.18096709
000210 61 34 0c be 5e 02 62 be bf 01 f2 bd 05 07 07 3e
       -0.13691856 -0.22071216 -0.11816739 0.13186271
000220 0c 13 e4 bd 77 ed a8 bd b0 22 4f bd ee 3f 7d bd
       -0.111364454 -0.08248418 -0.05057019 -0.061828546
000230 62 92 26 bd c4 31 45 bd 7b a3 90 bc 50 57 01 3e
       -0.040666945 -0.048143163 -0.017656079 0.12630963
000240 c6 83 1b 3a 45 db dc 3d 0b 98 f7 bb 0e 0f 55 3e
       0.00059324165 0.1078401 -0.0075559667 0.20806524
000250 57 22 35 3d 0b 76 12 3e 97 35 15 3e ae 99 c2 3d
       0.044222202 0.14302842 0.14571224 0.09501968
000260 c0 29 87 3c 55 eb e4 bd 4d 40 2e be e4 f1 64 3d
       0.0164994 -0.111776985 -0.17016716 0.055894747
000270 8b 18 1e 3d 1f ca 07 3e 17 36 3e 3d 86 bd 92 3c
       0.038597625 0.13260697 0.046438303 0.017912637
000280 7d a1 26 3e 6d 04 d5 3c 8a 60 69 3e 6a 6f f7 bd
       0.1627254 0.026003087 0.22790733 -0.120817974
000290 cd 6e 8c bd d2 f9 31 3d 69 49 a8 3d fd 6d 3c be
       -0.06857071 0.043451138 0.08217127 -0.18401332
0002a0 10 e3 b2 bc 22 02 00 3e 08 21 13 3e a2 f8 2a 3e
       -0.021836787 0.12500814 0.14368069 0.16696408
0002b0 dc 7d ec bd bf 7e cf bd 7b b8 04 be ba 42 d5 bd
       -0.11547443 -0.10131597 -0.12960999 -0.10413118
0002c0 4a 60 d9 bd 63 ce e9 3d 1f bf c2 3c 98 50 a7 bd
       -0.10614069 0.11416318 0.023772774 -0.08169669
0002d0 01 d6 75 3e 8e 88 ed 3c fe c5 be 3d 3a 58 29 bd
       0.24007417 0.028995778 0.09315108 -0.041343905
0002e0 e6 fc a7 3d 32 60 2b be 56 3e b4 3d f8 4e 07 be
       0.082025334 -0.16735914 0.08800952 -0.13213718
0002f0 da 53 94 3d dd fd a5 bd f7 20 fe 3d 30 1e 04 be
       0.07242556 -0.08105061 0.12408631 -0.1290214
000300 58 b4 99 bc 67 12 d1 bd 1a 74 3d be 16 4f c8 bd
       -0.018762752 -0.10208588 -0.1850132 -0.097807094
000310 af 5a 82 bd 9c fd c8 bc fd ce ce 3d b8 60 a4 bb
       -0.06364953 -0.024534993 0.10098074 -0.0050164126
000320 23 2f 2a 3e 6e a9 a1 bc 97 dd 9c bd 36 0e b4 bd
       0.16619544 -0.01973411 -0.076594524 -0.08791773
000330 35 cd 1e 3b 5d 47 a6 3d 5c a9 0a 3e ea 46 56 3d
       0.00242312 0.0811908 0.13541168 0.052313723
000340 e2 fa 23 be 7f 85 8c bd 9e 62 25 bd 86 de 97 bd
       -0.16013673 -0.068614 -0.04037725 -0.0741549
000350 b6 7c 24 3d 65 43 92 3d d2 fc 10 3e ec fb 13 bd
       0.040157996 0.07141761 0.14158943 -0.036128923
000360 0e cb c5 3b e8 cd 8a bd 28 dd da 3c cf ad 0f 3e
       0.006036169 -0.06777555 0.026716784 0.14031146
000370 cc f6 b9 bd 2b 4b a4 ba 6f fe 0c be 95 0f 50 bd
       -0.09080276 -0.0012534609 -0.13768934 -0.05079611
000380 42 35 05 bd e0 11 09 be eb c9 8a 3b eb 5b ee bd
       -0.032521494 -0.13385725 0.0042354963 -0.11638626
000390 0c 32 7b bd 92 ce 97 3d 24 3a 35 3e 31 0b 11 bd
       -0.061327025 0.07412447 0.1769796 -0.035411064
0003a0 3b a9 23 be f4 96 14 be c3 37 e9 bd b4 2c f3 bd
       -0.15982525 -0.14510709 -0.11387589 -0.11873761
0003b0 79 26 02 3e e0 ac 24 be de 7f 0d 3e fd 05 f7 3c
       0.12709989 -0.16081572 0.13818309 0.030154223
0003c0 60 24 ab bd 3a 6b 08 3e 35 f4 0e 3e 5b 31 ff bc
       -0.08356547 0.13322154 0.13960345 -0.031151464
0003d0 09 68 0c be 83 7d 6e bd 80 26 33 3d 48 42 2c 3e
       -0.13711561 -0.058225166 0.04373789 0.1682216
0003e0 26 2d 82 3b b5 0e 97 bd d8 95 f8 bd 0b 64 32 3e
       0.0039726673 -0.07375852 -0.121379554 0.17420976
0003f0 c4 c7 45 3e 6f fc 02 3e 7e 49 15 be 97 52 32 3d
       0.19314486 0.12791608 -0.14578816 0.043535795

walk_encoder.path_encoder.weight_hh_l0 f4 [96, 32]
000000 83 f2 b5 3d ea 5c 75 3d 88 b7 d2 bd bf 2a 1d 3e
       0.08884146 0.059903063 -0.10288912 0.15348338
000010 b7 bf 68 3b cd a2 92 bd 75 b5 23 3e 40 8d 3c 3e
       0.0035514662 -0.07159958 0.15987189 0.18413258
000020 60 3b c2 bd 31 ef 8f 3d 31 f6 6e 3c c0 dd 98 3c
       -0.09483981 0.07028044 0.014585064 0.018660426
000030 37 33 20 be 10 96 f0 bd b6 39 7b 3d b4 18 1a bc
       -0.15644537 -0.11747372 0.061334334 -0.009405304
000040 db 6f 9e 3c ed 1d 98 3c 27 4d 0c bc 63 0d 27 3e
       0.019340446 0.018568957 -0.008563316 0.163137
000050 6a ca 04 3e 90 93 0f 3e 41 c2 5c 3e 5b 01 57 bd
       0.1296784 0.14021134 0.21558477 -0.052491527
000060 a4 5a 9f bb 40 13 b5 bd 89 c1 f6 bd 7f 44 ac bd
       -0.0048631 -0.08841562 -0.12048633 -0.08411502
000070 5d b4 0d 3e 98 ac 23 be d5 1e 0f be ec d9 1b 3d
       0.13838334 -0.15983808 -0.13976605 0.038049623
000080 b2 55 17 3e 0b 5a da bd cb be ac bd a1 d7 05 3d
       0.14778784 -0.106617056 -0.08434828 0.032676343
000090 4e 00 3a 3e 1f 75 90 3d 6b 60 a3 bc f0 51 8a 3d
       0.18164179 0.07053589 -0.019943437 0.067539096
0000a0 ec c8 61 be 06 0b 0a be 69 ef 84 3d 16 20 59 3c
       -0.22049302 -0.13480768 0.06490976 0.013252279
0000b0 ec 8d d7 bd c4 6e b2 3d 79 f0 15 3e e2 81 8b 3d
       -0.10525116 0.08712533 0.14642514 0.068118826
0000c0 8b 51 ee 3b 50 7e 77 3d b9 6d fb 3d d5 71 4c bd
       0.0072729043 0.060423195 0.12276787 -0.049913246
0000d0 5f 53 bf bc 50 14 60 ba ee e6 1f 3e 0f b6 2f 3e
       -0.023355184 -0.00085479487 0.15615436 0.17159294
0000e0 e5 9d 10 be f1 7b 69 3d 17 fb 7a 3d 6d d2 d6 bc
       -0.14122732 0.057002965 0.061274614 -0.026223386
0000f0 36 03 ed bd f5 1f 5b 3e b6 20 22 3d 51 91 05 bd
       -0.11572878 0.2139891 0.039581977 -0.032609288
000100 d6 a9 b7 3d d0 6e 74 bd 92 dd e0 bd 64 40 32 bd
       0.089679405 -0.05967599 -0.10979761 -0.04351844
000110 bb 7a 4c be af 0e 2d 3e 54 37 65 3d 7a 86 0f bc
       -0.19968693 0.16900133 0.055960968 -0.008760089
000120 ee 17 cf bd f3 7b 0a be 04 c1 ab 3d 2d d7 16 be
       -0.10111986 -0.13523845 0.08386424 -0.1473052
000130 57 fe 56 3d 30 e2 1d 3e 90 fb 3b be ed 5b 0f 3e
       0.05248865 0.15418315 -0.18357682 0.1399991
000140 5a d4 1d be e1 ce 4a bc 48 ea cd 3d f8 c7 7c 3d
       -0.15413037 -0.012378425 0.10054451 0.061714143
000150 b4 13 3c 3e 31 7b 10 3e 8b f5 63 be 1d ec 2a 3d
       0.18366891 0.14109494 -0.22261636 0.04172908
000160 f2 c8 ec bd c1 b8 ae 3d 12 a9 77 3d 2c 4d 1e 3e
       -0.11561765 0.08531333 0.060463972 0.15459126
000170 36 2c 2d 3d 1f 08 ce 3d e0 b1 dc 3b d9 01 09 be
       0.04227849 0.10060143 0.0067350715 -0.13379611
000180 a5 db d2 bd 1e cc 10 3d cd 41 4a be c3 2c 07 3e
       -0.102958 0.03535091 -0.19751664 0.13200669
000190 2b 6d 12 be e5 65 13 be 23 c5 4b 3e 20 16 c5 bd
       -0.14299457 -0.14394338 0.1989942 -0.09623361
0001a0 72 3a b0 bd c7 a2 5e 3c 1c 70 61 3d 96 90 0d bd
       -0.086048976 0.013588614 0.055038556 -0.034561716
0001b0 4b 20 41 3d 07 f6 0f be 48 08 89 3d 5e ff 51 be
       0.047149938 -0.14058696 0.06691033 -0.20507571
0001c0 af 31 f9 bd 2d 7f 7f 3d 57 56 1d 3d fa 3f 7c bd
       -0.121676795 0.062377144 0.03841242 -0.06158445
0001d0 d7 8c 4b 3c 5e 31 66 bd fc 99 19 3e 65 ad a0 3d
       0.012423716 -0.056199424 0.15000147 0.078455724
0001e0 87 64 44 bd d9 72 08 3d aa e3 1d be 91 44 35 3d
       -0.047947433 0.033312652 -0.15418878 0.044254843
0001f0 42 a1 42 3e 85 39 1b 3e 04 ef 0d be 5b e6 ba bd
       0.19006827 0.1515866 -0.13860708 -0.09125968
000200 bc 31 25 be ed 2b 6d 3d 27 b3 20 be 2b a3 3c be
       -0.16132253 0.05790322 -0.15693341 -0.18421619
000210 81 0b fc bd f8 15 6e 3e b0 73 13 3a 6f b7 ef bd
       -0.12306882 0.23250568 0.0005624844 -0.11704909
000220 d6 43 65 bd 8b 88 13 be a8 cd 76 3a 8d a9 cd bc
       -0.055972897 -0.14407556 0.00094148004 -0.025105262
000230 88 61 ad bd aa d5 cb bd 16 c7 4b bd fb c3 21 3d
       -0.08465868 -0.099528626 -0.04975041 0.039493542
000240 8d 06 b2 3d 19 03 06 3d c2 76 41 bd 7c 8e 2d be
       0.08692656 0.032717798 -0.047232397 -0.16948885
000250 5e ee 87 3d 8a 2c 3e 3d fc 4c b2 3d 2d ea 4d be
       0.06637262 0.046429195 0.0870609 -0.20108862
000260 40 e8 29 3d e0 dd 20 be 1d 02 04 be 15 8b aa bd
       0.041481256 -0.15709639 -0.12891431 -0.08327309
000270 36 db 90 bd 65 de 50 bd 4a f4 19 3e ff df 53 3e
       -0.07073061 -0.050993342 0.15034595 0.20690916
000280 4b 17 19 3e 9c e0 27 3d ca 4c 36 bd 94 c4 24 3e
       0.14950292 0.04098569 -0.044506826 0.16090614
000290 d6 61 d1 bd ce 90 f8 bd d9 19 a3 bd 8c e9 4f 3e
       -0.10223739 -0.12136994 -0.079639144 0.20303935
0002a0 ad 26 0f 3e ec 57 6e bd a9 8a db bd ad e3 26 be
       0.13979597 -0.058189318 -0.10719807 -0.16297789
0002b0 f1 e3 80 3d 20 0f ba bd c8 b9 05 3e 51 b7 01 bd
       0.062934764 -0.09084916 0.13059151 -0.031668965
0002c0 cb 1e 43 3e c8 2a b4 3d 00 77 1a 3e 48 27 cd 3d
       0.19054715 0.087972224 0.15084457 0.10017258
0002d0 88 b9 34 be 57 c8 91 bb 65 d2 d1 bd 7a a2 d1 bd
       -0.176489 -0.004448931 -0.10245208 -0.10236068
0002e0 36 ba b7 3d 92 a9 11 be 3e c0 e6 3d 3b d8 91 3c
       0.08971064 -0.14224842 0.11267136 0.017803302
0002f0 45 66 84 bd 38 a7 b3 bd 36 64 4b be 3c 1c 5e 3d
       -0.06464819 -0.08772129 -0.19862446 0.054226145
000300 b7 56 21 3c 91 04 1e 3e 24 ff 68 3d 7f 68 86 3d
       0.009847335 0.1543143 0.056883946 0.065629
000310 0a 18 18 bd 26 75 b1 3d c6 2f 17 bd 50 9c cd 3d
       -0.0371323 0.086649224 -0.036910795 0.1003958
000320 c8 1e 81 bd a5 d7 30 3d 7a ae cc 3c 67 e2 94 3d
       -0.06304699 0.043174405 0.02498554 0.07269745
000330 c9 80 dc 3d 56 b5 d5 3d 3f c7 32 3e b2 ec 16 3c
       0.10766751 0.10434978 0.17458819 0.009211706
000340 2f 30 f1 3d 58 80 25 be df 5d a2 bc 7d 7a 39 be
       0.117767684 -0.1616224 -0.019820152 -0.18113132
000350 54 f6 2e 3d 43 12 50 3d d0 94 c0 3c 3d da b7 bd
       0.042715386 0.050798666 0.02350846 -0.089771725
000360 9f b1 f0 3d 8e fb e1 bd 7e 0d ff bd 92 da 02 3e
       0.117526285 -0.110343084 -0.12453745 0.1277869
000370 9a 6d 23 be 39 99 d5 3b b3 f8 46 be 10 03 a2 3d
       -0.15959778 0.0065185097 -0.19430809 0.079107404
000380 52 aa fa bd 5d 6b 26 be f3 da 59 bc 0f 6c 0c 3e
       -0.12239517 -0.16251893 -0.0132968305 0.13713096
000390 8c 4b a6 3d dd a5 f8 3d 5b 6c 48 bd 19 95 c6 3d
       0.08119878 0.12141011 -0.04893146 0.09696407
0003a0 fb 3a a3 bd 71 ee 94 3c e8 c1 45 be dc 67 78 3c
       -0.07970234 0.018180104 -0.1931225 0.015161481
0003b0 47 5e 5a 3d c8 4f 27 be 72 d2 11 3e f8 d4 11 3c
       0.053312566 -0.16339028 0.14240435 0.008900873
0003c0 22 c3 2d 3e be be 6d bd 7b 56 5d bd 46 ee 60 bd
       0.16968969 -0.058043234 -0.054037552 -0.054914735
0003d0 45 4d 07 3e f8 7c f4 bd 91 4d a5 3d d2 25 d2 bd
       0.1321307 -0.119378984 0.08071435 -0.1026112
0003e0 84 5a 0c 3e 89 d0 11 be 71 06 9d bd cf 81 82 bd
       0.13706404 -0.14239706 -0.07667244 -0.06372415
0003f0 e5 a1 c4 bc eb d7 e1 bc c2 30 b4 3d d0 84 32 3e
       -0.024002979 -0.027568778 0.08798362 0.17433476

walk_encoder.path_encoder.bias_ih_l0 f4 [96]
000000 b6 a6 21 3e 7a 5e 04 3e 89 0b f0 bd ac 20 17 3e
       0.15786251 0.12926665 -0.1172095 0.14758557
000010 1d 30 c5 bd f0 ef 86 3d 3f 2d 03 be 33 a1 0e 3e
       -0.096283175 0.06588733 -0.12810229 0.1392868
000020 f6 cc 00 3d 5e 21 86 3d 27 ec 46 be f5 4f 8d 3c
       0.031445466 0.06549333 -0.19426022 0.01725004
000030 1e 40 8c bd b5 72 0c 3e 55 35 30 be db a6 26 bd
       -0.06848167 0.13715632 -0.17207845 -0.04068647
000040 42 6f 57 bd e6 f4 e6 bd 25 79 6a 3d 30 b7 0c be
       -0.052596338 -0.112771794 0.05724444 -0.13741755
000050 d8 cf 40 3e f3 0c 66 3d af 1c dd bd 38 9d eb bc
       0.18829286 0.056164693 -0.107964866 -0.028761491
000060 5d b9 84 3d e0 d0 38 bd e0 cc ec bd e9 bd 1e be
       0.06480668 -0.045121074 -0.11562514 -0.15502132
000070 2f 3e 15 bd 9f 88 e2 bd 91 14 ea 3d af 32 d8 3d
       -0.036436256 -0.11061215 0.11429704 0.10556542
000080 a3 5d 08 3e 42 ea 40 3d c6 33 e2 bd 11 b3 fb bd
       0.1331697 0.047098406 -0.11045031 -0.122900136
000090 d7 0a 5d 3e 17 44 07 bd e3 73 cd bd aa 44 ec bd
       0.21586166 -0.03302392 -0.10031869 -0.11536534
0000a0 7b 70 d5 3d 65 e8 00 be 8a d9 9e 3c 28 57 53 be
       0.104218446 -0.12588651 0.01939084 -0.20638716
0000b0 6b 79 82 3d 9d 2c fb 3b 12 0f 4d 3e 78 a2 6a 3d
       0.06370815 0.0076652304 0.2002528 0.05728385
0000c0 d9 81 7b 3d 5a e2 db 3d d0 df 9d bd fe 22 38 bd
       0.06140313 0.107365325 -0.077087045 -0.044955246
0000d0 30 c2 36 be 58 d5 0c 3e 23 88 07 be 09 2c 62 be
       -0.17847514 0.13753259 -0.13235526 -0.2208711
0000e0 0d 3a 32 be 83 40 6c bd dc 47 4c 3d 52 48 8e bd
       -0.17404957 -0.05767871 0.049873218 -0.06947388
0000f0 07 75 e2 bc a6 26 37 3e 86 09 02 bd b4 85 1a bd
       -0.027643694 0.17885837 -0.031747364 -0.037725165
000100 25 c0 17 3e c5 c6 ea bd 49 2d 17 be 5a 93 db 3d
       0.14819391 -0.114636935 -0.14763369 0.107214645
000110 91 a3 fb 3d 40 38 27 be 67 22 3d 3e 91 07 e7 bc
       0.12287057 -0.16330051 0.18470155 -0.02820185
000120 63 a8 80 bc 0c f4 a4 3d 39 71 bc 3b e9 53 ad 3c
       -0.015705293 0.08054361 0.005750802 0.021158176
000130 42 67 13 be a1 ea d4 bd f7 a2 a7 3d 86 cf 28 bd
       -0.14394858 -0.103963144 0.0818538 -0.041213535
000140 be bf 3b 3d 8d 7f 24 3e 7e 9a d9 bd 0a 13 ed 3b
       0.045837156 0.16064282 -0.1062517 0.0072349356
000150 87 99 2e be 20 0c 0e be 0d 3e ce 3d e3 8a a3 bb
       -0.17050754 -0.13871813 0.10070429 -0.004990922
000160 3f bf 69 bd d6 6e 17 3d 3d 70 18 3e 93 33 47 be
       -0.057067152 0.036970936 0.14886566 -0.19453268
000170 8b 57 6d 3e 06 11 32 3e e3 fa 13 3b 7d fd 40 be
       0.23177926 0.17389306 0.002257996 -0.18846698

walk_encoder.path_encoder.bias_hh_l0 f4 [96]
000000 ae b4 a6 bc ab 6f dc 3d 0e 6e c6 bd e9 89 eb bc
       -0.020349827 0.107634865 -0.0968896 -0.028752284
000010 dd 7c 20 be 92 3b 15 3e 86 29 0e 3e a4 62 0f be
       -0.15672632 0.14573506 0.13883027 -0.14002472
000020 0b 18 80 bd 54 01 3e 3e da 41 41 bd a1 f3 5a bd
       -0.06254586 0.18555194 -0.04718194 -0.053455
000030 1e 06 71 3c c6 8b e1 3d bd 11 06 bd cf cd 27 be
       0.014710931 0.11012988 -0.03273176 -0.16387103
000040 d9 aa c4 bc a8 ac d3 3d c3 01 17 bd b4 53 e0 3d
       -0.024007248 0.10335666 -0.036866914 0.10953465
000050 f8 7f 29 3e 3b 7d 15 3d 09 b3 59 3d bc 24 05 bd
       0.16552722 0.036496382 0.053149257 -0.032505736
000060 fe 07 d1 bd 37 54 f1 bd 32 7b 10 be e8 1f ab bd
       -0.102066025 -0.11783641 -0.14109495 -0.08355695
000070 99 df 53 be ca 87 91 3d 12 80 be 3c 5b e6 fd 3d
       -0.20690764 0.07105978 0.023254428 0.123974524
000080 35 43 9f bc 44 25 94 bd 39 01 54 3d df f4 c4 bd
       -0.019441226 -0.0723367 0.05175898 -0.09617018
000090 8c 2c d3 ba ff ad 34 be f0 bf 11 be 73 27 9c bc
       -0.0016111298 -0.17644499 -0.14233375 -0.01906178
0000a0 cb e5 d3 bd 0d 27 c1 3c 1e 78 96 3a 2b f9 a1 3d
       -0.10346564 0.023578191 0.001147989 0.07908853
0000b0 da c9 98 bd a4 d0 2a bd a8 21 4d 3e 29 5d a6 3d
       -0.07460375 -0.04170288 0.2003237 0.08123238
0000c0 c1 5a 57 3d 34 26 08 be 91 f0 3a be 6d c7 64 3e
       0.052576784 -0.13295823 -0.18255831 0.223417
0000d0 55 03 94 3d a3 5d 07 bd f3 8c 1f 3c ed b3 64 be
       0.07227198 -0.033048283 0.009738195 -0.22334261
0000e0 ca 94 44 bc db f5 12 be a0 9a ef 3d 05 12 ad bd
       -0.011998365 -0.14351599 0.11699414 -0.084507026
0000f0 c6 7c 3e 3c 9c bb 32 3e 7b 30 7c bd 78 f1 a4 bd
       0.011626428 0.1745438 -0.061569672 -0.08053869
000100 df 2f 61 3e 6c 3c d7 bc 8a 8c 84 3a 99 88 0c 3e
       0.21990918 -0.026273929 0.0010112685 0.13723983
000110 bb ec 42 3d 0e be 0c be 82 11 df 3d aa e5 95 3d
       0.047589045 -0.13744375 0.10892011 0.073191956
000120 ac da 25 be ba b5 0a be db 31 b0 bd 2e 4c 21 3d
       -0.16196698 -0.13545886 -0.08603259 0.03937929
000130 39 97 bf 3d 43 3d f5 3d c4 f9 45 3e 65 ae dd 3d
       0.09355015 0.11974575 0.1933356 0.10824279
000140 34 a9 d3 3d b3 bc b3 3d ed 1a 37 3e 55 f0 26 3d
       0.10335007 0.08776226 0.17881365 0.040756542
000150 06 a3 56 bd 04 1c 24 3e 5e b2 39 3e ca 49 a1 3d
       -0.052401565 0.16026312 0.18134448 0.07875402
000160 3c 44 d8 bc 62 19 49 bd 82 ee 90 bd ae 9e 4f be
       -0.026399724 -0.049096473 -0.07076742 -0.20275375
000170 5c 9a ed 3b 53 4e ec 3d 17 f5 b5 3d 4c 26 cd bc
       0.007251067 0.11538377 0.08884638 -0.025042675

bn.weight f4 [32]
000000 5a 6e 71 3f 75 2e 85 3f a3 bf 82 3f c1 62 6a 3f
       0.9430901 1.0404803 1.0214733 0.91556937
000010 16 5d 85 3f 83 5c 7e 3f 47 01 73 3f a9 e4 7d 3f
       1.0419033 0.9935991 0.94923824 0.9917703
000020 61 c1 74 3f 57 5e 6e 3f 9b 4e 68 3f 72 da 6e 3f
       0.9560757 0.931127 0.9074494 0.9330207
000030 f4 80 6b 3f 3a 2d 81 3f a0 bc 7a 3f d8 63 7e 3f
       0.9199364 1.0091927 0.9794407 0.993711
000040 2a 41 80 3f 70 a2 6d 3f 8d c1 77 3f de b9 72 3f
       1.0019886 0.92825985 0.9677971 0.9481486
000050 ec df 80 3f 54 2d 81 3f ab 65 76 3f 0e de 84 3f
       1.0068336 1.0091958 0.96248883 1.0380266
000060 09 1a 78 3f 8b d1 7c 3f ae 6a 74 3f dc c5 81 3f
       0.96914726 0.9875724 0.9547528 1.0138507
000070 36 e0 62 3f b7 79 6e 3f 2f b3 6f 3f 55 70 78 3f
       0.8862337 0.9315447 0.9363279 0.97046405

bn.bias f4 [32]
000000 ca 54 2a 3d 4a ad 94 bd 4a 22 1d bd 10 6e d5 bb
       0.041584767 -0.07259615 -0.03836278 -0.0065133646
000010 0e 2d 25 3d ea 78 e3 bc 06 8c 34 3d 22 7d fe 39
       0.04032617 -0.027767617 0.04407885 0.00048539886
000020 43 ce 38 3c 11 5e 03 bd 82 0e 9a bc 40 21 3d bd
       0.011279645 -0.03207213 -0.018805746 -0.046174288
000030 47 ef 44 3c 22 27 65 bd 0c 65 7e 3c 4e 8f 4c 3d
       0.012019939 -0.055945523 0.015527021 0.049941353
000040 fc 4b 02 bc e6 e8 8e bb 19 74 4a ba 9e 73 72 bd
       -0.007952686 -0.0043612598 -0.00077229884 -0.059192292
000050 f2 2d 81 3d f6 9d 14 bd 61 cc b2 3b a6 dc ce bc
       0.063075915 -0.036283456 0.005456493 -0.025251698
000060 d3 72 b7 bc 5a 6a ad bc 93 ad 1e 3d 09 84 23 3c
       -0.02239362 -0.021168876 0.038739752 0.00998021
000070 4a 2c 7e 3d 34 74 0b 3d fe f6 87 3c 61 96 33 bd
       0.062053956 0.034046367 0.016597267 -0.043844584

bn.running_mean f4 [32]
000000 dc f0 75 3e 90 24 7c bd 55 83 bf bd d1 ef 48 3e
       0.24017662 -0.061558306 -0.093512215 0.19622733
000010 82 85 da 3d 78 3b 90 be 83 41 21 3e f1 67 5b bb
       0.10669996 -0.2817037 0.15747647 -0.0033478702
000020 b3 06 99 bd 5b e1 08 bd 9b fb 44 3c b9 da d7 3d
       -0.07471981 -0.03341804 0.012022878 0.10539765
000030 2b 41 01 bd b9 84 9e bd 32 b6 01 3e 93 2f aa bb
       -0.03155629 -0.077401586 0.12667158 -0.0051936596
000040 4d cc 14 3e 39 b6 3e 3e 89 de 05 bb ac 42 4b ba
       0.1453106 0.186242 -0.002042683 -0.00077537703
000050 37 ae f5 bd 03 64 e6 bd d7 d8 52 3e 4f 17 cd 3d
       -0.119961195 -0.112495445 0.2059053 0.100142114
000060 f4 3b 11 be 98 01 e0 3b 2d 46 d0 3c 4f 4f 37 be
       -0.14183027 0.0068361275 0.025424087 -0.17901348
000070 82 1e 04 3e 10 2d 1e 3e 21 03 97 3c e7 54 34 be
       0.12902263 0.15446877 0.01843411 -0.17610513

bn.running_var f4 [32]
000000 dd a4 82 3e 2f ce 82 3e 8e 83 82 3e c0 89 82 3e
       0.25516406 0.2554793 0.25490993 0.2549572
000010 f3 68 82 3e 36 1b 83 3e db 99 82 3e 61 06 83 3e
       0.25470695 0.25606698 0.25508007 0.25590804
000020 7f 6d 82 3e 60 35 83 3e 49 6a 82 3e 1e a7 82 3e
       0.25474164 0.2562666 0.25471714 0.25518125
000030 3d 98 82 3e 03 9f 82 3e dd 67 82 3e e6 96 83 3e
       0.25506774 0.2551194 0.25469866 0.25701064
000040 d3 fd 82 3e 6a 9c 82 3e c0 fc 82 3e da c2 82 3e
       0.25584278 0.2550996 0.25583458 0.25539285
000050 a3 c1 82 3e 1d 91 82 3e 38 78 82 3e 71 4a 82 3e
       0.25538358 0.25501338 0.25482345 0.2544742
000060 d9 ce 82 3e fb ef 82 3e 8a be 82 3e 54 81 82 3e
       0.25548437 0.25573716 0.25535995 0.25489295
000070 60 79 82 3e f0 c8 82 3e d8 79 82 3e 29 8d 82 3e
       0.25483227 0.25543928 0.25483584 0.25498322

fc1.weight f4 [64, 32]
000000 45 fa 85 bd ff e7 18 be 10 11 03 be a9 0d 3e 3c
       -0.06541876 -0.1493225 -0.12799478 0.0115999365
000010 7d 19 ce bd ad 6e b7 3c 81 b8 1e 3e dd ac 86 3d
       -0.10063455 0.022391642 0.1550007 0.0657594
000020 5a a6 19 3e 14 51 7f bd 16 1f 9f bc ea cb 0e be
       0.15004864 -0.06233318 -0.019424003 -0.13944975
000030 a8 d7 63 bd a1 a4 13 be 5a c7 2d 3e 5d b1 34 be
       -0.055625588 -0.1441827 0.16970578 -0.17645784
000040 47 3e 9d 3d 1b 86 c1 bd b2 c7 8b 3d d8 51 e1 3c
       0.07677894 -0.09449407 0.06825198 0.027504846
000050 f0 df 56 bd 55 90 f4 bd 89 d6 1b 3e c3 f0 54 bd
       -0.052459657 -0.11941592 0.15218557 -0.05198742
000060 6d 70 1c bd 41 7f 81 bd 05 51 08 be 0f ab 74 bd
       -0.038193155 -0.063231 -0.13312156 -0.059733447
000070 23 52 24 3e b3 af 4d 3e ea d7 dd bd 8a 42 bd 3c
       0.16046958 0.20086555 -0.10832198 0.023103017
000080 27 b6 a5 3c d0 d4 10 3e 53 e0 b1 3d a1 53 25 bd
       0.020228459 0.14143682 0.086853646 -0.040362958
000090 ff 7a 1b bd 96 06 e2 3c e6 83 2d be dd e4 70 be
       -0.037959095 0.027591031 -0.16944847 -0.23524804
0000a0 db a7 ca bc 90 d6 cb bd 38 28 ad bd 14 eb 3e 3b
       -0.024738243 -0.09953034 -0.08454937 0.0029131817
0000b0 05 c7 8c 3d 4f b9 08 3e 6f f4 fc bd 61 ce 04 3d
       0.068738975 0.1335194 -0.123513095 0.03242338
0000c0 13 5e ea 3d d4 4d e7 3c ec 94 c3 3d e1 76 8c bd
       0.114437245 0.028235354 0.09549889 -0.06858612
0000d0 3c 34 02 be a4 06 b8 bc 0d ec d2 bc 20 7e cc 3a
       -0.12715238 -0.022464104 -0.025747323 0.0015601553
0000e0 b0 7c fa bd 24 42 4e 3e 9c 0c 18 be 34 82 05 3d
       -0.122308135 0.20142418 -0.1484856 0.032594875
0000f0 c1 2c 8f 3c 66 20 1f bd fb db 04 3e 6b a7 4a 3d
       0.017477395 -0.038849257 0.12974541 0.04947607
000100 fc 36 e9 bd 96 8a 4a bd b3 3c d4 bd 01 b7 4d be
       -0.113874406 -0.049448572 -0.1036314 -0.20089342
000110 8a 98 9e 3d 62 d6 dc 3d 28 2c 8c bc 23 09 5a 3d
       0.07743938 0.10783078 -0.0171109 0.05323137
000120 93 70 80 3d 72 f5 65 3d d2 c5 a6 bd 9d de dc bd
       0.06271472 0.056142278 -0.081432 -0.107846476
000130 da 49 4a 3e e7 6b 81 3d b3 37 48 3e 20 aa 99 3d
       0.19754735 0.06319409 0.19552498 0.07503152
000140 ed 67 06 3d e1 65 9f 3d 6d 88 86 bc b0 80 d5 3c
       0.032813955 0.07783104 -0.016422475 0.02606234
000150 0e 56 ea bd 4b 48 21 3e e9 4d 85 3c 95 1e 90 3d
       -0.11442195 0.15750234 0.016272502 0.07037083
000160 6b a1 3e be 77 5c 5e 3b 1f 4a a5 bd a6 6c 24 bc
       -0.18616264 0.0033929625 -0.08070778 -0.010035669
000170 4c 14 35 3c fe f6 8d 3c 3b cc 25 bd ba 64 16 3d
       0.011052202 0.01732969 -0.040477972 0.036717154
000180 4f dc 98 bd 71 86 8c bd d0 cc f9 3d d6 b0 68 bd
       -0.074638955 -0.0686158 0.12197268 -0.05680927
000190 7c 87 16 be 6a 9c 53 bd fc b9 5a be b6 e4 62 b9
       -0.1470012 -0.05166284 -0.2136001 -0.00021638241
0001a0 6c e6 fa 3c e8 e1 c6 3d c2 fa e2 bd 0a c0 24 be
       0.030627452 0.09711057 -0.110829845 -0.16088882
0001b0 82 e1 cb 3d a6 b7 6a 3a 31 89 24 3e 75 76 60 bc
       0.099551216 0.00089537574 0.1606796 -0.013700117
0001c0 83 f6 59 bd d8 1b bb bd 20 d5 8b 3d 67 c5 2e bd
       -0.053213608 -0.0913617 0.0682776 -0.042668726
0001d0 0c 78 01 3e 52 16 17 3e b0 2d 46 be 85 ee a9 bd
       0.1264345 0.14754608 -0.19353366 -0.08297447
0001e0 e4 9d 4a bd 7a 85 86 3d 3f dc 15 be 33 48 38 3c
       -0.049466982 0.065684274 -0.14634798 0.011247682
0001f0 57 86 23 3d de 4c 96 bc a2 dc f4 bc 9e b3 c9 bc
       0.03992304 -0.0183472 -0.029890362 -0.024621781
000200 9d ab f4 3d df 11 06 3e d7 18 87 3d 0d 8f 22 be
       0.11946795 0.13092755 0.06596535 -0.15874882
000210 be ed 50 3d 89 ab 96 bc 82 4a 08 3e a6 6e 20 3c
       0.05100798 -0.018392341 0.13309672 0.009792006
000220 96 41 74 bc 5e 93 7b 3d 24 f1 e5 bd fe d7 5b 3b
       -0.014908215 0.061419837 -0.112276345 0.003354549
000230 3e e3 4a bd 90 12 cd 3c ea a8 9c 3a 56 cf e0 3d
       -0.04953312 0.025033265 0.0011952196 0.10977046
000240 62 bb ac bd 37 4c 19 3e b8 ed 93 bd 3b 26 5f 3e
       -0.08434178 0.1497048 -0.07223076 0.21791928
000250 fd 70 e3 3c 96 6b 3e 3d 26 3f 39 bd c5 a6 42 bb
       0.027763838 0.04648932 -0.04522624 -0.0029701453
000260 67 6d fe bd 50 93 86 bd cb f0 6b 3b 30 30 11 3e
       -0.124232106 -0.065710664 0.0036001678 0.14178538
000270 2f 5d 78 3d 7f ef dd 3c 1c b1 01 be 30 ab fa 3d
       0.06063574 0.02709174 -0.12665218 0.12239683
000280 6e c8 3b 3e 17 82 2a be ec 61 7c 3d 5b 0c 0d be
       0.18338177 -0.16651188 0.061616823 -0.13774244
000290 ba ad 12 be 2b ea c5 bd ba 47 44 be 32 23 19 bd
       -0.14324084 -0.096638046 -0.19167987 -0.03738708
0002a0 13 e4 ad 3d 55 52 c1 3d 34 a0 c1 3d 8f 70 eb 3d
       0.08490767 0.09439532 0.094543844 0.11496078
0002b0 8c f4 1e be f2 0b 18 bd 48 80 c2 3d 39 1f f3 bd
       -0.15522975 -0.037120767 0.09497124 -0.118711896
0002c0 42 59 2c bb 03 d4 72 3d 3d 67 60 be 21 49 11 3e
       -0.002629832 0.05928422 -0.21914382 0.14188053
0002d0 35 60 32 be 3b 11 c3 bd 7f 20 42 be 81 b8 0d 3c
       -0.17419513 -0.09524771 -0.18957709 0.008649946
0002e0 b0 dd a8 3d be f0 94 3d 9f f0 cc bd be 4e 3f 3e
       0.082454085 0.072724804 -0.10006832 0.18682382
0002f0 be d5 3b bd b3 ca 2b 3e 76 e0 73 3d af 9d 13 bd
       -0.045858137 0.16776542 0.059540235 -0.03603905
000300 70 f3 c5 3d d3 ba 17 3c 1b 48 dd bd c3 e1 70 3d
       0.09665573 0.009260851 -0.10804769 0.058809053
000310 51 02 5b 3e e6 fa 0f be a2 88 4c bd 67 0f 06 be
       0.21387602 -0.14060554 -0.04993499 -0.13091813
000320 fc cd 26 3e 9b d6 e7 3d e4 57 31 3e 91 29 df 3d
       0.16289514 0.113202296 0.17318684 0.108966
000330 e2 c8 32 bd de 73 db 3c 41 39 24 be 81 df 23 3e
       -0.043648608 0.026788648 -0.16037466 0.16003229
000340 e9 35 f9 bd 25 ce 49 3d 34 4b 83 3d 85 2e 10 3d
       -0.12168486 0.04926886 0.06410828 0.035200614
000350 06 55 07 be 3a 5a 85 bd f5 34 60 3d 45 23 28 be
       -0.13216028 -0.0651135 0.054738004 -0.16419704
000360 e8 89 0d be 49 fd d5 bd 6c 24 26 be 85 7d 81 3e
       -0.13822138 -0.10448701 -0.16224831 0.25291076
000370 9a 19 01 3e 1b be 21 3e 6a 0b 0d be 1b 98 be 3c
       0.12607422 0.15795176 -0.13773885 0.023265889
000380 85 2f 0d bd db 80 94 3d 72 4f 42 bb 55 b4 1f be
       -0.034469146 0.0725114 -0.0029649404 -0.15596135
000390 44 97 bb 3c b9 bc 23 be fa 4c 24 3e fd 24 f4 3d
       0.022899278 -0.1598996 0.16044989 0.119211175
0003a0 ab ac 14 be d8 80 08 be ad 75 84 3d a1 36 f6 3d
       -0.14518993 -0.133304 0.064677574 0.120221384
0003b0 b6 be 08 be d4 ac c9 3d 87 c6 57 3d c0 f8 a5 bd
       -0.13354 0.098474175 0.052679565 -0.08104086
0003c0 95 ae bf 3d 67 67 83 3d 44 2e 97 bb 32 06 e2 3d
       0.09359471 0.06416207 -0.0046136696 0.11036338
0003d0 23 08 99 bd 25 8a 15 3e 87 c8 d5 bd 91 c0 f9 3d
       -0.07472255 0.14603479 -0.10438638 0.12194932
0003e0 ec e1 8a bd 7d b0 13 be 58 5a ee 3d e4 7c e3 3c
       -0.067813724 -0.14422794 0.116383255 0.027769513
0003f0 71 8e 9d bc c7 60 1c 3e 93 96 0a 3c 93 71 cd 3d
       -0.01923296 0.15271293 0.008458751 0.10031428
