rwgnn/checkpoints/model_fold_4.pt (torch, 69539 bytes, 16 tensors)

adj_hidden f4 [16, 10]
00000000: 7804 2ebe e806 a9be 0ee2 2bbf 1478 6fbf
00000010: 1828 2d3e 702e 77be 60a6 05bd 006b 7a3d
00000020: a84a 86be 0059 e23b d65f 7f3f ee6f 6abf
00000030: b218 35bf f8f4 253f eef7 033f 20f6 213e
00000040: a0d2 a33d b246 47bf 4060 113e 407d c8be
00000050: 0c9e ffbe 0670 303f 4a2f 59bf 8462 493f
00000060: f0b4 3ebf 88d7 a5be ec87 70bf 3608 323f
00000070: 1c5a e33e 8495 283f 463b 1abf 56be 64bf
00000080: e0de 2a3f a805 72bf 2806 42be f463 1e3f
00000090: b814 e3be a812 61bf 4408 b2be bc39 0ebf
000000a0: f893 333f 1851 00bf 0059 95be 0014 be3b
000000b0: 60a0 883d 7a83 5abf 58a0 713e 1685 033f
000000c0: 8854 f3be 8c2b 9cbe 846d ef3e 3852 85be
000000d0: b87f 6abf f4d4 de3e 005d 8fbb d87c e5be
000000e0: c0a1 723d 6434 c83e 4070 4e3f a4d4 2a3f
000000f0: 90f0 85bd 706a 013f de8c 5a3f d81f 5e3f
00000100: 80e7 00be 0070 8439 888d c33e ba2d 383f
00000110: f83b 8f3e 4aec 26bf c009 79be 82fb 1ebf
00000120: 20f1 1cbd 846d 833e 1825 ebbe ec6e 0cbf
00000130: d42d 4bbf d087 cebd 9add 373f c8ca 58bf
00000140: 2c18 5c3f 5a93 6fbf 08a0 47bf 3236 01bf
00000150: 1a9a 68bf 9ed0 083f 5cb1 44bf be67 00bf
00000160: 1032 63be 248a 75bf 7cad 1dbf 98c0 103e
00000170: 8649 15bf a209 123f e444 d73e 40a0 083d
00000180: 108a 06be d85d 2bbe d29e 5dbf 98d9 61be
00000190: e05a f73d 64d8 ff3e a891 f23e 00a6 4abd
000001a0: 161e 6f3f d4ca 4e3f 0ebe 2ebf 983e 583f
000001b0: d052 8a3e 7479 64bf 76b4 75bf 5e2d 243f
000001c0: 46c0 593f 8868 60bf 901c 07be 48e1 4cbf
000001d0: 00e1 a0bc d012 f93e c01c d13c 400f 253f
000001e0: d861 963e 5a91 38bf 8823 463f 501e 583f
000001f0: e08f 27bf 64b1 b93e 5c03 d63e f861 933e
00000200: 6e04 353f 403b 1e3d a0db 06bd 8c8d 28bf
00000210: e008 cd3d 205d be3d 344e 8abe 9eb6 613f
00000220: 7428 e83e 70b1 1cbf 1429 6cbf 301e d53e
00000230: e0a3 d03d c023 0a3f 80d2 21be 3c99 62bf
00000240: 9c4e 8abe c247 5e3f 24b8 ea3e 022f 1a3f
00000250: 3c40 213f be2b 05bf 4ce8 663f 64c0 10bf
00000260: 5064 93be 040e a63e 6810 27be a05f ed3d
00000270: b208 6c3f 52cf 213f 505e c63e 3c09 0a3f
-0.16993892 -0.33013082 -0.6714181 -0.935426 0.16909826 -0.24138808 -0.03262937 0.0611372
-0.26228833 0.0069075823 0.9975561 -0.9157704 -0.7074081 0.6482692 0.51550186 0.15816545
0.07999158 -0.7784225 0.14196873 -0.39158058 -0.49925268 0.68920934 -0.8483778 0.7866595
-0.7449484 -0.32391 -0.939574 0.6954378 0.44404685 0.6585314 -0.60246694 -0.8935293
0.6674633 -0.9453988 -0.18947661 0.61871266 -0.44351745 -0.8791909 -0.3477193 -0.55556846
0.7014766 -0.5012374 -0.29169464 0.005800724 0.06671214 -0.8535687 0.23596323 0.5137495
-0.4752543 -0.30501974 0.4676324 -0.2603929 -0.91601133 0.43521845 -0.0043751 -0.4482181
0.059236288 0.3910247 0.8064003 0.66730714 -0.06540024 0.50553036 0.85371196 0.8676734
-0.1258831 0.00025260448 0.38193917 0.71944773 0.2797544 -0.652043 -0.24320126 -0.6210252
-0.038315892 0.2566949 -0.45926738 -0.54856753 -0.79366803 -0.10084498 0.7182251 -0.8468442
0.85974383 -0.93584216 -0.77978563 -0.5047332 -0.9086014 0.53443325 -0.7683313 -0.501583
-0.22187066 -0.9591391 -0.6159284 0.14135969 -0.5831531 0.5704595 0.42044747 0.03335595
-0.13138604 -0.16735017 -0.86570466 -0.22055662 0.1207788 0.4996978 0.47376752 -0.049474716
0.9340528 0.8077824 -0.6825875 0.8447051 0.27016306 -0.8924782 -0.95978487 0.64131725
0.8505901 -0.876595 -0.1319449 -0.8003125 -0.019638538 0.48647165 0.025526404 0.64476395
0.29371524 -0.7209679 0.77397966 0.84421253 -0.6545391 0.3626815 0.41799438 0.28785682
0.70709884 0.038630724 -0.032924294 -0.65840983 0.100114584 0.09295106 -0.2701279 0.88169277
0.45343363 -0.6120825 -0.9225018 0.41624594 0.10187507 0.539608 -0.15802956 -0.8851507
-0.270131 0.86828244 0.45843613 0.6022798 0.6298864 -0.5201987 0.90198207 -0.56543565
-0.2878747 0.32432568 -0.16314852 0.11590505 0.9220077 0.6320697 0.3874383 0.5392034

features_hidden f4 [16, 5, 32]
00000000: bb46 4c3f 0144 713f a0d7 0a3d f03d 793f
00000010: c476 e73e 84f1 b63e dce5 f83e 7888 693e
00000020: 5be9 053f 5eb9 853e 58e3 003f 8ac4 d43e
00000030: 48f4 993d c15a 0c3f 5e0d 3d3f 3c95 5d3f
00000040: 0af1 193f e292 523f 4679 b53e ccd2 933e
00000050: 7813 b43d 24d6 153e 3e96 143f 3886 5f3f
00000060: f06f 763f dfec 013f 353e 2c3f b90c 173f
00000070: 90a3 033e eadf 613f 1867 c33d 38ef 593f
00000080: b87e 7f3f 701f 3b3d fc52 313e f10e 493f
00000090: bc50 5f3e a004 c03d 44ea 633e 61fc 653f
000000a0: c83d 413e e436 c03e 086c 403f 91e3 2b3f
000000b0: 808d 113f ea09 773f 9a19 6a3f e0c3 d23e
000000c0: 884d 7d3e 18b6 5d3f 36b1 fd3e 805c 5c3d
000000d0: 7fae 5d3f e078 df3e e534 363f f821 163f
000000e0: 3288 e93e 70fd 403f 0065 b03d bec0 3c3f
000000f0: d406 963e 1c79 173e 9a47 c03e 80a1 923b
00000100: e2b8 183f f11b 023f 3658 053f 20a7 b83d
00000110: ec9c 303e e00f ab3e 5924 3c3f d870 913d
00000120: c31f 263f 0c9e 733f cccf 523e f0c8 913d
00000130: 2df6 773f 1820 823e 00b5 f13c d086 983d
00000140: 046c 373f 8ad1 1a3f 60af 2c3f 24ca 7c3e
00000150: 7613 e63e 1038 333f 2ce5 2e3e 80b7 e53b
00000160: 4056 da3e 60ca 7f3e 9639 b23e 7e86 c93e
00000170: 60f5 133f 6090 7b3f 1fbd 6f3f 5d6c 753f
00000180: dc9a e33e 418f 283f 40f5 663f 048e 903e
00000190: 2b03 463f 456a 5a3f 84e1 2b3f 80c0 a13c
000001a0: 1416 6e3e e8f0 363f 0248 f63e 8c30 693e
000001b0: bca3 2d3f 12d4 943e 0b9a 513f f4f3 9a3e
000001c0: 8012 1c3e f63a 3e3f 9274 773f 27d8 1a3f
000001d0: 028c c03e 74c8 243f 30eb 0e3f 4830 393f
000001e0: 948b 633e 00f2 663e c09d 5d3f 4dd8 583f
000001f0: 2844 143e 5101 613f 82ff c33e 5040 003e
00000200: 2431 0f3f 57c1 5e3f c979 193f 6e13 2c3f
00000210: 7b14 343f 4478 563e 80e8 cd3c 3ead 0a3f
00000220: 4481 7b3f 02cd f33e 12b3 b83e e2e5 883e
00000230: 7c21 743e c15b 1e3f 644a fb3e b41e 363e
00000240: 27dc 563f 07ba 133f 415a 2f3f 2046 663f
00000250: 10b2 463e 8852 ad3d 0884 683f d814 f13d
00000260: 9752 5c3f 1a1f 553f 96f1 263f 7859 af3d
00000270: e432 183f 2d56 7c3f 862d 283f 382d 473e
00000280: 20ba 5c3f 2de0 563f a87e 193e c053 293e
00000290: 0dae 423f 7ce4 213e 675f 773f 7c67 503f
000002a0: 2515 5e3f ec96 e23e d33c 0c3f ac34 593e
000002b0: 7fad 213f 908a 503e af06 033f 28b9 5e3e
000002c0: 27d6 333f 90d7 b83e ffce 773f 6c8b 163f
000002d0: 86c3 5e3f 8a4c b73e 90d5 343f b48e 203e
000002e0: 6bce 573f c720 403f 1844 633e 60e0 bc3d
000002f0: dadf a33e f680 273f 5485 2f3e 8303 2e3f
00000300: 6900 203f d48f 5c3f 06f2 313f 1fc0 0c3f
00000310: d013 1f3e dc24 493e fa49 c63e 4cb9 033f
00000320: 1212 193f 1c12 353e cfb5 5d3f 8da5 373f
00000330: 625a df3e 87cc 3c3f bca0 a53e 494c 3f3f
00000340: c54c 123f 64d2 313e 2cd0 1f3f 2c21 7f3f
00000350: 4efe 073f bd5b 5c3f cea9 723f 26d2 813e
00000360: b742 4d3f b42c c73e 244b 5e3e 40ed db3e
00000370: 1733 363f 41de 023f 1255 593f 6a40 eb3e
00000380: b8be f83d f48c 7a3f 00dd b83c 603c 323e
00000390: d41f a13e 08f4 3a3e 5a2c 453f 2cce 7d3f
000003a0: c975 633f 20df a93e 7672 4d3f dd13 223f
000003b0: c3ce 6f3f 00d6 113b 3448 4d3f e787 5c3f
000003c0: 0c8d 323f 74d6 d13e 57d5 6d3f 005e 503c
000003d0: 1528 743f 5a66 ec3e a8af 1b3f 528d 1f3f
000003e0: a0b4 853d bc45 0a3f cdb8 613f 04d2 623e
000003f0: 4009 7f3e f067 e43e 0515 1e3f 649e af3e
0.79795426 0.9424439 0.033897042 0.97360134 0.45207798 0.35731137 0.4861287 0.22805965
0.523092 0.26117986 0.503469 0.41556197 0.07517296 0.5482598 0.7384852 0.8655584
0.6013342 0.82255375 0.35444087 0.28871763 0.08792776 0.1463247 0.5804175 0.87314177
0.96264553 0.5075206 0.6728242 0.5900379 0.12855363 0.8823229 0.09541148 0.85130644
0.9980273 0.045684278 0.17316812 0.78538424 0.21808141 0.09375882 0.22257334 0.89838225
0.18871224 0.37541878 0.7516484 0.67144114 0.56856537 0.964995 0.91445315 0.41165066
0.24736607 0.8660598 0.49549264 0.053799152 0.86594385 0.43646908 0.7117446 0.5864558
0.4561172 0.75386715 0.08613014 0.737316 0.29302084 0.14792293 0.37554628 0.0044748187
0.5965711 0.50823885 0.52087724 0.090162516 0.17247361 0.3341055 0.7349296 0.07101601
0.64892215 0.95163035 0.2058708 0.07118404 0.9686001 0.2541511 0.029505253 0.074475884
0.71649194 0.6047598 0.674551 0.24686486 0.44936723 0.7000742 0.1707961 0.0070104003
0.4264393 0.24979544 0.3480956 0.39360422 0.5779629 0.98267174 0.9364795 0.95868474
0.44454086 0.6584359 0.9021797 0.2823335 0.77348584 0.85318404 0.67140985 0.019745111
0.2325061 0.71461344 0.48101813 0.22772425 0.67827964 0.29068047 0.81875676 0.30264246
0.15241432 0.7430872 0.9666225 0.6048607 0.37606817 0.6436837 0.5582762 0.72339296
0.22221214 0.22553253 0.8656883 0.8470505 0.14479125 0.87892634 0.38280874 0.12524533
0.5593436 0.87013763 0.59951454 0.6721715 0.7034375 0.20944315 0.025135279 0.54170597
0.9824412 0.47617346 0.3607412 0.26737887 0.23840898 0.61858755 0.49080193 0.1778515
0.83929676 0.5770573 0.6849709 0.8995075 0.19403863 0.08463007 0.90826464 0.11771554
0.8606352 0.8325058 0.6521238 0.08561987 0.5945265 0.98568994 0.65694463 0.19450843
0.86221504 0.83935815 0.14989722 0.16535854 0.7604683 0.15809816 0.9662995 0.81407905
0.86751014 0.4425577 0.5478031 0.21211499 0.6315536 0.20365357 0.51182073 0.21750319
0.70248646 0.3610196 0.96800226 0.5880649 0.87017095 0.35800582 0.7063837 0.15679437
0.84299344 0.75050014 0.22193944 0.09222484 0.32006723 0.65431154 0.17140704 0.6797411
0.62500626 0.86156964 0.69509923 0.54980654 0.15534902 0.19642967 0.38728315 0.51454616
0.597932 0.1768269 0.8660554 0.71736985 0.43623644 0.73749584 0.32349193 0.74725777
0.5714839 0.17365414 0.6242702 0.9965999 0.53122413 0.8607748 0.9479035 0.25355643
0.80179924 0.38901293 0.21708351 0.42954445 0.71171707 0.5112038 0.8489543 0.45947582
0.12145752 0.9787133 0.022566319 0.17405844 0.31469595 0.18257153 0.770208 0.9914272
0.888516 0.33178043 0.8025278 0.6331156 0.9367487 0.0022252798 0.801883 0.8614487
0.6974647 0.40983927 0.92903656 0.012717724 0.9537366 0.46171838 0.60814905 0.6232501
0.06528592 0.54012656 0.8817261 0.22150427 0.24905872 0.44610548 0.61750823 0.3430053

walk_encoder.feature_encoder.weight f4 [32, 136]
00000000: 2619 06bd 3d59 16be 88e0 5e3e b989 623e
00000010: deed cf3d f44b f43c 79cf 873d 6a0d 893d
00000020: 94fa 063d e3c9 ea3d 7da2 a6bd ecee 13be
00000030: c2ab b33b 3bb2 18bd e24c d5bb 2e7c 8fbb
00000040: e2bb 08be 4152 37be 2ff0 1bbe 24b9 d3bd
00000050: fb5c 283e 5ead 5abe 8da4 d0bb 11e7 f43b
00000060: 360b e93d d28d d9bd fdcd cc3b 6f8c 673d
00000070: c16a 3fbe e8a5 aa3d f36d 49bd 43ae 31be
00000080: e83b 93bd 928e 85bd 9dee 803d 7dba f8bd
00000090: f132 773c bf4e 16bd f86e 443e 7e53 16be
000000a0: 6616 27be 041c 01bd 1bd6 6e3d 4415 28be
000000b0: be30 e8bd 58e3 ccbb 706e 933d d013 523c
000000c0: cb80 023d 8464 52bb 241b d73c d4ff 07bd
000000d0: e5c9 933c 5825 5d3d 8ed7 36be d52d 0fbe
000000e0: 397b 9abc ae4d 1ebe ddcc b93c 8bd7 f0bd
000000f0: 8ae3 1dbb 3d68 9ebd afed 21be 6628 843d
00000100: 3193 25be c0ed 79bd 0ba5 fb3a ec45 9f3d
00000110: 32cd ed3c 52a6 2b3d 0fad 8fbd cf5c 04bd
00000120: cefc 363d 22c2 9cbc 6fce 1bbd 761a 723d
00000130: df86 a63d d5b6 f63c bfe5 c83c f6d5 c23c
00000140: 0443 78bc f918 2dbd 739d b3bc edff dabc
00000150: 966f 993d df5e 1f3c 1435 9639 1b3d 703c
00000160: c55f 023c 9fd8 77bd d611 563d 63e8 573d
00000170: 52a6 1a3c 5c32 013c 2186 6a3d dc88 2e3d
00000180: dc4f 10bd 4744 80bc 69a0 deb9 6fe0 903d
00000190: 84f3 873c 749c b1bc 6d6a 95bd feae 29bd
000001a0: d533 0ebc 70a5 a3bd ca92 9c3d 0c83 ae3d
000001b0: 984a 86bd ed11 253d 8861 c638 3a4c 89bd
000001c0: 84e2 2d3b c0d9 a4bc 2781 223d 0941 bd39
000001d0: 5a86 3f3d e94c 7f3b 5055 a53c 32e9 8fbd
000001e0: 8311 70bd a290 91bd fef9 f03c 24e2 30bc
000001f0: 885b 63bd 7697 96bd 2722 06bd a7c8 18b9
00000200: db1b 15bc 1fe1 0c3b 4031 a8bc b8be cfbc
00000210: 2972 8abd f45b 1a3d cd3d 79bd 6246 01be
00000220: 3296 2c3d edac d5bd 770d 893e 3e6e 703e
00000230: 7f70 c2bb ed62 883d 7ca0 48bd 1b02 16bd
00000240: 57ef 39be 2fae 37bd a024 aabd c28c 3bbd
00000250: 6798 7d3d a188 9b3c 4bd1 133c 6d33 8dbd
00000260: 2b1c 72bb e011 66bd 2800 1bbe 607e 4f3c
00000270: ec6a 773d 7476 46be 0e78 28be 84b6 c03d
00000280: 59b4 093e 04f0 c1bb a4e9 8a3d 6934 8a3b
00000290: e463 883d b9a6 b23d 7cf9 45bd da39 85bd
000002a0: 6f54 2bbc 28cf 2abe 4ffe 0f3d ec02 9e3a
000002b0: 4cce 263c 60e8 323d 8214 3e3e 1e5a aebd
000002c0: f310 07be 435f 7f3d 6876 643d 2736 23bd
000002d0: 8aa7 b63d f79f 6f3d 3188 fc3c 19f4 95bd
000002e0: 8919 2e3e 20b9 c63d 7bc4 f23d 2a29 4f3d
000002f0: da24 a2bd b450 3cbd 398f c23d 9a7d 15be
00000300: cc9a a53d a1e8 15bd 72c9 d03d 9ab2 1f3d
00000310: b4d5 9f3b c303 9e3d a7a5 0cbe 4521 9f3d
00000320: 4c36 3fbe baa9 a1bb 3f91 393d ec0a 903d
00000330: ff57 13be fe6b 963c 83ea 973d 4557 91bd
00000340: a08f a93d b766 28bc 1c10 983d 42f5 9fbd
00000350: 5dc5 27bd d834 a73c 1180 91bd f423 44bd
00000360: d855 343d 950e a5bd c1d4 3cbd 25e3 8a3d
00000370: b749 d93c d540 363d a728 b8bc 18ef 5ebd
00000380: 703c 85bd 31f0 49bd 6cd5 0dbc b46c 90bd
00000390: f0f4 2abc d28a a03d e451 a43d 9ff3 80bd
000003a0: 273d 123c 86c1 85bd c610 623d 2319 0abd
000003b0: 1bb8 783c 6ca1 00bd 8bb6 14bd f03d acbd
000003c0: 6981 bd3c 6b94 2d3d 6098 fc3c aebb aa3d
000003d0: d874 993d 20dd 5f3d 6be2 5abc 3e61 8ebd
000003e0: 230d c73c fbda 93bd 8852 74bd cb86 edbc
000003f0: ddf2 b03b b27b 893d b3c1 ae3d 09aa 98bd
-0.032738827 -0.14682479 0.2176534 0.2212285 0.101527914 0.029821374 0.06631369 0.06692012
0.032953814 0.11464288 -0.08136461 -0.1444661 0.0054831216 -0.03727935 -0.0065094093 -0.004378817
-0.13352922 -0.17902471 -0.15228342 -0.10338047 0.16441719 -0.21355197 -0.006367272 0.0074738343
0.113790914 -0.10622753 0.0062501417 0.056530412 -0.18693067 0.08332425 -0.04917712 -0.17351632
-0.071891606 -0.06521334 0.06295512 -0.12144945 0.015087829 -0.036696192 0.19182956 -0.14680287
-0.16317138 -0.03152086 0.058309656 -0.16414362 -0.11337422 -0.0062526874 0.07198799 0.0128221065
0.031861108 -0.003210337 0.026258059 -0.03320296 0.018040607 0.053990692 -0.17855665 -0.13982327
-0.018857585 -0.1545932 0.022680694 -0.117598616 -0.0024091923 -0.077347256 -0.15813325 0.06453018
-0.1616943 -0.06101775 0.0019198967 0.077770084 0.029028509 0.041906662 -0.0701543 -0.03231507
0.044674687 -0.019135538 -0.038038667 0.059107266 0.08131193 0.030116478 0.024523614 0.023783665
-0.0151526965 -0.042260144 -0.021925664 -0.026733363 0.074919865 0.009727209 0.00028649776 0.014663006
0.007957404 -0.06050932 0.052263103 0.052711856 0.009439068 0.007885542 0.05725682 0.042610988
-0.03523241 -0.015657557 -0.00042462655 0.07074057 0.01659561 -0.021681048 -0.0729569 -0.04142665
-0.00867935 -0.07990539 0.07645185 0.08521089 -0.065571964 0.0403003 9.459542e-05 -0.06703992
0.002653272 -0.020123363 0.03967395 0.00036097344 0.046758987 0.0038955754 0.020182282 -0.070269
-0.05861045 -0.07107665 0.02941608 -0.010796104 -0.055507213 -0.07353108 -0.032747414 -0.00014570598
-0.00910088 0.0021496487 -0.020531297 -0.025359496 -0.067600556 0.03768535 -0.060849953 -0.12624505
0.042135425 -0.104333736 0.26768085 0.23479554 -0.0059338207 0.066594936 -0.048981175 -0.0366231
-0.18157707 -0.04484385 -0.08307767 -0.045788534 0.06191292 0.018986048 0.009022067 -0.06894574
-0.003694306 -0.05616939 -0.15136778 0.0126644075 0.060404703 -0.19381124 -0.16452047 0.09409812
0.13447703 -0.0059185047 0.06782845 0.0042176736 0.066596776 0.08723206 -0.04833363 -0.06505175
-0.010457142 -0.16680586 0.035154637 0.0012055314 0.010181021 0.04367864 0.1856251 -0.08513282
-0.1319006 0.062346708 0.055776983 -0.039846566 0.08918674 0.058502164 0.03082666 -0.073219486
0.17001928 0.097032785 0.11853882 0.050576366 -0.07917185 -0.045975402 0.09499974 -0.14598694
0.08086166 -0.036598805 0.10194673 0.038988687 0.0048777703 0.07715561 -0.13735066 0.077700175
-0.18673056 -0.004933563 0.045304533 0.07033333 -0.14389037 0.018362042 0.074177764 -0.070967235
0.082793474 -0.010278395 0.074249476 -0.07810451 -0.040959705 0.02041094 -0.07104505 -0.04788585
0.04402718 -0.08059422 -0.046101335 0.06781606 0.026524408 0.044495422 -0.022480322 -0.054427236
-0.06505668 -0.04930133 -0.008656841 -0.070519835 -0.010434374 0.07838978 0.08023432 -0.06296467
0.008925713 -0.06531052 0.055191778 -0.03371538 0.015180613 -0.031403944 -0.0363069 -0.08410251
0.023132997 0.04237787 0.030834377 0.08336578 0.07492989 0.05465424 -0.013359646 -0.06952141
0.024298256 -0.072195016 -0.05964902 -0.028994938 0.0054000453 0.06713046 0.08533039 -0.07454307

walk_encoder.feature_encoder.bias f4 [32]
00000000: 6e93 cb3d 83b6 93bd 4b50 103e f410 fb3d
00000010: fa64 3dbd 0da4 0b3e 1ee7 3c3e 7cbf 80bc
00000020: dc65 f2bc 9258 8b3d 16e3 1e3e e57b 05be
00000030: ff44 563c 940c e73d dc33 4a3e 44d7 803c
00000040: 2b5b aabd 5b35 013d c909 113e 80ac f2bd
00000050: 29a3 67bc 8298 a0bc fc4b 2f3e 1fbc 5e3d
00000060: be9b a8bd 87e5 bb3d 1f39 e3bd 568e b0bd
00000070: 5f31 8fbc c096 d93a 2acd ae3d 87e1 4b3e
0.09940229 -0.07212546 0.1409313 0.12259093 -0.046238877 0.13636799 0.18447539 -0.015716307
-0.029589586 0.06804003 0.15516314 -0.13035543 0.013077973 0.11281696 0.19746345 0.015727647
-0.0831817 0.031545024 0.14163889 -0.11849308 -0.0141380215 -0.019603971 0.1711883 0.054378625
-0.082328305 0.09174638 -0.11094879 -0.086208984 -0.017479597 0.0016600713 0.08535226 0.1991025

walk_encoder.path_encoder.weight_ih_l0 f4 [96, 32]
00000000: 3cb2 303d a9b7 8c3d 7b88 76bd 81e8 99bc
00000010: 1189 b13d 8e42 6cbe bf2a 83bd e240 723d
00000020: 1807 023e 6e9c 093e e853 243d c49d fbbc
00000030: 2f3b 40be 08ff 033e 88ed 783d 0c98 e73c
00000040: 3b28 dbbd c915 3e3d 8f24 bbbd acff a43d
00000050: cebb 623e 9f09 613e 9dc8 41be ef07 96bd
00000060: e35f 5a3d 5440 dbbd b9bd 5c3d 7071 2e3e
00000070: 05e0 403d 59ed 223e 4576 cc3d e3de 81bd
00000080: 44ce 6fbc 2ab4 1cbe d296 adbd e7d6 aa3c
00000090: fc2c d63d 1558 933d 9a52 02be 0020 14be
000000a0: 2a12 2abe 2e63 34bd 8f28 b5bd a057 83bc
000000b0: 2451 03be 8a57 c03d 5d22 91bd 7d65 5b3d
000000c0: 7a43 8b3d cfb4 61bc da61 123e 279e 25be
000000d0: 2163 09bd 3150 273e b243 ddbd 8a33 0bbe
000000e0: dc82 793e 917c abbc 4deb c5bd e3ab 32be
000000f0: 67c2 d4bc b237 0a3d 6f7b 273c 7ba0 2dbe
00000100: dc83 8dbd d48d 9b3c 3d10 a33d 30ea 32be
00000110: 704f 603e 92f8 aabd 784b 13be b0cf 333e
00000120: 2dc1 96bd ba81 5fbc 0fa9 f33d 5efb 13be
00000130: 87fa 25be 5657 13bd b27b dcbd af84 86bd
00000140: d7e7 4fbc e3e6 db3d a733 30be 0055 d7bc
00000150: d316 a33c 6aee ffbc 161d 2e3e 3064 ce3d
00000160: 5b2b 8cbd 08bd 373d 6fa6 e0bd 320f 103e
00000170: bd33 213e a3b2 0cbe 9ed4 6abb b64c 1fbe
00000180: 9f77 8e3e c4c0 d43c c4f5 263c 2ce4 103d
00000190: 7493 26be e603 c0bc 803e a43d cfce 34be
000001a0: fc76 7abe 2cec 5abd f8ba 9e3d 3ef6 c73d
000001b0: 20a8 21be 8dcb 61be 35b9 363e d60d 44bd
000001c0: fdcf bf3d c578 c4bd 0816 c13d 32ca 23bd
000001d0: 8872 12be 6212 223d fc4a bd3d 5330 cfbd
000001e0: 3b2f bb3d da12 013e 4935 043e 5071 16be
000001f0: 6431 c73d db22 3cbd db8f ca3d 4e8e 723e
00000200: e1c0 853d be0b 04bd d2ce ffbd 810b 2f3e
00000210: 4e0e 2c3d c8b9 ecbd 024f 273e 06e9 32be
00000220: c2f3 413d 7772 2dbe 4ae5 793d 4274 c1bd
00000230: 795d e8bd fb8e 0e3d 98aa 41bd 92fa adbd
00000240: c389 713d 26b7 35bd c1c5 cf3c 4ca1 21be
00000250: af36 393e 4e89 153e d824 893d 9178 25be
00000260: a817 f2bd 739d e1bd 0a4e 6f3e a4e1 b43d
00000270: 0c19 8a3d 1bf7 583e 0934 d4bc 13af 73bd
00000280: f074 b23c fe48 9cbc 38a6 923d 1ebc 203d
00000290: 37dc 0d3d 56dd d43d 9843 123e dd08 063e
000002a0: 8bbe 0d3c 748b 723e 8ff5 8b3d 1093 99bd
000002b0: 74cc 5e3d 2958 1b3e 8b6b 563e 1fb8 e0bd
000002c0: 2c3e 90bc 7c0e ff3d e561 49bd ba72 5cbe
000002d0: 5a66 16be 1e5d 38bd e4dd 3dbc d594 373e
000002e0: 551e 913d b02c 703e fe99 543d 969d 20be
000002f0: 1c89 dcbd 05ad 1c3e d480 8a3e 4aa3 8a3e
00000300: c6a8 26be ad38 3d3e c4bc 80bd dfbe 58bd
00000310: 06eb 10bd 2502 0bbe 320c 62bc 7f0d 543d
00000320: 840a 3fbd 78b4 503e 3631 2dba 538f 823e
00000330: 1244 04be e8ee 293e 2ca1 f0bd a9ac c5bc
00000340: 197a ef3d 01ed cd3c a7b1 7c3d 44ac d63d
00000350: 3b8c 6dbd 56b8 1a3e f4f6 2e3e f966 12bd
00000360: 782e 3e3d 757f 083d 6e9e bdbd 98f3 b1bc
00000370: 381c 20be 2ab3 f4bd f990 f4bd bbbb 55be
00000380: 6b67 883d b1d6 a53d b0d0 bcbc fa1b 2f3e
00000390: a065 8f3d 4006 ffbd 3ebc 17bd 1b0d 1abe
000003a0: e134 133c cc2a 58be 8ee7 aabd cff1 473d
000003b0: 2c72 2cbd 6387 89bc 738f a73d af3a b93c
000003c0: a797 1dbe eac7 d03d 500a 2dbe 91c9 9a3d
000003d0: f9d2 bbbc 8be6 35bd 7b8b 0d3e 1d99 5b3d
000003e0: e242 18be bb05 163e 50ff 2e3e 885a 0abd
000003f0: c5cd 37bd 786e 783c 8a1f 693e d07c 44bd
0.043138728 0.06870968 -0.06018875 -0.018787624 0.086687215 -0.23072264 -0.064046375 0.05914391
0.12698019 0.1343858 0.04011908 -0.030714877 -0.18772577 0.12890255 0.060773402 0.028270744
-0.10701033 0.046407495 -0.091378324 0.08056578 0.22141954 0.21976326 -0.18924184 -0.07325732
0.0533141 -0.10705629 0.05389187 0.1703546 0.04708864 0.15910853 0.099834956 -0.063413404
-0.01463658 -0.15303102 -0.08476032 0.020854427 0.10457799 0.07194535 -0.12726822 -0.14465332
-0.16608492 -0.044039898 -0.088456266 -0.016032994 -0.12823921 0.09391697 -0.070866324 0.053563584
0.067999795 -0.013776018 0.1429514 -0.16173612 -0.033541802 0.16339184 -0.108039275 -0.1359388
0.24366325 -0.020933421 -0.09664021 -0.17448382 -0.025971605 0.03374452 0.0102223 -0.1695575
-0.06909916 0.018988527 0.079620816 -0.17472148 0.21905303 -0.08348192 -0.14384258 0.17559695
-0.07361064 -0.013641769 0.1189748 -0.14451358 -0.1620885 -0.035971962 -0.107657805 -0.06568276
-0.012689552 0.107373975 -0.17207204 -0.026285648 0.019908344 -0.031241614 0.17003283 0.10077703
-0.06844207 0.04485801 -0.10969245 0.14068297 0.15742393 -0.1374002 -0.0035832296 -0.15556607
0.2782564 0.025970824 0.010190431 0.03537385 -0.16267186 -0.023439359 0.080197334 -0.17657016
-0.24459451 -0.053447887 0.07750505 0.09763764 -0.15786791 -0.22050305 0.17844088 -0.047864757
0.093658425 -0.095933475 0.0942803 -0.03998775 -0.14301503 0.039568312 0.09242818 -0.10116639
0.09139868 0.12604848 0.12910952 -0.14691663 0.097262174 -0.04593168 0.098907195 0.23687097
0.06530929 -0.03223776 -0.1249062 0.17094232 0.04200583 -0.115588725 0.16338733 -0.17471704
0.047351606 -0.16938196 0.061009683 -0.094460025 -0.113459535 0.034804326 -0.04728183 -0.08495058
0.05896927 -0.044364117 0.025362851 -0.15784186 0.18087266 0.14603159 0.066964805 -0.16159274
-0.11820918 -0.11016359 0.23369613 0.088321 0.067430586 0.21188013 -0.025903719 -0.059493136
0.021784276 -0.019077774 0.0716061 0.039241903 0.03463384 0.10393779 0.14283597 0.13089319
0.008651386 0.2368601 0.06833946 -0.07498753 0.0543942 0.15170349 0.20939462 -0.10972618
-0.01760777 0.124539346 -0.049165625 -0.2152814 -0.14687482 -0.04501068 -0.011588547 0.17927869
0.070858635 0.23454547 0.05190467 -0.15685114 -0.10768339 0.15300377 0.27051413 0.27077705
-0.1627532 0.18478651 -0.06286004 -0.052916404 -0.035380386 -0.13575037 -0.013796853 0.051770683
-0.046640888 0.20381343 -0.0006606759 0.25499973 -0.12916592 0.16595042 -0.11749491 -0.024130182
0.1169321 0.025137426 0.06169286 0.10482076 -0.057995062 0.15109381 0.17086393 -0.035742734
0.046431035 0.033324677 -0.09258734 -0.0217226 -0.15635765 -0.11948235 -0.11941714 -0.20872395
0.066603504 0.0809759 -0.023048729 0.17100516 0.07001805 -0.12452364 -0.037044756 -0.15044062
0.008984775 -0.21110076 -0.08344947 0.04881459 -0.04210107 -0.01678819 0.08181658 0.02261099
-0.15389882 0.101943806 -0.16898465 0.07557977 -0.022927748 -0.044409316 0.13822739 0.053612817
-0.14869264 0.14650624 0.17089581 -0.033777744 -0.04487397 0.015163057 0.22765937 -0.047970593

walk_encoder.path_encoder.weight_hh_l0 f4 [96, 32]
00000000: 6eb0 6c3e 4ac1 e2bc 57d5 23be 9268 19bd
00000010: ec18 46bd aeb9 f8bd b618 bbbd 8882 af3d
00000020: 8023 1abd 29d7 edbd c271 1f3d 7bf7 403e
00000030: 7928 14be cb51 a03c b2ab 2ebe 750a 6b3e
00000040: 1f37 6f3e f383 4cbd e837 873d 31cb 003e
00000050: faf5 55be 23d5 463d 60ae 4d3e b7b2 f7bd
00000060: e47f 08be f259 bdbd 17cd a0bd d086 cc38
00000070: 7a61 2b3b 04f1 2f3e e0fe 52be 6984 15be
00000080: fcb2 483e cb16 debc ef15 c13c 7b78 8d3d
00000090: 3142 5bbd 7b98 d8bc cb43 71be 2145 22be
000000a0: edad f0bd d024 9ebd 27e1 b5bc 86dd 633e
000000b0: 302b b6bd ef55 823d c163 91bd f262 95bc
000000c0: 3fa3 8e3d a2fd 7a3c 1231 eebd 0a9a 813a
000000d0: 3e6d ef3d 812d ce3d 7faf b83d 7425 0c3e
000000e0: 20ab 76bd dc37 debd 75bf 2d3e 8374 86bd
000000f0: bcaf 5b3e 926a 673d 4307 c43d 25c0 ad3d
00000100: b500 96bd 5e1c 3e3b 6b25 fbbd 4dbc 24bd
00000110: 4cb4 f73d 6457 a63d 7bd1 833d 2d49 c6bc
00000120: ee0c 673e 8981 c1bd 12c8 80bc 63c9 1ebe
00000130: 51aa 9cbd 09aa 1b3e 46c0 24be 41d2 1cbe
00000140: a8c3 bbbd 7676 1fbe 5220 28bd 1d3f 8cbd
00000150: e29d d33d c563 47bd d467 0ebe 322f 393e
00000160: a66f c03c f6ee 303e bf9e 683d fc16 55be
00000170: 2b5b 29be 4afd 98bb 5a92 5f3d ac08 a0bc
00000180: c4fa 07be 7c92 d23d 38ab 2d3e 3915 23bc
00000190: 60d8 243d 4c06 83bd 8a10 f2bd 057d 2d3e
000001a0: f915 013e f262 283e 0d42 cebd c22b 19be
000001b0: 4abc d1bd 2f65 84bd 310e edbc 1e4b b73d
000001c0: 21d6 79bd dae7 b3bd 537f d6bd bcdd 57be
000001d0: 93b8 2ebe 02a4 b03d 1425 31bd db51 a7bd
000001e0: eaa5 e5bc fb36 0d3e 0eb6 733d 8f72 fc3d
000001f0: ba4f 5ebe 4cb9 5ebc 9ef6 793c 945c 77bd
00000200: 981f 70bd 7d34 69be 66f3 b8bd a915 11be
00000210: d514 1d3e 1be1 523c fb4e 14bd 1492 19bc
00000220: 0b97 febd af69 d4bd b00d 2fbd d93b 203e
00000230: a32d 5dbe 1b5f d8bc 6066 283e 4ef1 ab3c
00000240: 5455 30bd 3b56 6bbc 2ff4 7dbe d7e9 e9bb
00000250: deec c9bd bdad 31be b509 f5bd 2f3b 223d
00000260: 998a c9bd f10b d6bc 1e50 c7bc ce2f fb3d
00000270: 9967 9dbd eebb 2e3d 6033 3f3d b406 0ebe
00000280: 56de 61be e22b 423e d79f 7b3e a49e fcbd
00000290: 5d08 d33d c2a0 063e 74b8 a0bc af29 443e
000002a0: 5a73 453d ae64 853c 9274 23bc 6efe 0f3b
000002b0: 6ece 7bbd a289 193d e438 babc 66cc b6bd
000002c0: 9517 ea3c b9eb 653e f319 8e3d 8a97 09bd
000002d0: b50b 043d 38fc ac3d 6aee d9bd c773 9d3c
000002e0: 7206 8abc a1f4 91bd 1c67 53be e729 a03d
000002f0: 1ab8 6fbd 29d2 7ebd aafa 483e c3d8 d63d
00000300: 73f8 213e 3632 6fbd e197 91bd 5285 7b3d
00000310: 6e51 24be e79a 2dbe 2959 42bd 214e 5cbe
00000320: f898 81bd 5049 c53d e25c 5d3e 0699 57be
00000330: 10ad 0e3e 1744 f93d 9283 953d 62c9 48bc
00000340: 028f 2abe 3efd 2cbe 1a93 01bd 851c c73d
00000350: a0d6 973e 9e9e 79be 07dc e73d f5de acbd
00000360: 32eb a6bd f0de f33c 8cf1 ce3b 8fb2 10be
00000370: 5107 ad3d 096d e23c b5f7 a1bd c17a c7bc
00000380: 8e6b 6ebd 55ec 29be 5150 47be 3914 9abd
00000390: cd80 fcbd 3cf0 15bc ab69 133e e270 97bd
000003a0: b551 3ebe 3404 913d f392 1cbe 1611 acbb
000003b0: 2d90 793d 970b 9dbd fa2e d53d ba6e 06be
000003c0: 5ebd 70bd b3e1 393e d31d 2cbe 7a4e 3bbe
000003d0: 7dda a03d 8d61 d4bd 4cec 303d 67a2 253b
000003e0: cad8 1cbe 9323 3ebd d1dc 38be a973 1c3e
000003f0: 1ee5 e6bd cd72 2b3e c269 58be f873 a8bc
0.23114178 -0.027680058 -0.15999351 -0.03745324 -0.04836361 -0.121447906 -0.091355726 0.08569819
-0.03763151 -0.11613304 0.038926847 0.18844406 -0.14468564 0.019570252 -0.17057684 0.22953208
0.23360871 -0.049930524 0.0660246 0.12577511 -0.20894614 0.048543107 0.2008605 -0.12094634
-0.13330036 -0.09245671 -0.07851618 9.752589e-05 0.002615063 0.17181784 -0.2060504 -0.14601292
0.19599527 -0.027110478 0.023570029 0.069077455 -0.053529922 -0.026439896 -0.23561017 -0.15846683
-0.11751924 -0.07721865 -0.022202088 0.22252473 -0.08894956 0.06364047 -0.07099105 -0.018235657
0.069647305 0.01531926 -0.11630453 0.0009887826 0.11690758 0.10067273 0.09017848 0.13686162
-0.06022179 -0.10850498 0.16967566 -0.065651916 0.21453756 0.056498118 0.095716976 0.08483914
-0.073243536 0.0029008607 -0.12262996 -0.04021864 0.12094936 0.08122137 0.064364396 -0.024204815
0.22563526 -0.09448535 -0.015720401 -0.1550651 -0.07649673 0.15201582 -0.16088971 -0.1531458
-0.09168178 -0.15572533 -0.041046448 -0.068479754 0.10332848 -0.048679132 -0.13906795 0.1808441
0.023490738 0.17278656 0.056792017 -0.20809549 -0.16538684 -0.0046688663 0.05458293 -0.019535385
-0.13279253 0.10281846 0.16959846 -0.00995379 0.040245414 -0.063976854 -0.11819561 0.16942222
0.12606038 0.16443995 -0.10071192 -0.14958099 -0.102409914 -0.06464612 -0.028937431 0.08949874
-0.060995225 -0.087844566 -0.10473504 -0.21080679 -0.17062597 0.08625032 -0.04324825 -0.081699096
-0.028033216 0.13790505 0.059499793 0.12326538 -0.21710101 -0.013593983 0.015256552 -0.060391024
-0.05862388 -0.22773929 -0.090307996 -0.14168419 0.15339978 0.012871052 -0.036208134 -0.009373207
-0.12431153 -0.1037172 -0.042737663 0.1564783 -0.2159944 -0.026412537 0.16445303 0.020989086
-0.043050125 -0.014363821 -0.2480018 -0.0071384716 -0.09859632 -0.17351432 -0.11964742 0.039607223
-0.098408885 -0.026128741 -0.024330195 0.122649774 -0.07685775 0.042659692 0.046679854 -0.13869745
-0.2205747 0.18962052 0.24572693 -0.12334946 0.103043295 0.13147262 -0.019619204 0.19156526
0.04820571 0.01628336 -0.009976523 0.002197172 -0.061476164 0.037484773 -0.022732206 -0.08925705
0.028575698 0.22453202 0.06938543 -0.033591785 0.032237727 0.084465444 -0.10641177 0.019220246
-0.016848776 -0.071267374 -0.20644802 0.07820492 -0.058525182 -0.062212143 0.19626871 0.10490563
0.15817432 -0.058397494 -0.07109047 0.06140644 -0.16046688 -0.16953622 -0.04744831 -0.21514179
-0.063280046 0.09633124 0.21617463 -0.21054468 0.13933206 0.1217119 0.07300486 -0.012255045
-0.16656116 -0.16893479 -0.031634428 0.097222365 0.29655933 -0.24376914 0.11321264 -0.08440963
-0.08150329 0.02976939 0.0063154157 -0.14130615 0.08448661 0.027639883 -0.079085745 -0.024350526
-0.05820804 -0.1659406 -0.19464232 -0.075233884 -0.12329254 -0.009151515 0.14395778 -0.073945776
-0.18585856 0.0708088 -0.15290432 -0.0052510602 0.060928512 -0.07668226 0.10409351 -0.13128176
-0.058774345 0.18152504 -0.16808252 -0.18291655 0.07854173 -0.10370169 0.0431941 0.0025273801
-0.15317073 -0.046420645 -0.18052985 0.15278496 -0.112741694 0.16743012 -0.21134093 -0.02056311

walk_encoder.path_encoder.bias_ih_l0 f4 [96]
00000000: 0d6d 5fbe 260f 85bd 9f21 e6bd 09d9 1b3d
00000010: 7d67 823e 4083 be3d 4215 273e 5415 99bd
00000020: 7417 50be 39d6 733d 7175 de3d dc83 aa3c
00000030: 9b38 a2bd 542b 7b3d 0913 9cbd 7465 d1bd
00000040: 75bd 9cbc adc8 133d 11d1 043e a933 223d
00000050: f01c 063e 1c64 6e3e a782 3c3e 854c 5c3e
00000060: 295b 23be ffb5 1cbe 05f1 253c a0ff 7a3d
00000070: 0821 3c3a d73e 32bd 6443 39be b66d 8f3c
00000080: 6058 8f3c c6bf 1c3e 85fe 55bc d7f0 803e
00000090: ffd8 dd3b 709e e13d 5cac 823e 2532 5b3e
000000a0: 64ec 07bd 0104 973d 6536 023e 56e2 5c3e
000000b0: 6d82 d63d a4b5 063d 70a1 9b3d 25eb 00be
000000c0: 1786 323e facc ce3d 884d 5c3e 3718 053e
000000d0: 9105 813e 8ac7 163e 12c3 f03d e1f9 3f3e
000000e0: 3aa7 243e 377e bcbd 171e 3b3d 6b8d 9e3d
000000f0: d366 203e 6115 cd3d aadb 3e3e b1cf d53d
00000100: c989 26be d3fb 963d 9ca7 1f3e b66e 0ebe
00000110: 4767 9b3e a496 4d3e c8ba 113e 7c82 0e3e
00000120: 7583 6e3e 290c fd3c 48cd 0dbd 366c ab3b
00000130: 34fa 933d 8003 553e 1a99 743e b7bb 303d
00000140: 816f 27be 703d 563e 604a fa3c 79e0 edbd
00000150: 03de aebd bd0b 57be fc3b d0bd 23fe 9b3b
00000160: ae5b 433d 4ff7 71bd a2e5 35bd 07ba b63d
00000170: cc4d f5bc 6dff 7e3c 7149 e43d c0c6 c43d
-0.21818943 -0.0649703 -0.112368815 0.038048778 0.2546958 0.09302378 0.16316703 -0.07474771
-0.20321447 0.05953047 0.10862244 0.020814829 -0.07920953 0.061320618 -0.07620818 -0.10224429
-0.019133309 0.03608005 0.12970378 0.03960005 0.13096976 0.23280376 0.18409215 0.21513565
-0.15952744 -0.15303801 0.010128264 0.06127894 0.0007176553 -0.04351696 -0.18092114 0.017508369
0.017498195 0.15307531 -0.0130611705 0.25183746 0.0067702527 0.11016548 0.25522125 0.21405847
-0.033184424 0.073738106 0.12716062 0.21570715 0.104740955 0.03288807 0.07599151 -0.125897
0.17433964 0.1009769 0.21513951 0.12997518 0.2519956 0.14724556 0.11755957 0.18747665
0.16079417 -0.09203761 0.045682993 0.07741817 0.15664224 0.10013843 0.18638483 0.104400046
-0.16263498 0.073722504 0.15591282 -0.1390942 0.30352232 0.20076996 0.14231408 0.13916963
0.23292334 0.030889587 -0.0346196 0.0052314056 0.07225457 0.20802116 0.23886529 0.04314777
-0.16351129 0.20921874 0.030553043 -0.116150804 -0.08538439 -0.21000572 -0.10167691 0.00476052
0.047694854 -0.059073742 -0.044408448 0.08922201 -0.029944323 0.015563828 0.1114682 0.09608221

walk_encoder.path_encoder.bias_hh_l0 f4 [96]
00000000: ed5c 4dbc 6c0d 413c a8fe 4ebe 28cf 133e
00000010: aff0 313e 4cb1 3bbd a7d1 f43d 05f1 143e
00000020: ee13 f4bd 1079 bb3c adc2 953d ecc0 4c3c
00000030: db24 e1bd 5513 9fbc a03f 9abd 6e0e 17bc
00000040: 4195 893c 451d 40be 554f 7c3d de93 a13d
00000050: 5326 b03d e66c 403e c82c e4bd 7967 c0bc
00000060: 79fd 21be 5f62 5cbd 8bef 20be 07d2 15be
00000070: 1306 38be dfb1 92bc 4542 783c c009 323e
00000080: 2f4b 4b3d 375a a1ba ad07 473d a4e1 653e
00000090: d5d3 4ebd 670e cd3c c838 ff3d 73ea 36bd
000000a0: 6789 a7bc f913 f73d 66b2 cd3d ca0b db3d
000000b0: 7e81 8b3e 865d 8ebd db31 07be 20f4 e63d
000000c0: 7899 043e 02c2 4a3e 1f70 2b3e 8d3c 2f3e
000000d0: 3159 30bd 8a83 e33d 6607 f03c fb9a 443e
000000e0: ccbb ba3d ada2 5dbe c86a 4cbb 6fb8 0b3d
000000f0: da53 103e 1dba 41be 0dc8 87bc e950 0a3e
00000100: db4e e1bd 9fd7 e3bc a175 a43d 4114 df3c
00000110: c2de 5d3e 6ecc 523e 19aa 643e d404 043e
00000120: 5bff d0bd f84a a2bd 02ec 36be 3fca 02be
00000130: 09bb 33bd 75d2 22be 9a4d 1ebe 3a4d eabd
00000140: a0b2 3e3d 48c8 3c3d f0d9 c2bd 2423 2abe
00000150: 486a c83b e8de 9b3d 486b d6bd a1f9 4dbd
00000160: 11f7 aabd 028e 97bd f115 9dbd 79c9 b7bd
00000170: 5f53 0dbd 766d 6abd 1010 023e 3459 133d
-0.012534362 0.011782985 -0.20214331 0.14434493 0.1737697 -0.04582338 0.119540505 0.14545067
-0.11917864 0.022884876 0.07312522 0.012497168 -0.10993358 -0.019418398 -0.07531667 -0.009219749
0.016794803 -0.18761165 0.061599094 0.078895316 0.0860106 0.18791541 -0.11141354 -0.02348684
-0.15819348 -0.05380475 -0.15716378 -0.146309 -0.17971067 -0.017907081 0.015152519 0.17386532
0.049632248 -0.0012310211 0.048591305 0.22449356 -0.050494988 0.025031282 0.12462002 -0.044657182
-0.02045126 0.12064356 0.100437924 0.10695608 0.27247232 -0.06951432 -0.13202612 0.11277032
0.12949169 0.1980057 0.1674199 0.17112942 -0.04305381 0.111090735 0.029300403 0.19199745
0.09117851 -0.21644087 -0.0031191576 0.034111436 0.14094487 -0.18918653 -0.016574884 0.13507427
-0.110013686 -0.027812777 0.080302484 0.027231338 0.21667007 0.20585796 0.22330512 0.12892467
-0.10204955 -0.079244554 -0.17863467 -0.12772463 -0.043879542 -0.15900595 -0.1545929 -0.11440511
0.04655707 0.04608944 -0.095142245 -0.16614968 0.0061161853 0.07610875 -0.10469681 -0.050286893
-0.083479054 -0.07400133 -0.076702006 -0.08973975 -0.034503337 -0.057233296 0.1270144 0.035973743

bn.weight f4 [32]
00000000: bf3b 803f d743 6d3f eb66 6c3f 5b04 5f3f
00000010: 0630 643f fd3e 683f dacc 5c3f 3354 7b3f
00000020: 529c 863f 5d06 793f 35e3 803f f778 6a3f
00000030: 8fe2 843f d394 603f a6f5 763f b1de 853f
00000040: ab3f 7e3f 17c1 6d3f d781 603f 1ce4 783f
00000050: e6df 843f ccfd 6a3f 649d 543f 516c 6f3f
00000060: f0b4 6a3f 7d5b 5d3f 5673 663f 8dac 703f
00000070: c73d 6b3f 283f 733f f353 713f 351e 773f
1.0018233 0.9268164 0.9234454 0.8711602 0.8913578 0.9072111 0.8625008 0.9817535
1.0516455 0.97275335 1.0069338 0.9159083 1.038164 0.8772709 0.9646858 1.0458585
0.993159 0.92872757 0.8769812 0.9722307 1.0380828 0.91793513 0.8305266 0.9352465
0.9168234 0.86467725 0.9001974 0.9401329 0.9189114 0.95018244 0.9426872 0.9653047

bn.bias f4 [32]
00000000: 6f2a b23d bc01 063d b77a f3bd 763c 19bc
00000010: 1a76 7c3d fe31 673d 40d8 bebd c464 773d
00000020: 211d bf3d b1fc 67bd ec08 f4bc 3c27 563d
00000030: 5d69 a9bc 7d07 31bc 7223 9dbd 1324 cabc
00000040: eece ae3d 3e63 973d a178 65bd 2462 84bd
00000050: dfb6 56bd 6aa3 6b3c 4675 693d 13f7 b33c
00000060: 4be4 92bc 17b5 973d c2a4 e53b bcd9 303d
00000070: 8128 27bd b481 093d 42a4 943d 7000 50bd
0.086995 0.032716498 -0.118886404 -0.009352794 0.061636068 0.05644416 -0.0931859 0.060398832
0.09331728 -0.05663747 -0.02978941 0.05228351 -0.020680124 -0.010805008 -0.07672776 -0.024675405
0.085355625 0.07391976 -0.056023244 -0.06464031 -0.052420493 0.014382223 0.056996606 0.0219684
-0.017931124 0.07407587 0.007008166 0.043176398 -0.040810112 0.03357096 0.07257892 -0.050781667

bn.running_mean f4 [32]
00000000: f87e 0abe 6a83 963d fc6d 803e 8d9b b4bc
00000010: d8e6 d53e 2fb4 973e 622a 9f3e d5ed 973e
00000020: a3a2 d23d 7803 8abc 13f8 94be e38d 1cbd
00000030: b289 03bd ab62 6a3e 2adf 723e 4796 0d3d
00000040: 404c 00be b93c 1f3e d5bf 0cbe a741 1dbe
00000050: 00c5 50bd 412c 033d d873 41be 2ebf 02bc
00000060: 8583 3b3c 0929 06be 4a2c cb3c a42a 4dbd
00000070: a52b 953d df03 f73c 8157 2b3e f171 503e
-0.13524997 0.07349284 0.2508391 -0.022046829 0.41777682 0.29629657 0.31087023 0.2967364
0.10284927 -0.016847357 -0.29095516 -0.03822125 -0.03211374 0.22889201 0.23717943 0.034567144
-0.12529087 0.15550508 -0.13745053 -0.15357076 -0.050969124 0.032024626 -0.18891847 -0.007980151
0.011444931 -0.13101591 0.024801392 -0.050089493 0.07283715 0.030153213 0.16732599 0.20355965

bn.running_var f4 [32]
00000000: 4218 bd3c 44a3 953c 6d4f ad3c dad1 8f3c
00000010: d88d b43c 78f5 b93c 451a 9d3c ef06 b23c
00000020: 64bf 933c 8f05 9e3c eae4 a43c 9896 a23c
00000030: 313e a93c 6f3a aa3c 42ba 9c3c a12f a33c
00000040: 6db9 c03c 3088 973c 3350 b73c 7bd2 a43c
00000050: 4ad0 cd3c bfe2 b73c f066 9b3c 1b6c 943c
00000060: ce9d a73c 27f8 933c eb53 a63c b845 c93c
00000070: a36e 953c 6a70 c73c 169e 9a3c 3e45 933c
0.023082856 0.018266328 0.021156037 0.01755612 0.022040293 0.022700056 0.019177565 0.021731822
0.018035598 0.01928976 0.020128686 0.0198472 0.020659538 0.020779816 0.019131783 0.019920172
0.023525918 0.018497556 0.02237711 0.020119896 0.025123734 0.022446988 0.018969983 0.018117955
0.02046099 0.018062664 0.020303687 0.024569377 0.018241232 0.024345595 0.01887421 0.017977353

fc1.weight f4 [64, 32]
00000000: 3e19 1c3e 1c4c 72bc c6b0 17be c57a e8bd
00000010: 1e8b 183e 1ce7 35bd bf00 0a3e b53f ed3d
00000020: 7f43 b33d 921d 983d ca34 c9bd 451f 8e3c
00000030: bc15 1f3d ae17 f83d 8615 e93c 039d 40be
00000040: 1eb9 90bc 3d40 b03d 0ec1 26bd ab54 803c
00000050: feb6 a5bd fcf9 eb3d 360d 153d b7c5 943d
00000060: 9a1d 01be ba0a 20bd b9ed 1bbe 8e87 363e
00000070: aa98 3abe 525f 3e3c c890 0f3c 9d29 93bc
00000080: 289d de3b ef58 de3d ebdb c8bc dac5 c63d
00000090: eea7 26bd 01bd ad3c 1a55 823e d76c 033e
000000a0: dbba 06be 70b7 5d3d a076 a93b db7c fe3d
000000b0: 9412 93bd fe2b 22bd 7c33 c9bd cc7c 573d
000000c0: 2d28 553e 451d 1c3e 24d5 79be 6321 4ebe
000000d0: 5c5c 4cbe 3511 72bd 447d 783d 8620 abbd
000000e0: 16b1 96bd 0adb 9fbd f243 583b d82f d1bd
000000f0: ad8a 033d a49a adbd eb76 75be e190 76bd
00000100: 409a c63d 7449 063d b8c2 11be f957 b93c
00000110: 998d 063d 9f26 253d d8b6 023d 3fc6 373e
00000120: 6ce5 b3bd ced1 c23a 5f7c 703d 0aaf 0e3e
00000130: 5a18 febc e4d3 febb d955 3abd 4545 91bd
00000140: abf0 3a3e 475c 1e3e a1c5 aebd 8324 15bd
00000150: 5c60 43be 8641 603c f030 15bd 117a 2c3d
00000160: 97e5 643c 7871 8f3d eda1 3fbe 2c51 013d
00000170: aa9b ea3c e2dc febd a6a1 21be a18d 973b
00000180: c7f8 213e 2f39 9ebc f2e4 183d 24c6 013e
00000190: b8a7 b83d bd0e 36bd 535d b2bc c021 34be
000001a0: 9660 b63d 5e32 273e 9c86 97bd 586e f5bd
000001b0: 6b42 8fbd 4acc cc3d a46f a73d cb41 c0bc
000001c0: 4e34 843c 0bb5 bb3c 6b75 093d ddfc 85bd
000001d0: 1cf4 17be e466 3abe e9e7 c43c a6c2 46be
000001e0: 21d0 bf3c a4a1 8e3d b5b1 5a3e 1016 1dbe
000001f0: e67d 4bbd 308a 423a 6de1 f33c 6bfa 3e3d
00000200: 0c69 39be 05e2 7dbd f7c6 f43d 6aa6 b1bd
00000210: b4db 47be bdc3 7fbd 36c5 7f3c 34b6 acbd
00000220: c478 f2bd 1d68 bd3d d47e 0b3d e70c 39bb
00000230: c7ea c33d ab2d 993d 60d1 28bd 53d4 0abd
00000240: 4571 b0bd 300c 103e 1345 b4bc 2377 283e
00000250: 433a 633d 67e5 6b3d 9f3b 643c 4fed 08be
00000260: 5ebe 0fbe 81d4 1dbd 5a36 753d 1cc5 163d
00000270: d4a9 eebd 8c9d 57bd 347f ebbd b30c b03d
00000280: 980b ff3c 0030 59bc afd2 b03c be86 d9bd
00000290: e6df 16be 8bd5 57be 748d 82bd 6913 04bd
000002a0: 8be6 d6bd 8247 62bd d598 43be ebcc 343d
000002b0: 237c ad3d 37b2 39be bc46 a03c 5072 2c3e
000002c0: c498 e3bd 1c4b 98bd 7375 51bc 5485 7a3d
000002d0: 343b 93b8 66d5 233d ef00 763d 5ac2 75bd
000002e0: 99ef 9e3d de9d b63c 51c1 683d 51cf 1bbe
000002f0: 5012 b93c a6cc 98bc b93f 24be 47d7 59bd
00000300: 5d76 76bd e104 17be 1bbf 02be 6e1c 01be
00000310: e4d0 17bd d51c 04bd 8533 c5bd edf3 733d
00000320: 3d45 4f3e ed78 053d c2f1 14be 3cca bd3b
00000330: 9203 94bd 274f 02be f6ab 4cbe dd3c 79bd
00000340: 03ed 113e ec16 073e e9dc 07be a8a0 aa3d
00000350: 471e 1cbe f7d4 5fbd ab4f e6bd a6b6 303e
00000360: e5f4 2ebc f09a 473e 5c33 edbd 27de 633e
00000370: c35b 043e 286f 143c fa2d 483d d4bf bebb
00000380: 3a89 e03c 5cba 0ebe 768f e43d 58c6 35be
00000390: 3c50 923d 96f8 45bc e9eb 133e 5f43 48be
000003a0: c799 683e 16c2 9b3d 3b14 393d b702 cfbd
000003b0: bde2 e03c 971e cc3d f2ec cabd 9e0f 713e
000003c0: 1081 18be 419d 1bbe 19f8 c3bc 2740 503e
000003d0: bc5d 243d 81ff 873c 97b1 fcbd 37c9 013e
000003e0: c80a 993d 0cc5 1f3d 47bf 943c 2f7e eabd
000003f0: 1f8b 07bd 86a8 1d3e 8e8a 3b3d 1251 21be
0.15244004 -0.014788654 -0.14813527 -0.113515414 0.14896819 -0.044409856 0.13476847 0.11584417
0.08753108 0.07427515 -0.09824522 0.017348895 0.038839087 0.121138915 0.028452646 -0.18809895
-0.017666396 0.086060025 -0.040711455 0.015665373 -0.080915436 0.1152229 0.036389552 0.072642736
-0.12608948 -0.03907273 -0.15227403 0.17825148 -0.18222299 0.011619406 0.008762546 -0.017964179
0.006793637 0.108568065 -0.024518928 0.09705706 -0.040687494 0.021208288 0.25455552 0.12834488
-0.13157217 0.054130018 0.005171612 0.12426158 -0.07181278 -0.039592735 -0.09824273 0.05260925
0.20816107 0.1524554 -0.24397713 -0.20129924 -0.19957107 -0.05909844 0.060666338 -0.08355813
-0.07357995 -0.0780545 0.0032999483 -0.102142036 0.032114673 -0.08476761 -0.23971145 -0.06019676
0.096973896 0.032784894 -0.14234436 0.022624956 0.03284988 0.040320035 0.031912655 0.17946719
-0.08783993 0.0014863552 0.05871236 0.1393396 -0.031017471 -0.007776724 -0.045492027 -0.0709329
0.1825587 0.15464889 -0.085337885 -0.036411773 -0.19079727 0.013687497 -0.036423624 0.0421086
0.013970754 0.07004064 -0.18714114 0.031571552 0.02863868 -0.12444474 -0.1578432 0.004625038
0.15817557 -0.019314377 0.037327714 0.12673241 0.09016365 -0.04444765 -0.021773016 -0.17591
0.08905141 0.16327807 -0.073987216 -0.11983937 -0.0699509 0.099999025 0.08175591 -0.023468873
0.016138222 0.022913476 0.033559244 -0.065423705 -0.14839214 -0.18203312 0.024036365 -0.1941019
0.023414673 0.06964424 0.21356852 -0.15340447 -0.049680613 0.0007421104 0.029770577 0.046625536
-0.18106478 -0.061983127 0.11952012 -0.08674319 -0.19517404 -0.06244253 0.015610984 -0.0843319
-0.118394405 0.09248374 0.0340565 -0.002823645 0.095662646 0.074794136 -0.0412153 -0.033893894
-0.086153544 0.14067149 -0.022005593 0.16451697 0.055475485 0.057591822 0.01393023 -0.13371776
-0.14037463 -0.038532738 0.059866287 0.036809072 -0.11653486 -0.052640483 -0.114988714 0.08596172
0.031133458 -0.013256073 0.021584837 -0.10621403 -0.14733848 -0.21077554 -0.06374636 -0.032245073
-0.10493191 -0.055243976 -0.1910127 0.044140738 0.08470943 -0.1813439 0.019564979 0.16840482
-0.11113122 -0.07436201 -0.01278435 0.061162308 -7.020534e-05 0.039998434 0.060059484 -0.0599998
0.077605434 0.022292074 0.056824986 -0.15215804 0.02259174 -0.018652271 -0.16039933 -0.05318382
-0.060171474 -0.14747955 -0.12768213 -0.12608501 -0.037064448 -0.03225406 -0.09628967 0.059558798
0.20241256 0.032586027 -0.14545348 0.0057919305 -0.072272435 -0.12725507 -0.19987473 -0.06084906
0.14250569 0.13192338 -0.13267864 0.08331424 -0.15245925 -0.05464646 -0.11245664 0.17257175
-0.010678505 0.19492698 -0.11582062 0.22252713 0.1292563 0.009059705 0.04887197 -0.0058212075
0.027409185 -0.13938278 0.111601755 -0.17751443 0.0714421 -0.012083193 0.14445461 -0.1955695
0.22714911 0.07605378 0.04518531 -0.1010794 0.027451867 0.09966772 -0.09908475 0.23541114
-0.14892983 -0.15196706 -0.023922013 0.20336972 0.040128455 0.016601326 -0.1233856 0.12674414
0.074727595 0.039006278 0.018157614 -0.11449849 -0.03309166 0.15396318 0.045786433 -0.15753582

fc1.bias f4 [64]
00000000: 4eea 023e 31c6 bcbd 1515 d93d 4c1d 02be
00000010: ca5a 3dbe c38a afbd c8f6 d0bd 2cf2 c0bd
00000020: f26f 2ebc d71b 0cbe 30b9 3cbe a395 4fbd
00000030: 6de0 3cbe 29f3 7cbd 5a2c 58be 61a5 1b3e
00000040: 56f8 d23d b9cd 7f3d d466 dbbd 0f4a 0fbd
00000050: dc0f ed3c b9e3 85bb 4aff 10be 10e8 08bb
00000060: f0b6 1bbe dff5 c1bd 8ab5 39be 0610 923d
00000070: 3bef 7bbd dc7d d73d 8d18 48bd 5cc3 3dbc
00000080: 59e0 94be 1a81 c13c 2938 943d 553c 72bc
00000090: 9985 5bbe 9a5d 953d c5ab 68be 2f2c 703d
000000a0: db16 78be fe64 1bbe b0f9 1e3c 1dee 4a3c
000000b0: 58a1 32be a8c4 ca3d 2c2b 1e3e 9aef 4abe
000000c0: 3c71 00be cac8 9c3d 5203 84bc 4b30 a93c
000000d0: 9601 473e dd71 063e e81a 86be 2c32 87bc
000000e0: ebca 2cbe c968 66bd 6353 e9bd 1e0c 063c
000000f0: 6b09 13be fa64 343c f4e0 3cbe fc5d 14be
0.12784693 -0.092174895 0.10599724 -0.12706488 -0.18491665 -0.085713886 -0.1020332 -0.094211906
-0.010646807 -0.13682495 -0.18430018 -0.050679814 -0.18444987 -0.061755333 -0.21110669 0.15199806
0.103012726 0.06245205 -0.10712972 -0.034982737 0.028938226 -0.0040859845 -0.14159885 -0.0020890273
-0.15206504 -0.09470724 -0.18135658 0.071319625 -0.061507445 0.10522053 -0.04885154 -0.011582222
-0.29077414 0.02362113 0.07237274 -0.014784892 -0.21437682 0.07293244 -0.22721775 0.058635887
-0.24227469 -0.15175244 0.009703085 0.012385872 -0.1744436 0.099007905 0.15446156 -0.19817963
-0.12543195 0.07655485 -0.016114864 0.02065291 0.19434199 0.13129373 -0.26192403 -0.016503416
-0.16874282 -0.056252275 -0.11392858 0.0081816 -0.14359061 0.011010403 -0.18445188 -0.14488977

fc2.weight f4 [2, 64]
00000000: 9114 c33d 2b99 35bc b90e bb3d d968 1abd
00000010: 81a1 4b3c 3373 90bd 80db 9e3d 5f02 033e
00000020: 44aa f73c 3b43 b8bd bcc4 b03c b7c2 2bbd
00000030: bbd3 efbd 6d5b 193d eef9 11bc 90e2 8abb
00000040: 60ce 1a3e 5b45 d7bd f14b 373d ec7c 1cbd
00000050: bf1b c83d 1c22 cabd 6407 adbc 810d 37be
00000060: 0d58 713d 6c01 cd3d 3974 ca3d 21f9 5b3d
00000070: cdae 0f3d 04d0 62bd 3b65 b7bd 998e 883c
00000080: 0b3a a2bc 5565 643c 80e7 36bd da08 2bbc
00000090: 64b9 adbc 884c 503d 3a32 443d d490 b53d
000000a0: d82f 0b3d 269a e1bd 9723 a4bd 6efd 84bd
000000b0: f82c a8bd aa06 393d 6ad3 1a3e bd49 7e3d
000000c0: 2c47 3bbd a967 5d3d 9588 7abd aa4f 81bd
000000d0: 35d7 2e3e c7eb bfbd 89e5 6bbb 2624 32bd
000000e0: 7e9e 103e 138d cfbd 3cab 96bc 83fe 853d
000000f0: 9bce 5f3d ba24 fdbd 6274 233d 70cf 18bd
00000100: acad b8bc 6623 c3bd c150 733c b89f 6abc
00000110: 4ee2 753c f9b2 0dbd cfce a9bd 34c8 fd3c
00000120: 424b dabd 4a05 6dbd f6c5 df3c ee7b e9bc
00000130: 7533 8c3d 336b 43bd 4583 6cbc 420c 94b9
00000140: d674 73bc 8d5f 1e3d c24e c3bc 74dd 93bd
00000150: 84ce 20bb e733 fa3d dc70 79bd 06c4 ab3d
00000160: 2b37 143c 4a01 e13d 456b 983d 4bc5 803d
00000170: 4f4b 2fbd a882 2bbd bb20 943d 8c5b 323d
00000180: 1cf1 143b b32c 083e 2cf4 253d d2c5 a4bd
00000190: edc6 fe3c c3b9 7b3d d6bc 083c 1e82 f73c
000001a0: 4888 d63d 4a87 d53d 606a 15be a127 16bc
000001b0: 680c c13d 7c40 44bd eeb7 6d3d 940a c03c
000001c0: aeb7 943c 9e52 99bd 3004 d4bc 102d 2e3c
000001d0: dbdd 993d f678 0ebd 8222 d23c d47b 5d3d
000001e0: 9d57 bd3d 8536 fb3d 5fa1 a33d e270 153e
000001f0: 8f80 e13d a974 3abd 0478 5a3d 5e6b f7bc
0.09525407 -0.011083881 0.091336675 -0.037697647 0.012428642 -0.070532225 0.0775671 0.12793873
0.030232556 -0.08997198 0.021578185 -0.04193374 -0.11710306 0.037440706 -0.008909686 -0.004238434
0.15117788 -0.105112754 0.044750158 -0.038205072 0.09770917 -0.09869787 -0.021121688 -0.17876245
0.058921862 0.10010037 0.09885449 0.053704385 0.035078812 -0.05537416 -0.08954855 0.016669558
-0.019803068 0.013940175 -0.04465437 -0.010439122 -0.021206565 0.050854236 0.047899462 0.088655144
0.033981174 -0.110157296 -0.08014601 -0.064936504 -0.08211702 0.04517237 0.1511971 0.06208204
-0.04572217 0.054053936 -0.06116541 -0.06314023 0.17074282 -0.09371143 -0.0035994968 -0.043491505
0.1412296 -0.1013433 -0.018392198 0.06542685 0.054640394 -0.12360521 0.039905913 -0.037307203
-0.02254375 -0.09528236 0.014850796 -0.0143203065 0.0150075685 -0.03459451 -0.08291399 0.030979253
-0.106588855 -0.057866372 0.027316075 -0.028501477 0.06845752 -0.047709655 -0.014435594 -0.00028237893
-0.014859399 0.038665343 -0.023841266 -0.07219973 -0.0024537155 0.12216931 -0.060898647 0.08386998
0.009046356 0.10986574 0.07442335 0.06287631 -0.04279643 -0.04187265 0.07232805 0.043544337
0.002272672 0.13298301 0.040516064 -0.08045544 0.031100715 0.061456453 0.008345803 0.030213412
0.10475212 0.10426195 -0.1459136 -0.009164722 0.094261944 -0.04791306 0.058036737 0.023442544
0.018153992 -0.07486461 -0.025880903 0.010630861 0.07513019 -0.034783326 0.02565122 0.05407317
0.092452265 0.12266258 0.079897635 0.14593843 0.11010849 -0.045521412 0.053337112 -0.030202564

fc2.bias f4 [2]
00000000: 107a 413d c513 4dbe
0.04723555 -0.20027073
