rwgnn/checkpoints/model_fold_5.pt (torch, 69539 bytes, 16 tensors)

adj_hidden f4 [16, 10]
000000 2e b5 3d 3f 46 1c 71 3f ea 9c 6f 3f 1a 2f 68 3f
       0.74104583 0.94183767 0.93598807 0.9069687
000010 c0 8e e8 bd c8 f3 91 be 00 b1 ca bc 48 a8 33 be
       -0.113553524 -0.28506303 -0.024742603 -0.17544663
000020 a4 eb b4 3e 6e cb 31 3f f4 f4 7c 3f 2e 43 66 3f
       0.3533603 0.69451034 0.9881127 0.8994626
000030 c8 85 ac 3e f0 fd 8f be cc 0b c3 be 10 11 00 3f
       0.33695817 -0.28123426 -0.38094938 0.50026035
000040 a8 58 5a 3e d2 a2 61 bf 14 9d b3 be 4e 5d 54 bf
       0.21322882 -0.8813907 -0.3508078 -0.8295487
000050 40 d9 7b bf e2 47 0c bf 92 a0 31 3f a6 b9 31 3f
       -0.9837837 -0.54797184 0.69385636 0.694239
000060 74 de b3 3e 22 fe 60 3f 1e 4c 3c 3f 84 db be be
       0.35130656 0.87887776 0.73553646 -0.37276852
000070 1e 5a 20 3f 0a 55 09 3f 66 08 5b bf 54 1f b0 3e
       0.6263751 0.53645384 -0.8555969 0.343989
000080 82 d4 02 bf 14 ea 3e 3f 26 b7 14 3f c0 54 55 bf
       -0.5110551 0.74575925 0.5809196 -0.83332443
000090 00 c9 59 bd 1c ea b9 be 2c 21 e0 3e f6 c3 7b bf
       -0.053170204 -0.36311424 0.43775308 -0.9834589
0000a0 48 ea a4 3e 08 f1 5d 3f 82 1e 15 3f 56 31 36 3f
       0.32209992 0.8669591 0.58249676 0.7116903
0000b0 06 f3 12 3f a8 4c ca be 58 5c 39 3e ac 1a 7a 3f
       0.57402074 -0.3951161 0.18101633 0.9769695
0000c0 b8 d4 9a 3e 40 ee 43 bd 08 54 a2 3e 80 5f 52 bc
       0.30240417 -0.047834635 0.31704736 -0.012840152
0000d0 18 d2 d9 be e0 dc f1 3e 0e c0 72 bf f8 67 7b 3f
       -0.425431 0.47238827 -0.948243 0.9820552
0000e0 10 3b f8 3d 5c 2e 86 be 2e 14 69 bf 04 0f 57 bf
       0.1212064 -0.26207244 -0.91046417 -0.8400729
0000f0 54 46 1f bf 2c cf b5 3e 5e ef 05 bf b2 93 21 bf
       -0.6221669 0.35509622 -0.5231837 -0.6311599
000100 08 0b f0 be 18 f3 05 3e 18 5c 54 be 78 0a 01 3e
       -0.46883416 0.13081014 -0.20738256 0.1260165
000110 28 f2 c0 be a0 14 9f be e0 f4 45 3d bc a6 f3 3e
       -0.3768475 -0.31070423 0.048329234 0.47588146
000120 38 9e 14 bf 18 f7 80 be de ad 17 3f 70 c9 f1 be
       -0.5805392 -0.25188518 0.59249675 -0.47223997
000130 40 99 9e bc 88 66 49 bf b0 bd c2 3e 02 69 77 3f
       -0.019360185 -0.78672075 0.38035345 0.96644604
000140 c8 9f 64 be dc 90 32 bf 4c d5 e7 3e c2 53 28 3f
       -0.22326577 -0.6975229 0.4527992 0.65752804
000150 50 8b 44 be ba 58 47 3f 70 e4 12 be 74 2d 8b be
       -0.19193769 0.7786976 -0.14344954 -0.27183115
000160 e8 f0 b7 3e 38 c6 e3 be 64 4a 4e bf e8 cc a8 3e
       0.35925984 -0.44487166 -0.8058226 0.3296883
000170 80 b7 50 3c 30 67 ee be 94 d5 2a 3f c4 e3 d9 be
       0.012739062 -0.465631 0.66732144 -0.42556584
000180 00 ac 7f 3c 48 d0 20 3e d4 be 01 3f e0 03 d0 3e
       0.015604973 0.15704453 0.50681806 0.40627956
000190 36 4b 1b 3f 10 57 59 bf b8 18 64 3f 50 2b 35 bf
       0.6066164 -0.8489847 0.8910022 -0.70769215
0001a0 c0 78 3d 3f f4 6e da be a8 33 b0 3e b4 34 39 bf
       0.74012375 -0.42662776 0.3441441 -0.72346044
0001b0 f8 88 6b 3e 00 84 ad 3e c0 e4 d0 bd 80 f4 b1 3c
       0.23001468 0.3388977 -0.101998806 0.021723032
0001c0 54 9c ac 3e 0a a4 7b bf 56 93 23 3f 94 a5 bf 3e
       0.3371302 -0.9829718 0.6389669 0.37431014
0001d0 c0 02 01 3e 66 35 5e 3f fc 2e d1 be f0 67 db 3d
       0.12598705 0.8680023 -0.4085616 0.10713184
0001e0 36 f3 2f 3f 20 6a 5c 3f 74 b0 ae be ca b6 56 bf
       0.68730485 0.86099434 -0.34118998 -0.83872664
0001f0 10 b8 82 3e 3c cd 94 3e 90 d6 93 bd 02 bc 74 bf
       0.25531054 0.2906283 -0.07218659 -0.9559938
000200 fe 12 3c 3f 34 a8 b0 3e 7c 04 4a 3f 54 bd 72 bf
       0.7346648 0.3450333 0.7891309 -0.9482014
000210 c4 fd 9f 3e c0 b8 a5 bc ec 50 00 bf 20 d8 7a be
       0.31248295 -0.020229697 -0.50123477 -0.24496508
000220 7e 52 6c bf e0 9d 6a 3e 4e 00 6b bf 50 ee 3c be
       -0.92313373 0.22911787 -0.9179734 -0.18450284
000230 60 39 ff be 72 93 65 3f 0c 35 85 be b2 04 5e bf
       -0.4984846 0.8967811 -0.26017034 -0.86725914
000240 ea 91 79 bf 04 53 e8 be 60 26 62 3f 9c 0d d4 be
       -0.9748827 -0.45375836 0.88339806 -0.41416633
000250 64 64 4d 3f 16 f5 4f 3f 20 c5 fa bd d4 4b 45 3f
       0.8023131 0.81233346 -0.1224463 0.7706883
000260 40 56 63 be e2 7e 27 3f 88 a3 94 be 48 24 c6 be
       -0.2220087 0.6542798 -0.29031014 -0.38699555
000270 d0 97 aa bd 00 7e 54 3d b8 29 1c bf 90 eb 7b 3e
       -0.08329737 0.051877975 -0.6100116 0.24601579

features_hidden f4 [16, 5, 32]
000000 b8 db fc 3d bc 36 b4 3e 4e 42 ae 3e cd e9 66 3f
       0.123465955 0.3519801 0.3403496 0.902005
000010 a8 8c 29 3f 40 ce aa 3d b4 37 5e 3f b4 8f 0c 3e
       0.6623025 0.0834012 0.86803746 0.13726693
000020 df b6 2e 3f ba a3 23 3f 7a 00 3f 3f 9c 2a 11 3f
       0.6824779 0.639217 0.746101 0.5670564
000030 2e f8 63 3f 40 3b 24 3f 05 bf 0a 3f 21 fc 74 3f
       0.8905057 0.6415291 0.5419772 0.9569722
000040 c5 b0 26 3f 0e c5 43 3f 86 c7 fa 3e 89 3a 46 3f
       0.6511348 0.76472557 0.4898035 0.7743307
000050 34 e9 56 3f b8 68 4f 3e 63 2d 7b 3f 59 dc 70 3f
       0.8394959 0.20254791 0.9811613 0.94086224
000060 50 87 6f 3d 5a 1e bd 3e 81 bd 69 3f ed 7c 2d 3f
       0.058478653 0.3693722 0.91304785 0.67768747
000070 72 d4 59 3f b0 4a 12 3d f3 29 7f 3f 33 34 0e 3f
       0.8508979 0.03571576 0.99673384 0.555484
000080 b1 3f 54 3f c2 8e 34 3f f4 45 94 3e 0a 0a ef 3e
       0.82909685 0.7053033 0.2895962 0.46687347
000090 00 88 57 3b d9 b7 01 3f 1c 62 6d 3e 12 9c 0b 3f
       0.0032887459 0.50671154 0.23181957 0.5453502
0000a0 70 1c 17 3e 0d 49 30 3f 84 81 8f 3e 2c 5c 57 3f
       0.14756942 0.68861467 0.280285 0.8412502
0000b0 ea 83 77 3f 88 80 49 3f 70 94 f1 3e 84 b6 7f 3e
       0.9668566 0.7871175 0.4718356 0.24971968
0000c0 fb af 7a 3f 7f 84 6d 3f 64 ee 88 3e d6 d3 26 3f
       0.97924775 0.927803 0.26744378 0.65166986
0000d0 96 d1 73 3f 08 fc 24 3f 38 1b 7e 3f 36 80 aa 3e
       0.9524168 0.6444707 0.9926028 0.33300942
0000e0 8c 66 bb 3e 05 f7 1d 3f 75 59 67 3f 90 d7 19 3d
       0.36601675 0.61705047 0.90370876 0.037559092
0000f0 2f 6d 3b 3f f2 22 1f 3f 0c 92 41 3e 20 73 f4 3e
       0.73213476 0.621627 0.18903369 0.47744083
000100 b2 fe b8 3e b2 45 65 3f f1 ca 6b 3f d4 74 42 3f
       0.36131817 0.8955947 0.9210654 0.75959516
000110 f8 1e 5d 3e 80 f8 aa 3b 40 b3 5b 3f 88 b0 a7 3d
       0.21593845 0.005217612 0.8582039 0.081879675
000120 7a a5 47 3f 6f 10 69 3f 70 dc cf 3e c0 b6 f5 3d
       0.7798687 0.910407 0.40597868 0.119977474
000130 e0 b9 75 3f d9 31 6f 3f 7f 72 11 3f 4a 2a 0a 3f
       0.9598675 0.93435436 0.5681533 0.5397078
000140 3d 90 04 3f 74 09 1c 3e 65 37 41 3f 88 5b 75 3e
       0.5178259 0.15237981 0.7547515 0.23960698
000150 38 71 81 3d 98 52 01 3f 2e f3 47 3f 5c 5b ed 3e
       0.06320423 0.50516653 0.7810544 0.46358764
000160 22 2f 74 3f 86 8d 90 3e 8a 27 65 3f 7a 59 1f 3f
       0.9538442 0.28232974 0.89513457 0.62245905
000170 37 34 3e 3f 5a 19 ea 3e 00 98 ef 3c a0 b1 53 3d
       0.74298424 0.45722467 0.029247284 0.05168307
000180 91 68 39 3f 0b 7c 0f 3f fa dc 37 3f d4 7c 82 3e
       0.7242518 0.5604865 0.7182156 0.2548586
000190 66 0f f0 3e c0 22 15 3e 2c 33 ad 3e 38 80 26 3f
       0.46886748 0.14564037 0.33828104 0.65039396
0001a0 fa 5c de 3e 24 b8 21 3e 62 63 16 3f 0e 56 b5 3e
       0.4343031 0.157929 0.58745396 0.35417217
0001b0 56 49 5e 3f e5 59 5b 3f 00 9e c1 3e 12 ec 38 3f
       0.8683065 0.85684043 0.37815857 0.72235215
0001c0 93 ba 6c 3f a2 4b 9b 3e 0f f3 2f 3f 23 3b 70 3f
       0.9247219 0.3033114 0.68730253 0.93840235
0001d0 0e 71 b3 3e 1f 46 33 3f f4 ee 3f 3e 4e e1 36 3f
       0.3504719 0.7002887 0.18743497 0.7143754
0001e0 0f 24 36 3f 78 5d ba 3e 8c 70 9a 3e 2a 66 7d 3f
       0.7114877 0.36399436 0.3016399 0.98984015
0001f0 98 76 68 3e d9 82 06 3f e6 aa 4b 3f 50 c9 6c 3d
       0.2270149 0.5254341 0.79557645 0.057809174
000200 3e c1 18 3f 14 73 21 3e cc d6 e1 3e 38 7b 0e 3e
       0.59669864 0.15766555 0.4410919 0.13914192
000210 c1 b8 29 3f 4c d7 90 3e 38 83 58 3e dd 0a 5f 3f
       0.6629754 0.28289258 0.21143806 0.8712595
000220 98 76 24 3f 44 5f bd 3e 7b 33 73 3f 5f 63 4a 3f
       0.6424346 0.36986744 0.9500043 0.7905788
000230 30 5d a2 3e 24 b2 c1 3e a6 c2 4b 3f b0 a2 19 3f
       0.3171172 0.37831223 0.79593885 0.60013866
000240 2e 2c 09 3f 6b 87 2d 3f 66 85 08 3f 70 77 94 3d
       0.5358304 0.67784756 0.5332855 0.072493434
000250 3e ff de 3e a8 77 5c 3f 11 7a 1f 3f 8c c4 27 3f
       0.4355411 0.8612008 0.62295634 0.6553428
000260 08 2f e0 3e cb 80 15 3f 48 f2 00 3f b2 f8 0f 3f
       0.43785882 0.5839965 0.5036969 0.56238854
000270 6e 76 f7 3e b1 1c 48 3f 4c e2 b5 3e ac 03 55 3f
       0.48332542 0.7816878 0.35524213 0.8320873
000280 71 33 63 3f fa 94 08 3f 13 91 53 3f c0 66 75 3d
       0.8875037 0.5335232 0.8264324 0.059912443
000290 b8 b1 4d 3f bc ae 3e 3e 90 b2 29 3e 81 84 2c 3f
       0.803493 0.18621343 0.16572022 0.67389685
0002a0 ea af b8 3e e8 f8 3b 3f 1c 84 cb 3e a2 8e 89 3e
       0.36071712 0.73426676 0.3974923 0.26866633
0002b0 18 2a 3c 3f d0 cd 85 3e 8d 09 25 3f 20 fd d4 3d
       0.7350173 0.26133585 0.644677 0.10399842
0002c0 7c db 11 3f c0 c1 26 3e c0 4e 15 3c f8 a5 65 3f
       0.5697553 0.16284847 0.009113014 0.89706373
0002d0 80 a2 35 3c e0 3d d5 3c 1a e3 59 3f 27 6a 18 3f
       0.011086106 0.02603048 0.85112154 0.59536976
0002e0 5c 68 e2 3e be ff f2 3e 64 cc 56 3f 8d 3f 3e 3f
       0.44220245 0.4746074 0.83905625 0.7431572
0002f0 60 ec 36 3e 90 2b 74 3f ef 0f 02 3f a1 5c 66 3f
       0.17863607 0.9537897 0.5080556 0.8998509
000300 b0 02 d6 3d e8 79 cd 3e c8 b0 56 3f eb b1 56 3f
       0.10449731 0.4013207 0.83863497 0.8386523
000310 40 9f 30 3d 25 8d 32 3f 8b bf 7f 3f 56 61 b0 3e
       0.043120623 0.6974662 0.99901646 0.3444926
000320 5a dd b9 3e ce 00 e4 3e 60 2d cd 3c a0 06 8a 3e
       0.3630169 0.44531864 0.02504605 0.2695818
000330 d8 10 45 3f e4 7d 65 3f c0 c7 eb 3c 40 04 07 3e
       0.76978827 0.8964522 0.028781772 0.13185215
000340 a0 f0 67 3e 5e 90 c1 3e 52 fe 48 3f de ac 32 3f
       0.22650385 0.37805456 0.7851306 0.69795024
000350 0a e4 d0 3e 59 02 3b 3f 84 cb c7 3e 2b bf 13 3f
       0.4079898 0.7305046 0.39022458 0.57713574
000360 94 b4 f1 3e 7e 47 65 3f a4 1a d8 3e fb e5 1d 3f
       0.47208083 0.89562213 0.42207825 0.6167905
000370 df 25 43 3f a4 94 0f 3f 80 4b 99 3c 1b 22 62 3f
       0.7622966 0.5608618 0.018712759 0.8833329
000380 50 5e 84 3d 63 3d 73 3f 4d 04 2c 3f 8c c3 54 3e
       0.06463301 0.95015544 0.6719406 0.2077772
000390 14 89 08 3f 18 36 7c 3f 74 78 49 3f 92 88 52 3f
       0.53334165 0.9852004 0.7869942 0.8223964
0003a0 7f c4 11 3f c1 7a 4f 3f f7 0f 6d 3f 0e 31 e9 3e
       0.56940454 0.8104668 0.92602485 0.45545238
0003b0 f7 eb 56 3f 6a f9 c2 3e d1 85 4c 3f d9 81 2c 3f
       0.83953804 0.38080913 0.7989169 0.6738563
0003c0 fc a8 25 3f 5e 9b a3 3e d8 71 40 3e 33 19 53 3f
       0.64710975 0.31954473 0.18793428 0.82460326
0003d0 b2 1d 9d 3e 20 c2 c2 3d cc de e4 3e ad 78 22 3f
       0.30686718 0.09509683 0.4470123 0.63465387
0003e0 7b 65 72 3f 24 13 87 3e ca 82 26 3f 1c 9c 03 3f
       0.94686097 0.2638179 0.6504332 0.5141008
0003f0 80 45 de 3d 60 dc dd 3d a0 ab e0 3e 31 8f 6c 3f
       0.108531 0.10833049 0.4388094 0.9240599

walk_encoder.feature_encoder.weight f4 [32, 136]
000000 84 2d 86 3d 5e 96 0b be 60 1f cb 3e 9f 7d 3d 3e
       0.0655165 -0.1363158 0.39672375 0.18504952
000010 da 03 8a bb de c0 d1 bd 66 1c b4 bd de 92 ed 3a
       -0.004211885 -0.102418646 -0.08794479 0.0018125435
000020 5d d2 08 be 05 a2 2b bd e5 1f 37 be db 39 02 3e
       -0.13361497 -0.04190256 -0.1788326 0.12717383
000030 42 0e cb 3d cf 6b cd 3c 52 fb 04 3b f6 9c 34 bd
       0.09914829 0.025075821 0.00202914 -0.044095002
000040 9a a5 1e 3c 4b a8 21 3d ab 7f 7f be 90 ae b3 3c
       0.009683037 0.039467137 -0.24951045 0.021933824
000050 33 71 ea bb f5 d2 03 3c 78 98 07 be e7 a9 2b 3c
       -0.0071546077 0.008045902 -0.13241756 0.01047752
000060 fd 5a be 3d c4 c8 a5 3d ff 3a f2 3d 2c f4 65 3d
       0.092946984 0.08094934 0.11827659 0.056141064
000070 59 28 19 be 7b 88 ef 3d ed 2a 26 bb 9f 04 ed 3d
       -0.14956798 0.116959535 -0.0025355176 0.11573147
000080 f5 c0 9e 3d 86 a2 b2 bd 78 0c 35 bd 1f 4d 1c 3e
       0.077516474 -0.08722405 -0.044201344 0.15263794
000090 06 a1 b8 3d 9e e1 1d bd c0 d9 59 3e 94 f4 1a bd
       0.09015088 -0.038545243 0.21274471 -0.037830904
0000a0 57 6a 35 3e f4 51 da 3d 02 5b 2a 3e 31 7a c4 bc
       0.17716347 0.106601626 0.16636279 -0.023984047
0000b0 7a 7f 4f 3d 5d 0a 8f 3d 77 b8 89 3c 39 66 ad bd
       0.05065868 0.069843985 0.016811593 -0.08466763
0000c0 a5 12 d9 3d 4a f7 61 3e 56 a5 89 3e 6f e4 d2 bd
       0.10599259 0.2206699 0.26883954 -0.102974765
0000d0 24 22 a1 3d 1b 87 07 3d 31 f1 46 3d d8 af 75 39
       0.0786784 0.03308783 0.04856986 0.00023430528
0000e0 87 9b 28 3e 78 80 d8 bd 4a fa 84 3d b8 74 44 bd
       0.16465579 -0.105713785 0.06493051 -0.047962874
0000f0 8d e0 c4 3c 62 63 30 bd 7f 18 1f bd 34 ec 0a bc
       0.024032855 -0.04306353 -0.03884172 -0.008479167
000100 84 9d c9 bd f9 4b 30 bd e2 d5 89 bd 9d 95 41 bd
       -0.09844497 -0.043041203 -0.06730248 -0.047261823
000110 a8 60 46 3c 6b e3 8c bc 65 cc 83 bc 39 8e 01 be
       0.012108006 -0.017198285 -0.016088674 -0.1265191
000120 11 c8 6c bd 9b 72 b0 bc cf ce 6a bd 19 27 5c bd
       -0.057807986 -0.021539023 -0.057326134 -0.053748224
000130 01 3a 74 3d 5c 70 8e bd e4 11 87 3d ed 75 4f 3d
       0.05962563 -0.069550246 0.06595209 0.050649572
000140 fd 67 66 bd ca 31 ae bd 8e 83 aa bd b0 21 0e 3d
       -0.056251515 -0.0850559 -0.08325873 0.034700096
000150 24 30 8f 3d 34 2e 84 3d 95 2e c8 3d b3 ec b7 3c
       0.06991604 0.06454125 0.0977451 0.022451734
000160 ba d6 ac bd e8 4d 4d bd e5 20 3e bd bf 5f 26 3d
       -0.08439393 -0.050123125 -0.04641809 0.040618654
000170 b5 66 82 3d 5e 12 89 bd e1 63 73 3c cd cc fe 3a
       0.06367246 -0.066929564 0.014855356 0.0019439697
000180 79 40 91 bc d6 75 1c bc f0 09 4a bd 96 07 9c 3c
       -0.017730938 -0.009549579 -0.049325883 0.019046586
000190 72 fe 6a 3c be 7a 88 3c 57 4b 5d 3c 7e 97 97 3d
       0.014342891 0.01666009 0.013506732 0.07401942
0001a0 ec d6 7a 3d 91 42 93 bd 3a 82 2f 3d 9e 02 95 3d
       0.06124012 -0.07190431 0.042848803 0.0727589
0001b0 dd 31 98 3c a9 b2 a2 3c 87 47 f5 bc 01 8c af bc
       0.018578464 0.019860582 -0.029941333 -0.021429064
0001c0 68 75 19 bd db 78 6c bd fa 99 44 bd 61 f0 9a bd
       -0.037465483 -0.057732444 -0.047998406 -0.0756538
0001d0 4a 02 85 3d d8 91 2f bd 4f 4b df bc 61 fc 82 bd
       0.06494577 -0.042863697 -0.02725759 -0.06395794
0001e0 cc f1 28 bd 90 d7 00 bd 03 ef 53 3d eb 25 83 bd
       -0.04124622 -0.031455576 0.05174161 -0.06403717
0001f0 95 55 78 3d b6 af 58 3d f4 89 a4 3d 86 f1 70 bb
       0.060628492 0.052901946 0.08034125 -0.0036765053
000200 59 f7 17 bd cf 65 3a bc 7d 01 7e bc 9f 12 c1 bc
       -0.037101123 -0.011376812 -0.0155032845 -0.02356845
000210 48 c7 9c 3d d2 69 12 3d f5 c3 51 3d 63 b2 a8 3d
       0.076551974 0.03574545 0.05121227 0.082371496
000220 58 0e 4d bc f7 d8 0e be 87 e6 99 3e 6b 4a 34 3e
       -0.012515627 -0.13949953 0.3005869 0.17606513
000230 77 0c 70 3d 56 b9 a6 3d c6 37 4d bd 63 db 6a 3d
       0.058605637 0.08140819 -0.050102018 0.05733813
000240 8c 4f 95 bc 69 15 60 bd 2e 41 0e bd 3c 03 2f be
       -0.018226407 -0.05470792 -0.03473013 -0.17091078
000250 90 75 13 3e e9 a6 3e bd 32 f6 9c bd 5f 32 62 3b
       0.14400315 -0.046545897 -0.076641455 0.0034514887
000260 4e ec 9d bd dc ed 44 bd 12 b8 8a bd fd 8f 80 3d
       -0.07711087 -0.048078403 -0.0677339 0.062774636
000270 be 7d d2 3c 77 d5 f4 bd 61 72 46 be 54 bd f3 3b
       0.025694724 -0.11954778 -0.1937957 0.007438341
000280 cf 2a 03 3c 55 73 ac bb cf a5 bb bd a6 c6 10 3e
       0.008005812 -0.005262772 -0.09162485 0.14138278
000290 05 d5 f4 bd c9 ea 16 3d d1 09 26 be 71 ac 32 be
       -0.11954693 0.036845002 -0.16214682 -0.17448594
0002a0 ba fd a5 3d 6d e5 52 be 25 d6 9f bd be 12 86 3d
       0.08105035 -0.20595331 -0.07804517 0.065465435
0002b0 b6 8a be 3d 0e 29 2a bd 34 9e 40 3e be c6 f4 bd
       0.09303801 -0.04154306 0.1881035 -0.119519696
0002c0 54 6c 61 3c d4 c1 c3 3d 5d 40 81 3d 76 59 75 be
       0.013758738 0.09558454 0.063111044 -0.23959908
0002d0 9c 77 a4 3d 82 06 2d 3d 0f db 62 bd 83 d4 63 3d
       0.08030626 0.042242534 -0.05538469 0.05562259
0002e0 09 a1 16 3e cc b9 94 3d 48 10 37 3d a2 41 32 3d
       0.14709868 0.072620004 0.04469326 0.043519624
0002f0 8a 9f 0f 3d 4f df 1c bb 79 14 22 be f6 56 ef bd
       0.035064258 -0.0023936813 -0.15828122 -0.11686508
000300 41 91 a8 bc 4b 20 0d be 89 b1 d9 bb d3 77 b3 bc
       -0.020577075 -0.1378185 -0.0066434783 -0.021907723
000310 f1 33 32 be 4a 4a 0c 3c 27 32 aa bd f3 28 8e bc
       -0.17402627 0.008562634 -0.08310347 -0.01735351
000320 8f 9d 14 be d5 cd 76 bb 90 89 9a bd d8 c3 86 3d
       -0.14513229 -0.0037659307 -0.07545769 0.06580323
000330 0b e6 c9 bd 38 d5 12 3d 11 e5 26 bd a6 74 5c 3c
       -0.0985833 0.035847872 -0.0407458 0.0134555455
000340 06 32 2b bd a9 d8 60 3d 75 70 6d bd 49 fa 27 bd
       -0.041795753 0.054894123 -0.057968576 -0.041010175
000350 e2 e3 dc 37 0d f6 e3 bb f2 a1 ad 3d f4 2e 86 3d
       2.633216e-05 -0.006956822 0.08478154 0.06551924
000360 63 f1 5e 3d 26 c9 9a bd f4 27 68 bd f3 c2 51 3a
       0.054429423 -0.07557897 -0.056678727 0.0008001767
000370 85 29 79 bd 05 a8 b8 3c 05 27 0c bd c3 41 96 3a
       -0.06083061 0.022541055 -0.0342169 0.001146369
000380 67 45 f5 3b 73 18 cf bc fb 29 04 bd d9 16 97 3d
       0.00748508 -0.025280213 -0.0322666 0.07377405
000390 ea 8f 9f bd 17 14 25 3d 54 f6 12 bd 02 92 0c bd
       -0.07791121 0.040302362 -0.035879448 -0.03431893
0003a0 8f 94 2b 3c 07 04 e4 bb 97 18 a7 3d 7f b0 6a 3d
       0.010472431 -0.006958488 0.08158987 0.057297226
0003b0 42 9a 9d 3d b5 44 a1 bd 55 0b a5 3b 30 f3 9c bd
       0.07695438 -0.07874433 0.0050367513 -0.07663572
0003c0 68 8e 4c bb d1 87 ae bc b8 b0 62 3d 9b d9 3d 3d
       -0.003121281 -0.021304997 0.055344313 0.046350103
0003d0 a9 3e 3e 3d 7b c5 62 bd e5 c9 85 bb 5a 6e 9a 3d
       0.046446476 -0.055364113 -0.0040829056 0.07540579
0003e0 9f 91 8f 3d 34 7b 5e 3d b4 20 16 3c bb 13 87 bc
       0.07010197 0.054316714 0.0091630705 -0.0164889
0003f0 a0 48 94 bd 4b 6d a5 3d 5e 12 76 bd 3d 1c c4 bc
       -0.072404146 0.080774866 -0.06007611 -0.023939246

walk_encoder.feature_encoder.bias f4 [32]
000000 bd 5f a1 3d 43 8f 8a 3c c4 30 3f be 97 55 63 be
       0.07879589 0.016914016 -0.18670946 -0.22200619
000010 6f 70 48 3c 39 1e ec bd 96 1b 8d bb 3a 11 ff bc
       0.0122338375 -0.11529202 -0.004306267 -0.031136144
000020 de f6 1b be e9 9f 9a bb c5 76 d4 3c 8e d7 9f 3c
       -0.15230891 -0.00471877 0.02593554 0.019511964
000030 23 4e 1b bc 8f 57 e9 3d c2 84 7c bc c3 54 b6 3d
       -0.009479078 0.113936536 -0.015412511 0.08902886
000040 d2 0c 03 be 2a 2f 92 3e 7a 34 fb bc 91 0f db bd
       -0.1279786 0.28551608 -0.030664671 -0.106963284
000050 75 7b 9c bd d2 f1 2a 3e 67 b7 4a bd 4c c5 84 3e
       -0.07640735 0.1669381 -0.049491312 0.25931776
000060 e9 17 4e 3c c7 76 38 3e d3 28 e4 bd cc 90 0b 3e
       0.012578943 0.1801406 -0.11140599 0.13629454
000070 65 ed 5b 3c d5 29 ef 3d 38 d7 22 3e d7 5f 96 3d
       0.0134232985 0.11677901 0.15902412 0.07342499

walk_encoder.path_encoder.weight_ih_l0 f4 [96, 32]
000000 a1 8f 64 3c 59 c3 0d 3e f0 8f a6 3d 38 00 a6 3d
       0.013950259 0.1384405 0.08132923 0.081055105
000010 df 95 8d 3e f5 31 20 3d 3f 45 45 3d c0 60 91 bd
       0.27653405 0.039110143 0.04816174 -0.07098532
000020 ff 83 81 3e 92 4f 45 3e 25 9b 24 3e 32 c6 28 be
       0.25296018 0.19268635 0.16074808 -0.16481856
000030 28 13 06 be 82 b5 88 be 91 c6 91 3d ee 9c a0 bd
       -0.13093245 -0.2670098 0.07117952 -0.07842432
000040 90 da e3 3c 9d 74 10 bd 38 c3 00 be dc 99 07 3d
       0.02781418 -0.03526746 -0.1257447 0.033105716
000050 0d 94 4c 3d c3 21 02 be b4 b2 e9 bd c7 75 72 be
       0.04994588 -0.12708192 -0.11411038 -0.23677741
000060 77 88 91 be e9 25 f4 3d 57 df 61 be 67 7b 17 bb
       -0.28424427 0.11921293 -0.22057854 -0.0023114325
000070 a2 48 32 be a9 0d 48 be e1 ee fd 3b ce e8 5a bc
       -0.1741052 -0.19536461 0.007749424 -0.013361169
000080 ce 3e 91 bd b3 2c e3 bd 50 ba a4 3c 21 e9 20 3e
       -0.07092057 -0.1109251 0.020108372 0.15713932
000090 f9 e1 a7 bd f7 d6 55 3d 7f 4c e0 3d 4e 6e 38 be
       -0.08197398 0.05220696 0.109520905 -0.18010828
0000a0 0b 18 33 3e fa 31 db bc ef 4a db bd c2 83 4e 3e
       0.1748964 -0.02675723 -0.10707652 0.20167449
0000b0 c8 77 13 3c 53 c9 8c 3d 5d f3 4f be f3 15 8c 3c
       0.009000726 0.06874337 -0.2030768 0.01710031
0000c0 36 b3 f6 bc 0f 74 29 3e 5d c4 32 bd ea 0c ad bc
       -0.030114751 0.16548179 -0.043644298 -0.021124322
0000d0 58 0f c2 bd 54 ae 37 3d 1d 40 af bd 02 dc 86 bd
       -0.09475583 0.044843987 -0.085571505 -0.06584932
0000e0 fa 85 c8 3d 2a 71 e4 3d ee aa 83 3d a1 67 05 3d
       0.09791179 0.11154397 0.064290866 0.03256953
0000f0 1e 62 85 be ac 53 14 3e 1c 1e 3a 3c e7 ca 8e bb
       -0.2605142 0.14485043 0.011359718 -0.004357684
000100 d6 25 38 3e fe 97 48 3d 92 f3 36 be 8a ae e4 3d
       0.17983183 0.048973076 -0.17866352 0.11166103
000110 28 0f 8c bd ef 4d 8b 3d 29 97 78 bb b7 5c ea 3c
       -0.06838828 0.06801974 -0.0037931895 0.028608663
000120 5a 8a df 3d 45 85 1d be 4f eb 5e bc 2a d0 46 bd
       0.1091506 -0.1538287 -0.013605907 -0.048538364
000130 98 11 b1 bd 0f 55 8a bc 42 cb 70 3d 65 76 00 be
       -0.08645934 -0.016886262 0.05878759 -0.12545164
000140 84 17 8f bc 72 15 7e be df b0 8a 3d 4d ac c5 bd
       -0.017467268 -0.24812868 0.06772017 -0.096520044
000150 ee fc 30 be 64 0b c6 3b 16 5d 9c 3c a9 5f 67 3d
       -0.17283985 0.0060438383 0.019087356 0.056487713
000160 47 ee a4 3d 5e f1 3f 3d 33 48 14 be 4d ea 1b bd
       0.0805326 0.046861045 -0.14480667 -0.038065244
000170 e4 25 00 be 7f 33 5e be bf f0 6d be 51 dd 96 bd
       -0.12514454 -0.21699332 -0.23236369 -0.073664315
000180 56 1e 76 be 32 1c 38 bd 7b 52 aa 3d 8b 6e a3 3d
       -0.2403501 -0.044948764 0.08316513 0.07980069
000190 89 5f 8b 3d cc 65 15 be 56 42 21 be d8 a9 f8 3d
       0.06805331 -0.14589614 -0.15747961 0.1214177
0001a0 ca 4c f9 3d 89 fc 07 3e 23 66 2e 3e d5 1a fa bd
       0.121728495 0.13279928 0.1703115 -0.12212149
0001b0 c5 a2 88 3e 6e fc e2 3d 6e b0 98 3d 05 6c b6 3d
       0.26686683 0.110833034 0.07455526 0.08907322
0001c0 47 f5 44 be c1 aa 60 3d d8 1a be bd 59 a9 ab bd
       -0.19234191 0.054850344 -0.09282464 -0.0838191
0001d0 f4 45 10 bd e2 df b2 3d d6 79 b3 3d a7 53 74 3e
       -0.035222962 0.087341085 0.08763473 0.23860036
0001e0 2b 42 f2 bd 4d 61 79 bd 98 f1 bc bc e4 4e b0 3a
       -0.11829027 -0.06088381 -0.02306442 0.0013451246
0001f0 27 68 36 3e 67 50 93 3d fa 47 49 be 59 d0 19 3d
       0.17813168 0.0719307 -0.19656363 0.03755221
000200 ce 88 1a be c2 ec 1f 3d 8f 29 10 ba 35 76 b1 3d
       -0.1509125 0.03904415 -0.0005499357 0.08665124
000210 9a df d2 3d 8b 1b b1 bc 6d 18 2d 3e 6a 78 19 3e
       0.10296555 -0.021619579 0.16903849 0.1498734
000220 d3 80 a4 bb 9e 49 4d bd 70 ec e1 3d 6e 69 d2 bd
       -0.00502024 -0.050119035 0.11031425 -0.10274015
000230 e1 4e 68 3e 26 a3 81 be 8d 8e 36 bd 2b cf 04 bd
       0.2268634 -0.25319785 -0.04456954 -0.032424133
000240 95 33 a1 bd 0c cb e8 bc 93 7a 21 3e 05 61 04 3e
       -0.078711666 -0.028417133 0.15769415 0.12927635
000250 92 0e a2 3c b8 c6 ac 3d 96 4c 2d 3e f3 0a 83 3d
       0.019782338 0.0843634 0.16923746 0.06398573
000260 89 17 cf bd 3c 17 47 be 77 1b 11 3e 13 ea 65 3e
       -0.10111911 -0.19442457 0.14170633 0.22452573
000270 88 d7 88 bd 49 c4 73 be 09 1d 67 be c2 ca 25 3e
       -0.06681734 -0.23805346 -0.2256967 0.16190627
000280 f5 3a 19 3e e2 be 26 be c6 35 c3 bd d2 01 57 3d
       0.14963897 -0.16283754 -0.09531741 0.05249197
000290 e7 75 f0 bd 42 f7 64 3e 5d 56 2f 3e 9e 32 94 be
       -0.11741238 0.22359946 0.17122789 -0.28944868
0002a0 3a dd 4c 3e 89 17 67 3e bb 04 46 be 8b fd 92 3e
       0.20006266 0.22567572 -0.19337742 0.28709063
0002b0 53 e8 f8 3d ad 2d dc bd 01 e9 1c 3e b9 d0 2c be
       0.12153687 -0.107508995 0.15323259 -0.16876496
0002c0 f4 04 98 3d c9 b1 8d bd 4f 84 d8 bc 62 30 76 3d
       0.0742282 -0.069186755 -0.026430277 0.060104735
0002d0 8e ee f2 bc 99 3a 72 3d 9e 9f 4c 3e 2e d3 a0 3d
       -0.029654767 0.059137914 0.19982764 0.07852779
0002e0 95 ed d0 3d 60 b7 76 be 95 f4 0f be db fe d7 3d
       0.10201565 -0.2409339 -0.14058144 0.10546657
0002f0 1e b4 7e bb 95 5f 28 3e c2 cb 41 bd 28 16 9b bd
       -0.0038864682 0.16442712 -0.04731346 -0.07572585
000300 74 0d 5a 3e 71 2e fe bd e1 b6 e8 3d 3f 94 3e 3d
       0.21294194 -0.12411202 0.113630064 0.046528097
000310 76 82 63 3d 43 4d 81 bd 57 f9 03 be f2 0b 00 be
       0.05554434 -0.06313565 -0.12888084 -0.12504557
000320 c4 71 ac bd 9e 1e c6 bd 2d 21 45 3e 1c d8 04 be
       -0.084201366 -0.096738085 0.19250937 -0.12973064
000330 7a 40 8b bc d2 e6 79 bd 55 a8 c5 bd 3d 19 99 3d
       -0.016998518 -0.061011143 -0.096512474 0.07475517
000340 4d cf 35 be 2b be f4 bd e2 47 66 bc e6 fa ef bd
       -0.1775486 -0.11950334 -0.014055224 -0.11717777
000350 08 44 0e 3c 3d 24 6a 3d e5 55 90 bd 96 87 2f bd
       0.008683212 0.057163466 -0.07047633 -0.042853914
000360 b2 47 f2 3d 4d 2b 1f be 22 ed aa 3d d6 5c ac 3d
       0.11830081 -0.15543862 0.08346011 0.084161445
000370 6a 36 43 be 25 21 e4 bd c7 61 0e be 9b 18 70 3e
       -0.19063726 -0.11139134 -0.13904487 0.23446886
000380 cc bc 8f bb eb 09 ee 3d 68 e5 b5 3d 4e 3e 4f be
       -0.00438652 0.116229855 0.088816464 -0.20238611
000390 64 e7 56 bd e1 5b 0b bd ee 83 f6 bd 3c fc b9 3d
       -0.052466765 -0.03402317 -0.12036882 0.09081313
0003a0 3e fd ec 3d 6d 9c b0 3c 99 23 1c bd 89 2c 70 bd
       0.115717396 0.021558965 -0.038119886 -0.058636222
0003b0 29 21 3f 3e fc e0 a0 bc 89 7b 67 be e1 f7 d6 bd
       0.18664993 -0.01963853 -0.22605719 -0.10496498
0003c0 02 be b2 bd d2 07 19 be bd 56 16 be fa 21 be 3d
       -0.08727647 -0.1494439 -0.14681526 0.09283824
0003d0 0c 88 8c 3d 77 53 89 3c b6 fa 02 bd 78 78 13 be
       0.068618864 0.016763432 -0.031977378 -0.14401424
0003e0 4c 30 53 be df 36 d5 bc 51 68 23 3e e9 20 43 3e
       -0.20623893 -0.026027141 0.15957762 0.19055523
0003f0 90 8c e9 3c a6 fa a6 bd 18 33 f4 3d bf 8d 3f 3d
       0.028509408 -0.08153276 0.11923808 0.04676604

walk_encoder.path_encoder.weight_hh_l0 f4 [96, 32]
000000 5d 1c 5a be 12 6f 81 3e 01 ac 81 bd 2c 23 b8 be
       -0.21299882 0.25280052 -0.06331635 -0.35964334
000010 4f 4c ac bd cb 43 43 3e d9 50 38 be 1d 2c dc 3c
       -0.08412992 0.1906883 -0.17999591 0.026876504
000020 3d b8 19 be 7b c9 01 3e c1 45 92 3d f2 0d 87 bd
       -0.15011688 0.12674515 0.07142211 -0.06594457
000030 c2 d2 68 be ff ad 33 3e 82 74 95 3c 4d 51 7d 3d
       -0.22736648 0.17546843 0.018244032 0.061845113
000040 75 ce 56 3d 14 c0 a0 3d 1e 73 c3 bd aa fc fd ba
       0.052442987 0.07849136 -0.09543441 -0.0019377668
000050 3b 90 55 be 54 97 6a 3e 5a 79 68 be 36 65 15 bc
       -0.20855801 0.2290929 -0.22702542 -0.009118369
000060 2b a4 ca be 2e 06 99 3e e8 58 51 3e 0c ca 2b be
       -0.39578375 0.29887527 0.20444071 -0.16776294
000070 61 8e 85 bd 38 63 f8 bd 4c f9 b8 bd 9a 21 44 3d
       -0.06521297 -0.121282995 -0.090319246 0.047883607
000080 d6 ee b1 bd 99 90 e2 bd e0 e0 18 be 65 5c 1f be
       -0.086881325 -0.11062736 -0.14929533 -0.1556259
000090 60 a5 47 3d c2 01 7e 3c 58 ee 38 3d dc 1c b2 bd
       0.0487417 0.015503349 0.045149177 -0.08696911
0000a0 bf bb 94 bd fa b2 dd 3d ab 27 99 bc bd 04 5a bd
       -0.07262372 0.10825153 -0.018695673 -0.053227175
0000b0 91 ef 08 bd 14 b2 e9 bd 8d 42 a6 3a a2 b9 22 be
       -0.033431593 -0.11410919 0.0012684629 -0.15891126
0000c0 e8 e4 2a be 61 c3 62 3d 61 b3 a2 bd 39 e0 31 bd
       -0.16688883 0.05536211 -0.0794437 -0.043426726
0000d0 bf c4 f3 bd 5f 1d 23 3e 56 fa 3a be 4b 68 0a be
       -0.11902761 0.15929173 -0.18259558 -0.13516347
0000e0 5c 14 09 be e4 58 e1 3d da 28 af 3d 5c 4c af bd
       -0.13386673 0.11003283 0.08552714 -0.08559486
0000f0 94 87 01 3e ae 57 c7 bd 0e 32 81 3c b6 e8 c8 bd
       0.12649375 -0.097335204 0.015770938 -0.09810011
000100 3a 19 08 3e e0 09 62 3e 51 15 03 3d c5 6a 31 bd
       0.13290873 0.2207408 0.03200275 -0.043314714
000110 01 c5 91 be cc 02 92 ba 97 d6 30 bd 5c 65 f8 3c
       -0.28470615 -0.001113975 -0.0431734 0.03032177
000120 b0 bc b2 3b e4 73 74 3e ff 38 99 3e ac 5c a4 bc
       0.005454622 0.23872334 0.29926297 -0.02006372
000130 88 56 8b bd 40 77 1f 3e 8f 2b e3 bd 8f 67 94 3d
       -0.06803614 0.15572834 -0.110922925 0.07246315
000140 f4 90 97 be 22 38 9e bc 53 61 d0 3c 43 ea 5b 3e
       -0.29602778 -0.019313876 0.025437033 0.21476083
000150 6a 93 3f 3e a1 55 7b bd cd d0 9c 3b 3e 38 87 be
       0.18708578 -0.06136096 0.004785633 -0.26410097
000160 ed 5b 1e 3e d9 01 a8 3e 6a c3 80 3e 08 da 30 3e
       0.15464754 0.3281391 0.2514909 0.17270672
000170 04 c2 19 3e 0c dd 01 3d 81 e5 92 be 64 07 32 3d
       0.15015417 0.031704947 -0.28690723 0.04346408
000180 ab f8 28 be df c8 46 be 0b 1f 35 bd 01 b6 fd bd
       -0.1650111 -0.19412564 -0.044219058 -0.1238823
000190 96 31 d5 bd 2d d5 57 3e 6b 1f c1 bd 3b c4 82 3d
       -0.104098484 0.21077414 -0.094298206 0.06385084
0001a0 9e 17 0b 3d c0 33 88 bd 90 69 12 3e 2c 42 6e 3d
       0.03395807 -0.066504955 0.14298081 0.058168575
0001b0 55 8f 47 3d cb ea 3f 3d 24 8d a7 bc 2d 26 39 bd
       0.048720676 0.046854775 -0.020453043 -0.045202423
0001c0 e2 55 f4 bd a3 1d 39 3e c4 30 1c bc dc 32 ac 3d
       -0.11930443 0.18077712 -0.009533111 0.08408138
0001d0 5c d8 d1 bd 29 3b 2d 3d 73 19 e3 bd 55 27 e9 bd
       -0.102463454 0.042292748 -0.110888384 -0.11384455
0001e0 14 62 09 3d 68 27 4a bb e7 14 49 3e 7d a2 bc 3d
       0.0335408 -0.0030846242 0.1963688 0.0921068
0001f0 20 3c 2b be 9d 71 87 bd 3e 36 b4 bd 5f 49 31 3e
       -0.16722155 -0.06613467 -0.087994084 0.17313145
000200 4e d0 3d bc 03 d4 8a 3d 53 e4 3b 3d 69 f4 38 3e
       -0.011585308 0.06778719 0.045872044 0.18061985
000210 23 35 8f bd e7 b0 e8 3c 72 0a 03 3e 9c dd 7e 3d
       -0.06992557 0.028404666 0.12796953 0.062223062
000220 3c 97 4b 3e 00 8a 36 3e d8 ad 55 3c 8a 9f 75 3d
       0.1988191 0.1782608 0.013041936 0.0599666
000230 37 ec 00 be 96 f8 fe bc 4f cc bc 3c 21 2b 25 be
       -0.12590109 -0.031124394 0.02304664 -0.16129734
000240 66 d4 12 be 0a 88 a6 3d 70 82 70 bd bc 0a 79 3d
       -0.14338836 0.08131416 -0.058718145 0.060801253
000250 a3 2e 0c be bc 7f 88 3e b1 07 6b 3d a5 69 79 bc
       -0.13689665 0.26659954 0.057380382 -0.0152229415
000260 8b 8d c0 bd 29 6c c9 3d b2 e9 1d 3e 2c e0 a0 bd
       -0.09401997 0.09835083 0.15421179 -0.078552574
000270 13 2a 1b bd 21 48 67 be a8 fa 3d be 32 b3 01 3e
       -0.037881922 -0.22586109 -0.18552649 0.12666014
000280 c7 42 6c 3e 57 1f 10 ba a5 ba ce 3d 06 a1 07 3e
       0.23072349 -0.0005497834 0.10094193 0.1324502
000290 7c 9a 0c 3e 73 4d b7 3d a0 25 89 bd 4b 70 be 3d
       0.13730806 0.08950319 -0.066966295 0.09298762
0002a0 70 fd 10 3e 11 26 a2 3c ab 2e 8c 3d 8b d8 7f 3d
       0.14159179 0.019793542 0.06844839 0.06246237
0002b0 cc 61 6d 3c 92 dc dd 3a 8b f4 58 3c 3d 1e 6f be
       0.014488649 0.0016926697 0.013241897 -0.23351379
0002c0 7f c3 3b 3e c6 b3 b4 3d 5c 2a 85 be 8b 99 94 bd
       0.18336295 0.088233516 -0.2600888 -0.072558485
0002d0 76 22 07 3e 05 e9 d2 3d 21 f0 b4 bd 15 d7 6b bd
       0.1319674 0.10298351 -0.088348635 -0.057578165
0002e0 67 d1 2c 3e 6c 1f 14 be 38 4a 9e bd 91 d4 d6 3d
       0.16876756 -0.14465111 -0.07729 0.104897626
0002f0 f1 f7 65 3e 4a 1d 16 be 72 aa da bd 05 ea 53 bd
       0.22457863 -0.1465961 -0.10677041 -0.05173685
000300 3b e1 1b bd f9 c8 71 3d 3a cc 8a 3c 32 fc 56 bc
       -0.038056593 0.059029553 0.016943086 -0.0131216515
000310 72 1c e2 bd aa 30 ce 3d 2a 60 57 bd e0 f9 2d 3d
       -0.11040582 0.10067876 -0.052581944 0.042474627
000320 57 7e 41 bd ce a1 cf bd 73 41 57 3e 9d 73 d5 bc
       -0.047239628 -0.10138284 0.2102106 -0.026056105
000330 5b fa 4b bd c0 7f 0f be 0f 52 a8 3d c1 59 6e 3e
       -0.049799304 -0.14013577 0.082187764 0.23276426
000340 c0 c1 af 3d 15 3b 48 3e 61 6c 2e be ba eb fe 3d
       0.08581877 0.19553788 -0.17033531 0.12447305
000350 ad 3d e2 3d 10 8f 15 be 5d 38 81 be 30 11 71 be
       0.1104692 -0.14605355 -0.25238314 -0.23541713
000360 cb 40 30 be 45 c6 0b 3e 7e 7f fa 3d 35 f3 7b bc
       -0.17212217 0.13649853 0.122313485 -0.015377809
000370 71 72 4d 3d 63 7c 6e bd bd 70 a1 3d 94 b5 91 bd
       0.050157968 -0.058224093 0.07882831 -0.071147114
000380 b9 ef 3a 3d 99 95 bf 3c 3c 9c f3 bd fd 70 b3 3c
       0.045638774 0.023386763 -0.11895034 0.021904463
000390 b7 04 0f 3e d8 53 ca 3d 00 f6 7f be e3 5f 2c 3c
       0.13966642 0.09879273 -0.24996185 0.010520908
0003a0 18 76 7c bd eb 25 bb bd fd 05 c1 3d da aa 9e 3c
       -0.06163606 -0.09138092 0.0942497 0.019368578
0003b0 0e d6 0b be 08 28 47 be 8f 03 07 be 99 4e e5 bd
       -0.13655874 -0.19448864 -0.13184951 -0.11196632
0003c0 14 e1 20 be 92 02 43 be 65 d2 54 3e 33 be 1a 3e
       -0.1571086 -0.19043949 0.20783384 0.15111618
0003d0 b1 90 a4 bc 8a 93 91 3d e1 ae 0f be 75 c6 3c be
       -0.020088525 0.07108219 -0.14031555 -0.1843508
0003e0 04 74 36 3c 35 f4 65 3d 2e b1 d9 bc d9 66 4c bd
       0.011136059 0.056141097 -0.026573744 -0.04990277
0003f0 24 42 09 3e b8 60 f5 3c 96 b5 74 bd 62 7b b5 3c
       0.13404137 0.029953346 -0.059743486 0.02215356

walk_encoder.path_encoder.bias_ih_l0 f4 [96]
000000 14 d7 20 be 18 40 17 be c8 23 74 39 b4 59 02 bc
       -0.15707046 -0.14770544 0.00023282983 -0.007955957
000010 0b 95 9c bc e3 1f 14 bd 20 aa 65 bd d4 30 d0 bd
       -0.019114038 -0.036163222 -0.056070447 -0.10165563
000020 55 97 de be 93 56 ef bd f5 b3 1f 3e f9 41 ad be
       -0.43474832 -0.116864346 0.15595992 -0.33839396
000030 bc fe 2a be 48 24 11 be 53 5e c5 3d 18 0f fa bd
       -0.16698736 -0.14173996 0.096371315 -0.1220991
000040 c9 58 3e be 9b 7a e7 3d ff 0a 67 3d d8 26 5a be
       -0.18588556 0.11302682 0.05640697 -0.2130388
000050 a5 a4 17 3d 87 94 43 3d 47 a1 f6 bd b3 5a 00 be
       0.03702225 0.04774907 -0.1204248 -0.12534599
000060 64 da 2c be 7d 1f 72 3d 00 14 03 3e bd b8 a8 be
       -0.16880184 0.05911206 0.12800598 -0.32953444
000070 02 4c ec bc 14 22 01 bc 16 8b 22 3e 06 f3 36 3e
       -0.028844837 -0.00788166 0.1587337 0.17866144
000080 c6 52 94 3e 84 b3 88 3e 82 3b a0 bb 2d bc 10 3e
       0.289694 0.2669946 -0.0048899064 0.14134283
000090 38 cf af 3d cf 45 c0 3d aa 4e a0 3e 15 02 8a 3c
       0.08584446 0.09388315 0.31310016 0.016846696
0000a0 18 15 ef 3d 4f a1 a6 bd cf 2c ea 3d f2 25 50 3e
       0.11673945 -0.08136236 0.11434328 0.20326975
0000b0 79 80 10 be f8 40 eb 3d 92 4c 13 3d bf c7 f2 3d
       -0.14111508 0.11487001 0.035961695 0.11854505
0000c0 ab a8 ca 3e 89 c1 ff bc 4d bd 02 3d a5 93 3a 3e
       0.39581808 -0.031220214 0.031918813 0.18220384
0000d0 d5 ff 5d 3d dc f3 61 3e c5 56 c2 bd c0 de 3e 3e
       0.05419906 0.22065681 -0.09489206 0.1863966
0000e0 76 b7 a3 3e d2 86 a4 bd 29 c2 85 3e bd 47 0a bd
       0.31975907 -0.080335274 0.26124695 -0.03375982
0000f0 7e ba fc bd 3d 2e 81 be c7 68 6e 3e ad fd 17 3d
       -0.12340258 -0.2523059 0.23282157 0.03710716
000100 2e 25 4e bd 97 8d d0 3c af f0 c5 3d 09 f6 64 bd
       -0.050328426 0.02545814 0.096650474 -0.0558987
000110 6f 5c 4e 3e 85 0f 07 be 84 01 c9 3a f0 71 3b 3d
       0.20152448 -0.13189514 0.0015335535 0.045762956
000120 fc da 73 3d 6d 80 f5 be cb 7b 84 be db 1b 9f 3e
       0.05953501 -0.47949544 -0.25875697 0.3107594
000130 b1 58 bc 3e 16 35 25 be ca 5d 81 3d ce ed 4f 3d
       0.36786416 -0.16133532 0.06316717 0.050763898
000140 e2 9d 26 3e da fc ce 3d eb fa 92 3e 19 12 2b be
       0.16271165 0.10106821 0.2870706 -0.16706122
000150 62 1b ba 3d 58 f0 55 be 71 33 87 3e 26 45 c4 3d
       0.09087254 -0.20892465 0.26406434 0.095835015
000160 1d 29 ec 3d 8a c4 48 be 53 19 f8 bd 08 eb b6 3d
       0.11531279 -0.19606224 -0.12114205 0.089315474
000170 41 6b 18 be 55 58 e1 3e 74 5a 3d 3e f2 db 1c be
       -0.14884664 0.44012704 0.18491536 -0.15318277

walk_encoder.path_encoder.bias_hh_l0 f4 [96]
000000 26 70 86 bd b8 08 f3 bd f4 cf b1 bd 24 ac 39 be
       -0.06564359 -0.11866897 -0.08682242 -0.18132073
000010 d9 d0 1e be 85 7e 6a 3d 49 03 37 3e ae bd 8a bd
       -0.15509357 0.057249565 0.17872347 -0.0677446
000020 bc 68 9d be fc 24 25 bd 4c f8 79 bd 9e 6d e2 bd
       -0.30743968 -0.040318474 -0.06102781 -0.11056064
000030 80 83 06 be d5 52 7a be 80 9c 47 be 18 b5 1b be
       -0.13136101 -0.2444566 -0.19493294 -0.152058
000040 84 8f 9e be 03 27 cf 3d 61 89 0c be 18 93 06 3c
       -0.3096887 0.10114863 -0.13724281 0.008213781
000050 16 13 a1 bd 03 aa 0e bd 33 0e 15 be 9d 91 4a 3d
       -0.078649685 -0.034830105 -0.14556198 0.049455274
000060 1b 49 b8 bd e2 42 07 be dd b8 3f 3d 06 db 91 be
       -0.08998319 -0.13209108 0.04680716 -0.28487414
000070 39 b5 84 be 07 fa 17 be db a4 e5 bd 6c 1d 03 3d
       -0.25919512 -0.14841472 -0.11213084 0.03201048
000080 18 7f 63 3d e8 87 0c 3e 88 7a 9f 3c 9c 2a 00 3e
       0.055541128 0.13723719 0.019467607 0.12516254
000090 14 00 c1 3b a4 2d 09 3e b0 ae 9f 3e 43 5d 9e 3c
       0.005889902 0.13396317 0.31187963 0.01933158
0000a0 d2 b5 73 3e ce f8 c7 bb e2 0e 59 3d 16 94 94 3e
       0.23799828 -0.006102658 0.05299271 0.2901923
0000b0 c2 49 ba 3d 78 70 07 be 96 77 45 3e d9 9c 6c 3e
       0.090960994 -0.13226497 0.192839 0.23106708
0000c0 a8 f2 78 3e 53 a2 51 3e 23 76 12 bc 24 aa d6 bc
       0.24311316 0.20472078 -0.008939299 -0.026204176
0000d0 13 2b 94 3e 16 95 b4 3c b4 f2 b0 bd ed 87 2c 3e
       0.28939113 0.022043746 -0.08640042 0.16848727
0000e0 58 45 12 3e 01 a9 fe 3d 95 ed dd 3d 6b c6 40 3e
       0.14284265 0.12434579 0.10836331 0.1882569
0000f0 99 bc 27 be f7 8d 37 be 32 b2 5d 3e 9f b9 5d 3e
       -0.16380538 -0.17925249 0.21650007 0.2165284
000100 6a 82 5f bd 33 58 bf bc 58 5f f6 bd f9 03 d2 3d
       -0.054567732 -0.023357486 -0.12029904 0.10254664
000110 f7 9b 28 3e d3 ac 80 be 91 42 27 be ff cc 62 3d
       0.16465746 -0.25131854 -0.16333987 0.05537128
000120 83 55 2e 3d b2 c0 72 bd 2f 0c d1 3c 82 70 84 3b
       0.04256202 -0.0592658 0.025518505 0.0040417323
000130 b6 f4 22 3e 33 68 06 bd 3d cb e5 3b 82 19 e8 bd
       0.15913662 -0.032814216 0.0070127533 -0.1133299
000140 d5 c2 d2 3d 0c 66 a9 bb a5 7c c5 3e 9d e7 d1 bd
       0.102910675 -0.0051696356 0.3857166 -0.10249255
000150 9b 84 c4 bc ba f9 13 3d 5e 0c 20 3e 9a 14 2d bd
       -0.023989012 0.03612683 0.15629718 -0.042255975
000160 e3 48 85 bd 8a 78 7d 3d 7e 1f a4 bd 33 7d 39 3e
       -0.06508043 0.061882533 -0.08013819 0.18114166
000170 3a 4a 3e be 87 95 8a 3e 49 56 4e 3e 6a 27 d6 bd
       -0.18583003 0.27067205 0.20150103 -0.104567364

bn.weight f4 [32]
000000 38 27 7f 3f ad 6f 7c 3f d9 61 75 3f ee cd 70 3f
       0.9966922 0.98607904 0.9585243 0.94064224
000010 cd 35 3f 3f 6b 31 6d 3f bc 94 54 3f c0 c8 70 3f
       0.7469147 0.9265353 0.8303945 0.9405632
000020 38 b8 58 3f 17 2a 4c 3f 97 5d 78 3f 2b 45 81 3f
       0.84656096 0.79751724 0.97017807 1.0099233
000030 22 3d 58 3f be 48 6c 3f 8a 0c 74 3f 3b b3 62 3f
       0.8446828 0.92298496 0.95331633 0.88554734
000040 77 9c 83 3f 3c fb 6f 3f 72 bc 49 3f 46 0f 5b 3f
       1.0282124 0.9374273 0.7880317 0.8557018
000050 90 95 6a 3f a3 e2 7a 3f 09 64 75 3f 1e 1a 62 3f
       0.91634464 0.9800207 0.95855767 0.883211
000060 15 a8 7c 3f 12 93 56 3f b9 3c 82 3f 40 7b 52 3f
       0.9869397 0.8381816 1.0174781 0.82219315
000070 5b 2c 6d 3f ce 8e 57 3f e6 ed 55 3f 7e da 6f 3f
       0.92645806 0.8420228 0.8356613 0.9369277

bn.bias f4 [32]
000000 51 d1 87 3d a1 8a 64 bd 46 a1 40 bd 86 bc 0b 3d
       0.06631721 -0.05579627 -0.047028802 0.034115337
000010 e2 e9 03 3d 16 5d c6 bd a7 7a 16 3e 32 bd 41 3e
       0.03220547 -0.096857235 0.14695226 0.18919829
000020 ec c5 b5 3d ec 24 0d be 4e 2d 32 bd 39 e6 0b be
       0.08875641 -0.13783616 -0.043500237 -0.13662042
000030 3f 38 20 3e c7 1c fb bd b4 7b 94 3c 15 18 3d be
       0.15646456 -0.12261348 0.018125392 -0.18466218
000040 86 7b 1c 3b d4 06 c5 bd 87 57 ae 3d 71 df 3c bd
       0.0023877337 -0.09620443 0.08512788 -0.046111528
000050 6f 64 9a bd 65 6f d0 bd 83 33 03 3d da b3 f3 3d
       -0.075386874 -0.10177497 0.032031547 0.11899538
000060 78 c8 06 bc 92 87 3c be 38 7f d1 bd 2f 6e 93 bd
       -0.008226506 -0.18411091 -0.10229343 -0.0719875
000070 86 0c c7 bc bf db cf bc f7 c2 23 bc fc 6d 2a bd
       -0.024297964 -0.025373338 -0.009995214 -0.041608796

bn.running_mean f4 [32]
000000 3b cd 6d bd 65 c6 1d be 7d 38 6f 3d ce 9b 2b 3e
       -0.05805705 -0.15407713 0.05840348 0.16758654
000010 ca 81 60 3e cd 3e 69 be 64 d5 d9 bc 97 d9 a4 bd
       0.2192451 -0.22777863 -0.02659101 -0.080493145
000020 74 2e e6 3d 88 44 d8 be e4 82 af be 20 c1 42 3e
       0.11239329 -0.42239785 -0.3427955 0.19018984
000030 04 3b eb 3e b8 67 47 be 70 01 97 3b fb 1d b1 3d
       0.45943463 -0.1947316 0.0046083257 0.086482964
000040 5b 13 a5 3c f0 81 5c 3e 59 64 0c 3f e4 5f 2a be
       0.020150831 0.21533942 0.5484062 -0.16638142
000050 f1 98 98 3d c5 83 50 be ba d0 05 3f 8b 78 b6 3d
       0.07451046 -0.20362766 0.52271616 0.089097105
000060 e1 64 05 3e 9e d7 1f be 99 1b 1a be 30 9b b0 3d
       0.13026763 -0.15609595 -0.1504959 0.0862335
000070 63 04 c1 be 08 98 2f 3f b4 a0 e0 3d 0a 77 0e be
       -0.3769866 0.68591356 0.10968152 -0.13912597

bn.running_var f4 [32]
000000 5a 99 8d 3b 69 e1 99 3b 2f ba d9 3b a7 18 ac 3b
       0.0043212594 0.0046960604 0.0066445093 0.005251962
000010 a9 45 a3 3b a3 1d d0 3b d5 57 60 3b 0b cc e0 3b
       0.0049826694 0.006351189 0.003423204 0.0068602613
000020 fb 4e 80 3b f0 9b 51 3b b7 7d 4f 3c e7 da a9 3b
       0.003915665 0.0031983815 0.01266425 0.005183566
000030 65 1d cf 3b e1 12 97 3b b3 d5 18 3c fb 40 4a 3b
       0.006320643 0.004610405 0.009328294 0.0030861485
000040 a1 ac bc 3b 72 dd 3d 3c 4c bb 1a 3c 19 fa ff 3b
       0.0057578837 0.011588441 0.009444069 0.0078117964
000050 f2 b7 9e 3b 26 96 12 3c 5c 3a ea 3b 49 cc d8 3b
       0.0048437053 0.008946931 0.0071480703 0.0066161496
000060 53 bf 6e 3b 94 67 0e 3c 50 f8 f3 3b b8 68 97 3b
       0.0036429956 0.008691687 0.0074453726 0.0046206377
000070 8c c3 08 3c a3 1d fd 3a 03 f9 6b 3b b7 63 1c 3c
       0.008347403 0.0019311201 0.0036006577 0.009545258

fc1.weight f4 [64, 32]
000000 e3 68 87 3e 72 ec 4d be 0f 95 d9 bd 45 de 5b 3d
       0.2644721 -0.20109728 -0.10624134 0.05367877
000010 15 f3 39 3c c4 2a 12 be 8c 32 cf ba 84 44 f5 3d
       0.011349459 -0.14274126 -0.0015807911 0.11975959
000020 2f b2 1f 3e 63 2d ac 3a 2e 28 e3 bd e7 da a0 3d
       0.15595315 0.0013136085 -0.11091648 0.07854252
000030 56 e7 ca bd ad 6b 3e be fd 88 1f 3e a9 b6 18 3d
       -0.09907405 -0.18595763 0.155796 0.037283573
000040 20 8d 35 3e 65 91 2f 3e e8 7b 47 3c 41 bd a0 bd
       0.17729616 0.17145307 0.012175538 -0.07848597
000050 61 e5 a4 3d 8c c9 34 3d 9a 00 25 bd 08 a9 51 3e
       0.08051563 0.044137523 -0.040283777 0.20474637
000060 3b 50 aa 3c 45 a5 02 be 23 1d 33 be 67 8f aa bd
       0.02079021 -0.12758358 -0.17491584 -0.08328133
000070 09 2e 2e 3e 16 b1 f3 3d 4e 61 75 3b 79 28 9a bd
       0.17009749 0.11899011 0.0037442031 -0.07527251
000080 13 ed 2e be 7b f3 e1 bd 70 2d 2c bd 65 e1 e6 bd
       -0.17082624 -0.11032768 -0.04203552 -0.11273459
000090 0e 39 a2 bc 26 92 ad bd 38 99 9d bb 8f 42 bb 3b
       -0.019802596 -0.08475141 -0.004809525 0.0057147215
0000a0 0a ef 18 3e 27 14 86 3d 9a 11 37 bc 6b 34 45 3e
       0.14934936 0.065468125 -0.01117363 0.19258277
0000b0 c3 87 fb bd 48 87 87 3d cf 51 6a 3c 9c 4a b6 3d
       -0.12281754 0.066176 0.014301731 0.08900949
0000c0 e7 90 f5 bd 30 ba 34 bd fc 2e 1a be 18 f4 91 3c
       -0.119905286 -0.044122875 -0.15056986 0.017816588
0000d0 48 ca ee 3c 72 e5 ac bd ce 70 7e bd 97 ee b2 bd
       0.02914919 -0.08442201 -0.062119298 -0.08736914
0000e0 02 f8 1b be 07 a9 40 3e 32 4a f2 ba 85 48 0d 3d
       -0.15231326 0.18814479 -0.0018485247 0.03449299
0000f0 2f df 30 3e 0b f6 97 3c cb 76 14 be 6b 50 b7 3d
       0.17272638 0.01854994 -0.14498441 0.089508854
000100 ed 54 69 3d 59 c4 4c bd a2 61 87 3c 2c 42 d4 bd
       0.056965757 -0.04999194 0.016526047 -0.10364184
000110 d1 51 f4 bd c0 f1 a8 bb 00 04 a6 3c 31 7d f3 bd
       -0.11929668 -0.005155772 0.02026558 -0.11889113
000120 ce d3 1f 3e c3 b0 0b 3e 1f 4d 61 bd 2c 40 c1 bc
       0.15608141 0.13641648 -0.05500519 -0.02359017
000130 5e ee 5c bd 6b 88 8a 3c 44 18 43 3e 32 c2 d0 bd
       -0.053938262 0.016910752 0.19052225 -0.1019329
000140 5b 12 a9 3c d9 2a af 3d d9 a7 ad bd cd e1 4f bc
       0.020638635 0.085530944 -0.0847928 -0.012688112
000150 0d b9 f2 3d 93 1e 0a be e0 05 e6 3c 27 c2 44 3d
       0.11851702 -0.13488226 0.028078973 0.04803672
000160 da 3e 18 bd 3e b9 6e 3d ab c5 ff bd 07 2d a7 3d
       -0.037169315 0.05828213 -0.12488874 0.08162885
000170 31 4b 1b 3e 1a d7 1d be a2 ec c6 3d c2 34 cd 3d
       0.15165402 -0.15414086 0.09713103 0.100198284
000180 c1 a5 3b 3a b8 ee 75 ba af d3 b8 3d c3 0f 29 3d
       0.0007158183 -0.000938158 0.090247504 0.041274797
000190 5b 86 c9 bd c4 42 4e bd 62 06 7e bd 5b 63 36 bd
       -0.098400794 -0.05035664 -0.062017806 -0.044528347
0001a0 14 4a cc bd dc 6b fd 3d 8e 70 3e be a7 ae 0d 3e
       -0.09975067 0.12374088 -0.18597624 0.13836156
0001b0 1b 77 27 3d bc 79 a9 bd 6a 39 ba 3d c3 ba 28 bc
       0.040885072 -0.08275172 0.09092982 -0.010298434
0001c0 61 ed 47 3e 63 49 36 be de e9 17 be 61 39 60 be
       0.19524147 -0.17801432 -0.14835307 -0.21896888
0001d0 54 9c fa 3a ba 45 55 be 7b 22 83 bd 5a 7e 8c bc
       0.0019120076 -0.2082738 -0.06403061 -0.017150093
0001e0 ff 9c 35 3e f3 c4 2c 3e 5b cd f3 bd 86 b8 51 3d
       0.1773567 0.16872005 -0.11904403 0.051201366
0001f0 ae 66 44 3e 21 72 c4 3b 51 fc 2a bc 4a 44 08 bd
       0.19179794 0.0059950505 -0.0104361335 -0.03326825
000200 5d 7b 10 3b 03 7b 97 3d 5c c8 ae 3d f6 96 8a 3d
       0.0022046186 0.073965095 0.08534309 0.06767075
000210 53 41 e7 3b 77 6f 4b 3e 02 da 05 3e ac 29 26 be
       0.007057348 0.19866739 0.13071445 -0.16226834
000220 9c 4d e3 3d 13 59 56 bc 28 41 d9 bd b8 ea 65 bd
       0.11098787 -0.01308276 -0.10608131 -0.05613205
000230 02 af 06 3e fb eb 3b bd 75 0e 53 3c a7 e0 29 bc
       0.13152698 -0.045879345 0.012881865 -0.010368503
000240 4f 65 06 3e e3 bf 07 3d 65 d7 2f bd b7 94 d7 3d
       0.13124584 0.03314198 -0.042930026 0.10526412
000250 5a f4 05 3e bd cd 8c bd 83 bc 0c 3d 4a 8a 5b 3d
       0.13081494 -0.06875179 0.034359466 0.05359868
000260 f9 13 ea 3d b2 3c 20 bd 34 82 ab bd 54 03 0e bd
       0.11429591 -0.039120384 -0.08374444 -0.034671143
000270 eb 3d b1 bd d1 39 f6 bd 62 10 36 3e 9a 95 ef bc
       -0.08654388 -0.12022746 0.17779687 -0.02924614
000280 2e c1 37 3b db 2f ef bc cc ec 53 3d 0b 10 01 be
       0.0028038728 -0.029197624 0.0517395 -0.12603776
000290 2a 2a ab bd 1e 4c b5 3d 51 66 c9 3d f7 58 03 be
       -0.083576515 0.08852409 0.098339684 -0.12826906
0002a0 c8 c2 0e be 32 be ee 3d 1d 5b 9f 3d 3e f2 9c bd
       -0.1394149 0.116573706 0.0778105 -0.076633915
0002b0 c4 32 0e 3c c1 37 ef 3d 17 37 94 bd 76 b6 bb bd
       0.008679096 0.11680556 -0.0723707 -0.09165661
0002c0 bc 5d e3 3c 34 9d 0b bb b8 ea 21 3e d8 99 61 ba
       0.027754657 -0.0021303417 0.15812194 -0.00086059934
0002d0 9d da 17 bc 00 8d 84 bd e4 01 da bc 6a cb bf 3b
       -0.00926843 -0.06472206 -0.02661223 0.0058531063
0002e0 a0 de 5a be 99 8d 14 3e 0d e1 ce bd 07 a3 d5 3d
       -0.21373987 0.1450714 -0.10101519 0.104314856
0002f0 32 3a fd bc 62 3a b1 bd 1c 8c 5c 3e c2 b9 12 3d
       -0.030911539 -0.08653714 0.21537822 0.035821684
000300 cb 4b 11 be 8d 52 b5 bd cd 8b 5e 3d b6 c8 74 3d
       -0.14189069 -0.08853636 0.054332543 0.059761725
000310 b2 41 a5 3d 6b ea bb 3d 31 96 87 3d 8a 76 42 3c
       0.08069171 0.09175571 0.066204436 0.011869082
000320 5f 85 88 be 49 e4 f2 3d 08 1b 9a 3c 8a c0 a1 3d
       -0.26664254 0.11859948 0.018811718 0.07898052
000330 44 51 3c 3e 1b 61 57 3e d2 6e 02 be 3a 10 4d be
       0.18390375 0.21033137 -0.12737587 -0.20025721
000340 f0 d5 bd bc dc f0 a6 bc be 24 68 3e 63 4c 08 be
       -0.023173302 -0.020378523 0.22670266 -0.13310389
000350 e3 9a 3c 3d 4c 28 a1 3d cd 5a 3d be f5 59 61 3c
       0.04604615 0.07869014 -0.18491669 0.013754358
000360 14 0b e5 bd 58 87 0b be 4a 72 3c 3e 16 3f 28 3e
       -0.111837536 -0.13625848 0.18402973 0.16430315
000370 1f df 37 be 22 30 15 bd e3 41 99 bd f0 d4 30 3e
       -0.17956208 -0.036422856 -0.0748327 0.17268729
000380 42 72 17 3e 5e 77 0f 3e 8a 6c eb bd 54 5b dd bc
       0.1478968 0.14010379 -0.114953116 -0.027021088
000390 e1 82 e5 3d 2d bb f2 bd dc 2d 1b 3e 90 a6 d8 3d
       0.11206604 -0.11852107 0.15154213 0.10578644
0003a0 eb 68 0a 3e a9 1d 19 be d2 48 d2 bc 8b 29 0d 3e
       0.13516586 -0.1495272 -0.025669489 0.13785379
0003b0 08 7d b8 bd c5 f0 ce 3c 04 08 df 3d 62 9a 26 be
       -0.09008223 0.025261292 0.10890201 -0.1626983
0003c0 bc b6 08 3e df ae 2a be ef 07 3a bd c4 90 e9 bc
       0.13350958 -0.1666827 -0.045417722 -0.028511412
0003d0 9a c9 81 3d b1 de 20 be 26 0b 1d 3b e2 7f 19 be
       0.063372806 -0.1570995 0.0023962944 -0.1499019
0003e0 40 61 c2 3d a8 8f 18 3d f3 84 3c be 96 fb 4c bc
       0.09491205 0.037246376 -0.18410091 -0.012511155
0003f0 0a 03 0a 3e bb 46 26 3e f9 a0 a4 3d bd b6 02 be
       0.13477722 0.16237919 0.080385156 -0.12765022
