rwgnn/checkpoints/model_fold_3.pt (torch, 69539 bytes, 16 tensors)

adj_hidden f4 [16, 10]
0	0xbf470392	-0.7773982
1	0x3e9c1898	0.30487514
2	0x3efe2634	0.49638522
3	0xbf5c5466	-0.8606628
4	0xbf6f3c7a	-0.93451655
5	0x3e2fe120	0.17175722
6	0x3f6c2e72	0.9225837
7	0x3f701f1e	0.9379748
8	0x3ef9a1e4	0.48756325
9	0xbe9681f4	-0.2939602
10	0xbc5c3880	-0.013441205
11	0x3f56c09c	0.8388765
12	0xbf3c1f84	-0.7348559
13	0x3db142a0	0.08655286
14	0x3f562c20	0.8366108
15	0xbf059a76	-0.52188814
16	0x3df3ea10	0.11909878
17	0x3f3a4210	0.72757053
18	0xbe5d9d78	-0.21642101
19	0xbf2c908a	-0.6740805
20	0x3e057540	0.13033009
21	0xbf22fe38	-0.6366916
22	0xbeba2618	-0.36357188
23	0xbde0b030	-0.10971105
24	0x3ecc2650	0.3987298
25	0xbe925348	-0.28579164
26	0x3f24c3e8	0.6436143
27	0xbf2fad1a	-0.6862351
28	0x3f08562c	0.5325649
29	0x3f744f4e	0.9543351
30	0xbe9b95cc	-0.30387723
31	0x3f7056f2	0.9388267
32	0x3f56cdbe	0.8390769
33	0x3d86c820	0.065811396
34	0x3f28f94c	0.66005397
35	0x3f3fc61c	0.74911666
36	0xbdab58b0	-0.08366525
37	0x3f33cbe2	0.70232975
38	0xbe071cd8	-0.13194597
39	0x3d912ab0	0.0708822
40	0x3ec5b9b4	0.38618243
41	0x3e9d9078	0.30774283
42	0xbee5bc24	-0.44870102
43	0xbf0067e8	-0.5015855
44	0x3e2624c8	0.16224968
45	0xbf3d6aec	-0.73991275
46	0xbe5c8860	-0.21536398
47	0xbef81720	-0.48455143
48	0x3f5bf1c8	0.85915804
49	0x3f39dcfa	0.7260281
50	0xbf1db590	-0.6160517
51	0xbf655fc6	-0.89599264
52	0x3e8a6c18	0.27035594
53	0x3dc7bc50	0.09752715
54	0xbf48e368	-0.78471994
55	0x3f461b66	0.77385557
56	0xbd945790	-0.07243264
57	0xbc4e5900	-0.012594461
58	0x3dbcd490	0.092202306
59	0x3f065aac	0.52482104
60	0x3f575e88	0.8412862
61	0x3d08f980	0.033441067
62	0xbf16d3f8	-0.5891719
63	0x3e2d36f8	0.169155
64	0xbdca69f0	-0.09883487
65	0xbf5b12de	-0.85575664
66	0xbf12619a	-0.5718018
67	0x3ec039d8	0.3754413
68	0x3f6ef81e	0.93347347
69	0xbf78a4f8	-0.9712672
70	0xbf1bda9c	-0.60880446
71	0xbc62ec00	-0.013850212
72	0x3f1e99cc	0.61953425
73	0x3ef9ca48	0.4878714
74	0xbf2a326a	-0.66483176
75	0xbf06526c	-0.52469516
76	0xbf231d12	-0.6371623
77	0xbedd9790	-0.43279696
78	0xbf682a72	-0.90689766
79	0xbf25a4ca	-0.64704573
80	0x3e992a00	0.29914856
81	0xbf6666ee	-0.9000081
82	0x3f342276	0.70365083
83	0xbf20acae	-0.6276349
84	0x3d99be50	0.07507002
85	0x3dd90430	0.10596502
86	0xbdbba510	-0.091623425
87	0xbe91051c	-0.2832421
88	0x3f5fdb28	0.8744378
89	0x3e710208	0.23535931
90	0x3e9df7bc	0.3085307
91	0xbe9ee2c4	-0.31032383
92	0x3f301db0	0.687953
93	0xbf77666a	-0.96640646
94	0xbe2232e8	-0.15839732
95	0xbea3099c	-0.3184327
96	0xbf62ebbc	-0.8864095
97	0x3e883644	0.266039
98	0x3f40d6ea	0.7532793
99	0x3d5dab60	0.054118514
100	0x3f3da9a0	0.7408695
101	0x3e650a00	0.22367096
102	0x3f562a52	0.83658326
103	0xbe02a150	-0.12756848
104	0x3ed083e8	0.40725636
105	0x3f59fa02	0.85147107
106	0xbf29633a	-0.6616703
107	0x3f76c414	0.9639294
108	0xbed06838	-0.40704513
109	0x3f2c3fea	0.67285025
110	0xbedeb450	-0.43496943
111	0x3ed6b550	0.41935205
112	0xbeaab82c	-0.33343637
113	0xbf15de82	-0.58542645
114	0x3f207492	0.6267787
115	0x3d663e00	0.05621147
116	0xbf182592	-0.5943233
117	0x3ee470b0	0.44617224
118	0x3e993ce4	0.29929268
119	0x3f1c93fc	0.61163306
120	0x3ed4f6d8	0.41594577
121	0xbe9b0b40	-0.3028202
122	0xbea15b1c	-0.31514823
123	0x3e93b0d0	0.28845835
124	0xbf1c985c	-0.6116998
125	0x3f7aa42a	0.97906744
126	0xbd7aeb40	-0.061259508
127	0x3ed88040	0.42285347
128	0x3f3a2202	0.7270814
129	0x3e734a38	0.23758781
130	0x3eb97758	0.36223865
131	0x3ef35194	0.47523177
132	0x3f4f6af6	0.81022584
133	0x3ee76e08	0.45201135
134	0x3e85866c	0.26079118
135	0x3f24d360	0.6438503
136	0x3f1568dc	0.5836313
137	0xbeaaeb54	-0.33382666
138	0xbf3c6cc0	-0.7360344
139	0x3ea45eec	0.3210367
140	0xbf69efc4	-0.9138148
141	0xbf59e17a	-0.85109675
142	0xbd80bc30	-0.06285894
143	0x3f4ac9ca	0.79214156
144	0x3ed3b6f4	0.4135052
145	0xbf24036c	-0.6406772
146	0xbf5e838c	-0.86919475
147	0x3eafe140	0.3435154
148	0xbef70b84	-0.48250973
149	0x3f37a978	0.71742964
150	0xbf29e8c0	-0.66370773
151	0xbdfa9d50	-0.12237036
152	0x3dab0dd0	0.08352244
153	0x3f1546e4	0.58311296
154	0x3f6863dc	0.90777373
155	0x3eb72fc0	0.35778618
156	0x3ef2a26c	0.47389543
157	0xbf6cf238	-0.92557096
158	0x3e457ea0	0.19286585
159	0xbf028876	-0.5098947

features_hidden f4 [16, 5, 32]
0	0x3f3088eb	0.6895892
1	0x3edd009e	0.43164533
2	0x3f61fa79	0.88272816
3	0x3ef0e9ba	0.4705332
4	0x3da5e6a8	0.08100635
5	0x3f101b97	0.562921
6	0x3ee315ee	0.4435267
7	0x3f5efbb4	0.8710282
8	0x3eff7bc0	0.498991
9	0x3e973344	0.295313
10	0x3ed7d57a	0.42155057
11	0x3f490631	0.7852507
12	0x3f7d05b0	0.98836803
13	0x3e14bb30	0.14524531
14	0x3e29be44	0.16576487
15	0x3f700316	0.9375471
16	0x3f561025	0.83618385
17	0x3e611634	0.21981126
18	0x3f5bf171	0.85915285
19	0x3f741e4f	0.9535875
20	0x3dbf2a90	0.0933429
21	0x3f10a63c	0.56503654
22	0x3c95bf80	0.01827979
23	0x3f01e048	0.5073285
24	0x3f75b689	0.9598165
25	0x3f56bbef	0.83880514
26	0x3f377070	0.7165594
27	0x3f53273f	0.8248176
28	0x3cefe120	0.029282153
29	0x3e2f4790	0.17117143
30	0x3e8e0bfc	0.27743518
31	0x3f10f322	0.5662099
32	0x3d8e1998	0.06938475
33	0x3eb7a33c	0.35866725
34	0x3dff0cb0	0.12453592
35	0x3f2b3362	0.6687528
36	0x3d62c2b0	0.05536145
37	0x3f538967	0.82631534
38	0x3f234b9d	0.6378725
39	0x3eea6598	0.45780635
40	0x3f53089b	0.82435006
41	0x3f4da516	0.80330026
42	0x3d0de070	0.03463787
43	0x3ec421dc	0.38307083
44	0x3f30db3d	0.6908453
45	0x3e1e6b20	0.15470552
46	0x3f69f1da	0.9138466
47	0x3f7ef9c8	0.99599886
48	0x3e4b389c	0.19845814
49	0x3f113b73	0.5673134
50	0x3f330c6d	0.69940835
51	0x3f05f875	0.5233224
52	0x3f14f65b	0.5818841
53	0x3e6e43a8	0.23267996
54	0x3ef6dfd6	0.48217648
55	0x3f416b78	0.7555461
56	0x3ef0a534	0.4700104
57	0x3e1c97ac	0.15292233
58	0x3e7ae1dc	0.24500221
59	0x3e406fb8	0.18792617
60	0x3eb39208	0.3507235
61	0x3f6dec07	0.92938274
62	0x3ae83600	0.0017716289
63	0x3e89f496	0.26944417
64	0x3c9f3b80	0.019437551
65	0x3f74ca63	0.9562132
66	0x3e9f10da	0.31067544
67	0x3c2cb340	0.010540783
68	0x3ec4f32e	0.3846678
69	0x3edf5254	0.436175
70	0x3ebd8ffc	0.37023914
71	0x3e3c5df0	0.1839521
72	0x3ee84860	0.45367718
73	0x3f21da3b	0.6322362
74	0x3f41f991	0.75771433
75	0x3ecfa030	0.405519
76	0x3f6ae8a9	0.9176126
77	0x3ed36572	0.41288334
78	0x3f02c7f7	0.5108637
79	0x3ef0b446	0.47012538
80	0x3e7ebb60	0.24876165
81	0x3f2596b0	0.64683056
82	0x3f578ec3	0.8420221
83	0x3f4fdf3b	0.812
84	0x3f7b078c	0.9805839
85	0x3f1200a0	0.57032204
86	0x3f1993b8	0.59991026
87	0x3f32c714	0.6983502
88	0x3daf4e48	0.08559853
89	0x3d1dc430	0.038517177
90	0x3f227542	0.6346017
91	0x3e87c0c4	0.26514256
92	0x3e6b86f8	0.23000705
93	0x3dddbc80	0.10826969
94	0x3d289b60	0.041163802
95	0x3eb81c26	0.35958976
96	0x3f7393db	0.95147485
97	0x3f760238	0.96097136
98	0x3edafdc0	0.4277172
99	0x3ee435a8	0.44572186
100	0x3f46b8b0	0.7762556
101	0x3d85e9c0	0.06538725
102	0x3f7d0311	0.98832804
103	0x3f0a120f	0.53933805
104	0x3f2ff854	0.68738294
105	0x3eb22798	0.34795833
106	0x3f69a756	0.9127096
107	0x3e56191c	0.20908016
108	0x3f06f107	0.5271153
109	0x3d730010	0.05932623
110	0x3f5d6b10	0.8649149
111	0x3ec461de	0.38355917
112	0x3eca7a7c	0.39546573
113	0x3f545e1f	0.8295612
114	0x3ebdfa82	0.37105185
115	0x3e028288	0.12745106
116	0x3df5f240	0.12009096
117	0x3f3cdc2c	0.73773456
118	0x3f53b449	0.8269697
119	0x3ec3e3ba	0.3825968
120	0x3f6fd41a	0.93683016
121	0x3ee892cc	0.45424497
122	0x3f237db5	0.6386369
123	0x3f10861c	0.56454635
124	0x3f43cca9	0.7648416
125	0x3e77e594	0.24208671
126	0x3f55429e	0.83304775
127	0x3e8dd7d0	0.27703714
128	0x3f1b8314	0.60746884
129	0x3f4808d6	0.7813848
130	0x3f7da909	0.9908605
131	0x3e487adc	0.19578117
132	0x3e1defc0	0.15423489
133	0x3ed89fc6	0.42309397
134	0x3f0ff8f3	0.5623924
135	0x3ef2dfa4	0.4743625
136	0x3f09ec81	0.538765
137	0x3e07a760	0.13247442
138	0x3f2a85fc	0.66610694
139	0x3e51cfa8	0.20489371
140	0x3e9d9c5c	0.30783355
141	0x3e9e9aaa	0.30977374
142	0x3ed7cdfc	0.4214934
143	0x3f771048	0.9650922
144	0x3ee7df94	0.45287764
145	0x3f0dcd88	0.5539174
146	0x3ec5d436	0.38638467
147	0x3e4b576c	0.19857568
148	0x3d85a220	0.065250635
149	0x3ee82cb8	0.45346618
150	0x3f7f3aec	0.9969928
151	0x3f5373ac	0.82598376
152	0x3ee2e81c	0.4431771
153	0x3f701350	0.9377947
154	0x3f04f7de	0.51940715
155	0x3e9b89ee	0.3037867
156	0x3b7e4c00	0.0038802624
157	0x3ea4e3ce	0.3220505
158	0x3ed4acfa	0.4153822
159	0x3f4ed92c	0.8080013
160	0x3f3236e1	0.6961499
161	0x3e558b8c	0.20854014
162	0x3ed6656c	0.41874254
163	0x3db7aaa0	0.08968091
164	0x3dc45540	0.09586573
165	0x3ed352ba	0.41274053
166	0x3f580006	0.84375036
167	0x3f09ca54	0.53824353
168	0x3e0135f4	0.12618238
169	0x3eb393c0	0.35073662
170	0x3f1323ab	0.574763
171	0x3ed85a86	0.42256564
172	0x3bf55900	0.0074874163
173	0x3f068645	0.5254863
174	0x3f28df3a	0.65965617
175	0x3e91bbb6	0.28463525
176	0x3f58561c	0.8450639
177	0x3e7a2970	0.2442987
178	0x3cf4a360	0.02986306
179	0x3f6b80a0	0.9199314
180	0x3f66f631	0.9021941
181	0x3f069cc7	0.52582973
182	0x3e9be498	0.3044784
183	0x3f71a762	0.9439603
184	0x3f35f19e	0.71071804
185	0x3f65890a	0.8966223
186	0x3eaf51a8	0.34241986
187	0x3f6f302c	0.9343288
188	0x3efb23f2	0.49050862
189	0x3db06c98	0.086144626
190	0x3f391646	0.7229961
191	0x3ee166c2	0.4402371
192	0x3f5bc74b	0.8585097
193	0x3ec62e7e	0.38707346
194	0x3f1e72be	0.6189383
195	0x3f350263	0.70706767
196	0x3f494d97	0.7863402
197	0x3f22b6e0	0.63560295
198	0x3ef5eac4	0.48030674
199	0x3e9ae050	0.30249262
200	0x3f5511a0	0.8323002
201	0x3f52f1a5	0.8239997
202	0x3eff55c6	0.49870127
203	0x3ec2e8a6	0.38068122
204	0x3f55b222	0.83474934
205	0x3f48645d	0.7827814
206	0x3f2e437e	0.68071735
207	0x3f1b0bbb	0.60564774
208	0x3e991324	0.29897416
209	0x3f74461d	0.95419484
210	0x3e675f84	0.2259503
211	0x3e9ee64c	0.31035078
212	0x3f4afc6c	0.79291415
213	0x3d908618	0.07056826
214	0x3f703132	0.93825066
215	0x3e586834	0.211335
216	0x3ef4fe5e	0.47850317
217	0x3ecf9456	0.4054286
218	0x3ef3fd7e	0.47654337
219	0x3f6c99d9	0.9242225
220	0x3f71cc95	0.9445279
221	0x3e130cfc	0.14360422
222	0x3f6ddd99	0.92916256
223	0x3e3cbea0	0.18432093
224	0x3ef1550a	0.47135192
225	0x3f046936	0.5172304
226	0x3f30fd11	0.6913615
227	0x3e4dac2c	0.2008521
228	0x3f796944	0.9742625
229	0x3f425994	0.75917935
230	0x3ee475e0	0.4462118
231	0x3f068e56	0.5256094
232	0x3ed31766	0.4122879
233	0x3f7e9ffe	0.9946288
234	0x3f5ac6fe	0.8545989
235	0x3ef48cb8	0.4776361
236	0x3eadb3ac	0.3392614
237	0x3edc6296	0.43043965
238	0x3edfd200	0.43714905
239	0x3dcf7ac0	0.101308346
240	0x3edd7e54	0.43260443
241	0x3eac3090	0.336308
242	0x3ea53f48	0.32274842
243	0x3eba3aa6	0.3637287
244	0x3f241565	0.64095145
245	0x3e9b1fc0	0.3029766
246	0x3cfa81c0	0.030579448
247	0x3e171730	0.14754939
248	0x3eb8cc82	0.36093527
249	0x3f217527	0.63069385
250	0x3f2f9a81	0.6859513
251	0x3d26b6c0	0.040701628
252	0x3ee917ea	0.45526057
253	0x3e446248	0.19178116
254	0x3f0024ad	0.5005596
255	0x3ec840da	0.39111978

walk_encoder.feature_encoder.weight f4 [32, 136]
0	0xbc3696cc	-0.011144351
1	0x3ea6e201	0.32594302
2	0xbec6c01e	-0.3881845
3	0xbe334cc8	-0.17509758
4	0xbc5ff35e	-0.013668863
5	0x3c5671e9	0.013088682
6	0xbc8a9621	-0.01691729
7	0x3cbd9c38	0.02314578
8	0x3d8f9e35	0.070125975
9	0x3b699fc8	0.0035648216
10	0x3df3bbc0	0.11901045
11	0x3cade510	0.02122739
12	0xbd2b5f2f	-0.04183882
13	0xbd967b6e	-0.07347761
14	0x3c42e9f3	0.011896598
15	0x3d9b021a	0.0756876
16	0x3df8ad89	0.12142474
17	0x3d8b2a9c	0.067952365
18	0x3e3f42cb	0.18677823
19	0x3dd49521	0.103800066
20	0xbd35041a	-0.044193365
21	0x3e49dcb0	0.19713092
22	0x3e55ce9f	0.20879601
23	0xbdc7c765	-0.09754828
24	0xbde3c51d	-0.11121581
25	0x3d5cd68e	0.053915553
26	0xbe38577a	-0.1800212
27	0xbdcc78e6	-0.09983997
28	0x3dfd3cab	0.12365087
29	0xbd2b5334	-0.041827396
30	0x3de11e70	0.109921336
31	0x3e5a4a96	0.21317515
32	0x3e591758	0.21200311
33	0x3e65f242	0.22455695
34	0x3cffca38	0.031224355
35	0xbd953b54	-0.072867066
36	0xbdc95aeb	-0.09831794
37	0xbc635c2c	-0.013876956
38	0xbe8a596f	-0.27021357
39	0x3e399e0f	0.18126701
40	0x3e8c1b8e	0.27364773
41	0x3d0340a6	0.032044075
42	0xbd1e03cc	-0.03857784
43	0x3ec27703	0.37981424
44	0x3df26ffe	0.11837767
45	0xbd909d00	-0.070611954
46	0xbc811e25	-0.015761444
47	0x3d01d572	0.031697698
48	0xbe9a57c7	-0.30145094
49	0xbb2c8dfb	-0.0026329744
50	0xbd8201b4	-0.06347981
51	0x3e109221	0.14118244
52	0xbd64a072	-0.055817075
53	0x3d2b85fb	0.04187582
54	0x3dfdbe92	0.12389864
55	0x3e477f75	0.19482215
56	0x3dfab666	0.12241821
57	0xbda2e8e8	-0.079545796
58	0xbe5b899a	-0.2143921
59	0x3e86ffc7	0.26367018
60	0xbcf0c492	-0.029390607
61	0xbd6ceb52	-0.057841606
62	0xbd213bc6	-0.039363645
63	0x3e44aa9a	0.19205704
64	0x3d294e1f	0.041334268
65	0x3e981bdd	0.29708758
66	0xbb141046	-0.0022592708
67	0x3b3f291f	0.0029168797
68	0x3e40c5a8	0.188254
69	0x3b82efea	0.003995885
70	0xbca42b19	-0.020040082
71	0x3ecbe655	0.39824167
72	0x3d40c8af	0.047066387
73	0x3cf10f0b	0.029426118
74	0xbca7f1d6	-0.020501059
75	0xbda299e2	-0.07939507
76	0xbd1d9840	-0.038475275
77	0x3dab8a03	0.08375933
78	0x3d5db648	0.054128915
79	0xbd9a4c89	-0.07534129
80	0x3bdca784	0.0067338366
81	0xbc5c9770	-0.01346384
82	0x3daa18b8	0.08305496
83	0x3de31972	0.11088838
84	0xbd6aa7e4	-0.05728902
85	0xbdae8f70	-0.08523452
86	0x3dbfcbfa	0.09365077
87	0xbd7224a2	-0.059116967
88	0xbd3ee550	-0.04660541
89	0x3d9ce526	0.07660894
90	0xbd4daf1d	-0.05021583
91	0xbdaa1851	-0.08305419
92	0x3d1392fe	0.036028855
93	0x3d50262f	0.050817665
94	0xbd64de3d	-0.055876005
95	0x3d2538d3	0.040337395
96	0x3cbf7677	0.023371918
97	0x3d22236d	0.039584566
98	0xbd4025ba	-0.04691098
99	0xbdab65f0	-0.083690524
100	0x3da7b569	0.08188898
101	0x3da34c44	0.07973531
102	0x3d24bc04	0.04021837
103	0x3d89fc84	0.06737617
104	0x3d3693fa	0.044574715
105	0xbcb8bbfa	-0.022550572
106	0xbd92fa37	-0.07176631
107	0xbd241e58	-0.040068
108	0x3cd343b5	0.025789121
109	0xbd2316d6	-0.0398167
110	0x3b932a09	0.004491095
111	0xbd3546dd	-0.044257034
112	0x3da6838e	0.08130561
113	0xbd9feb58	-0.0780856
114	0x3cba7d53	0.022764837
115	0x3d5f89b3	0.05457468
116	0x3d2bad34	0.041913226
117	0x3d706fb6	0.058700286
118	0x3d91cf7c	0.07119653
119	0x3d834a82	0.064106956
120	0xbc86aa1c	-0.016438536
121	0xbd0d608f	-0.034515914
122	0xbd793ce7	-0.060849097
123	0xbd89e58d	-0.067332365
124	0x3d4d1a67	0.050074007
125	0xbd91b85e	-0.071152434
126	0x3c440257	0.0119634485
127	0xb943b907	-0.00018665577
128	0xbd0d1fcb	-0.03445415
129	0xbd0b2ad3	-0.033976387
130	0xbda9a93b	-0.08284231
131	0xbb97b265	-0.0046294206
132	0x3cf7ac60	0.030233562
133	0xbc99fba8	-0.018796757
134	0xbd307d1f	-0.043088075
135	0x3cf17fe5	0.02947993
136	0x3d48df3d	0.04904102
137	0xbe048aa3	-0.1294351
138	0x3ef54e75	0.4791142
139	0x3d9b9e02	0.07598497
140	0x3d0c4825	0.03424849
141	0x3e1d1106	0.15338525
142	0x3cd83a04	0.026394852
143	0x3d14e7ca	0.036353864
144	0x3cdc7d81	0.026915314
145	0xbddd8a9f	-0.108174555
146	0xbdf1ad01	-0.11800576
147	0xbc99f5ae	-0.018793907
148	0xbd2e71a3	-0.04258884
149	0x3da79679	0.08182997
150	0xbe308956	-0.1723989
151	0xbde516b1	-0.11185969
152	0xbe0c3f92	-0.13696125
153	0xbe560668	-0.20900881
154	0xbccdb032	-0.02510843
155	0xbc9fc825	-0.019504616
156	0xbc4673cb	-0.012112568
157	0xbe1f1ddb	-0.15538733
158	0xbe648986	-0.22318086
159	0x3d1a38db	0.037651878
160	0x3e370882	0.17874339
161	0x3da52574	0.08063784
162	0x3d71b4c1	0.05901027
163	0xbe29d5bc	-0.1658544
164	0xbe91868c	-0.28422964
165	0xbd0a377a	-0.033744313
166	0xbe36076a	-0.17776266
167	0xbe1bf6e8	-0.15230906
168	0xbdc8838b	-0.09790715
169	0xbee077ff	-0.4384155
170	0xbe173e02	-0.14769748
171	0x3cf0b69d	0.029383952
172	0x3ea80706	0.32817858
173	0xbe837578	-0.2567556
174	0x3eb79ce2	0.3586188
175	0xbd9777b3	-0.07395878
176	0xbee0d1de	-0.43910116
177	0xbcbe2e41	-0.023215415
178	0x3e44880b	0.19192521
179	0xbe999e16	-0.30003422
180	0xbe105b8b	-0.14097421
181	0xbc231ac0	-0.009955108
182	0xbd383eff	-0.044981953
183	0x3d8759a2	0.06608893
184	0x3e947138	0.2899263
185	0xbc8a95ec	-0.016917191
186	0x3e17f207	0.1483842
187	0xbde08419	-0.10962696
188	0x3b64cf2b	0.003491352
189	0x3c8e2eab	0.017356237
190	0xbe0dfcf6	-0.13866028
191	0xbd6669f9	-0.056253407
192	0xbca4b4b2	-0.020105693
193	0x3d22ab1d	0.039713968
194	0x3d399ae3	0.045313727
195	0xbe32b263	-0.17450862
196	0x3da4b179	0.08041663
197	0x3ce76d5d	0.02825039
198	0x3dace957	0.084429435
199	0xbe3ee13e	-0.1864061
200	0xbe20d72a	-0.15707079
201	0xbe40e3e7	-0.18836938
202	0xbdab5be7	-0.08367138
203	0xbd82fad0	-0.06395495
204	0xbe2c522c	-0.16828221
205	0xbd85d0ad	-0.06533942
206	0xbd9859fe	-0.0743904
207	0xbea07dd9	-0.31346014
208	0x3d697097	0.05699214
209	0x3c9956de	0.01871818
210	0xbce33233	-0.027733898
211	0xbc3cbe0e	-0.011519922
212	0x3d167867	0.03673592
213	0x3d7d47a0	0.061835885
214	0x3d7048b7	0.058663096
215	0x3ce6ad70	0.028158873
216	0xbd8d5694	-0.06901279
217	0x3b3fea3a	0.0029283897
218	0xbd90482a	-0.07045014
219	0xbe1a0322	-0.15040258
220	0xbd9908f8	-0.07472414
221	0x3c85b079	0.0163195
222	0xbd60095a	-0.05469642
223	0xbd83dc20	-0.0643847
224	0x3d3ee462	0.04660452
225	0x3d5176c6	0.05113866
226	0x3d57b7b6	0.052665435
227	0x3d11efab	0.035628956
228	0xbd4ff7d4	-0.050773457
229	0xbd80e280	-0.062932014
230	0xbcd4d577	-0.025980694
231	0xbc024d6b	-0.007953028
232	0x3da83302	0.08212854
233	0xbda76a35	-0.08174554
234	0x3dac29ba	0.08406396
235	0x3d9bbe3a	0.07604642
236	0xbb40b7db	-0.0029406461
237	0xbc4f2c5d	-0.012644854
238	0x3da4b126	0.08041601
239	0xbd8c7935	-0.06859056
240	0x3c8f4bbd	0.01749217
241	0x3da14b46	0.078756854
242	0x3d1aa208	0.03775218
243	0x3d957fcc	0.07299766
244	0x3c2a5ba9	0.01039783
245	0xbd30836c	-0.043094084
246	0xbc8c0013	-0.01708988
247	0xbdab8bae	-0.08376251
248	0xbd2b180d	-0.041770983
249	0xbd0dcbcf	-0.034618195
250	0xbd4bd3fa	-0.049762703
251	0x3da3c36c	0.07996258
252	0x3d01e1b7	0.0317094
253	0xbdacd3bc	-0.084388226
254	0x3da0cf2a	0.078520134
255	0xbd134379	-0.03595302

walk_encoder.feature_encoder.bias f4 [32]
0	0xbce7e4a4	-0.028307267
1	0xbe66f33d	-0.22553726
2	0x3c2af252	0.01043375
3	0xbd10031c	-0.035159215
4	0xbda0e8e9	-0.07856924
5	0xbde9823c	-0.11401793
6	0xbd91c0a9	-0.07116825
7	0x3dce05be	0.10059689
8	0x3d269c05	0.040676136
9	0xbe835fa1	-0.25658897
10	0x3d9e81f9	0.07739634
11	0x3d12b277	0.03581473
12	0x3d8dd72d	0.06925807
13	0x3e77ed48	0.2421161
14	0xbe53efdf	-0.20696972
15	0x3e6d1dd2	0.23155907
16	0x3e1cbde4	0.15306813
17	0x3e8d2025	0.27563587
18	0xbebe8112	-0.37207848
19	0x3de85d37	0.11345904
20	0x3dfcd356	0.12344997
21	0x3e31ff49	0.1738254
22	0x3d48d618	0.0490323
23	0x3e31eaab	0.17374675
24	0xbe1d51ae	-0.1536319
25	0x3d3de280	0.046358585
26	0x3cc4293b	0.023945441
27	0xbe69a2e8	-0.2281605
28	0x3c5205d9	0.012818777
29	0xbd7a40a9	-0.06109682
30	0xbe2517bd	-0.16122337
31	0xbd52270b	-0.051306766

walk_encoder.path_encoder.weight_ih_l0 f4 [96, 32]
0	0x3e0ff4d2	0.14058235
1	0xbda7d547	-0.08194976
2	0xbe669c8b	-0.22520654
3	0x3e078cb0	0.13237262
4	0xbe561cea	-0.20909467
5	0xbe12ac34	-0.14323503
6	0xbe6ce05d	-0.23132463
7	0xbd5b663c	-0.053564295
8	0xbe0b1901	-0.13583757
9	0x3d63daf3	0.055628728
10	0xbdb3b474	-0.08774653
11	0xbcecf934	-0.028927423
12	0x3e1f2f01	0.15545274
13	0xbd315198	-0.043290704
14	0x3dcab320	0.09897447
15	0xbd3ba5bf	-0.045812365
16	0x3dd3aa35	0.10335199
17	0x3d8b5db5	0.068049826
18	0xbd501cc9	-0.0508087
19	0xbd9866c8	-0.07441479
20	0xbe1ed085	-0.15509231
21	0xbeb009af	-0.34382388
22	0x3ce3f95e	0.027828868
23	0xbd84a54d	-0.06476841
24	0xbe6b4085	-0.22973831
25	0x3ab8891e	0.001407895
26	0xbc139fee	-0.009010298
27	0xbdd8b60a	-0.10581596
28	0xbd083c56	-0.033260666
29	0x3dc09882	0.094040886
30	0x3c6c92e4	0.014439318
31	0xbdbc65a7	-0.09199076
32	0x3df76df9	0.120815225
33	0xbdfa545f	-0.12223124
34	0xbcc9b914	-0.024624385
35	0x3b14090e	0.0022588405
36	0xbe440cba	-0.1914548
37	0x3e094620	0.13405657
38	0xbd9b65be	-0.07587765
39	0x3aed10c5	0.0018086663
40	0x3e3cd60f	0.18441032
41	0xbdd45a5a	-0.10368796
42	0xbe26c38d	-0.16285534
43	0x3e362f13	0.17791395
44	0x3c991366	0.018686008
45	0x3e142f75	0.14471228
46	0xbd8df863	-0.06932142
47	0x3b74d0de	0.003735594
48	0xbc964a08	-0.018345848
49	0xbb3c45b4	-0.002872807
50	0xbc603fb1	-0.01368706
51	0xbe36a205	-0.17835243
52	0x3e7d5cb1	0.2474239
53	0x3e36d14b	0.17853276
54	0x3e4ff6a3	0.20308928
55	0xbde24632	-0.11048545
56	0xbe088ed9	-0.13335742
57	0x3e1e6e98	0.15471876
58	0x3ddbe192	0.107363835
59	0xbe4c96aa	-0.19979349
60	0x3de5d489	0.112221785
61	0x3e26fe55	0.16307957
62	0xbda99ddb	-0.08282062
63	0xbda1fbd1	-0.07909358
64	0xbdd65f9a	-0.10467453
65	0xbc9f49af	-0.019444315
66	0xbddfe5d1	-0.10932506
67	0x3e86f98e	0.2636227
68	0x3c2f0c74	0.010684121
69	0xbdc7ca29	-0.09755356
70	0x3e17869b	0.14797442
71	0x3d07ffe7	0.033203032
72	0xbca82b89	-0.020528572
73	0xbd60524d	-0.05476599
74	0x3dea44f1	0.11438931
75	0xbe37f3a7	-0.1796404
76	0x3c9c14fe	0.019052979
77	0x3e6c7447	0.23091231
78	0xbe8641d6	-0.26222104
79	0xbd202768	-0.03910008
80	0xbbaca8b6	-0.0052691353
81	0xbe4a97cf	-0.19784473
82	0x3d26b497	0.040699568
83	0x3e5dd6d9	0.21663989
84	0x3e6986f0	0.22805381
85	0xbe11a003	-0.14221196
86	0x3e7c75a9	0.24654259
87	0x3de81dbf	0.113337986
88	0x3d94b45d	0.07260964
89	0x3d42c758	0.04755339
90	0x3e57f68a	0.21090141
91	0x3d9a6b1b	0.0753996
92	0xbe8538b2	-0.26019818
93	0x3dba4240	0.090946674
94	0x3c656cab	0.014002959
95	0x3e56454c	0.20924872
96	0x3cb1dd7a	0.021712054
97	0x3c5fb36f	0.01365362
98	0x3b921095	0.004457543
99	0xbdeb2117	-0.11480921
100	0xbdf09f94	-0.11749187
101	0xbc542935	-0.012949278
102	0x3e2bbfa8	0.1677233
103	0xbe2bc631	-0.16774823
104	0xbd551c0f	-0.052028712
105	0x3db7ccce	0.0897461
106	0xbd984d4a	-0.07436617
107	0xbe30171b	-0.17196314
108	0xbe8226ca	-0.2542022
109	0x3d37b323	0.044848572
110	0x3d3de3b6	0.04635974
111	0xbe1a6960	-0.1507926
112	0xbe71d510	-0.23616433
113	0xbde1d85a	-0.11027594
114	0x3e5a8300	0.21339035
115	0x3df90beb	0.12160476
116	0x3d45588f	0.04818016
117	0xbe2239ed	-0.1584241
118	0xbe82dfd4	-0.25561392
119	0xbe0ce988	-0.1376096
120	0x3cde011d	0.02710014
121	0xbd3d18d9	-0.046166275
122	0x3c2bde71	0.010490046
123	0xbda4bcc1	-0.080438145
124	0x3cf99d9a	0.030470658
125	0x3e836c15	0.25668398
126	0x3e5e14ee	0.21687672
127	0x3e0ea356	0.13929495
128	0xbdd5797b	-0.10423561
129	0x3e452069	0.19250645
130	0xbe05660d	-0.1302721
131	0x3e0b3bb0	0.13596988
132	0xbdbfb934	-0.093614966
133	0xbd638349	-0.055545125
134	0x3dfc4857	0.12318485
135	0xbd6d26ad	-0.057898212
136	0x3dca7c4c	0.09886989
137	0x3e23dd06	0.16002283
138	0xbe35f8fd	-0.17770763
139	0x3e0efc66	0.1396347
140	0xbd1140c7	-0.035462167
141	0x3d7d8b11	0.061900202
142	0x3cef0c4e	0.029180672
143	0x3c3b8594	0.011445422
144	0x3e01c4ab	0.12672679
145	0xbc38b4bf	-0.011273562
146	0x3d299d36	0.041409694
147	0xbe0e5f7a	-0.13903609
148	0xbe11f3ab	-0.14253108
149	0xbe4ddc5a	-0.20103589
150	0xbe6315bc	-0.2217626
151	0xbd884e70	-0.06655586
152	0x3ccb43ae	0.024812546
153	0x3e1e2844	0.15445048
154	0xbc2406ad	-0.010011357
155	0xbe52d616	-0.2058948
156	0x3e447314	0.19184524
157	0x3e05a2cc	0.13050383
158	0xbdef2ee1	-0.11678863
159	0xbd078a06	-0.033090614
160	0x3db45070	0.08804405
161	0x3dbf3d4f	0.093378656
162	0x3d38d2ea	0.04512302
163	0x3d4ea536	0.050450526
164	0x3cc84168	0.02444525
165	0xbe65636d	-0.22401209
166	0xbdc4711a	-0.09591885
167	0xbeb51f61	-0.35375503
168	0x3e7a944c	0.24470633
169	0x3e0049da	0.12528172
170	0xbce8438e	-0.028352525
171	0x3dcf27bc	0.101150006
172	0x3d3346eb	0.043768805
173	0x3dff6ef6	0.12472336
174	0x3cbfe182	0.02342296
175	0x3cd9e845	0.026600013
176	0xbde50879	-0.11183257
177	0xbddc3879	-0.10752959
178	0x3d33ae7e	0.04386758
179	0xbe1435fe	-0.14473721
180	0xbd9d748e	-0.07688247
181	0xbdb2acce	-0.08724366
182	0x3d6fdf37	0.058562484
183	0x3d4b6d8f	0.04966503
184	0x3d926865	0.07148818
185	0x3d814b92	0.06313242
186	0x3e3b5f03	0.18297963
187	0xbd60c186	-0.05487206
188	0x3de8f9f3	0.11375799
189	0xbbaf1add	-0.0053437785
190	0xbe28f9ac	-0.16501492
191	0x3bb2ff58	0.0054625683
192	0x3e196426	0.1497961
193	0xbdccbb69	-0.09996683
194	0x3e6f52e8	0.2337147
195	0x3e3e3f14	0.1857875
196	0x3e8e9063	0.27844533
197	0xbe53088f	-0.20608734
198	0xbd9fc512	-0.0780126
199	0x3dbc4e9d	0.09194682
200	0xba4c658c	-0.0007797114
201	0x3e0a9dbc	0.13536733
202	0x3e138d15	0.14409287
203	0xbe18f4e3	-0.14937167
204	0xbda3ede3	-0.08004358
205	0x3e5dde58	0.21666849
206	0x3d9a80eb	0.075441204
207	0x3e6118f9	0.21982183
208	0x3ca1bef3	0.019744372
209	0xbe97448f	-0.29544494
210	0x3dc76946	0.09736876
211	0x3d16579f	0.036704656
212	0x3dd3da76	0.103444025
213	0xbded53c2	-0.11588241
214	0xbd85ece8	-0.06539327
215	0x3cca3bee	0.02468678
216	0xbd17f45f	-0.037098285
217	0xbe1bbac7	-0.15207969
218	0x3dc82e18	0.09774417
219	0xbd703604	-0.058645263
220	0xbe3af74b	-0.18258397
221	0x3e27aded	0.16374941
222	0x3b307c2a	0.0026929476
223	0x3d059b6f	0.032618936
224	0xbe9b9231	-0.30384973
225	0xbbb77bd9	-0.0055994806
226	0xbd96585d	-0.07341073
227	0xbe4d3255	-0.20038731
228	0xbd58307d	-0.052780617
229	0x3e256c49	0.16154589
230	0xbe377385	-0.17915161
231	0xbd78d68f	-0.060751494
232	0xbe04913e	-0.1294603
233	0x3de4e241	0.11175967
234	0x3d433cd7	0.047665443
235	0x3dec49af	0.115374915
236	0xbc6157f4	-0.01375388
237	0xbe403536	-0.18770298
238	0x3e198b33	0.14994507
239	0x3de3c705	0.11121944
240	0x3d8c1ab5	0.068410315
241	0x3dbbd116	0.09170739
242	0x3ddb18dd	0.10698102
243	0x3e357571	0.17720582
244	0xbdfc6bc7	-0.123252444
245	0xbccda2b5	-0.025101999
246	0xbc8c28cf	-0.017109303
247	0xbe031483	-0.12800793
248	0xbda1efe4	-0.07907084
249	0x3d2cfc82	0.042232998
250	0xbce19832	-0.027538393
251	0x3e0b5785	0.13607605
252	0xbe120222	-0.14258626
253	0xbcc4e2de	-0.02403396
254	0x3dad7fea	0.08471663
255	0x3e4e8915	0.2016948

walk_encoder.path_encoder.weight_hh_l0 f4 [96, 32]
0	0x3e911908	0.2833941
1	0x3e1a0e87	0.15044604
2	0xbe04790d	-0.12936802
3	0x3e757439	0.23970117
4	0x3cd5cb04	0.026097782
5	0xbe53d590	-0.20686936
6	0xbdcb00a8	-0.099122345
7	0xbd76ec63	-0.06028403
8	0xbe4fc7fe	-0.20291135
9	0xbeae4d9d	-0.3404359
10	0x3d87f5c5	0.06638674
11	0x3de20652	0.11036362
12	0x3e1f5827	0.15560971
13	0x3e720ac6	0.23636922
14	0xbdb531d8	-0.088473976
15	0x3da0c7de	0.07850622
16	0xbdfc29a7	-0.12312632
17	0x3bfcb716	0.007712255
18	0xbc40a623	-0.01175836
19	0x3e2e3566	0.17012557
20	0x3e6eb063	0.23309474
21	0xbea4ef95	-0.32214037
22	0xbbd65fd0	-0.0065421835
23	0x3e0a975f	0.13534306
24	0xbde5d305	-0.112218894
25	0x3d9b3668	0.075787365
26	0x3e8ba840	0.27276802
27	0xbdc6721e	-0.09689735
28	0xbdca73f0	-0.098853946
29	0xbd305b34	-0.043055728
30	0x3ded0716	0.11573617
31	0xbd9a9b22	-0.075491205
32	0xbdbfd200	-0.09366226
33	0x3e76d27c	0.24103731
34	0xbc9b688b	-0.018970748
35	0xbc3b63ea	-0.011437396
36	0xbe87b902	-0.26508337
37	0x3cf4ea04	0.029896744
38	0xbe13d81e	-0.14437911
39	0x3cf721a7	0.030167414
40	0x3b5c1f17	0.0033587867
41	0x3e41e567	0.18935166
42	0x3e09921f	0.13434647
43	0xbc14e55c	-0.009087887
44	0xbdabbf96	-0.083861515
45	0x3b023099	0.0019865392
46	0xbe226df1	-0.15862252
47	0x3de8e188	0.11371142
48	0x3e8cae4a	0.27476722
49	0xbe850d79	-0.2598684
50	0xbda322db	-0.079656325
51	0x3d60337a	0.054736592
52	0x3e17124f	0.14753078
53	0xbe0537e3	-0.130096
54	0xbe126548	-0.14296448
55	0xbdcce8dd	-0.10005353
56	0xbe879a72	-0.2648502
57	0xbb8049fd	-0.00391507
58	0xbdf8e3c2	-0.12152816
59	0xbd8eba65	-0.06969146
60	0x3cb17585	0.021662483
61	0xbe2c9603	-0.168541
62	0xbe233730	-0.15939021
63	0xbd8f6cb9	-0.07003159
64	0xbe227ebf	-0.15868662
65	0xbe45e593	-0.19325857
66	0xbe50d335	-0.20393069
67	0x3d21f70b	0.03954224
68	0x3d8c5c28	0.06853515
69	0xbca2fde8	-0.019896463
70	0xbe60e352	-0.21961716
71	0x3dc984c2	0.09839775
72	0xbda401d7	-0.080081634
73	0x3d76f686	0.060293697
74	0xbe009aa4	-0.1255899
75	0x3e0642e0	0.13111448
76	0xbe946257	-0.28981277
77	0xbde2f59e	-0.11082004
78	0xbe516c16	-0.20451388
79	0xbde0afc7	-0.10971027
80	0xbd858ec4	-0.06521371
81	0x3df61461	0.12015606
82	0x3d926ca7	0.0714963
83	0xbe899f4e	-0.26879352
84	0xbe4461b7	-0.191779
85	0xbd9eb999	-0.07750244
86	0xbd1614b7	-0.03664085
87	0xbdb4eec3	-0.08834603
88	0x3e87485d	0.26422396
89	0x3dad7508	0.084695876
90	0xbccbb367	-0.02486582
91	0xbb4a8537	-0.0030902156
92	0xbd29f280	-0.04149103
93	0x3d9ea42c	0.07746157
94	0xbc493601	-0.012280942
95	0x3dd7cf31	0.105375655
96	0xbe665b26	-0.22495708
97	0xbd0586b1	-0.032599155
98	0x3db5adce	0.08871041
99	0x3e3c7cd7	0.18406998
100	0x3ec6d9b4	0.3883797
101	0x3e98742e	0.29776138
102	0x3e8e6309	0.27809933
103	0xbe3fee76	-0.1874331
104	0x3e30171b	0.17196314
105	0x3e63daa2	0.2225137
106	0x3e0ec303	0.13941579
107	0xbd114b58	-0.035472244
108	0x3e19c7b7	0.15017591
109	0x3e08b6cc	0.13350981
110	0x3ecd3fde	0.4008779
111	0x3e98a749	0.29815128
112	0xbdb332f9	-0.08749957
113	0x3e0c4aec	0.13700455
114	0x3e0ebe41	0.13939764
115	0x3db0cc89	0.08632762
116	0xbe09b136	-0.13446507
117	0x3e940030	0.28906393
118	0x3e1cd8e5	0.15317114
119	0x3ea45090	0.32092714
120	0x3e6058b6	0.2190884
121	0x3e0d8def	0.13823675
122	0xbe8211a2	-0.25404078
123	0xbe8c0f5c	-0.27355468
124	0x3dc4aefd	0.09603689
125	0x3e831721	0.25603583
126	0xbe4b20c6	-0.19836721
127	0xbdd10626	-0.10206251
128	0x3dd4b0da	0.10385294
129	0x3d17ced4	0.03706248
130	0xbdd5dfac	-0.10443053
131	0x3cbcf4d9	0.023065971
132	0x3e683e38	0.22679985
133	0x3e264fbe	0.16241357
134	0x3dfca6c9	0.12336499
135	0x3d15f0cc	0.036606595
136	0x3be2f61c	0.006926311
137	0xbc8a61c6	-0.016892325
138	0x3e565e37	0.20934378
139	0xbe262cad	-0.1622798
140	0x3e2bb412	0.1676791
141	0xbde4376d	-0.11143384
142	0x3dba4fcc	0.09097251
143	0x3de6a0cf	0.112611406
144	0xbd3f38bc	-0.046684965
145	0xbc8e2b32	-0.017354582
146	0x3db02a88	0.08601862
147	0x3e68b5e2	0.22725633
148	0xbbf0bca8	-0.0073467083
149	0x3e1df7ca	0.15426555
150	0x3d77015f	0.060304042
151	0x3c9f46d4	0.019442953
152	0xbd76936f	-0.060199197
153	0xbdbbda35	-0.09172479
154	0xbd038c74	-0.03211637
155	0xbe26c3ab	-0.16285579
156	0x3db287af	0.08717286
157	0x3e60e9ef	0.21964239
158	0x3dd8f20a	0.1059304
159	0xbde77fd9	-0.11303682
160	0x3dfbb526	0.12290411
161	0xbe3d9ec1	-0.18517591
162	0xbe5534a4	-0.20820862
163	0x3dda4286	0.106572196
164	0x3d808b38	0.06276554
165	0xbe44cf6b	-0.19219749
166	0x3e4c9052	0.19976929
167	0x3b1418e2	0.002259784
168	0xbd44c8e4	-0.048043147
169	0xbcdc93dd	-0.026925975
170	0xbe4ac18d	-0.19800396
171	0xbd9aedf9	-0.07564921
172	0x3dd03077	0.10165494
173	0x3df6987d	0.120408036
174	0xbd197061	-0.03746069
175	0xbe07eac4	-0.1327315
176	0x3e026331	0.12733151
177	0x3e1d053e	0.15334031
178	0xbdd055b9	-0.101726
179	0x3d98b705	0.07456783
180	0x3d9d8133	0.076906584
181	0xbd93baa2	-0.07213332
182	0xbd71c444	-0.059025064
183	0x3db58993	0.08864131
184	0x3e7c4dbf	0.24639033
185	0xbcc81adf	-0.024426876
186	0xbd433623	-0.04765905
187	0x3decd3f7	0.115638666
188	0xbb0ca675	-0.002146152
189	0xbe30e6bd	-0.1727552
190	0x3de20646	0.11036353
191	0x3db66f03	0.089078926
192	0xbdf255e9	-0.11832792
193	0xbe6eedf0	-0.23332953
194	0xbdf9be63	-0.121945165
195	0xbe10915f	-0.14117955
196	0x3e8e58d4	0.27802145
197	0x3e9bd237	0.3043382
198	0xbdbe9dc0	-0.09307432
199	0x3d4faec7	0.05070379
200	0x3e0cf94b	0.13766973
201	0xbde9c9a5	-0.11415414
202	0xbe09c020	-0.13452196
203	0x3d2054bb	0.039143305
204	0x3e0eb6a2	0.13936856
205	0x3dc2d4ba	0.095132306
206	0x3e513835	0.20431598
207	0x3dfb104f	0.1225897
208	0xbbf00bd8	-0.0073256306
209	0xbd844ce4	-0.06459978
210	0xbc3bece0	-0.01147005
211	0x3e10f738	0.14156806
212	0xbe600d23	-0.21880011
213	0xbd330fb7	-0.04371616
214	0xbe1b1296	-0.15143809
215	0x3e71bb82	0.23606685
216	0x3da2abd4	0.0794293
217	0xbc88096a	-0.016606051
218	0xbdfbdcf2	-0.12298001
219	0xbda6fa91	-0.081532605
220	0xbde18ff9	-0.11013789
221	0xba254380	-0.0006304309
222	0xbcc027fa	-0.023456562
223	0x3b907975	0.00440901
224	0xbd980aab	-0.0742391
225	0xbe2eeac7	-0.17081748
226	0x3e2cdc2c	0.16880864
227	0x3d105793	0.035239767
228	0x3ec43c47	0.38327238
229	0x3e40fff7	0.18847643
230	0xbd94a102	-0.07257272
231	0xbea87e82	-0.32909018
232	0x3ce122fb	0.0274825
233	0x3d45f9d0	0.048333943
234	0x3db05c63	0.08611371
235	0xbca6f075	-0.02037833
236	0xbd17ef0d	-0.03709321
237	0x3dd09df0	0.10186374
238	0x3eac68a3	0.3367358
239	0x3daca0b9	0.08429093
240	0xbd962515	-0.073312916
241	0x3dc4a930	0.096025825
242	0x3e51e5c2	0.20497802
243	0x3db0b47f	0.08628177
244	0xbda93811	-0.08262647
245	0x3e072bf2	0.13200358
246	0x3d738d8c	0.05946116
247	0x3d4d1639	0.05007002
248	0x3e9f6da8	0.3113835
249	0x3e354d33	0.1770523
250	0x3c8d85dc	0.017275743
251	0x3d860286	0.0654345
252	0x3c5b89f1	0.013399587
253	0x3d8eb4b1	0.06968058
254	0x3ea0247c	0.31277835
255	0xbebd9408	-0.37027

walk_encoder.path_encoder.bias_ih_l0 f4 [96]
0	0x3e57871d	0.21047635
1	0x3e90bd4f	0.2826943
2	0xbd8018af	-0.06254708
3	0xbe02b9f7	-0.12766252
4	0x3bbd81f5	0.0057833144
5	0x3dabf8ba	0.0839705
6	0x3d4479b5	0.04796763
7	0x3dcb944d	0.099403955
8	0x3d9a0207	0.07519918
9	0xbe68036d	-0.22657557
10	0xbee722ff	-0.45143887
11	0x3cc47298	0.023980424
12	0xbe06af4a	-0.13152805
13	0xbe0f2fac	-0.13983029
14	0xbe1447ee	-0.14480564
15	0xbd1280c0	-0.035767317
16	0xbe975274	-0.29555094
17	0x3ab003f5	0.0013428914
18	0xbd2a1c0a	-0.041530646
19	0xbe84fa13	-0.2597204
20	0x3dd29faa	0.1028436
21	0xbc948e0c	-0.01813414
22	0xbe3ac3cd	-0.18238755
23	0x3e340291	0.17579104
24	0xbe6fe88c	-0.23428553
25	0xbe50818c	-0.20361918
26	0x3d00c879	0.031441186
27	0xbe0de162	-0.13855508
28	0x3dca6a35	0.09883539
29	0xbe64bf40	-0.22338581
30	0xbda95276	-0.08267681
31	0xbe94a6de	-0.2903356
32	0x3d20fd9c	0.03930436
33	0x3e10833d	0.14112563
34	0x3e83b2ef	0.25722453
35	0x3d83e0d6	0.064393684
36	0x3c808305	0.015687475
37	0x3e83c208	0.25733972
38	0x3e404af5	0.18778594
39	0x3ea39ba2	0.31954676
40	0x3e6186ae	0.22024032
41	0x3e16862f	0.14699624
42	0x3e394400	0.18092346
43	0x3e781334	0.24226075
44	0x3e93dc48	0.28879
45	0x3efc8349	0.49318913
46	0xbd3d8fb9	-0.046279643
47	0x3ea6a09a	0.32544404
48	0x3e9caf57	0.30602524
49	0x3eb2741e	0.34854215
50	0x3eaf877d	0.34283057
51	0x3e4c8914	0.19974166
52	0x3ddeacbe	0.10872792
53	0x3e156f32	0.14593199
54	0x3df4de1c	0.119564265
55	0x3e31fa9b	0.17380755
56	0x3cd5b781	0.026088478
57	0x3eb03142	0.3441258
58	0x3d968f86	0.07351594
59	0x3d9ea58d	0.0774642
60	0x3dc5583a	0.096359685
61	0xbdba409b	-0.09094354
62	0x3ce8448d	0.028353
63	0x3ed87373	0.4227558
64	0x3e84d81e	0.25946134
65	0x3ea8013d	0.32813445
66	0x3e22b901	0.15890886
67	0xbe1d0c7a	-0.1533679
68	0xbea0365b	-0.3129147
69	0x3cfcf22e	0.030877199
70	0x3da920f6	0.0825824
71	0xbe48237e	-0.19544789
72	0xbdbeacb1	-0.09310282
73	0xbe4f63db	-0.20252936
74	0xbd5b81e1	-0.05359066
75	0xbe193e02	-0.1496506
76	0x3e0b417e	0.13599202
77	0xbda1e90a	-0.07905777
78	0xbea3078d	-0.31841698
79	0xbeaa4fb1	-0.33263925
80	0xbd92b772	-0.07163896
81	0xbd72e6f8	-0.0593023
82	0x3e169ac7	0.1470748
83	0x3dba44af	0.090951316
84	0x3eb5a1d4	0.35475028
85	0xbe99dfc4	-0.30053532
86	0xbcac31c6	-0.021019828
87	0xbe132e96	-0.1437324
88	0xbe921e2d	-0.28538647
89	0xbbad4fd1	-0.005289056
90	0x3ccec00c	0.02523806
91	0x3e83089a	0.255925
92	0xbf082492	-0.531808
93	0xbe79239a	-0.24329987
94	0x3ed6229d	0.41823283
95	0x3decd8f8	0.11564821

walk_encoder.path_encoder.bias_hh_l0 f4 [96]
0	0xbc4819d6	-0.012213191
1	0x3d47ac42	0.048748262
2	0xbdd4ce35	-0.10390893
3	0xbe867036	-0.26257485
4	0x3d88f735	0.06687776
5	0x3b27303f	0.0025510935
6	0xbdc460ac	-0.09588751
7	0x3cc6fc60	0.024290264
8	0xbe86b3fe	-0.26309198
9	0xbdaf427a	-0.08557601
10	0xbec6208d	-0.3869671
11	0xbbf343f9	-0.0074238745
12	0x3d4292f9	0.047503445
13	0x3d226257	0.039644565
14	0xbd9522a8	-0.07282001
15	0xbd8b5988	-0.06804186
16	0xbea3fd6a	-0.32029277
17	0x3bc8f691	0.0061329086
18	0xbe7c1903	-0.24618916
19	0xbc9e76d1	-0.019343765
20	0xbdca19a7	-0.09868174
21	0xbe3149ea	-0.17313352
22	0xbdf39dbd	-0.118953206
23	0x3cf756fe	0.030192848
24	0xbe663417	-0.22480808
25	0xbe9a0771	-0.30083802
26	0xbe7b433e	-0.2453737
27	0xbe3c4483	-0.1838551
28	0xbcf7c336	-0.030244451
29	0x3d8d1630	0.068889976
30	0xbe516ff4	-0.20452863
31	0xbea705bb	-0.3262156
32	0x3bd19e56	0.006397049
33	0x3e49a1b3	0.1969059
34	0x3ef4f5d6	0.47843808
35	0x3e80e4d2	0.25174576
36	0xbcc214e9	-0.023691611
37	0x3e72eb59	0.2372259
38	0x3e50ac38	0.20378196
39	0x3ea07af1	0.31343797
40	0x3c562ea4	0.013072643
41	0x3dfa9464	0.122353345
42	0xbd3db40e	-0.04631429
43	0x3d9bf25d	0.076145865
44	0x3f16854e	0.58797157
45	0x3ec861b6	0.39137048
46	0x3d075329	0.033038292
47	0x3d8ab273	0.06772318
48	0x3e96c27c	0.29445255
49	0x3f01469d	0.5049837
50	0x3de49115	0.11160485
51	0x3e988947	0.29792234
52	0x3d714e55	0.058912594
53	0x3d922019	0.071350284
54	0x3e9a1743	0.30095872
55	0x3dd3dd29	0.10344917
56	0xbe28e191	-0.16492297
57	0x3e57c859	0.2107252
58	0x3d6b4a5d	0.057443965
59	0xbc1abfb5	-0.009445121
60	0x3e9187ac	0.28423822
61	0xbdfdcba6	-0.123923585
62	0x3db8125d	0.089878775
63	0x3ea687c6	0.32525462
64	0x3eb90396	0.36135548
65	0x3eae527a	0.340473
66	0xbdcb0571	-0.09913147
67	0xbe07a966	-0.13248214
68	0xbdc5242a	-0.09626038
69	0xbe1c63f4	-0.15272504
70	0xbd410124	-0.04712023
71	0xbe0e6dd7	-0.13909088
72	0x3d489f54	0.048980072
73	0x3d3dfeb2	0.046385475
74	0x3b9891af	0.0046560387
75	0xbd38d8ee	-0.045128755
76	0x3e500271	0.20313431
77	0xbe33318b	-0.17499368
78	0x3b89cf8e	0.0042056506
79	0xbe1653bb	-0.14680378
80	0x3ac22476	0.0014811892
81	0x3e545118	0.2073406
82	0x3e705472	0.23469713
83	0xbd86326a	-0.065525845
84	0x3d4eb809	0.05046848
85	0xbe171929	-0.14755692
86	0xbd95f3c1	-0.07321883
87	0xbe120b77	-0.14262186
88	0x3df7a8b4	0.120927244
89	0xbdad0857	-0.08448856
90	0x3dc7369e	0.09727214
91	0x3d83243e	0.06403397
92	0xbddc4202	-0.107547775
93	0xbe54d1f9	-0.20783223
94	0x3e7d81ec	0.24756593
95	0x3d8eb94b	0.069689356

bn.weight f4 [32]
0	0x3f48ec7a	0.78485835
1	0x3f6aa0a6	0.9165138
2	0x3f248688	0.6426778
3	0x3f4c3c31	0.79779345
4	0x3f648ab6	0.89274156
5	0x3f3cb2f3	0.73710555
6	0x3f71105a	0.94165576
7	0x3f7a9e2c	0.978976
8	0x3f403369	0.75078446
9	0x3f7243fc	0.94634986
10	0x3f40ea0c	0.7535713
11	0x3f560c48	0.8361249
12	0x3f7cc568	0.9873872
13	0x3f4f96e5	0.8108962
14	0x3f5fe8f4	0.87464833
15	0x3f80d01c	1.006351
16	0x3f39a3ef	0.7251577
17	0x3f6b63a2	0.919489
18	0x3f70c057	0.9404349
19	0x3f5baed5	0.8581365
20	0x3f4c154a	0.79719985
21	0x3f6c93f1	0.9241324
22	0x3f64ab4e	0.8932389
23	0x3f78a2b1	0.9712325
24	0x3f80dcda	1.0067399
25	0x3f49513c	0.7863958
26	0x3f7bafc5	0.9831508
27	0x3f56da26	0.8392662
28	0x3f518d4b	0.8185622
29	0x3f789cff	0.9711456
30	0x3f5c6d61	0.861044
31	0x3f5eb637	0.8699679

bn.bias f4 [32]
0	0x3da39775	0.079878725
1	0x3dc9dab2	0.09856166
2	0xbdae9fdd	-0.08526585
3	0x3d7996cb	0.060934823
4	0xbd14c512	-0.036320753
5	0xbe3b8363	-0.18311839
6	0xbdeddfed	-0.11614976
7	0x3daa2ef1	0.083097346
8	0x3be4c091	0.0069809635
9	0x3dabf93d	0.08397148
10	0x3d14b34c	0.036303803
11	0x3e0c4d2d	0.13701315
12	0xbe1b6125	-0.15173776
13	0x3d88ea3b	0.06685301
14	0xbdacf69d	-0.08445475
15	0x3d8d3ea7	0.068967156
16	0x3da94c2b	0.08266481
17	0xbd495aaf	-0.04915875
18	0xbd9d8e72	-0.07693185
19	0xbe173862	-0.14767602
20	0x3e056e38	0.13030326
21	0x3dac3a09	0.08409507
22	0x3d14d743	0.036338102
23	0xbd9ecebf	-0.077542774
24	0xbda4da3e	-0.08049439
25	0xbd49c0fc	-0.04925631
26	0xbd3729f6	-0.04471775
27	0x3cedd845	0.02903379
28	0xb9fb6630	-0.00047950586
29	0xbd2c1bf4	-0.042018846
30	0xbc249b4e	-0.010046793
31	0x3d9680ee	0.0734881

bn.running_mean f4 [32]
0	0x3f2aa715	0.66661197
1	0x3f4f210b	0.80909795
2	0x3d8043d0	0.06262934
3	0xbb4e08bf	-0.0031438319
4	0xbf0d5a48	-0.55215883
5	0xbe924c50	-0.28573847
6	0xbd192647	-0.03739002
7	0xbcad47e5	-0.021152446
8	0xbe2eb42c	-0.17060918
9	0xbe944237	-0.28956768
10	0xbea451a8	-0.3209355
11	0x3d5d553e	0.05403637
12	0x3c93e334	0.018052675
13	0x3c4e031d	0.012573984
14	0xbeee3338	-0.46523452
15	0xbe268610	-0.16262078
16	0x3d93d435	0.0721821
17	0xbb8699c9	-0.004107688
18	0x3d119d10	0.035550177
19	0xbd52ef78	-0.051497906
20	0x3f345e54	0.70456433
21	0xbed4499c	-0.4146241
22	0xbdab8093	-0.08374133
23	0xbf1b4059	-0.6064506
24	0xbedbb8bc	-0.4291438
25	0xbc899a11	-0.016797097
26	0x3d8e0d11	0.06936086
27	0x3ea56dd6	0.3231036
28	0xbeb1b736	-0.3471009
29	0xbec6c2f6	-0.38820618
30	0x3eb192e3	0.34682378
31	0x3d503df2	0.050840326

bn.running_var f4 [32]
0	0x3b872237	0.004123952
1	0x3c03147c	0.008000489
2	0x3bc53090	0.006017752
3	0x3b534883	0.0032239265
4	0x3bed58a5	0.0072432333
5	0x3bae3802	0.0053167352
6	0x3bf720c1	0.0075417464
7	0x3a9fd718	0.001219484
8	0x3b7cedb7	0.0038593838
9	0x3bd8f664	0.006621169
10	0x3bf78650	0.007553853
11	0x3ba13ef4	0.0049208347
12	0x3b1de608	0.0024093408
13	0x3a1601c8	0.00057223113
14	0x3bc71b06	0.0060762195
15	0x3bb3e6fc	0.005490182
16	0x3b751c29	0.0037400818
17	0x3b79f8ba	0.0038142637
18	0x3b26ef9f	0.0025472415
19	0x3be372ef	0.0069411914
20	0x3bdb9214	0.0067007635
21	0x3bb2f0ba	0.0054608257
22	0x3c06fb0e	0.008238567
23	0x3c40500b	0.011737834
24	0x3c3fa7b7	0.011697701
25	0x3bb28115	0.0054475167
26	0x3c0177f2	0.007902132
27	0x3b9b5311	0.004740127
28	0x3ba47d02	0.005019785
29	0x3c037fcc	0.008026075
30	0x3bbd7552	0.005781808
31	0x3a8bbef7	0.001066177

fc1.weight f4 [64, 32]
0	0xbdc89ad0	-0.09795153
1	0x3c682412	0.014168756
2	0x3d3586eb	0.04431812
3	0x3d82a04e	0.06378232
4	0x3d6d1ca8	0.057888657
5	0x3e268ef4	0.1626547
6	0x3badb942	0.0053016255
7	0x3cbce930	0.023060411
8	0xbe1b6c0a	-0.15177932
9	0xbc8acdec	-0.016943894
10	0xbc96ac49	-0.018392699
11	0xbb883b6e	-0.004157475
12	0xbdc9cdb4	-0.09853688
13	0x3cd100f3	0.025513148
14	0xbe1095ad	-0.14119597
15	0xbe8b22b8	-0.27174926
16	0x3e106abe	0.14103219
17	0xbdd2119b	-0.10257264
18	0xbe666649	-0.22499956
19	0xbe5b3d26	-0.21410045
20	0x3e52ff44	0.20605189
21	0xbd9a864a	-0.07545145
22	0xbe4fccc3	-0.20292954
23	0xbd809cf2	-0.06279935
24	0x3e43afd7	0.19110046
25	0xbb80cd84	-0.0039307494
26	0x3cb6c657	0.022311373
27	0xbbfb048b	-0.0076604537
28	0xbe547432	-0.2074745
29	0x3df2c5a7	0.118541054
30	0x3df44286	0.11926751
31	0xbb062246	-0.0020467206
32	0xbdf9169d	-0.12162516
33	0xbe277069	-0.16351475
34	0xbd52eb26	-0.051493786
35	0xbebfe991	-0.37482885
36	0x3cfd10ef	0.030891864
37	0xbd075bd7	-0.03304657
38	0xbe3b7281	-0.18305399
39	0x3cf8bd30	0.03036365
40	0x3daece63	0.08535459
41	0x3e53ee58	0.2069639
42	0x3d05b94f	0.032647427
43	0xbe48b300	-0.19599533
44	0xbc9b460e	-0.018954303
45	0xbdd258b3	-0.10270824
46	0x3da36d34	0.07979813
47	0xbe52103d	-0.20514007
48	0xbb5dda76	-0.0033852137
49	0x3dbea602	0.09309007
50	0x3e1a911b	0.15094416
51	0xbd9f9486	-0.077920005
52	0xbe1cb1ec	-0.15302247
53	0x3cd7ee11	0.026358636
54	0xbdad1e8a	-0.084530905
55	0x3e330630	0.17482829
56	0x3e1fdcc7	0.15611564
57	0x3dddf15f	0.108370535
58	0xbdad7789	-0.08470065
59	0xbd77738b	-0.060412925
60	0x3d2224fa	0.039586045
61	0x3dcdfe25	0.1005824
62	0xbdf1b7af	-0.11802613
63	0x3e37bb38	0.17942512
64	0xbe19016f	-0.14941953
65	0xbcb8dbe0	-0.022565782
66	0xbd9d8bd8	-0.07692689
67	0x3da77a68	0.08177644
68	0x3cd1f09e	0.02562743
69	0x3d7ed5e6	0.06221571
70	0x39d5f9d8	0.00040812674
71	0x3e1dd1cf	0.15412067
72	0x3d03d3b7	0.03218433
73	0xbe2efe59	-0.17089213
74	0xbe11ff71	-0.142576
75	0x3e1fdcf7	0.15611635
76	0x3d3e7c55	0.04650529
77	0x3b95cd3a	0.004571584
78	0x3d3b34c4	0.045704618
79	0xbe2331e1	-0.15936996
80	0x3e2a2f61	0.16619636
81	0xbbe6106b	-0.007021
82	0xbb308a5b	-0.0026937935
83	0xbe159967	-0.146093
84	0x3d5e15b9	0.054219935
85	0xbdba4c9d	-0.09096644
86	0xbd57eead	-0.052717853
87	0xbd55b2de	-0.052172534
88	0x3e417b99	0.18894805
89	0xbd994b3a	-0.074850515
90	0x3e6b9177	0.23004709
91	0xbd448013	-0.047973704
92	0x3c8a9988	0.016918913
93	0xbe358c18	-0.17729223
94	0xbddf464c	-0.1090208
95	0x3d39f94d	0.045403767
96	0x3e17aa89	0.14811148
97	0x3d066a85	0.03281643
98	0x3d028e6a	0.031874098
99	0xbc9363d8	-0.017991945
100	0xbe1f8260	-0.15577078
101	0x3de4ff60	0.111815214
102	0x3e3348f3	0.17508297
103	0xbb960548	-0.0045782663
104	0x3dd5d43d	0.10440872
105	0x3dd66831	0.10469092
106	0x3da5afc7	0.080901675
107	0xbcb4c384	-0.022065885
108	0x3dba4c17	0.09096544
109	0x3e3d3d31	0.18480374
110	0x3db6744e	0.08908902
111	0x3d88aa65	0.06673125
112	0xbdb0e719	-0.086378284
113	0x3d66cb35	0.056346137
114	0xbd9d5f3d	-0.07684181
115	0x3e35ecaa	0.17766061
116	0x3dcadaa2	0.09904982
117	0xbc0b6e94	-0.008510251
118	0xbd71f576	-0.05907198
119	0x3e17bcd3	0.14818124
120	0xbe5fb58f	-0.21846603
121	0x3e0362f0	0.1283071
122	0xbdc1885a	-0.09449835
123	0x3d36fe5e	0.044676177
124	0x3d82046d	0.063485004
125	0x3e4d13a5	0.20027025
126	0x3dfed0e2	0.12442185
127	0x3dee0cce	0.11623536
128	0x3c2ea253	0.010658818
129	0xbe34d31a	-0.17658654
130	0x3d01a692	0.031652994
131	0x3e1c00dd	0.15234704
132	0x3e095cd4	0.13414317
133	0xbd7db163	-0.061936747
134	0x3d80566e	0.06266485
135	0x3d0bc69e	0.034124963
136	0xba81b4fa	-0.0009895854
137	0xbe6f1dba	-0.23351184
138	0x3d297022	0.041366704
139	0xbe43a8a9	-0.19107307
140	0x3d3a363b	0.045461874
141	0xbdaabbab	-0.08336576
142	0x3dfb1d7c	0.12261483
143	0xbdee32f5	-0.11630813
144	0xbd90f3d5	-0.07077757
145	0x3ddb016f	0.10693633
146	0xbca98104	-0.020691402
147	0xbe07a783	-0.13247494
148	0x3d711dcb	0.058866303
149	0xbe360bb7	-0.17777906
150	0x3d1a0a68	0.03760758
151	0x3e0f6921	0.14004947
152	0x3e3890b4	0.1802395
153	0x3dcdeabb	0.10054537
154	0x3e7b5ada	0.24546376
155	0x3d99d0cc	0.07510528
156	0xbe0d7425	-0.13813837
157	0x3e1297f0	0.14315772
158	0xbc29d654	-0.010366041
159	0xbd5de272	-0.054171033
160	0xbe083e0a	-0.13304916
161	0x3e02b2b3	0.12763481
162	0xbd735dc8	-0.05941561
163	0xbde02b66	-0.109457776
164	0xbd11052e	-0.03540533
165	0x3dc3c1e8	0.09558469
166	0xbdf743ee	-0.120735034
167	0x3def7e07	0.1169396
168	0xbd2afae1	-0.041743163
169	0xbb7b9192	-0.0038386327
170	0xbe4f9354	-0.20271045
171	0x3dc449d9	0.09584398
172	0x3ced1d7e	0.028944727
173	0x3c986c90	0.018606454
174	0x3dda1c99	0.10649986
175	0xbd96fb7c	-0.073721856
176	0x3e43883a	0.19094935
177	0xbd3c1dd2	-0.045926876
178	0x3c3d9b8e	0.011572732
179	0xbe80cf98	-0.2515838
180	0xbcffeb85	-0.031240234
181	0xbd3990a0	-0.04530394
182	0xbe2888ba	-0.16458407
183	0xbc1e4342	-0.00965959
184	0xbd9870bf	-0.074433796
185	0x3d9345ac	0.07191023
186	0x3e915f36	0.28392953
187	0x3dca30a1	0.098725565
188	0x3d19a0e6	0.03750696
189	0x3d743b74	0.05962701
190	0xbdcee298	-0.10101813
191	0x3d5b0dce	0.053479962
192	0xbd721aa4	-0.059107438
193	0xbddba070	-0.107239604
194	0xbda0b091	-0.07846177
195	0x3db87061	0.090058096
196	0x3d047300	0.032336235
197	0x3dd975db	0.10618182
198	0xbe0213a6	-0.12702808
199	0x3e18e146	0.14929685
200	0x3d309fbf	0.043121096
201	0x3d9a3c2e	0.075310096
202	0x3c3d3485	0.011548166
203	0x3dd65491	0.104653485
204	0x3ddc1390	0.10745919
205	0x3d70bc5b	0.05877338
206	0xbe261e1d	-0.16222425
207	0xbe0f9dd3	-0.14025049
208	0x3d9504a8	0.07276279
209	0xbdc33253	-0.09531083
210	0x3dc034ea	0.093850926
211	0x3d83b0df	0.0643022
212	0xbb4b89c7	-0.0031057463
213	0xbdb08a14	-0.08620086
214	0xbdf24cea	-0.118310764
215	0xbcec0637	-0.028811557
216	0x3e75afdd	0.23992868
217	0xbe06975c	-0.13143677
218	0x3ddcf48d	0.10788832
219	0x3df91d6d	0.12163816
220	0x3e22c800	0.15896606
221	0xbe285290	-0.16437745
222	0xbe0052c3	-0.12531571
223	0xbd7a3fe1	-0.061096076
224	0x3e0587a6	0.13040027
225	0x3d6c4904	0.05768682
226	0x3ca33783	0.019923931
227	0x3cb30f57	0.0218579
228	0xbcd6d6f7	-0.02622555
229	0xbd20ef3b	-0.039290648
230	0xbd6c9dd8	-0.05776772
231	0x3d529386	0.05141022
232	0xbda16895	-0.078812756
233	0x3e28008b	0.16406457
234	0xbdd1ae4a	-0.10238321
235	0x3d20118a	0.039079227
236	0x3d93fe26	0.07226209
237	0xbd35c59d	-0.04437791
238	0xbe348e69	-0.1763245
239	0xbe02a762	-0.12759164
240	0x3dbe52f8	0.09293169
241	0x3e15626a	0.14588323
242	0xbd1dcbb7	-0.038524356
243	0x3d1870b7	0.03721687
244	0x3e16ea3a	0.14737788
245	0xbe86eda7	-0.2635319
246	0xbdd41d69	-0.10357172
247	0xbd955bff	-0.072929375
248	0x3e54f597	0.2079681
249	0x3d8e1264	0.069371015
250	0x3dd3ee1a	0.10348149
251	0x3d4a6b8f	0.049418982
252	0xbe121abe	-0.14268014
253	0xbe7792d8	-0.2417711
254	0xbdd8a417	-0.10578173
255	0xbe01b660	-0.12667227

fc1.bias f4 [64]
0	0xbd8ff4e3	-0.0702913
1	0xbd31b65b	-0.0433868
2	0xbd8b3c8f	-0.0679866
3	0x3cede53e	0.029039975
4	0xbe29a1e0	-0.16565657
5	0x3d4b94ef	0.04970258
6	0x3dba04b9	0.09082932
7	0x3e5e133f	0.2168703
8	0x3e153d35	0.1457413
9	0xbe4fdab3	-0.20298271
10	0x3c60cf69	0.013721325
11	0x3e1b6c9f	0.15178154
12	0xbe87ff9e	-0.26562208
13	0x3d08a798	0.033362955
14	0xbe67e09c	-0.22644275
15	0xbe6356fb	-0.22201149
16	0xbd3bbf1e	-0.04583656
17	0xbd843b04	-0.06456569
18	0x3ccccaac	0.024998985
19	0xbe06b5e6	-0.13155326
20	0x3d1aa045	0.0377505
21	0xbe97427d	-0.29542914
22	0xbdac2b46	-0.08406691
23	0xbeaf249f	-0.34207627
24	0xbe731573	-0.23738651
25	0xbd21ea7a	-0.039530255
26	0xbe1d10f7	-0.15338503
27	0xbd2f84ef	-0.042851385
28	0xbea484d0	-0.32132578
29	0xbddd2a2b	-0.107990585
30	0x3e2063b4	0.15663034
31	0x3dd2ff34	0.103025824
32	0xbc46d308	-0.012135275
33	0xbdd45a9a	-0.103688434
34	0xbd6694df	-0.05629432
35	0xbdf372b7	-0.118871145
36	0xbe8231c2	-0.25428587
37	0xbdae4e90	-0.08511078
38	0xbe55fcf5	-0.20897277
39	0xbbbb2f0a	-0.0057123946
40	0xbe5dd727	-0.21664105
41	0xbddbe8dc	-0.10737774
42	0xbd9dc1f2	-0.07703008
43	0xbe29430b	-0.16529481
44	0x3dd11bdf	0.10210394
45	0xbd6c047e	-0.05762147
46	0xbe0ff222	-0.1405721
47	0xbcbd75af	-0.023127405
48	0x3b4ee271	0.0031568075
49	0xbc2973ca	-0.010342548
50	0x3dee5b2d	0.11638484
51	0xbea764cb	-0.32694086
52	0xbd89f39a	-0.067359164
53	0xbd9682d3	-0.073491715
54	0x3db433ba	0.087989286
55	0xbe0f0c5c	-0.13969558
56	0x3e039826	0.12851009
57	0x3e6492e5	0.22321661
58	0xbc27f772	-0.010251867
59	0xbc69ae2e	-0.014262719
60	0xbd69d3de	-0.057086818
61	0xbe1b6936	-0.15176854
62	0xbda26a51	-0.079304345
63	0x3cce84de	0.02520984
