rwgnn/checkpoints/model_fold_1.pt (torch, 69539 bytes, 16 tensors)

adj_hidden f4 [16, 10]
0	0x3d154a20	0.036447644
1	0xbf49ae98	-0.78782034
2	0xbe773070	-0.24139571
3	0x3f469a7e	0.77579486
4	0x3e138290	0.14405274
5	0xbe0ab690	-0.13546205
6	0x3f42220a	0.7583319
7	0x3f0aa61e	0.54159725
8	0x3f0fa98e	0.56118095
9	0x3ef2f3bc	0.4745158
10	0xbeaf31bc	-0.34217632
11	0xbf63ea9a	-0.8902985
12	0xbf1798a2	-0.59217274
13	0xbf182aac	-0.5944011
14	0x3e8e9498	0.27847743
15	0x3f4d4bfe	0.8019408
16	0x3f6ca560	0.9243984
17	0x3f4cfee0	0.8007641
18	0x3e114c58	0.14189279
19	0x3f304dd8	0.6886878
20	0x3d4d9120	0.05018723
21	0x3eedcd18	0.46445537
22	0xbf297926	-0.6620048
23	0x3f76966c	0.96323276
24	0x3eecb200	0.46229553
25	0x3ac0c000	0.0014705658
26	0xbecb4574	-0.39701426
27	0x3e3358a0	0.17514277
28	0xbdebedc0	-0.115199566
29	0xbf25b31a	-0.6472641
30	0xbf1e9bd2	-0.6195651
31	0xbecc3b28	-0.39888883
32	0x3e6b10c0	0.22955608
33	0xbf2510f4	-0.64478993
34	0x3f0d14fc	0.55110145
35	0xbf0cfe2e	-0.5507535
36	0x3f19e9a0	0.6012211
37	0x3d0d4b80	0.03449583
38	0x3ae17400	0.0017200708
39	0x3e0a4a30	0.13504863
40	0xbbf72000	-0.0075416565
41	0x3efd0f18	0.49425578
42	0xbda3c870	-0.07997215
43	0xbeb4c3a4	-0.35305512
44	0x3dd580a0	0.10424924
45	0xbf15e570	-0.5855322
46	0x3eccf02c	0.40026987
47	0x3dce0220	0.10058999
48	0x3f01237c	0.5044477
49	0xbe3391e8	-0.17536128
50	0xbbb91d00	-0.005649209
51	0xbef3cc94	-0.47617018
52	0xbee5d920	-0.44892216
53	0x3ccaa300	0.024735928
54	0x3f030c2c	0.5119045
55	0xbec1b6b8	-0.37834716
56	0x3f492fd2	0.78588593
57	0xbeacdc70	-0.3376193
58	0xbe5282d0	-0.20557714
59	0x3f4d22ae	0.8013104
60	0xbe39dd88	-0.18150914
61	0x3f0b3ac0	0.5438652
62	0xbdc9a750	-0.098463655
63	0x3f182a42	0.5943948
64	0x3e052e30	0.130059
65	0xbef142d8	-0.4712131
66	0xbf28a2c4	-0.6587336
67	0x3f17f7b8	0.59362364
68	0x3e7ba3f8	0.24574268
69	0xbe1f0a18	-0.15531194
70	0xbe43a3a0	-0.19105387
71	0xbed48788	-0.41509652
72	0xbf3150fe	-0.6926421
73	0x3e632b30	0.22184443
74	0xbf59abe4	-0.8502791
75	0xbc596400	-0.013268471
76	0x3f36f094	0.71460843
77	0x3ee99884	0.45624173
78	0x3f0a4ecc	0.54026484
79	0x3e3d4618	0.1848377
80	0xbf0f316c	-0.55934787
81	0x3f028038	0.50976896
82	0x3f47c582	0.7803575
83	0x3ed18ff0	0.40930128
84	0x3f32501e	0.696535
85	0xbf4eb4b4	-0.8074448
86	0xbf5ec368	-0.87016916
87	0xbe6d26e0	-0.23159361
88	0x3e86b940	0.2631321
89	0x3f247b28	0.6425042
90	0xbe965154	-0.29358923
91	0xbee2a614	-0.44267333
92	0x3f251c24	0.64496064
93	0xbcfb0e80	-0.030646563
94	0x3d8ae650	0.0678221
95	0xbf7440f2	-0.954116
96	0xbdbe3b40	-0.09288645
97	0x3ef86390	0.4851346
98	0x3f773782	0.96569073
99	0x3dbed280	0.093174934
100	0x3f229bfa	0.6351925
101	0x3e0e5650	0.13900113
102	0xbf4a0852	-0.78918946
103	0xbd0a0760	-0.03369844
104	0xbeaef710	-0.3417287
105	0xbe0b0f38	-0.13580024
106	0xbec726e8	-0.3889687
107	0x3f3f5ff0	0.74755764
108	0xbf50fb34	-0.81633306
109	0xbf19e05c	-0.6010797
110	0xbe9efaec	-0.31050813
111	0x3f567ad4	0.8378117
112	0xbe518b20	-0.20463228
113	0x3ed0eda8	0.40806317
114	0x3efb0598	0.49027705
115	0x3f5b1d82	0.855919
116	0xbe6b4770	-0.2297647
117	0x3e3f4a18	0.18680608
118	0xbef9e51c	-0.4880761
119	0xbd9babb0	-0.07601106
120	0xbf5b6320	-0.8569813
121	0xbf50e190	-0.8159418
122	0x3e8b4290	0.2719922
123	0xbf443388	-0.7664113
124	0x3f05ccb6	0.5226549
125	0x3f3d363a	0.7391087
126	0x3eb3a718	0.3508842
127	0x3ec3ff20	0.38280582
128	0xbf6896d0	-0.9085512
129	0xbeecc480	-0.46243668
130	0xbf38d704	-0.7220309
131	0xbf72be80	-0.9482193
132	0x3ed9a9c8	0.42512345
133	0x3e6a7828	0.22897398
134	0x3f739422	0.9514791
135	0xbe8d0fdc	-0.27551162
136	0xbf297f4a	-0.6620985
137	0xbf5c5eec	-0.8608234
138	0x3d7c3c00	0.061580658
139	0xbf0c4c80	-0.5480423
140	0x3e35aa60	0.17740774
141	0x3f2956c8	0.6614804
142	0x3f5ae2a6	0.8550209
143	0xbe270200	-0.16309357
144	0xbf26779a	-0.6502625
145	0xbf0b027c	-0.54300666
146	0x3f2293a2	0.6350652
147	0x3e847fa0	0.2587862
148	0x3d81acd0	0.063317895
149	0xbf78b9c4	-0.97158456
150	0x3f09e3b4	0.5386307
151	0x3f21f320	0.63261604
152	0x3dd35b60	0.10320163
153	0xbe388498	-0.1801933
154	0xbef2f690	-0.47453737
155	0x3c05d180	0.0081676245
156	0x3d4b7c80	0.04967928
157	0x3e906e64	0.2820922
158	0xbd2d9980	-0.042382717
159	0x3f72b520	0.94807625

features_hidden f4 [16, 5, 32]
0	0x3f528255	0.8223012
1	0x3f1ce5fc	0.6128843
2	0x3d65c980	0.05610037
3	0x3e85c402	0.26126105
4	0x3f3215f6	0.6956476
5	0x3e351d54	0.17686969
6	0x3f23af84	0.6393969
7	0x3f1f6f03	0.62278765
8	0x3e3e1a8c	0.18564814
9	0x3f196405	0.5991824
10	0x3edee3e6	0.43533248
11	0x3f5f5694	0.8724148
12	0x3ec78598	0.3896911
13	0x3f6fb475	0.9363473
14	0x3f6f35e4	0.93441606
15	0x3eab1fec	0.33422792
16	0x3f157a58	0.58389807
17	0x3eba0532	0.3633209
18	0x3f667fb6	0.9003862
19	0x3f3d5ea6	0.7397255
20	0x3f0059d3	0.5013706
21	0x3f4d68a0	0.8023777
22	0x3dc9c868	0.098526776
23	0x3ebe886e	0.37213463
24	0x3f1a20e3	0.6020643
25	0x3cd76a00	0.026295662
26	0x3f6fe094	0.93702054
27	0x3f0a842d	0.54107934
28	0x3f71148f	0.94171995
29	0x3eb57dda	0.3544758
30	0x3f079f0f	0.5297708
31	0x3eb964ee	0.36209816
32	0x3e970aa6	0.29500312
33	0x3ea12338	0.31472182
34	0x3f5886db	0.84580773
35	0x3f730207	0.9492497
36	0x3f24d557	0.6438803
37	0x3f477982	0.7791978
38	0x3f37add8	0.7174964
39	0x3f002912	0.5006267
40	0x3e02e580	0.1278286
41	0x3f201c41	0.6254311
42	0x3ea8089c	0.32819068
43	0x3f310255	0.69144183
44	0x3e32d9ec	0.17465943
45	0x3eee9992	0.4660154
46	0x3e9b5fa2	0.303464
47	0x3d196950	0.03745395
48	0x3d1aa2d0	0.037752926
49	0x3f761870	0.9613104
50	0x3effb8b4	0.49945605
51	0x3d8d4460	0.06897807
52	0x3f14fd20	0.5819874
53	0x3eefef08	0.46862054
54	0x3f6972d9	0.9119087
55	0x3f78a24c	0.97122645
56	0x3ebe3334	0.3714844
57	0x3e4cc5e0	0.19997358
58	0x3e5a95fc	0.21346277
59	0x3ebbee9a	0.36705476
60	0x3e66f25c	0.2255339
61	0x3f735f42	0.95067227
62	0x3e9e25dc	0.3088826
63	0x3f41f272	0.7576057
64	0x3f39ed3e	0.7262763
65	0x3f1ded70	0.61690426
66	0x3f3e665d	0.74374944
67	0x3f6c63e2	0.9233991
68	0x3f36762f	0.71274084
69	0x3f3852be	0.72001255
70	0x3da4ce68	0.08047181
71	0x3ee95016	0.45568913
72	0x3f02f49b	0.5115449
73	0x3f643eab	0.89158124
74	0x3f36b1dc	0.7136514
75	0x3f638baa	0.88884985
76	0x3f630190	0.8867426
77	0x3e88964e	0.26677173
78	0x3f1228b0	0.57093334
79	0x3f7a0d54	0.9767659
80	0x3f2d4038	0.67676115
81	0x3f485f56	0.7827047
82	0x3f340753	0.70323676
83	0x3eafa37e	0.34304422
84	0x3f1e90ca	0.6193968
85	0x3e1e3ae0	0.15452147
86	0x3f761678	0.96128035
87	0x3f0752e1	0.5286084
88	0x3f6330c9	0.88746315
89	0x3e181524	0.14851815
90	0x3d2696a0	0.04067099
91	0x3f0f537b	0.55986756
92	0x3edf338a	0.4359401
93	0x3e9872c6	0.29775065
94	0x3f4310d7	0.7619757
95	0x3e32ef2c	0.1747405
96	0x3f702a2a	0.9381434
97	0x3c42dd80	0.01189363
98	0x3f1a4016	0.6025404
99	0x3e54a268	0.20765078
100	0x3f1bc4b9	0.6084705
101	0x3f7e68f8	0.9937892
102	0x3ee145d8	0.439986
103	0x3f1dc324	0.61625886
104	0x3e9b410a	0.30323058
105	0x3e794500	0.24342728
106	0x3d954c28	0.07289916
107	0x3f49e1b1	0.7886
108	0x3efd282a	0.49444705
109	0x3f2c5368	0.6731477
110	0x3dec72b8	0.11545318
111	0x3dab74c0	0.08371878
112	0x3d39c7c0	0.045356512
113	0x3e58f138	0.21185768
114	0x3edeb6b2	0.4349876
115	0x3ed95f8e	0.42455715
116	0x3f384832	0.7198516
117	0x3e84fdae	0.25974792
118	0x3f7cb8af	0.98719305
119	0x3e8b56ca	0.27214652
120	0x3cf41f80	0.029800177
121	0x3f60d3c5	0.87823135
122	0x3e36f3d4	0.1786645
123	0x3f0c32e2	0.5476514
124	0x3ee748d2	0.45172745
125	0x3eca9980	0.39570236
126	0x3f00153b	0.50032395
127	0x3c084b40	0.008318722
128	0x3f731a23	0.94961756
129	0x3e339ee4	0.1754108
130	0x3f4e0acb	0.8048522
131	0x3e513e94	0.20434028
132	0x3ec0f614	0.37687743
133	0x3ef9f216	0.4881751
134	0x3e9b1952	0.30292755
135	0x3e9117e2	0.28338534
136	0x3da21130	0.079134345
137	0x3e205718	0.15658224
138	0x3ef3fd14	0.4765402
139	0x3eb52a46	0.35383815
140	0x3edc0c66	0.4297821
141	0x3f20a71e	0.62755
142	0x3edf2e40	0.43589973
143	0x3cda9180	0.026680708
144	0x3ea1d922	0.31610972
145	0x3f272da8	0.6530404
146	0x3f2e1139	0.6799503
147	0x3f3df0b7	0.74195427
148	0x3f071697	0.52768844
149	0x3f5782c8	0.8418393
150	0x3e21a1fc	0.15784448
151	0x3da4a8f0	0.08040035
152	0x3ebbbe6c	0.36668718
153	0x3f00dcfc	0.50337195
154	0x3f5cefe8	0.8630357
155	0x3e58bc24	0.2116552
156	0x3e196aec	0.14982194
157	0x3ef91302	0.48647314
158	0x3f208ce5	0.6271499
159	0x3d3410e0	0.043961406
160	0x3e98ce04	0.29844677
161	0x3ddb9950	0.107226014
162	0x3f1de99e	0.61684597
163	0x3f0bf0c5	0.5466426
164	0x3d62d420	0.05537808
165	0x3e2b10dc	0.1670565
166	0x3f05eb3e	0.52312076
167	0x3ebc2994	0.36750472
168	0x3de7f870	0.113266826
169	0x3eb26cd8	0.34848666
170	0x3d272730	0.040808856
171	0x3ee2c4b6	0.44290704
172	0x3ee22912	0.4417196
173	0x3f06b5a5	0.5262092
174	0x3f0adf2e	0.54246795
175	0x3ed36870	0.41290617
176	0x3f662631	0.89902025
177	0x3ea457e2	0.320983
178	0x3f39d846	0.7259563
179	0x3f30538e	0.68877494
180	0x3ee09f22	0.4387141
181	0x3e08c944	0.13358027
182	0x3da12b98	0.07869643
183	0x3f236e68	0.6384034
184	0x3f272257	0.65286773
185	0x3f4da201	0.80325323
186	0x3e8eaece	0.2786774
187	0x3f675853	0.9036915
188	0x3f7ffbe1	0.9999371
189	0x3ed74854	0.4204737
190	0x3e9c3d32	0.30515438
191	0x3eaf968c	0.34294546
192	0x3d85bd28	0.06530219
193	0x3f49ca5d	0.78824407
194	0x3f0df329	0.5544916
195	0x3f3af884	0.73035455
196	0x3f523d8a	0.8212515
197	0x3e934880	0.2876625
198	0x3f013121	0.5046559
199	0x3f677977	0.90419716
200	0x3dea9800	0.11454773
201	0x3f7089d2	0.939603
202	0x3f428f81	0.7600022
203	0x3eaf99a8	0.34296918
204	0x3dbbe498	0.0917446
205	0x3f445e3c	0.7670629
206	0x3f3d11d6	0.7385534
207	0x3e8c1128	0.2735684
208	0x3f3cf057	0.7380423
209	0x3f25fd43	0.6483957
210	0x3f7dff7e	0.99217975
211	0x3f41798b	0.75576085
212	0x3f13c315	0.57719547
213	0x3ba6c980	0.0050899386
214	0x3f682c51	0.9069262
215	0x3f6de680	0.9292984
216	0x3eb90a3a	0.36140615
217	0x3eebfafa	0.46089917
218	0x3ef606c0	0.48052025
219	0x3ef05e2e	0.46946853
220	0x3f45950d	0.7718056
221	0x3f114d23	0.56758326
222	0x3d856e20	0.06515145
223	0x3f292eca	0.6608702
224	0x3e45805c	0.19287246
225	0x3f248bbb	0.6427571
226	0x3f37b75e	0.7176417
227	0x3e85c26c	0.26124895
228	0x3f56b5cc	0.8387115
229	0x3f0344cf	0.5127687
230	0x3e7e7c5c	0.24852127
231	0x3f6daecc	0.92844844
232	0x3f51ca97	0.8194975
233	0x3f5d99b5	0.86562663
234	0x3e1f7864	0.15573269
235	0x3df39608	0.118938506
236	0x3d7754f0	0.060383737
237	0x3f52c1a5	0.8232673
238	0x3f4aa6ed	0.7916096
239	0x3e47e500	0.1952095
240	0x3f322df0	0.69601345
241	0x3f19ba4a	0.6004988
242	0x3e930764	0.28716576
243	0x3f0464a2	0.51716053
244	0x3e4b1ca8	0.1983515
245	0x3eb50c38	0.35360885
246	0x3f329ca4	0.69770265
247	0x3f121350	0.5706072
248	0x3e02fae4	0.1279102
249	0x3f203635	0.62582713
250	0x3eccea4c	0.40022504
251	0x3e07e0a4	0.13269287
252	0x3d1a79b0	0.037713706
253	0x3f05851c	0.52156234
254	0x3e072ea8	0.13201392
255	0x3e470608	0.19435894

walk_encoder.feature_encoder.weight f4 [32, 136]
0	0x3d86439b	0.065558635
1	0xbd414e2d	-0.047193695
2	0x3d5876b6	0.052847587
3	0x3db90d0e	0.09035693
4	0x3d8c9b7b	0.06865593
5	0x3d5aab2d	0.053385902
6	0x3d0c68bb	0.034279566
7	0x3d3405d7	0.04395088
8	0x3d9cbb99	0.07652969
9	0xbdd47c45	-0.10375265
10	0x3d5c4bc2	0.053783186
11	0xbcf7ac5f	-0.03023356
12	0x3e422591	0.18959643
13	0x3d3ff4e6	0.046864413
14	0xbd1abdbf	-0.037778612
15	0x3cadbfb5	0.021209577
16	0x3ca1df33	0.01975975
17	0x3cbb980f	0.022899656
18	0xbdbb5877	-0.09147733
19	0x3e012092	0.12610081
20	0xbe29c9e3	-0.1658092
21	0xbcce02c9	-0.025147812
22	0xbd581148	-0.052750856
23	0x3dfbbdc2	0.12292053
24	0xbd4ca5f3	-0.04996295
25	0xbddf371c	-0.10899183
26	0xbd970926	-0.07374792
27	0xbe5abc81	-0.21360971
28	0x3e37c79e	0.17947242
29	0xbe4b0cc4	-0.19829088
30	0x3e8cf510	0.27530718
31	0xb9561550	-0.0002041657
32	0xbb839368	-0.004015375
33	0x3e0de616	0.13857302
34	0xbdb55318	-0.088537395
35	0x3b470456	0.0030367575
36	0x3dc328f1	0.09529293
37	0x3d8eefd7	0.069793396
38	0x3d785efc	0.06063746
39	0xbcfb719a	-0.030693818
40	0xbd823bb7	-0.06359046
41	0xbcf36d8e	-0.029715326
42	0xbca9f789	-0.020747917
43	0x3e3abd86	0.1823636
44	0x3dbe8aec	0.09303841
45	0x3c528170	0.012848243
46	0x3d4ac08d	0.049500037
47	0x3c7b605b	0.015342797
48	0xbd2e3f44	-0.042540804
49	0xbd5cdfc0	-0.053924322
50	0xbe870719	-0.26372603
51	0x3cbaea98	0.022816941
52	0xbd86b34b	-0.06577166
53	0x3d90193b	0.07036062
54	0x3d910a5b	0.07082053
55	0x3d92d2e7	0.07169133
56	0x3de09007	0.10964971
57	0x3dd38a64	0.1032913
58	0x3d896ff9	0.0671081
59	0x3d850397	0.06494825
60	0x3d91f943	0.07127621
61	0xbd6fba5c	-0.058527336
62	0x3dd01ee0	0.10162139
63	0x3e29c9bb	0.1658086
64	0x3e218a30	0.1577537
65	0x3d26f67a	0.040762402
66	0x3d91a73d	0.07111976
67	0xbd502c96	-0.05082377
68	0x3c5c1061	0.013431639
69	0xbd517c27	-0.05114379
70	0x3d9df48b	0.077126585
71	0x3d853b0a	0.065054014
72	0x3da8fc38	0.08251232
73	0xbd90ee36	-0.07076685
74	0xbdae3019	-0.08505268
75	0xbd8964fb	-0.067087136
76	0xbd6c449a	-0.05768261
77	0x3d0e430b	0.034731906
78	0x3cfb8888	0.030704752
79	0x3d91ec23	0.07125118
80	0xbd356235	-0.04428311
81	0xbd6f6fe0	-0.0584563
82	0x3d3a5abf	0.0454967
83	0x3c70e15c	0.014702167
84	0x3d552b57	0.052043285
85	0xbca6b19b	-0.02034836
86	0x3df05a30	0.11735952
87	0xbd887267	-0.066624455
88	0xbd313f68	-0.04327336
89	0x3cd629b8	0.02614294
90	0x3c948145	0.018128047
91	0xbcb3190d	-0.021862531
92	0x3d515b60	0.051112533
93	0x3d6ec4ce	0.058293156
94	0xbd7eb3b5	-0.0621831
95	0xbd3b8292	-0.04577882
96	0x3da0cdb6	0.07851736
97	0xbced0840	-0.028934598
98	0xbcf9086f	-0.03039953
99	0xbda9ec77	-0.08297055
100	0xbd492371	-0.049106065
101	0x3caf7a04	0.021420486
102	0xbc39707b	-0.011318321
103	0xbd7ef3c9	-0.06224421
104	0x3b03d19b	0.0020113948
105	0xbd6feb09	-0.058573756
106	0xbd94fda5	-0.07274941
107	0xbd4168a3	-0.04721893
108	0xbd99b331	-0.07504881
109	0xbd5fa414	-0.054599836
110	0x3daf8bbe	0.085715756
111	0x3c84ad40	0.016195893
112	0x3cd87825	0.026424477
113	0xbda3cafe	-0.07997702
114	0xbd66ad96	-0.05631789
115	0xbce9d13a	-0.02854215
116	0x3c5bb037	0.013408712
117	0xbd9a86e8	-0.075452626
118	0xbd1755cc	-0.036947057
119	0xbd524513	-0.051335406
120	0x39792d3e	0.00023763345
121	0xbd02b188	-0.03190759
122	0xbbc2b5a2	-0.0059420625
123	0xbd6e00d6	-0.058106266
124	0xbd7114fb	-0.0588579
125	0xbd4ce85e	-0.05002629
126	0xbcf0731b	-0.029351762
127	0xbd8a9bf5	-0.06768028
128	0x3d933f5d	0.0718982
129	0xbc8b69a6	-0.01701815
130	0x3d971923	0.07377841
131	0x3cdadf96	0.026717942
132	0xbd94b5ba	-0.07261224
133	0x3d73101a	0.059341528
134	0xbcc14719	-0.023593472
135	0x3d2a56ce	0.04158669
136	0xbd91c5c0	-0.07117796
137	0xbd050021	-0.032470826
138	0xbe2bea77	-0.1678866
139	0xbdbf8e0d	-0.09353266
140	0x3d4dbe66	0.050230406
141	0xbbb5d288	-0.005548779
142	0x3d61516a	0.055009283
143	0x3d2af8f3	0.041741323
144	0xbdcd0b44	-0.10011914
145	0x3da299ab	0.07939466
146	0x3c977ec7	0.01849307
147	0x3e0e62d3	0.13904886
148	0x3d0cbec4	0.034361616
149	0xbd9e1301	-0.077184685
150	0x3dc4ddf5	0.096126474
151	0x3dc2e9b2	0.0951723
152	0xbca7fd6e	-0.020506587
153	0x3d809f25	0.062803544
154	0x3dcc59b4	0.09978047
155	0xbe445e9d	-0.19176717
156	0x3dbe73c0	0.09299421
157	0x3d001a0d	0.031274844
158	0x3de43645	0.111431636
159	0xbde97fdf	-0.114013426
160	0xbb9cdd95	-0.004787157
161	0xbdcffe14	-0.101558834
162	0xbdbcbcf0	-0.092157245
163	0xbe6fbb99	-0.23411407
164	0x3c83aab4	0.016072609
165	0xbd8b697b	-0.06807228
166	0xbe8dcd7f	-0.27695844
167	0xbd2b86ab	-0.041876476
168	0x3d87ff54	0.06640497
169	0xbd4034d2	-0.046925373
170	0xbe0367a8	-0.1283251
171	0xbd87e62f	-0.06635701
172	0x3d09652e	0.033543758
173	0xbe46e3f3	-0.19422893
174	0xbdbd94e6	-0.09256916
175	0xbdad096a	-0.08449061
176	0xbe220ed4	-0.15825969
177	0x3d976569	0.07392389
178	0xbdac3b34	-0.084097296
179	0xbdf06da9	-0.11739666
180	0xbc4b0fd1	-0.012393908
181	0x3d6bea89	0.057596717
182	0x3c7ec0ab	0.015548865
183	0xbcfa29a5	-0.030537436
184	0xbd7ff892	-0.062492914
185	0x3c199483	0.009373787
186	0x3d6dc626	0.058050297
187	0xbdc4e24f	-0.096134774
188	0xbcba0306	-0.02270652
189	0x3c164c9b	0.009173538
190	0xbde3bf8b	-0.11120518
191	0xbb455d24	-0.003011533
192	0x3cb5f755	0.022212664
193	0x3da3d1b7	0.07998984
194	0xbc0b1540	-0.008488953
195	0xbe1484e4	-0.14503819
196	0xbe40ba44	-0.18821055
197	0xbba7c529	-0.005119939
198	0x3cc42352	0.023942623
199	0x3bbe2b78	0.0058035217
200	0xbe621637	-0.22078787
201	0xbd791145	-0.060807485
202	0x3d93e3e3	0.072212
203	0x3d08d2b3	0.033404063
204	0xbe08692f	-0.13321374
205	0xbd53c20f	-0.05169874
206	0xbd56e23d	-0.05246185
207	0xbdcead6a	-0.1009167
208	0xbce4f998	-0.027951047
209	0x3ced391b	0.028957894
210	0x3d5ff387	0.054675605
211	0x3d22295b	0.03959022
212	0xbd9b3bc2	-0.07579757
213	0xbd53374b	-0.051566403
214	0xbc5db81d	-0.013532666
215	0x3da9e172	0.082949534
216	0x3c4b3b4f	0.012404277
217	0xbcb5ea87	-0.022206558
218	0x3d114f10	0.03547579
219	0xbd9ae416	-0.07563035
220	0xbd6355c4	-0.055501714
221	0x3d802dc7	0.06258731
222	0xbdcc6c42	-0.09981586
223	0xbc8cd1cc	-0.017189883
224	0xbdaeb3bd	-0.08530376
225	0x3d6b113c	0.057389483
226	0x3d850d3a	0.064966634
227	0x3d00013b	0.031251173
228	0xbd74e72a	-0.059790768
229	0xbdad522d	-0.084629394
230	0xbd8ea165	-0.06964377
231	0x3d82f4b0	0.06394327
232	0x3d28a08a	0.041168727
233	0x3d93c7ca	0.07215841
234	0x3d37ff93	0.04492147
235	0x3cb1c963	0.021702474
236	0xba5c2060	-0.0008397158
237	0xbd858e51	-0.06521285
238	0xbd96762f	-0.073467605
239	0xbda442c6	-0.080205485
240	0x3d0fc7a3	0.035102498
241	0xbd2c7137	-0.042100158
242	0xbc8d5f1c	-0.017257266
243	0xbd4a225a	-0.049349166
244	0xbc800122	-0.01562554
245	0xbd773511	-0.060353342
246	0xbd657fa4	-0.05602993
247	0x3ce90353	0.028443968
248	0xbcd0c49e	-0.02548438
249	0x3d58d432	0.05293674
250	0xbce15ad1	-0.027509125
251	0xbd80d338	-0.06290287
252	0xbc77e1c7	-0.015129513
253	0xbd2a41e5	-0.04156675
254	0xbcd6e942	-0.026234273
255	0xbda72f2d	-0.08163295

walk_encoder.feature_encoder.bias f4 [32]
0	0xbe2fc629	-0.17165436
1	0x3de5f287	0.11227899
2	0xbcc84534	-0.024447061
3	0xbd65193f	-0.05593228
4	0xbe336663	-0.17519526
5	0x3e37eae8	0.17960703
6	0xbe81e1ed	-0.2536768
7	0x3da28f91	0.07937539
8	0x3d8ccfc2	0.06875564
9	0xbdc7fb0d	-0.09764681
10	0xbe033e37	-0.12816702
11	0x3d8fc3bd	0.07019756
12	0x3d8ec13c	0.0697045
13	0xbd1553a3	-0.036456715
14	0x3cd6b4bf	0.026209233
15	0xbbaddbf1	-0.00530576
16	0xbe18c542	-0.14918998
17	0x3d864ee2	0.065580145
18	0xbe702f93	-0.23455648
19	0x3d3cc03b	0.046081763
20	0xbdd2c06d	-0.102906086
21	0xbd25ab84	-0.040446773
22	0xbdb04ae3	-0.086080335
23	0xbe0fd030	-0.14044261
24	0x3d9db529	0.07700569
25	0x3d750ce6	0.059826754
26	0xbc8c7bf6	-0.017148953
27	0xbe8d793b	-0.27631554
28	0xbe2484ee	-0.16066334
29	0x3e165a1a	0.14682809
30	0xbe28158b	-0.16414468
31	0xb984a8b8	-0.00025302707

walk_encoder.path_encoder.weight_ih_l0 f4 [96, 32]
0	0x3e45ad4a	0.19304386
1	0xbe6b81da	-0.22998753
2	0xbc917bc7	-0.017759217
3	0xbdf7d068	-0.12100297
4	0xbda875df	-0.08225607
5	0x3e4c0055	0.19922002
6	0xbd805136	-0.0626549
7	0xbdf617fc	-0.120162934
8	0x3e69fec3	0.2285109
9	0xbe51eada	-0.20499745
10	0x3d7e823d	0.062135924
11	0x3c1d4748	0.009599514
12	0x3e3df03c	0.18548673
13	0x3e4e1e16	0.20128664
14	0xbd396aad	-0.04526775
15	0x3e1d1128	0.15338576
16	0xbe09e479	-0.13466062
17	0x3c970de1	0.018439235
18	0xbe05a789	-0.13052191
19	0x3def96d0	0.11698687
20	0xbd8000d4	-0.06250158
21	0xbc79765a	-0.015225971
22	0x3e0d9891	0.1382773
23	0x3d8d72ac	0.069066375
24	0xbd3a8895	-0.04554041
25	0x3de0447b	0.109505616
26	0xbe8433df	-0.25820825
27	0xbd972d04	-0.07381633
28	0x3d38b2ce	0.045092396
29	0x3af44bc1	0.0018638299
30	0x3dc20331	0.09473265
31	0xbc55afd9	-0.013042414
32	0x3e4b1620	0.19832659
33	0xbe9e5449	-0.3092368
34	0xbe0a5f3c	-0.13512892
35	0x3b2a9ccf	0.0026033407
36	0xbea3427e	-0.31886667
37	0xbe85a731	-0.2610412
38	0xbe2918f2	-0.16513422
39	0x3ddc4674	0.10755625
40	0xbd7da9ea	-0.06192962
41	0xbcacefe0	-0.021110475
42	0xbd2523e6	-0.04031744
43	0xbe4a2c06	-0.19743356
44	0xbe0c3945	-0.13693722
45	0xbd7bc185	-0.06146385
46	0xbdc276c7	-0.09495311
47	0x3e49ddea	0.1971356
48	0xbd95500c	-0.07290658
49	0xbd90ebd1	-0.070762284
50	0xbe1c9f10	-0.15295053
51	0xbd1b14af	-0.037861522
52	0x3c6f43e5	0.01460359
53	0xbe60fb5c	-0.21970886
54	0x3e73e709	0.23818602
55	0x3e2ee509	0.17079557
56	0xbcaaed58	-0.020865127
57	0x3d84b490	0.06479752
58	0x3e0e9920	0.139256
59	0x3c90a3b8	0.017656192
60	0x3e85a768	0.26104283
61	0xbd0fbd59	-0.035092685
62	0x3d16481d	0.036689866
63	0x3d8316a7	0.06400805
64	0xbe069211	-0.13141657
65	0xbe3fce31	-0.18731
66	0xbe60e863	-0.21963648
67	0x3c717371	0.014736996
68	0xbdfd5924	-0.12370518
69	0xbe765d0c	-0.24058932
70	0x3d2531f7	0.040330853
71	0xbe32169e	-0.1739144
72	0xbe13117d	-0.1436214
73	0x3e66199a	0.22470704
74	0x3cfb2f0d	0.030662084
75	0x3e04c328	0.12965071
76	0xbe33a4ea	-0.17543378
77	0xbd784d8b	-0.060620826
78	0xbd8fea5d	-0.07027123
79	0xbcfca3b1	-0.030839773
80	0xbd2c4291	-0.04205567
81	0xbc181148	-0.009281464
82	0xbc147e70	-0.009063348
83	0xbd26edf7	-0.040754285
84	0x3de81c18	0.113334835
85	0x3d83e793	0.06440654
86	0x3e06f5d9	0.13179721
87	0xbe17936d	-0.14802332
88	0x3d40f3a3	0.04710735
89	0xbdaed0ee	-0.08535944
90	0x3dc04b1e	0.093893275
91	0x3d3ba5aa	0.045812286
92	0x3da4bbd5	0.080436386
93	0xbe5d244b	-0.21595876
94	0xbd290b2b	-0.041270416
95	0xbdc8179e	-0.097701296
96	0x3d4e9ee1	0.050444487
97	0xbe4f49e3	-0.2024303
98	0x3d852691	0.065014966
99	0x3d93cc93	0.07216754
100	0xbe416e11	-0.18889643
101	0x3da4558b	0.080241285
102	0x3e2a1617	0.16609989
103	0xbe3796e3	-0.17928652
104	0xbe4aa454	-0.19789249
105	0x3c6acff3	0.0143318055
106	0xbcdec51f	-0.027193604
107	0xbc6137c0	-0.013746202
108	0xbcbcfe7f	-0.023070572
109	0x3c2c042d	0.010499042
110	0x3e44546a	0.19172826
111	0xbd08ed91	-0.033429686
112	0xbe06ba6f	-0.13157056
113	0xbe069c18	-0.13145483
114	0xbc82c7af	-0.015964357
115	0x3e08b4a5	0.1335016
116	0xbe40908e	-0.18805143
117	0xbc913da0	-0.01772958
118	0x3e68371e	0.22677276
119	0xbe14ed4a	-0.14543644
120	0xbaaa489f	-0.0012991613
121	0xbdaa4950	-0.083147645
122	0x3ba133b8	0.0049194954
123	0x3dc6f840	0.09715319
124	0xbe1780e8	-0.14795268
125	0x3d29730b	0.04136948
126	0xbe62cd2d	-0.22148581
127	0xbcc0704b	-0.023491045
128	0x3dd4817f	0.10376262
129	0xbd3f49be	-0.046701185
130	0xbde1d10a	-0.11026199
131	0xbe27650f	-0.16347145
132	0xbe112e64	-0.14177853
133	0xbdcc82c9	-0.09985883
134	0xbd309c3f	-0.043117758
135	0x3db06115	0.08612267
136	0xbdc4283b	-0.09577986
137	0xbdcccb5a	-0.09999724
138	0xbd45ac9f	-0.048260327
139	0xbe0d925e	-0.13825366
140	0xbda450f9	-0.08023257
141	0xbd604521	-0.054753426
142	0xbb7f34e7	-0.0038941444
143	0x3d51c74f	0.051215466
144	0x3afdf618	0.001937571
145	0x3daa8214	0.08325592
146	0x3ce370ae	0.02776369
147	0x3dadc648	0.08485085
148	0x3d01de90	0.031706393
149	0x3e43d02d	0.19122382
150	0x3dd7493b	0.105120145
151	0x3d7f5a95	0.062342245
152	0x3e0e8833	0.13919143
153	0xbd9f0083	-0.077637695
154	0xbe084f56	-0.13311514
155	0x3e0e82a5	0.13917024
156	0x3d859ec5	0.065244235
157	0x3dc668e5	0.09687976
158	0x3d4ba3aa	0.04971663
159	0x3c157baa	0.009123722
160	0x3e30154e	0.17195627
161	0xba4d21c2	-0.00078251597
162	0x3e787a41	0.24265386
163	0xbe18382a	-0.14865175
164	0xbdc496ac	-0.09599051
165	0x3d2bb242	0.041918047
166	0x3d94cf0f	0.07266056
167	0xbe03f41c	-0.12886089
168	0xbd3e2684	-0.04642345
169	0x3d7ae01f	0.061248895
170	0x3e1f9937	0.1558579
171	0x3e286932	0.16446379
172	0xbcd12ef0	-0.025535077
173	0xbd9f1b9b	-0.07768937
174	0xbdb6b32d	-0.08920894
175	0xbe011b78	-0.12608135
176	0xbe14894f	-0.14505504
177	0x3dc3375c	0.09532043
178	0x3c8e4d30	0.01737079
179	0xbd9ccaca	-0.076558664
180	0x3e7ecda3	0.24883132
181	0x3bc37993	0.0059654205
182	0x3dba9ee7	0.091123395
183	0xbdb454db	-0.088052474
184	0x3dfaebba	0.122519925
185	0xbe07346a	-0.13203588
186	0x3d8e81f8	0.06958383
187	0xbe022d3e	-0.12712571
188	0x3df45c77	0.11931699
189	0xbd77e31f	-0.060519334
190	0x3de6e1ea	0.112735584
191	0xbdb961a1	-0.09051824
192	0x3cb1a8c1	0.021686913
193	0xbe2f59ac	-0.17124051
194	0xbe352e95	-0.17693551
195	0xbd924f6b	-0.07144054
196	0x3da37e2b	0.07983049
197	0xbce48fb5	-0.027900556
198	0x3ddb7c31	0.10717047
199	0x3c0930a4	0.008373413
200	0x3db26a55	0.087116875
201	0xbc0369ce	-0.008020831
202	0xbe210c52	-0.15727356
203	0xbe0e08ab	-0.13870494
204	0xbcfd8272	-0.03094599
205	0x3d398e09	0.04530147
206	0x3e3ac0ad	0.18237562
207	0x3d008a0f	0.031381663
208	0xbe6118d1	-0.21982123
209	0xbe552d2f	-0.20818017
210	0xbd245a69	-0.040125284
211	0xbd8c1173	-0.06839266
212	0xbc33fb81	-0.010985256
213	0x3de1354a	0.10996492
214	0x3e6d7921	0.23190738
215	0x3d4e07cd	0.05030041
216	0x3dc880d4	0.09790197
217	0xbe20930d	-0.15681095
218	0xbc1e9eeb	-0.009681444
219	0x3dedf45b	0.11618873
220	0x3cc324f8	0.023821339
221	0xbdcdc9df	-0.100482695
222	0xbe441b58	-0.19151056
223	0x3d28d1f7	0.041215863
224	0x3b8248a0	0.0039759427
225	0xbe2c97f1	-0.16854836
226	0xbcbce4be	-0.023058292
227	0xbe36391a	-0.1779522
228	0xbd993b79	-0.07482047
229	0x3d959d00	0.07305336
230	0x3e5b91f5	0.21442397
231	0xbd23e4e3	-0.040013205
232	0xbe1ee8dd	-0.15518518
233	0xbdb0f163	-0.08639791
234	0xbde7bdbc	-0.11315486
235	0xbe0e8fe0	-0.13922071
236	0x3d9084d6	0.070565864
237	0xbdfa1c07	-0.12212377
238	0x3e1fba57	0.15598427
239	0x3dbc10fc	0.09182927
240	0xbc0dd4bc	-0.008656677
241	0x3e26af8c	0.16277903
242	0x3e321099	0.17389144
243	0xbcb32efd	-0.021872992
244	0xbe1ffccb	-0.15623777
245	0xbd84c3b9	-0.06482644
246	0x3d6ede0d	0.058317233
247	0x3e37770c	0.17916507
248	0x3874bbda	5.8349084e-05
249	0xbd8325f2	-0.06403722
250	0xbda5c3b4	-0.08093968
251	0x3e81644a	0.25271827
252	0x3e954b20	0.29158878
253	0x3cf73a08	0.030179039
254	0xbddb6283	-0.10712149
255	0xbc48da22	-0.012259038

walk_encoder.path_encoder.weight_hh_l0 f4 [96, 32]
0	0x3e19b304	0.15009695
1	0x3cd69398	0.026193425
2	0xbe23a75d	-0.15981813
3	0x3e658854	0.22415286
4	0x3d13e21c	0.036104307
5	0xbda15af7	-0.07878678
6	0x3dfa324c	0.122166246
7	0x3e6a771f	0.22897004
8	0xbe061c70	-0.13096786
9	0x3d863a8c	0.06554136
10	0x3b2dce88	0.0026520807
11	0x3b2702e1	0.0025483894
12	0xbda46bc4	-0.08028367
13	0xbe3660c1	-0.17810346
14	0x3d9989bc	0.07496974
15	0x3bbb3234	0.005712772
16	0x3ce4f24d	0.02794757
17	0x3dc14a29	0.09437973
18	0x3a27a7b8	0.00063955365
19	0x3dbb22b1	0.09137476
20	0x3e3702b0	0.17872119
21	0x3dad935d	0.08475373
22	0x3e7f865f	0.24953602
23	0xbde1d038	-0.11026043
24	0x3bc07826	0.005873698
25	0xbe007ebe	-0.12548348
26	0xbe16e474	-0.14735585
27	0xbdb4cd03	-0.088281654
28	0x3e115cc0	0.14195538
29	0xbe2f5529	-0.1712233
30	0xbe17f19e	-0.14838263
31	0xbce00ac8	-0.02734889
32	0x3d517ec3	0.05114628
33	0xbc7d105a	-0.015445793
34	0x3cd1a257	0.025590105
35	0xbd38bbf5	-0.045101125
36	0x3e09776f	0.13424467
37	0x3e25888b	0.16165368
38	0xbe03d23e	-0.1287317
39	0xbd87b202	-0.06625749
40	0xbe28f69d	-0.16500326
41	0x3cbe0ffe	0.023200985
42	0x3dc6dc1f	0.097099535
43	0xbd5bf261	-0.053697947
44	0xbdb99f7b	-0.090636216
45	0x3e428f43	0.18999963
46	0x3d8467bc	0.06465098
47	0xbd81a854	-0.06330934
48	0xbdce1e59	-0.10064382
49	0xbcefeba7	-0.029287172
50	0x3d78632d	0.060641456
51	0xbbcc8844	-0.00624183
52	0xbd2328e8	-0.039833933
53	0x3ccde94d	0.02513566
54	0x3d9ca951	0.07649482
55	0x3dcca56d	0.0999249
56	0xbd974a75	-0.073872484
57	0x3e51ed36	0.20500645
58	0xbc46c47c	-0.012131806
59	0x3d63cb06	0.05561354
60	0xbe5495db	-0.2076029
61	0x3db47a26	0.088123605
62	0xbdad1f2c	-0.08453211
63	0x3d7ddbd8	0.061977237
64	0xbc6a951a	-0.014317775
65	0x3ce07f59	0.027404474
66	0xbc8dd69b	-0.017314246
67	0xbe2a45f5	-0.16628249
68	0xbd87e134	-0.06634751
69	0x3e838501	0.2568741
70	0x3d52f4d9	0.051503036
71	0xbcd8de77	-0.026473267
72	0x3ce63418	0.028101012
73	0xbd248b49	-0.040171895
74	0x3e7e955e	0.24861667
75	0xbe7e0378	-0.2480601
76	0xbb790c8e	-0.0038001868
77	0x3e8ddc91	0.2770734
78	0xbe4755d0	-0.19466329
79	0x3cf0449e	0.029329594
80	0xbe871549	-0.26383427
81	0xbe039996	-0.12851557
82	0x3c9530d2	0.018211756
83	0x3e9116fb	0.28337845
84	0x3e705495	0.23469765
85	0x3e76c80d	0.24099751
86	0xbeb1f82f	-0.34759662
87	0xbd897a73	-0.067128085
88	0xbdf6d80b	-0.12052926
89	0x3e24c9ce	0.16092607
90	0x3c292482	0.010323646
91	0x3e8f08db	0.27936444
92	0xbda13fc5	-0.07873491
93	0x3d886fb0	0.06661928
94	0xbd8cd2b7	-0.06876128
95	0xbc7aeb71	-0.015314923
96	0xbe1bf7b2	-0.15231207
97	0x3d09c393	0.03363378
98	0xbe236b96	-0.1595901
99	0x3dfabb3b	0.12242743
100	0x3d5dfbae	0.0541951
101	0xbe000072	-0.1250017
102	0x3e45e07c	0.19323915
103	0xbd9d0110	-0.07666218
104	0xbe5be8ca	-0.2147552
105	0x3dbfaef7	0.09359544
106	0x3e3a95bd	0.18221183
107	0xbd105893	-0.03524072
108	0x3d2c2a91	0.042032782
109	0xbdc0fcd4	-0.09423223
110	0x3c96477c	0.018344633
111	0xbe6f4049	-0.23364367
112	0xbe24beeb	-0.16088454
113	0x3c33624d	0.01094873
114	0xbb9cf19a	-0.0047895433
115	0x3d58895c	0.05286537
116	0x3d9d2df5	0.07674781
117	0xbd6cf736	-0.057852946
118	0x3e11315c	0.14178985
119	0x3d4490c2	0.047989614
120	0xbd87edd8	-0.06637162
121	0x3d87f988	0.06639391
122	0xbe4c907b	-0.1997699
123	0x3d327c81	0.043575767
124	0x3e268eca	0.16265407
125	0x3e092a7d	0.13395114
126	0xbe86353c	-0.2621249
127	0xbd313110	-0.04325968
128	0xbe42260b	-0.18959825
129	0x3dffe4f5	0.12494842
130	0xbd8474cf	-0.06467592
131	0xbe298215	-0.16553529
132	0x3c2f9f76	0.010719171
133	0x3e94f903	0.2909623
134	0xbbd26c91	-0.0064216335
135	0xbe4ad632	-0.19808272
136	0x3aa849ce	0.0012839378
137	0xbdcbd634	-0.099529654
138	0x3d95b0df	0.07309126
139	0xbdb11877	-0.086472444
140	0xbdcd8e9a	-0.10036965
141	0xbdb6dd84	-0.089289695
142	0xbe1b05c0	-0.15138912
143	0xbdf95da6	-0.12176065
144	0x3cf44d2d	0.029821957
145	0xbd8eedae	-0.069789276
146	0xbdf0d420	-0.1175921
147	0xbd8cd080	-0.06875706
148	0x3d907125	0.070528306
149	0x3da3f7f2	0.08006276
150	0x3d72f408	0.059314758
151	0xbe4846db	-0.19558279
152	0x3db2224a	0.08697946
153	0xbd95e590	-0.07319176
154	0xbe6411be	-0.22272393
155	0x3a3bbeb8	0.0007161903
156	0xbe55830d	-0.20850773
157	0xbdd9b407	-0.106300406
158	0x3d93c943	0.07216122
159	0x3e6f44da	0.23366109
160	0x3e470a1b	0.19437449
161	0x3bbf5048	0.0058384277
162	0xbdf05852	-0.11735596
163	0x3e45140a	0.19245926
164	0xbd0382b6	-0.032107078
165	0xbe3e8258	-0.1860441
166	0xbd3a2882	-0.045448788
167	0x3e77c877	0.24197565
168	0x3e25553e	0.16145799
169	0xbd6536ea	-0.055960573
170	0xbd8a187f	-0.067429535
171	0xbdede194	-0.11615291
172	0x3dee2f1d	0.1163008
173	0xbe26631e	-0.16248748
174	0x3e228e35	0.1587456
175	0xbc3cffd9	-0.011535608
176	0x3e5f57ca	0.21810833
177	0x3e331e4a	0.17492023
178	0x3e2783ac	0.16358823
179	0x3d25b9bd	0.040460337
180	0xbe359188	-0.17731297
181	0xbdceeda9	-0.10103924
182	0xbd0c98a0	-0.034325242
183	0xbe12fade	-0.1435351
184	0x3d489a3a	0.048975207
185	0xbe211467	-0.15730439
186	0x3dbf0e43	0.09328892
187	0xbc6dda2e	-0.01451735
188	0xbda6a2e2	-0.08136536
189	0xbda2617d	-0.07928751
190	0xbe87f6fb	-0.2655562
191	0xbb2f46c6	-0.0026745065
192	0x3d22fbd3	0.03979094
193	0x3e01e9c7	0.12686835
194	0x3d3e737a	0.046496846
195	0x3da132db	0.07871028
196	0xbcd0be9d	-0.025481516
197	0x3d9a8b09	0.0754605
198	0xbc3648bf	-0.011125742
199	0x3dd56887	0.10420328
200	0xbd95f664	-0.07322386
201	0x3e12e83d	0.14346404
202	0x3dc70bf9	0.097190805
203	0x3ddbfbbc	0.10741374
204	0x3d4b6ad3	0.049662422
205	0x3da4b8c5	0.080430545
206	0x3e4b5bd6	0.19859251
207	0x3cba1ed3	0.022719776
208	0x3dc47800	0.09593201
209	0xbe33fe1b	-0.17577402
210	0xbe10f41d	-0.14155622
211	0xbe12a115	-0.1431926
212	0xbd37c2df	-0.044863578
213	0x3d5d36c9	0.054007325
214	0x3d15496f	0.036446985
215	0xbda4a0b5	-0.08038465
216	0x3d620b5c	0.055186614
217	0x3c6deace	0.014521314
218	0xbe5494ed	-0.20759936
219	0x3da3a67e	0.0799074
220	0xbe30934b	-0.17243688
221	0xbbb8c8dc	-0.0056391787
222	0xbe87266f	-0.2639651
223	0x3d838aa3	0.06422927
224	0xbe630359	-0.22169246
225	0xbe00b80d	-0.1257021
226	0x3d3c3141	0.04594541
227	0x3d1b56cd	0.037924577
228	0x3e0d24ed	0.13783617
229	0x3e3cefaa	0.184508
230	0xbd58dc65	-0.05294456
231	0x3c9c20b6	0.019058567
232	0xbce5ddbc	-0.028059833
233	0x3d69a5a9	0.05704275
234	0xbdd2e166	-0.102968976
235	0xbd0ef8d2	-0.034905262
236	0x3d0682e0	0.032839656
237	0xbd742cb0	-0.05961293
238	0x3da3b678	0.079937875
239	0xbba9a1a5	-0.0051767402
240	0x3dc2a3dd	0.09503911
241	0xbe15b254	-0.14618808
242	0xbd5c5de1	-0.053800467
243	0x3c074e16	0.008258363
244	0x3e4bac4b	0.19889943
245	0xbd1709f8	-0.03687474
246	0xbd0d4f97	-0.03449973
247	0xbe40f60a	-0.18843856
248	0x3e26eadf	0.16300534
249	0xbe1727e5	-0.14761312
250	0xbdc5a730	-0.09651029
251	0x3d2bf6be	0.04198336
252	0xbdddd1de	-0.108310446
253	0xbcd283f1	-0.02569768
254	0x3d25a04d	0.040436078
255	0x3e8f40fa	0.2797926

walk_encoder.path_encoder.bias_ih_l0 f4 [96]
0	0x3e4156cc	0.18880767
1	0x3d38abbc	0.045085654
2	0xbe6d684c	-0.23184317
3	0x3dffaa3d	0.12483642
4	0xbdc9f3fa	-0.09860988
5	0x3e37e493	0.17958288
6	0xbddea877	-0.10871976
7	0x3d3281fb	0.04358099
8	0xbc05c2fe	-0.008164166
9	0xbd86ebbe	-0.06587933
10	0xbe6c2a4a	-0.23063007
11	0xbd8e45a4	-0.06946877
12	0xbe62f8ff	-0.22165297
13	0x3df859d0	0.121265054
14	0xbe3d2b8f	-0.18473648
15	0xbdc34425	-0.09534482
16	0xbd4dd170	-0.050248563
17	0xbdd67208	-0.104709685
18	0x3e0ad386	0.13557252
19	0xbe40808c	-0.18799037
20	0x3e03cd6a	0.12871328
21	0xbe18e631	-0.14931561
22	0xbb8fb4fc	-0.0043855887
23	0xbd24e482	-0.040256985
24	0xbe25b1de	-0.16181132
25	0x3c2c3271	0.010510073
26	0xbe46c7ed	-0.19412203
27	0xbe6831cd	-0.22675247
28	0xbc8628f7	-0.016376955
29	0xbe380e84	-0.17974287
30	0x3dfd8a48	0.12379891
31	0x3dc34b9b	0.09535905
32	0x3e98d09a	0.2984665
33	0x3ea29755	0.31756082
34	0x3d5c175c	0.053733215
35	0x3dab4f15	0.08364693
36	0x3ea6f7b5	0.3261086
37	0x3d9374c3	0.07200005
38	0xbd822478	-0.06354612
39	0x3db6b9d9	0.089221664
40	0x3e4b9cb5	0.19883998
41	0xbd89c231	-0.06726492
42	0x3e4e1a0d	0.20127125
43	0xbdf6db89	-0.12053592
44	0x3e297c02	0.16551211
45	0x3e237001	0.15960695
46	0x3e78e228	0.24305022
47	0x3e0606df	0.13088559
48	0x3e252b4d	0.16129799
49	0x3e9f7512	0.31144005
50	0xbdecfe42	-0.11571933
51	0x3d9e367f	0.07725238
52	0xbe2e8942	-0.17044547
53	0x3e6e0631	0.2324455
54	0xbd531d11	-0.05154139
55	0x3ccc272a	0.024921019
56	0x3c989f2c	0.018630587
57	0xbca2f33c	-0.019891374
58	0x3e3edde3	0.1863933
59	0xbd7280e3	-0.059204947
60	0x3d83c238	0.06433529
61	0x3e2f911c	0.17145199
62	0x3bed4cd8	0.0072418265
63	0x3dee7bc0	0.11644697
64	0x3e6435c3	0.22286133
65	0xbe180248	-0.1484462
66	0xbdf5d36f	-0.120032184
67	0x3e39fbca	0.18162456
68	0xbcea6e91	-0.028617175
69	0xbe7cfcad	-0.24705763
70	0x3e2db095	0.16961892
71	0xbd551fcd	-0.05203228
72	0xbd1898c6	-0.03725507
73	0xbc9d5c3e	-0.019209024
74	0xbe289d05	-0.16466148
75	0x3db59b2b	0.088674866
76	0xbd5d50d6	-0.05403217
77	0xbe885be4	-0.26632607
78	0x3d6021ee	0.054719858
79	0xbb1363d6	-0.0022489927
80	0x3e669fb6	0.22521862
81	0x3e690727	0.22756635
82	0xbcaea29d	-0.021317774
83	0xbdba597a	-0.090990975
84	0xbe48fbc2	-0.19627288
85	0xbe81faee	-0.25386757
86	0x3e88b20a	0.26698333
87	0x3e270fa4	0.1631456
88	0xbc9dc598	-0.01925926
89	0x3d03d754	0.032187775
90	0x3ed8e474	0.42361796
91	0xbea300f8	-0.31836677
92	0x3e8bcaee	0.2730326
93	0x3ded6afc	0.11592671
94	0x3e1229e5	0.14273794
95	0xbe50e5bf	-0.20400141

walk_encoder.path_encoder.bias_hh_l0 f4 [96]
0	0x3c2d9858	0.010595404
1	0x3cc02249	0.023453848
2	0xbe58998c	-0.21152323
3	0xbd52f31b	-0.051501375
4	0xbe22deca	-0.159053
5	0x3e84d418	0.25943065
6	0x3e22028b	0.15821283
7	0xbe716352	-0.23573044
8	0xbdd136e3	-0.10215547
9	0x3d5deb12	0.05417926
10	0xbdab1d2f	-0.08355176
11	0xbe0f89cc	-0.14017409
12	0xbe0dc891	-0.13846041
13	0x3dc10036	0.09423868
14	0xbd39ea7b	-0.045389634
15	0xbe5fc63e	-0.21852967
16	0xbcb16ec0	-0.021659255
17	0x3de42f82	0.11141874
18	0x3d29d31a	0.041461088
19	0x3d71820c	0.058961913
20	0x3dd8fb15	0.10594765
21	0xbe2d0a23	-0.16898398
22	0x3e207d6d	0.15672846
23	0xbd343aa3	-0.044001233
24	0xbea84942	-0.3286839
25	0xbd7ecaf6	-0.062205277
26	0xbe60dcaf	-0.21959184
27	0xbe1f03d9	-0.15528812
28	0xbe3f552d	-0.18684836
29	0x3afcd67a	0.0019289993
30	0x3d062b62	0.032756217
31	0x3de8ff57	0.11376827
32	0x3e155b24	0.14585549
33	0x3e4ae17a	0.19812575
34	0x3e5d2007	0.21594249
35	0x3de20d47	0.11037689
36	0x3dde7c67	0.108635716
37	0xbd92452e	-0.07142101
38	0xbdd83079	-0.105561204
39	0x3e3dfa57	0.18552528
40	0xbc10e676	-0.008844009
41	0x3da8585e	0.0821998
42	0x3e3b6bcf	0.18302844
43	0x3e28e5fb	0.1649398
44	0x3cded2f2	0.027200196
45	0x3de1c4ee	0.110238895
46	0x3e78f4c2	0.24312118
47	0x3e1e8cd3	0.15483408
48	0x3e1c2189	0.15247168
49	0x3d91a587	0.0711165
50	0xbe627fcd	-0.22119065
51	0x3eb0f5b3	0.34562454
52	0x3da47538	0.0803017
53	0x3d7d65f7	0.06186482
54	0x3db97352	0.09055199
55	0x3cb7e810	0.022449523
56	0x3e3904a3	0.18068175
57	0xbdd8883d	-0.105728604
58	0x3e81cc9e	0.25351423
59	0xbd980a24	-0.07423809
60	0x3dd42f1f	0.1036055
61	0x3e2b260f	0.16713737
62	0xbcb8fab7	-0.022580488
63	0x3d96cd1a	0.07363339
64	0x3e9059bb	0.2819346
65	0xbdbd2e3a	-0.09237333
66	0x3b00d357	0.0019657218
67	0x3e05fe5a	0.13085309
68	0xbc85366b	-0.0162613
69	0xbe508b94	-0.20365745
70	0x3de65a30	0.11247671
71	0x3d9f2561	0.07770801
72	0xbe18baa4	-0.14914948
73	0xbdf58300	-0.11987877
74	0xbe20b6cd	-0.15694733
75	0x3d75405e	0.05987584
76	0x3d470c83	0.048595916
77	0x3c71fff8	0.0147705
78	0x3e314472	0.17311266
79	0x3d5241a5	0.051332135
80	0x3e17203c	0.1475839
81	0x3e1127c4	0.14175326
82	0x3e6ec3ad	0.23316832
83	0x3cab77d4	0.020931162
84	0xbd8691d9	-0.06570787
85	0x3e2461c3	0.16052918
86	0x3ea0f49d	0.31436625
87	0x3e25e084	0.16198927
88	0xbb6252ee	-0.0034534293
89	0xbe3aa270	-0.18226027
90	0x3d4ce0b3	0.050018977
91	0xbe521a8a	-0.20517936
92	0xbcbe206a	-0.023208816
93	0x3dcfe9f6	0.101520464
94	0x3e3178e1	0.17331268
95	0xbc86c8cc	-0.01645317

bn.weight f4 [32]
0	0x3f5a18b7	0.8519396
1	0x3f63ea8f	0.89029783
2	0x3f834361	1.0254937
3	0x3f560dce	0.83614814
4	0x3f5de0c0	0.86671066
5	0x3f682d0e	0.9069375
6	0x3f6b07af	0.918086
7	0x3f73af3a	0.9518925
8	0x3f62de66	0.88620603
9	0x3f4a874f	0.79112715
10	0x3f60a2b4	0.87748265
11	0x3f4e0dca	0.8048979
12	0x3f59996e	0.8499974
13	0x3f7fdc25	0.9994529
14	0x3f6b3b85	0.91887695
15	0x3f7b3b2b	0.9813716
16	0x3f6cb1f2	0.92459023
17	0x3f68cef9	0.90940815
18	0x3f4a9799	0.7913757
19	0x3f7868ce	0.9703492
20	0x3f618d1f	0.8810596
21	0x3f6c58d3	0.92323035
22	0x3f5543d8	0.83306646
23	0x3f7a9be8	0.97894144
24	0x3f8816de	1.0631979
25	0x3f59acfc	0.8502958
26	0x3f4b5c50	0.7943773
27	0x3f615b42	0.88029873
28	0x3f6d5e56	0.9272207
29	0x3f833bc9	1.025262
30	0x3f59182b	0.848025
31	0x3f60823f	0.8769874

bn.bias f4 [32]
0	0x3d7c7911	0.061638895
1	0xbd08faab	-0.03344218
2	0xbd82cb38	-0.06386417
3	0x3dedef82	0.11617948
4	0x3d48df90	0.04904133
5	0xbd809ed8	-0.06280297
6	0xbd85e3b2	-0.0653757
7	0x3d4224bf	0.047398325
8	0x3d879a2a	0.06621201
9	0x3d8ca2d8	0.068669975
10	0xbc132f37	-0.008983425
11	0xbdeda55b	-0.11603805
12	0x3dc0df7c	0.09417626
13	0xbdbe0247	-0.09277778
14	0x3dfd69f1	0.12373722
15	0x3dedca1e	0.116108164
16	0x3cc886a8	0.024478272
17	0x3c6d314e	0.014477087
18	0xbd59dc3d	-0.05318855
19	0xbe107bb3	-0.14109688
20	0x3bdc3d79	0.0067211953
21	0x3daa545c	0.083168715
22	0x3df4d723	0.119550966
23	0xbc7cb953	-0.015425044
24	0xbde5fec9	-0.11230237
25	0xbd7b7d26	-0.061398648
26	0xbc9700c6	-0.018432986
27	0xbd9b5d84	-0.07586196
28	0x3e0e46d8	0.13894212
29	0x3d145c27	0.036220696
30	0x3cb15d24	0.021650858
31	0xbe17e788	-0.14834416

bn.running_mean f4 [32]
0	0x3ef82563	0.48466024
1	0xbd72eb3a	-0.05930636
2	0xbdd0e4bd	-0.10199878
3	0x3ea6c1f0	0.32569838
4	0xbc4151df	-0.011799305
5	0xbef65c06	-0.48117083
6	0x3e8122ea	0.2522195
7	0x3c8523ad	0.016252363
8	0xbeb0d709	-0.3453906
9	0xbe81ca98	-0.2534988
10	0xbe4e6912	-0.20157269
11	0x3e987d8a	0.2978328
12	0x3d4c5d88	0.049893886
13	0xbe8f5b69	-0.27999428
14	0x3e2da940	0.16959095
15	0x3d286464	0.041111365
16	0x3edb6060	0.42846966
17	0x3eec323c	0.46132076
18	0x3ee3a22f	0.44459674
19	0xbe1cf5cd	-0.1532814
20	0x3cef39fb	0.029202452
21	0xbe9e5890	-0.30926943
22	0x3f0b3679	0.54379994
23	0x3e8aaf1e	0.2708673
24	0x3ccba1f6	0.024857502
25	0xbe5731c5	-0.2101508
26	0x3ea1c40a	0.31594878
27	0xbeda1139	-0.42591265
28	0x3eb128c1	0.34601405
29	0x3ddef971	0.10887421
30	0x3ebc677d	0.36797705
31	0xbe87c391	-0.26516393

bn.running_var f4 [32]
0	0x3b999b67	0.004687715
1	0x3ba98929	0.0051738215
2	0x3bc98b79	0.0061506596
3	0x3b6cc9f7	0.0036131123
4	0x3b816e19	0.0039498922
5	0x3bf1bcd9	0.0073772487
6	0x3bbeb939	0.00582042
7	0x3bef2d25	0.007299083
8	0x3b933ca8	0.004493315
9	0x3b87d508	0.0041452684
10	0x3b45a2f1	0.0030156935
11	0x3b960eeb	0.004579415
12	0x3b94ce6b	0.0045412085
13	0x3b99b6fa	0.004691002
14	0x3bdff655	0.006834785
15	0x3bb6f74e	0.0055836802
16	0x3bc4baab	0.006003698
17	0x3be38de6	0.006944406
18	0x3b97ffae	0.0046386337
19	0x3b61e74a	0.0034470134
20	0x3c37a29e	0.011208205
21	0x3b27fe66	0.002563381
22	0x3bc3f178	0.005979713
23	0x3bb05762	0.0053815106
24	0x3bb93666	0.0056522368
25	0x3be45114	0.006967673
26	0x3b3f78a2	0.002921619
27	0x3b12c81c	0.0022397107
28	0x3b946e01	0.004529715
29	0x3b925224	0.0044653583
30	0x3bce476c	0.0062951352
31	0x3bc0c791	0.005883165

fc1.weight f4 [64, 32]
0	0xbd3c178f	-0.045920905
1	0xbe6c4405	-0.23072822
2	0xbe5348f6	-0.20633301
3	0x3cc38f68	0.023872092
4	0xbdc7626d	-0.0973557
5	0xb9c6f860	-0.00037950557
6	0x3e25efca	0.16204754
7	0x3d2d2cd3	0.042279076
8	0x3df9d53e	0.12198876
9	0xbcdb6940	-0.026783586
10	0x3db973c6	0.09055285
11	0xbd30194e	-0.042992882
12	0xbd105bab	-0.03524367
13	0xbe365a54	-0.17807895
14	0x3e4c99de	0.1998057
15	0xbd824ca3	-0.063622735
16	0x3dd3f2cb	0.103490435
17	0x3cd46452	0.025926743
18	0x3dd6edfb	0.1049461
19	0xbde59de8	-0.11211759
20	0xbe0931e6	-0.13397941
21	0xbe1e2c00	-0.15446472
22	0x3e6bc8e9	0.2302586
23	0xbda7874a	-0.08180101
24	0xbdace784	-0.084425956
25	0xbd6532da	-0.0559567
26	0xbe0369ed	-0.12833376
27	0xbc9958cb	-0.018719098
28	0x3df94a2a	0.12172349
29	0x3eb51259	0.3536556
30	0xbe3518fe	-0.17685315
31	0x3cc90421	0.024538102
32	0xbb038866	-0.0020070313
33	0x3dc0c40a	0.094123915
34	0x3de3cdec	0.11123261
35	0xbdc4d336	-0.09610598
36	0xbdd8226d	-0.10553441
37	0x3cad68f7	0.021168215
38	0xbe7b5ad1	-0.24546362
39	0xbe83bc0b	-0.25729403
40	0x3dec15da	0.11527605
41	0x3a25a624	0.00063190074
42	0xbe34e78c	-0.17666453
43	0xbc23cb8b	-0.009997259
44	0xbd30a130	-0.04312247
45	0x3d7fd901	0.06246281
46	0xbe16067f	-0.14650916
47	0x3ae2cc8b	0.001730339
48	0x3dc07f73	0.09399309
49	0xbc958bfa	-0.018255223
50	0x3e2f6322	0.1712766
51	0x3c9b5ab4	0.018964149
52	0xbe4364d0	-0.19081426
53	0xbdaa0a45	-0.0830274
54	0xbcfebef6	-0.031096917
55	0xbd98aea5	-0.07455186
56	0xbd901d87	-0.07036882
57	0x3e821166	0.254039
58	0xbdbb5ca2	-0.09148528
59	0x3e213f83	0.15746884
60	0xbcbb445e	-0.022859748
61	0xbb5b1718	-0.0033430513
62	0x3dc08876	0.09401028
63	0x3c8e51af	0.017372934
64	0xbe040792	-0.12893513
65	0xbe0630d4	-0.13104564
66	0xbe0b5ec1	-0.13610364
67	0xbe537baa	-0.20652643
68	0x3c9f472c	0.019443117
69	0x3e2ecdd4	0.17070705
70	0xbd497cb1	-0.04919118
71	0x3c9090fe	0.017647263
72	0x3d9cae7b	0.07650467
73	0x3bcf784d	0.0063314796
74	0xbdd74b6f	-0.10512435
75	0xba8c2866	-0.0010693192
76	0x3d69a6d1	0.057043854
77	0x3cdda887	0.0270579
78	0x3e320a5f	0.17386769
79	0x3e72c254	0.23706943
80	0x3c4b1ebb	0.012397463
81	0x3e3ff9fb	0.18747704
82	0x3d98a0bd	0.074525334
83	0xbd90bf9a	-0.07067795
84	0xbe6c8e33	-0.2310112
85	0x3cc4934d	0.02399602
86	0xbdfe2e2d	-0.12411151
87	0x3bd1dde9	0.0064046276
88	0xbdeb6895	-0.11494557
89	0x3aecc2d8	0.0018063439
90	0xbc966936	-0.018360715
91	0x3d823705	0.063581504
92	0xbb2224ee	-0.002474125
93	0x3dc7cd57	0.09755962
94	0x3dc89130	0.09793317
95	0x3c1fa8cd	0.009744835
96	0xbca7d660	-0.020487964
97	0xbe0f6f30	-0.14007258
98	0x3dbb3724	0.091413766
99	0xbc30c812	-0.010789888
100	0xbe2c4f9d	-0.16827245
101	0xbd8c194d	-0.06840763
102	0xbe409995	-0.18808587
103	0x3c1cc18a	0.009567628
104	0x3d6c41c1	0.057679895
105	0x3c8906d6	0.016726892
106	0xbe09bdf8	-0.13451374
107	0xbde3d920	-0.11125398
108	0x3d862f43	0.06551983
109	0x3c7c6a41	0.015406192
110	0x3e477cc5	0.1948119
111	0x3d8454a6	0.06461458
112	0xbbc9748a	-0.0061479257
113	0xbc920dfd	-0.017828936
114	0x3dc5019e	0.09619449
115	0xbde8bffa	-0.113647416
116	0x3df493b5	0.119422354
117	0x3d64c0f0	0.055848062
118	0xbe70dca3	-0.23521666
119	0xbddcb0b9	-0.10775895
120	0xbd826b57	-0.0636813
121	0x3d2b88d9	0.041878555
122	0xbd779c27	-0.060451653
123	0x3d22a4b1	0.039707843
124	0x3da31b13	0.07964148
125	0xbde13211	-0.109958775
126	0xbcd97f13	-0.026549852
127	0xbd60475e	-0.05475556
128	0x3e521eb3	0.20519523
129	0x3ce4abc2	0.027913932
130	0x3d978c8a	0.073998526
131	0xbe1bad33	-0.15202789
132	0x3d29633a	0.041354395
133	0xbd100121	-0.035157327
134	0x3cb5a625	0.02217395
135	0x3cd5972d	0.026073063
136	0xbbb562ca	-0.005535458
137	0x3e234121	0.15942813
138	0xbdf15e08	-0.11785513
139	0x3cb7f9a6	0.022457909
140	0xbdb44d89	-0.08803851
141	0xbab09a8a	-0.0013473791
142	0x3d262298	0.040560335
143	0x3e003ea5	0.12523897
144	0xbdb1a91a	-0.08674832
145	0x3e53206b	0.20617835
146	0xbd8cb57b	-0.06870552
147	0x3e38dd13	0.18053083
148	0x3c70e989	0.014704117
149	0xbdb57ff3	-0.08862295
150	0xbdc9553d	-0.09830711
151	0xbd79a075	-0.06094404
152	0xbdd876b1	-0.105695136
153	0x3d70af1a	0.05876074
154	0x3d2f2d06	0.042767547
155	0x3e421c59	0.18956126
156	0x3db0ec51	0.08638824
157	0x3d41587e	0.047203533
158	0xbe46406e	-0.19360515
159	0x3d612298	0.05496463
160	0x3e0faf28	0.1403166
161	0xbd9579b0	-0.07298601
162	0x3de4777e	0.11155604
163	0xbddbf70d	-0.107404806
164	0xbc9f2f3d	-0.019431705
165	0xbc80ffe9	-0.015747027
166	0xbdef34c7	-0.11679988
167	0xbd91e711	-0.071241505
168	0xbd1a5559	-0.03767905
169	0x3d907ba8	0.070548356
170	0x3dddf2fb	0.108373605
171	0x3de02057	0.10943668
172	0xbe61f9f5	-0.22068007
173	0x3c64b3ef	0.013958915
174	0x3d1654e1	0.03670204
175	0xbe5a052e	-0.21291038
176	0xbd0ce790	-0.034400523
177	0x3e04548a	0.12922874
178	0xbda08611	-0.07838071
179	0x3ddd8a82	0.10817434
180	0xbd1900be	-0.037354223
181	0xbe32cb96	-0.17460474
182	0xbe177f8a	-0.14794746
183	0xbc19e612	-0.009393232
184	0x3de430ef	0.11142146
185	0x3d2de1ef	0.042451795
186	0xbd099722	-0.033591397
187	0x3e2f1090	0.17096162
188	0xbe239ace	-0.15977022
189	0x3e258829	0.16165222
190	0x3d126de5	0.035749335
191	0xbd85c081	-0.06530858
192	0x3de587dc	0.11207554
193	0x3c360df8	0.011111729
194	0xbe26d894	-0.16293555
195	0x3dd6023e	0.104496464
196	0x3e63777f	0.22213553
197	0xbe4a45e1	-0.19753219
198	0xbd1d7726	-0.038443707
199	0xbd84d62f	-0.06486165
200	0x3e15e3b0	0.14637637
201	0x3d29e9df	0.041482802
202	0x3e1f7dba	0.15575305
203	0x3dcdc198	0.10046691
204	0xbcc81895	-0.024425784
205	0xbcfe3751	-0.031032236
206	0xbdf32b1c	-0.11873457
207	0x3e1a918f	0.15094589
208	0xbe040d17	-0.12895618
209	0x3d25e058	0.040497154
210	0x3d57f016	0.0527192
211	0xbd1e4dac	-0.038648292
212	0xbdc81122	-0.09768893
213	0xbd7d8f1f	-0.06190407
214	0x3e076ac9	0.13224329
215	0xbe7488eb	-0.23880355
216	0xbe3fb237	-0.18720327
217	0xbe287e63	-0.16454463
218	0xbe35ed25	-0.17766245
219	0x3e690f2a	0.22759691
220	0x3d78ecff	0.060772892
221	0x3df51df0	0.11968601
222	0xbdb622e5	-0.08893374
223	0xbd325fd9	-0.04354844
224	0xbd299156	-0.04139837
225	0x3dd49c53	0.10381379
226	0x3b295864	0.0025840038
227	0xbdeb5bb3	-0.114920996
228	0x3d0cdbea	0.034389414
229	0xbe1ea1a7	-0.15491353
230	0x3df16a3e	0.11787842
231	0x3e2b4b55	0.16727956
232	0xbd1f92e2	-0.038958438
233	0xbe0bc458	-0.13649118
234	0x3d28a4a1	0.041172627
235	0x3db795b4	0.089641005
236	0xbddd240d	-0.10797892
237	0xbcaea6cf	-0.021319775
238	0x3da232aa	0.0791982
239	0xbd68fc94	-0.056881502
240	0x3dde56de	0.10856412
241	0x3dad1962	0.08452107
242	0xbc7c87ba	-0.015413219
243	0x3e0cacb4	0.13737756
244	0xbd881d96	-0.06646268
245	0x3e18aca0	0.14909601
246	0xbdefaa04	-0.1170235
247	0x3d9b4f70	0.07583511
248	0xbca11f74	-0.019668318
249	0xbde3df27	-0.11126547
250	0x3e171f6e	0.14758083
251	0x3c604b33	0.013689804
252	0x3c8fc442	0.017549638
253	0x3d35ebba	0.04441426
254	0xbca63e51	-0.020293387
255	0x3d609974	0.054833844

fc1.bias f4 [64]
0	0x3e166954	0.14688617
1	0xbd138a21	-0.036020402
2	0x3e576a37	0.21036611
3	0xbea0df58	-0.31420398
4	0xbd55a6b4	-0.052160934
5	0x3cf3e9e6	0.029774617
6	0xbda080fe	-0.07837103
7	0xbe457ce3	-0.19285922
8	0xbcbbc2e4	-0.02292008
9	0xbe313856	-0.17306647
10	0xbb874e5f	-0.0041292156
11	0xbe2aa41d	-0.16664167
12	0x3cdd7af6	0.027036171
13	0xbe5bcfb5	-0.21465953
14	0xbd86e33c	-0.0658631
15	0xbe270e3f	-0.16314028
16	0xbe67d372	-0.22639254
17	0xbe49be61	-0.1970153
18	0xbdd5f905	-0.10447887
19	0x3de79769	0.11308176
20	0xbdb64cc6	-0.08901362
21	0xbe253780	-0.16134453
22	0xbe77066d	-0.24123545
23	0x3e021dce	0.12706682
24	0xbe08e221	-0.13367511
25	0xbdf2884b	-0.11842402
26	0xbbbad595	-0.0057017305
27	0x3d90cf96	0.07070844
28	0xbdacefc8	-0.08444172
29	0xbe7380b4	-0.23779565
30	0xbe056faf	-0.13030885
31	0xbd17a20b	-0.03701977
32	0xbe8720df	-0.26392266
33	0xbd6d2de3	-0.05790509
34	0x3e718201	0.23584749
35	0x3d96fd12	0.07372488
36	0xbe4bc9cc	-0.19901198
37	0xbe44a524	-0.19203621
38	0x3d18b9b1	0.037286464
39	0xbda2a325	-0.079412736
40	0xbd932cdf	-0.07186293
41	0xbdda9b8e	-0.10674201
42	0x3c8ed1e4	0.017434068
43	0x3d48bada	0.04900632
44	0xbe6c5fa0	-0.23083353
45	0xbdb7843f	-0.08960771
46	0xbe337408	-0.17524731
47	0xbc867d48	-0.01641716
48	0xbe841332	-0.25795895
49	0xbdbdd5f7	-0.09269326
50	0xba3b5f8f	-0.0007147723
51	0xbe0ebfa1	-0.13940288
52	0xbe53c22b	-0.20679538
53	0xbe578675	-0.21047385
54	0xbe3c7d1c	-0.184071
55	0xbe013c6d	-0.12620707
56	0xbe84d213	-0.25941524
57	0x3dd5ce2d	0.104397155
58	0xbdce3aa3	-0.10069778
59	0xbcd17ff4	-0.025573708
60	0x3dd52222	0.10406901
61	0x3caf64c1	0.021410348
62	0x3d1ba923	0.0380031
63	0x3bf46028	0.007457752
