rwgnn/checkpoints/model_fold_9.pt (torch, 69539 bytes, 16 tensors)

adj_hidden f4 [16, 10]
0.73356473 -0.3780067 0.520375 -0.11300504 0.90088415 0.39662147 0.9057181 -0.38638186
0.7210908 0.14566481 0.9352926 -0.83239186 -0.31071162 0.113088846 0.44307292 -0.8498275
-0.61706233 0.5235102 0.6249628 -0.13719618 -0.22662449 -0.27872217 0.5879375 0.8167653
-0.48820555 0.931267 -0.11595976 0.40919292 0.33286655 0.62637544 -0.9405285 -0.89915764
0.3577261 0.89565086 0.43803477 0.60947645 0.7291448 0.104949236 -0.42644703 -0.743013
-0.8210889 -0.405681 -0.9306209 -0.39392483 0.10450578 -0.7648971 0.8812641 -0.18654442
0.68462896 -0.7889842 0.36128676 -0.04661572 0.6855675 0.771621 0.86411214 0.8051621
-0.5946965 0.17403996 0.73731077 -0.9521314 -0.31668115 0.76421 -0.27546334 -0.7734817
0.9103948 0.15840828 0.739146 -0.69993186 0.24486649 0.051505208 0.91979015 -0.3174249
0.80159235 -0.43160105 0.66534746 0.8830452 0.58604217 -0.23601282 0.32439995 0.34682906
-0.015583754 -0.5447068 0.74151945 0.5729064 -0.46193314 -0.94585776 0.27745008 0.56314576
0.08343387 0.2846806 0.8687924 -0.5680021 0.6426827 0.5131904 0.8667033 -0.3844303
-0.69359565 0.27620184 -0.7896303 0.7435138 -0.6314491 -0.7195077 0.38380563 -0.44919932
-0.39355552 0.13742399 -0.22789681 -0.33815324 -0.3682207 0.5181184 0.24224055 0.7290236
0.021016002 0.13903594 -0.10927832 0.74708116 -0.8902235 -0.26037955 0.13920331 -0.7441473
-0.8473687 -0.79819393 0.838264 0.103306055 0.5111774 0.1797148 -0.7484031 -0.10200477
-0.47720528 -0.5715468 0.19920886 0.55676496 0.026334643 0.50658965 0.07035673 0.32676673
-0.7214159 0.49956334 -0.5373765 -0.19371915 -0.13989663 0.7088766 0.15284562 0.37596416
-0.3321675 0.53881 0.36000168 0.9286531 -0.363837 0.49612796 0.13612127 -0.7383754
-0.722718 -0.175053 -0.059488058 -0.1048044 -0.20070326 0.15483034 0.29108834 0.78144157
00000000: e6ca 3b3f 188a c1be 4c37 053f 306f e7bd
00000010: 58a0 663f f811 cb3e 24dd 673f d8d3 c5be
00000020: 6899 383f 2829 153e 566f 6f3f a217 55bf
00000030: 9815 9fbe 209b e73d 74da e23e 4c8e 59bf
00000040: ccf7 1dbf c404 063f 90fd 1f3f 287d 0cbe
00000050: 4010 68be acb4 8ebe 1283 163f 8817 513f
00000060: 14f6 f9be 8467 6e3f 507c edbd bc81 d13e
00000070: 7c6d aa3e 245a 203f 7ac6 70bf 322f 66bf
00000080: e027 b73e 6049 653f 1846 e03e a606 1c3f
00000090: 3ca9 3a3f a0ef d63d 4457 dabe 1a36 3ebf
000000a0: e232 52bf 6cb5 cfbe 2c3d 6ebf 84b0 c9be
000000b0: 2007 d63d 4cd0 43bf 869a 613f 8005 3fbe
000000c0: d843 2f3f defa 49bf 94fa b83e 20f0 3ebd
000000d0: 5a81 2f3f f488 453f 7436 5d3f 1a1f 4e3f
000000e0: 083e 18bf 8837 323e 66c0 3c3f e2be 73bf
000000f0: 0824 a2be 44a3 433f 8809 8dbe e602 46bf
00000100: a20f 693f c835 223e ac38 3d3f bc2e 33bf
00000110: 48be 7a3e 20f7 523d 5e77 6b3f 8485 a2be
00000120: 2835 4d3f d0fa dcbe 3654 2a3f 400f 623f
00000130: dc06 163f 58ad 71be c017 a63e 9493 b13e
00000140: 0053 7fbc e871 0bbf 38d4 3d3f fea9 123f
00000150: 8082 ecbe bc23 72bf f00d 8e3e 522a 103f
00000160: 60df aa3d a8c1 913e 2e69 5e3f 9668 11bf
00000170: da86 243f 7260 033f 44e0 5d3f 0cd4 c4be
00000180: 7c8f 31bf 546a 8d3e 3625 4abf ec56 3e3f
00000190: a6a6 21bf a831 38bf 2c82 c43e 74fd e5be
000001a0: 1c80 c9be e0b8 0c3e c85d 69be 6c22 adbe
000001b0: 6c87 bcbe 68a3 043f e80d 783e 4aa1 3a3f
000001c0: c029 ac3c 705f 0e3e 50cd dfbd b640 3f3f
000001d0: b0e5 63bf 7850 85be 508b 0e3e 7080 3ebf
000001e0: 28ed 58bf 7056 4cbf 7898 563f 2092 d33d
000001f0: 86dc 023f 2807 383e 5897 3fbf e0e7 d0bd
00000200: 4054 f4be e450 12bf 68fd 4b3e 2688 0e3f
00000210: c0bb d73c dcaf 013f 3017 903d f84d a73e
00000220: b6ae 38bf c4c6 ff3e 8291 09bf 505e 46be
00000230: 1041 0fbe f078 353f 9083 1c3e 607e c03e
00000240: dc11 aabe 74ef 093f 2452 b83e 36bc 6d3f
00000250: d848 babe 7c04 fe3e 6063 0b3e 2c06 3dbf
00000260: 0c04 39bf 1841 33be c0a9 73bd b0a3 d6bd
00000270: 2885 4dbe d88b 1e3e 8809 953e 8e0c 483f

features_hidden f4 [16, 5, 32]
0.8665919 0.91012466 0.92983145 0.2127474 0.03101939 0.10378486 0.49912977 0.16358793
0.6038673 0.44070786 0.64657575 0.08278996 0.73653084 0.86363417 0.8896658 0.33736175
0.8733259 0.9476065 0.88068426 0.8695627 0.21007663 0.22268063 0.8170785 0.5655289
0.61965126 0.01894921 0.95481074 0.10592961 0.31540394 0.89966 0.3737675 0.7094475
0.9160315 0.41580033 0.41355485 0.8358931 0.56940556 0.8828123 0.5565234 0.07928759
0.8962475 0.94110096 0.08691847 0.96248287 0.47137922 0.0018348694 0.2224806 0.5440993
0.5334125 0.665994 0.72492474 0.14699233 0.12412101 0.7102768 0.5862062 0.8069182
0.9971358 0.37020546 0.99302197 0.65889287 0.9344468 0.15464866 0.9285449 0.024556875
0.3580373 0.82775897 0.60745955 0.95340884 0.529683 0.19225484 0.5247482 0.16408157
0.3890503 0.20026398 0.8539711 0.93143773 0.2840159 0.41358066 0.9590957 0.0140321255
0.93561876 0.28453004 0.48568064 0.5867541 0.46424192 0.5330766 0.39407527 0.8755558
0.36133552 0.07776779 0.99787754 0.3811136 0.5315518 0.5886208 0.84325856 0.004203081
0.06763983 0.67819065 0.6279152 0.1339835 0.48039192 0.6054717 0.08765721 0.15074623
0.82853997 0.5703636 0.7861836 0.21534806 0.54535323 0.80023986 0.930368 0.27047336
0.041246712 0.061844945 0.9944701 0.31458622 0.9829085 0.5404354 0.6075744 0.21593636
0.71304524 0.27671868 0.6164699 0.923928 0.06320721 0.29977852 0.08863413 0.9547027
0.86925316 0.7346487 0.1947316 0.821029 0.07536799 0.6345785 0.13255763 0.30553323
0.5756882 0.64809597 0.58110714 0.65321887 0.79620725 0.599213 0.093853354 0.6270459
0.82742727 0.7228035 0.808585 0.15790123 0.6387893 0.25569183 0.9831082 0.20415056
0.3717863 0.02355051 0.033531904 0.28089786 0.62013537 0.58604586 0.7100679 0.9321197
0.53259546 0.78706795 0.0013405085 0.48425627 0.4873581 0.8322569 0.27851063 0.5019456
0.6823093 0.15268707 0.18846506 0.7610841 0.21095413 0.79155713 0.43030256 0.7606926
0.43078083 0.23724079 0.38947976 0.0039384365 0.61291134 0.15644592 0.34254855 0.78305995
0.9100845 0.2669652 0.75358886 0.5848543 0.3103696 0.24926072 0.3825776 0.9422215
0.82528263 0.19969064 0.37649953 0.7181843 0.24925417 0.40822345 0.23546237 0.55299044
0.016943514 0.34302717 0.63090914 0.028132617 0.04163307 0.9450022 0.56228316 0.21617424
0.54421175 0.46567738 0.9451497 0.645101 0.6925513 0.3349476 0.6153724 0.3758573
0.6054556 0.36004943 0.6260356 0.08934188 0.31827843 0.42417222 0.6650769 0.037017226
0.49248976 0.87423307 0.75490963 0.83350736 0.06351346 0.5800452 0.2854039 0.851848
0.4285764 0.87397474 0.44429892 0.18193018 0.94425327 0.5849901 0.5133744 0.55427325
0.049402416 0.45958817 0.31134874 0.06518155 0.6887464 0.41178864 0.42720604 0.7552394
0.5133044 0.8464109 0.7823627 0.73558474 0.19226885 0.11540359 0.97246176 0.41696584
00000000: f7d8 5d3f eefd 683f 6f09 6e3f 74da 593e
00000010: 601c fe3c 288d d43d f08d ff3e 9883 273e
00000020: 0c97 1a3f 76a4 e13e fd85 253f c88d a93d
00000030: 498d 3c3f 2117 5d3f 23c1 633f aeba ac3e
00000040: 4992 5f3f 5796 723f 8674 613f a99b 5e3f
00000050: 541e 573e 6406 643e 0e2c 513f 81c6 103f
00000060: 77a1 1e3f 603b 9b3c 7a6e 743f a0f1 d83d
00000070: a07c a13e 1e50 663f 745e bf3e 5a9e 353f
00000080: 0a81 6a3f c8e3 d43e 76bd d33e 17fd 553f
00000090: 90c4 113f fdff 613f 5178 0e3f 8861 a23d
000000a0: 7a70 653f feeb 703f 5002 b23d 4765 763f
000000b0: 9e58 f13e 0080 f03a f4d1 633e 174a 0b3f
000000c0: b98d 083f 957e 2a3f ab94 393f 2885 163e
000000d0: 2833 fe3d b3d4 353f 9c11 163f 3192 4e3f
000000e0: 4b44 7f3f 928b bd3e b036 7e3f 34ad 283f
000000f0: e837 6f3f 385c 1e3e 1eb5 6d3f 802b c93c
00000100: aa50 b73e 03e8 533f 7882 1b3f 9a12 743f
00000110: 4e99 073f 74de 443e e655 063f 0005 283e
00000120: 9a31 c73e 0012 4d3e da9d 5a3f b472 6e3f
00000130: 886a 913e d8c0 d33e 4c87 753f 00e7 653c
00000140: b684 6f3f ecad 913e 22ab f83e 8435 163f
00000150: 1eb1 ed3e b577 083f 3cc4 c93e 6d24 603f
00000160: f800 b93e b844 9f3d e774 7f3f 5221 c33e
00000170: c713 083f daaf 163f cbdf 573f 00ba 893b
00000180: c086 8a3d e79d 2d3f 0dbf 203f f832 093e
00000190: eef5 f53e 3100 1b3f a085 b33d 385d 1a3e
000001a0: 321b 543f 5903 123f 5443 493f 3484 5c3e
000001b0: 459c 0b3f 85dc 4c3f 992c 6e3f 7c7b 8a3e
000001c0: 50f2 283d 2051 7d3d 9895 7e3f 7211 a13e
000001d0: e49f 7b3f f959 0a3f ff89 1b3f 6c1e 5d3e
000001e0: 228a 363f 12ae 8d3e f9d0 1d3f 8c86 6c3f
000001f0: c872 813d 927c 993e d085 b53d 6567 743f
00000200: 6087 5e3f f011 3c3f b867 473e f52e 523f
00000210: 885a 9a3d bd73 223f 30bd 073e da6e 9c3e
00000220: 4d60 133f 9ee9 253f 70c3 143f 5a39 273f
00000230: 3dd4 4b3f 0666 193f 3036 c03d 1586 203f
00000240: 46d2 533f a609 393f 6dff 4e3f dcb0 213e
00000250: b287 233f 0aea 823e fbac 7b3f d80c 513e
00000260: c65a be3e 00ed c03c c058 093d d8d1 8f3e
00000270: 31c1 1e3f 1a07 163f 03c7 353f 669f 6e3f
00000280: 2d58 083f 497d 493f 00b4 af3a 70f0 f73e
00000290: 0087 f93e ca0e 553f f298 8e3e 827f 003f
000002a0: d3ab 2e3f 005a 1c3e fcfc 403e 68d6 423f
000002b0: 5c04 583e 7da3 4a3f 9e50 dc3e c0bc 423f
000002c0: 4e8f dc3e 40ef 723e e469 c73e 000e 813b
000002d0: c2e7 1c3f 5c33 203e 8662 af3e 9e76 483f
000002e0: 4cfb 683f aaaf 883e 33eb 403f 03b9 153f
000002f0: c4e8 9e3e 343e 7f3e 36e1 c33e 6e35 713f
00000300: b945 533f b47b 4c3e 8cc4 c03e edda 373f
00000310: 7c3c 7f3e aa02 d13e 0c1d 713e c890 0d3f
00000320: 20cd 8a3c 42a1 af3e 4383 213f 6076 e63c
00000330: 7087 2a3d aaeb 713f caf1 0f3f c85c 5d3e
00000340: 7651 0b3f 446d ee3e 55f5 713f 5725 253f
00000350: 0b4b 313f 407e ab3e 0c89 1d3f 5e70 c03e
00000360: 23ff 1a3f 6658 b83e de43 203f e0f8 b63d
00000370: 64f5 a23e 1a2d d93e 7b42 2a3f 609f 173d
00000380: 9e27 fc3e bdcd 5f3f c241 413f bd60 553f
00000390: 5813 823d d87d 143f 7620 923e b612 5a3f
000003a0: 5e6e db3e cfbc 5f3f 267b e33e e84b 3a3e
000003b0: 95ba 713f e9c1 153f 816c 033f dae4 0d3f
000003c0: 305a 4a3d 244f eb3e 1a69 9f3e e87d 853d
000003d0: af51 303f f6d5 d23e c0ba da3e 5f57 413f
000003e0: eb67 033f 62ae 583f ec48 483f 484f 3c3f
000003f0: 20e2 443e b858 ec3d 41f3 783f 8c7c d53e

walk_encoder.feature_encoder.weight f4 [32, 136]
-0.05662165 -0.033484753 0.3135389 0.06406455 0.16122536 0.037275974 -0.0075531327 -0.00029826717
-0.07765193 -0.114336826 -0.16847283 0.046530016 0.06553031 -0.047096033 0.062230226 -0.037849054
-0.18097739 -0.14953515 -0.07689217 -0.034903225 0.061207462 -0.1944661 -0.25673282 0.04196225
-0.102698766 0.013329745 0.050197545 -0.10970113 -0.114707075 0.036805753 -0.19212613 -0.29457402
-0.05436226 -0.05099921 -0.019049687 -0.083131045 -0.11293922 -0.12738067 -0.013483453 -0.0494361
-0.06777882 -0.07996875 0.04377426 -0.37128127 0.005609529 0.0618611 0.045727935 0.028554305
0.16630764 -0.002840431 0.10881032 -0.06320655 0.0846658 -0.009676507 -0.10578649 -0.19672824
-0.18387325 -0.24188718 0.04670176 -0.23032005 -0.20415035 8.03458e-05 -0.3106011 -0.21843779
-0.09097957 -0.05326619 -0.06392394 0.058165994 -0.3315341 -0.00035741614 -0.079952136 -0.18071072
0.0076904423 0.032841682 -0.07914382 0.030365918 -0.040709592 -0.0136774825 -0.053462476 -0.027897248
-0.06358163 -0.030240525 0.058664866 0.0039214715 -0.059149045 -0.020945996 -0.1898975 0.055334236
-0.03253363 -0.052183002 0.07106605 -0.04323052 0.024254005 -0.05668063 -0.042045265 0.07308665
-0.048628006 -0.059485957 -0.016319193 0.056372516 0.009071265 0.052531987 0.04144767 0.03918377
0.052720554 0.0064214594 0.073382705 -0.030754082 0.0484605 -0.052488316 -0.012603271 0.008596807
0.006157657 0.064190224 0.0051972386 -0.0010462127 0.020859139 0.0037195198 -0.068269916 0.030514006
0.037649877 -0.05989979 0.05818323 -0.027543154 0.01464339 -0.04763409 -0.046484727 0.015351783
0.083067745 0.08130826 0.052882317 0.071949214 -0.083426654 -0.04263227 0.04720091 -0.18810076
0.014181944 -0.23123235 0.5575086 0.19822803 0.08355429 -0.07944878 -0.0699968 0.052295625
-0.12584485 -0.032698963 -0.031536847 0.07316187 0.0476394 0.0023472665 -0.15961878 -0.0032223123
-0.17023958 -0.16572273 -0.15631095 -0.07680173 0.11625853 -0.07684987 -0.05778879 0.06918249
0.2977322 0.2582343 0.15209247 0.14768021 -0.103522904 0.012796388 0.04185917 -0.06625657
-0.14412184 -0.18744434 0.1611228 0.07806167 0.14802808 -0.085947774 0.30976146 -0.003666067
-0.16132972 0.0101953745 0.21409108 -0.09819638 -0.04980714 0.16133529 -0.023155393 0.008059175
0.17481795 0.07195271 -0.061031025 -0.058218736 -0.0009767637 -0.07556721 0.027234225 -0.06327605
-0.13837567 -0.06398317 0.1664271 -0.22405706 0.21721336 -0.029940965 -0.19432479 -0.2850042
-0.12290538 -0.08773707 0.07933018 0.0045789336 -0.15784815 -0.08447904 0.05476333 -0.11135239
0.08415663 0.079810455 -0.010676556 0.030730428 -0.031726442 -0.0726412 -0.07477709 -0.06820681
0.058470868 -0.006468818 -0.048611898 -0.0061741793 -0.054348413 -0.0353926 -0.15608229 0.026183736
-0.07253334 0.039750993 -0.007284502 0.054307904 -0.08074196 -0.08503307 0.02154672 0.06068325
-0.018330537 -0.044668403 -0.0714287 0.057577804 0.027097326 -0.053226955 0.011265074 -0.011587244
-0.0775563 -0.05737797 0.05340845 0.042767335 0.04617601 0.06615144 0.01836101 0.082247406
-0.018868415 -0.08353109 0.07232112 -0.017031204 0.024432126 0.0013125192 -0.021168226 -0.016563011
00000000: 1aec 67bd 4f27 09bd 2c88 a03e 4634 833d
00000010: 4318 253e b1ae 183d 4580 f7bb be60 9cb9
00000020: fa07 9fbd 6d29 eabd 2484 2cbe 4296 3e3d
00000030: c134 863d c5e7 40bd 1fe5 7e3d 9c07 1bbd
00000040: 2352 39be be1f 19be a479 9dbd aff6 0ebd
00000050: adb4 7a3d 1f22 47be 7c72 83be 9ce0 2b3d
00000060: bb53 d2bd 0165 5a3c f19b 4d3d fcaa e0bd
00000070: 8beb eabd a1c1 163d b6bc 44be 68d2 96be
00000080: f6aa 5ebd 8ce4 50bd 170e 9cbc 9c40 aabd
00000090: ae4c e7bd 1470 02be b3e9 5cbc 827d 4abd
000000a0: 9fcf 8abd a8c6 a3bd a34c 333d 9418 bebe
000000b0: 24d0 b73b 1162 7d3d 374d 3b3d b8ea e93c
000000c0: 8d4c 2a3e 8626 3abb f2d7 de3d 7072 81bd
000000d0: 4365 ad3d 368a 1ebc 96a6 d8bd 2173 49be
000000e0: 4549 3cbe 46b1 77be 584a 3f3d 05d9 6bbe
000000f0: ca0c 51be 537f a838 1b07 9fbe 28ae 5fbe
00000100: 7f53 babd a62d 5abd 8eea 82bd 773f 6e3d
00000110: d6be a9be 9563 bbb9 f2bd a3bd 3b0c 39be
00000120: 1b00 fc3b 0085 063d 2816 a2bd f2c1 f83c
00000130: 1abf 26bd 8517 60bc 78fb 5abd c588 e4bc
00000140: 1637 82bd faba f7bc 924a 703d b07f 803b
00000150: 4546 72bd f096 abbc 7e74 42be 27a6 623d
00000160: fc41 05bd d8bd 55bd 148b 913d 7c12 31bd
00000170: 56b0 c63c f329 68bd a837 2cbd 74ae 953d
00000180: 292e 47bd 8ca7 73bd d4af 85bc dee6 663d
00000190: a59f 143c c82b 573d 08c5 293d 297f 203d
000001a0: 82f1 573d 1b6b d23b ac49 963d fcef fbbc
000001b0: 847e 463d fdfd 56bd f37d 4ebc 9fd9 0c3c
000001c0: 2cc6 c93b 2a76 833d 994d aa3b 1321 89ba
000001d0: c9e0 aa3c 30c3 733b 19d1 8bbd 82f8 f93c
000001e0: c236 1a3d 7b59 75bd 8a51 6e3d 2ea2 e1bc
000001f0: d4ea 6f3c f71b 43bd c566 3ebd 0b86 7b3c
00000200: 6c1f aa3d f284 a63d 219b 583d 1c5a 933d
00000210: 98db aabd 2d9f 2ebd be55 413d 7c9d 40be
00000220: 625b 683c 2cc8 6cbe e2b8 0e3f 4afc 4a3e
00000230: 831e ab3d 0bb6 a2bd 7b5a 8fbd f033 563d
00000240: 79dd 00be 59ef 05bd c82c 01bd e4d5 953d
00000250: 8821 433d 99d4 193b 1b73 23be 6e2d 53bb
00000260: 4953 2ebe 38b3 29be fa0f 20be 3a4a 9dbd
00000270: f418 ee3d 7763 9dbd f0b3 6cbd 8daf 8d3d
00000280: 5b70 983e 4937 843e 21be 1b3e 7b39 173e
00000290: d103 d4bd f1a7 513c 8574 2b3d 86b1 87bd
000002a0: ad94 13be 69f1 3fbe 60fd 243e ccde 9f3d
000002b0: ac94 173e 6305 b0bd 0e99 9e3e 6642 70bb
000002c0: 9e33 25be 800a 273c b13a 5b3e 2f1b c9bd
000002d0: 9202 4cbd 1435 253e 61b0 bdbc a10a 043c
000002e0: 7a03 333e f15b 933d abfb 79bd c576 6ebd
000002f0: c006 80ba fbc2 9abd 4f1a df3c e096 81bd
00000300: 5ab2 0dbe 9c09 83bd de6b 2a3e 376f 65be
00000310: 2e6d 5e3e c146 f5bc 14fd 46be 12ec 91be
00000320: d1b5 fbbd 7eaf b3bd dd77 a23d e10a 963b
00000330: f2a2 21be 5903 adbd 834f 603d b90c e4bd
00000340: 505a ac3d aa73 a33d b9ec 2ebc 61be fb3c
00000350: 96f3 01bd e9c4 94bd bb24 99bd 03b0 8bbd
00000360: 267f 6f3d 61f8 d3bb 451d 47bd c550 cabb
00000370: 719c 5ebd d5f7 10bd 09d4 1fbe 467f d63c
00000380: 5c8c 94bd f0d1 223d d5b2 eebb f771 5e3d
00000390: 0a5c a5bd d125 aebd bf82 b03c 008f 783d
000003a0: ec29 96bc 37f6 36bd 3649 92bd b4d6 6b3d
000003b0: 36fb dd3c 8204 5abd 2591 383c 6dd8 3dbc
000003c0: d6d5 9ebd 2a05 6bbd d2c2 5a3d cd2c 2f3d
000003d0: 0e23 3d3d 687a 873d d469 963c 5471 a83d
000003e0: ef91 9abc 5912 abbd 181d 943d 0685 8bbc
000003f0: e225 c83c d608 ac3a fd68 adbc 27af 87bc

walk_encoder.feature_encoder.bias f4 [32]
-0.049353797 -0.097074956 0.008292549 0.07211837 -0.14050815 0.0039351624 0.097017825 0.06835702
0.1381325 0.11285152 -0.07547489 0.011371457 -0.04771554 -0.041974105 -0.058461413 0.14149602
-0.15803161 0.2598632 0.041929144 0.1112828 0.23937954 -0.056915734 0.020368136 -0.1951085
0.05938177 -0.033171102 -0.023325456 -0.16668269 -0.12281394 0.018422438 -0.10169216 -0.1821692
00000000: 3527 4abd 3ccf c6bd 79dd 073c ccb2 933d
00000010: 5ee1 0fbe 89f2 803b 48b1 c63d c4fe 8b3d
00000020: 9b72 0d3e b31e e73d 9492 9abd 594f 3a3c
00000030: 5f71 43bd 0aed 2bbd 3c75 6fbd 55e4 103e
00000040: 0ad3 21be ca0c 853e e5bd 2b3d 3de8 e33d
00000050: e91f 753e 7920 69bd 14db a63c 86ca 47be
00000060: 4d3a 733d 6cde 07bd 0715 bfbc deae 2abe
00000070: e085 fbbd a7ea 963c fb43 d0bd 908a 3abe

walk_encoder.path_encoder.weight_ih_l0 f4 [96, 32]
0.056437243 0.027705183 0.01953204 -0.040287215 -0.2041008 0.048864394 -0.07291623 0.12154699
0.090375654 -0.15387577 0.13518327 0.053530306 0.024758225 0.036573328 -0.04549235 -0.005126232
0.16589391 -0.18793626 0.062482417 0.13461019 0.139022 -0.10905782 0.021314517 -0.2270196
-0.24829468 -0.17909317 0.2823997 -0.2484165 -0.0333147 -0.14181308 -0.114937365 0.027177894
0.32546455 0.17407249 -0.26199946 -0.22614498 0.04064893 -0.056709472 -0.0459724 0.047095485
0.14707246 -0.3749646 0.17101017 0.16905725 0.10780927 -0.13892053 0.059364274 -0.0386309
0.068135336 -0.09523371 -0.02606683 -0.18358043 -0.04188839 0.086249456 -0.15743169 -0.13502896
0.027126208 -0.059508316 -0.04086096 -0.01557014 -0.21703574 0.07937552 -0.037779287 0.04508491
0.1011976 0.076204784 -0.02305529 -0.11244225 0.071755566 -0.13021566 -0.09197652 0.086175375
-0.09024731 0.0647534 -0.06953348 0.21767408 -0.24994615 0.08259589 0.035246886 0.12452805
0.10105871 0.019641614 0.13057223 -0.40374532 0.11218221 -0.12615001 -0.07884135 0.26505163
0.1994723 0.2404692 0.048384584 0.104603335 0.18176399 0.058925234 0.23616596 0.20408061
0.027618587 0.055198625 0.011573369 -0.15372813 -0.0820813 0.05233492 -0.0852972 -0.04768967
-0.17923258 0.095423795 0.115684316 -0.10212036 0.043658696 -0.04500403 -0.1062239 0.08903586
-0.031879257 -0.2557042 -0.13172585 0.116812706 0.044728573 -0.14152187 0.1387466 -0.14013802
0.0070693754 -0.19819348 0.18713692 -0.0063160304 0.16531809 0.20408016 0.035648003 -0.059215058
-0.24315974 -0.107492335 0.010487517 0.22658174 0.08445544 0.013777059 -0.056066975 -0.05102662
-0.16314217 -0.26263234 0.13913205 0.047338895 0.21422616 0.2379363 0.20856494 -0.28451726
-0.25492826 -0.13286611 -0.039531928 -0.08408016 -0.16112657 0.14979194 -0.0050760247 0.0063600396
-0.13594288 0.22566602 0.27952847 0.20653515 0.16260912 -0.35965678 -0.03887829 0.008649655
-0.055684745 -0.04219911 0.22586043 0.05269021 0.15585479 -0.0816028 0.27118483 -0.059561364
-0.00474632 0.028568443 -0.10690119 -0.19941695 0.06749302 -0.053865306 0.02726512 0.12337917
-0.013039207 0.17433764 0.011663381 0.24070671 0.09663882 -0.19635749 0.11177279 0.10865146
-0.08090034 -0.15495329 -0.28377736 -0.03850632 -0.24663453 0.00913244 0.11617497 -0.02402313
-0.20454954 0.080539845 0.029901028 0.33575633 -0.03702907 -0.0655481 0.13663061 0.064895056
-0.28457364 -0.1904363 -0.046896763 -0.16880384 -0.011791596 0.11996453 -0.13037081 0.22733854
0.13241976 0.11432058 -0.25470957 0.22767809 0.003063629 0.05157368 0.13797688 -0.15019447
-0.36035487 -0.16700491 0.13985585 -0.33616138 0.20635642 -0.1423116 -0.27473935 0.09674843
-0.18722245 -0.15065199 0.04896269 0.20263061 0.042824823 -0.06634019 -0.06918284 -0.120213814
0.011897914 -0.13749443 -0.04872025 -0.025784677 0.095744655 0.07529543 0.16701116 -0.0916384
-0.070256844 -0.17676955 -0.06714209 -0.15276486 -0.017191788 -0.12656724 -0.021808062 0.08741218
-0.18506737 0.073517784 0.1865809 0.16500208 0.21945252 -0.15365523 -0.13838737 0.15960416
00000000: bd2a 673d fbf5 e23c a801 a03c 3504 25bd
00000010: cdff 50be 0826 483d 1b55 95bd a1ed f83d
00000020: df16 b93d 9c91 1dbe 7c6d 0a3e 9842 5b3d
00000030: c3d1 ca3c eacd 153d 3056 3abd f3f9 a7bb
00000040: 18e0 293e 5d72 40be 90ed 7f3d 41d7 093e
00000050: c85b 0e3e b559 dfbd c89b ae3c d377 68be
00000060: f640 7ebe 3364 37be b296 903e e560 7ebe
00000070: ff74 08bd 7337 11be 4864 ebbd 2da4 de3c
00000080: 4aa3 a63e 0f40 323e cb24 86be 8d92 67be
00000090: 7e7f 263d 3148 68bd 8e4d 3cbd 32e7 403d
000000a0: 2a9a 163e 5cfb bfbe 4a1d 2f3e 581d 2d3e
000000b0: 1bcb dc3d 2f41 0ebe f427 733d 6f3b 1ebd
000000c0: 8a8a 8b3d e409 c3bd 1b8a d5bc 82fc 3bbe
000000d0: 2993 2bbd 8ea3 b03d c635 21be 0845 0abe
000000e0: c837 de3c febe 73bd d25d 27bd e719 7fbc
000000f0: 9e3e 5ebe a28f a23d 74be 1abd f4aa 383d
00000100: b040 cf3d 4111 9c3d 73de bcbc 1f48 e6bd
00000110: 95f4 923d 4157 05be 305e bcbd b77c b03d
00000120: 95d3 b8bd 6e9d 843d 9267 8ebd f4e5 5e3e
00000130: e2f1 7fbe 0928 a93d 0a5f 103d 9008 ff3d
00000140: def7 ce3d 73e7 a03c bab4 053e b5b7 cebe
00000150: c9bf e53d 782d 01be 9377 a1bd d9b4 873e
00000160: 7742 4c3e 8f3d 763e ea2e 463d 463a d63d
00000170: 5720 3a3e 965b 713d 7dd5 713e 82fa 503e
00000180: 6040 e23c f417 623d 3a9e 3d3c e86a 1dbe
00000190: 3e1a a8bd 245d 563d 4cb0 aebd 3e56 43bd
000001a0: bf88 37be 8d6d c33d e6eb ec3d 7b24 d1bd
000001b0: 76d3 323d 2556 38bd eb8b d9bd 6f58 b63d
000001c0: d393 02bd a9eb 82be 24e3 06be 803b ef3d
000001d0: 4f35 373d 1ceb 10be 9713 0e3e 5780 0fbe
000001e0: 38a6 e73b 3bf3 4abe d2a0 3f3e b4f6 cebb
000001f0: 2549 293e 64fa 503e a403 123d 7d8b 72bd
00000200: defe 78be f124 dcbd d6d3 2b3c 0b05 683e
00000210: f9f6 ac3d 2cb9 613c 7ca6 65bd 4a01 51bd
00000220: be0e 27be bf77 86be a278 0e3e 6ee6 413d
00000230: 1a5e 5b3e 93a5 733e 0c92 553e 3fac 91be
00000240: f585 82be 0e0e 08be 3bec 21bd 3832 acbd
00000250: 5dfe 24be 0f63 193e c854 a6bb e167 d03b
00000260: 9c34 0bbe fe14 673e 5b1e 8f3e f37d 533e
00000270: 0183 263e ef24 b8be d83e 1fbd 48b7 0d3c
00000280: b015 64bd f9d8 2cbd f547 673e b1d1 573d
00000290: 6698 1f3e 5e1f a7bd bdd8 8a3e 9ef6 73bd
000002a0: 0587 9bbb 5e08 ea3c 03ef dabd f533 4cbe
000002b0: c839 8a3d dea1 5cbd 1a5b df3c 38ae fc3d
000002c0: 66a2 55bc 9185 323e c417 3f3c d27b 763e
000002d0: 93ea c53d f011 49be 22e9 e43d a884 de3d
000002e0: 14af a5bd 13ac 1ebe 444b 91be ceb8 1dbd
000002f0: c38d 7cbe 3ba0 153c 25ed ed3d 28cc c4bc
00000300: 6f75 51be 13f2 a43d 00f3 f43c 41e8 ab3e
00000310: cbab 17bd 153e 86bd e5e8 0b3e b3e7 843d
00000320: a3b3 91be bc01 43be d216 40bd eada 2cbe
00000330: 8a31 41bc f7af f53d ed7f 05be 6fcb 683e
00000340: 0c99 073e e920 ea3d 4b69 82be 7224 693e
00000350: 2ac7 483b ec3e 533d d049 0d3e 94cc 19be
00000360: 6f80 b8be 5603 2bbe 5f36 0f3e 581d acbe
00000370: 194f 533e 22ba 11be a3aa 8cbe 0a24 c63d
00000380: 3eb7 3fbe 8444 1abe 1a8d 483d 667e 4f3e
00000390: 1569 2f3d 5edd 87bd bcaf 8dbd a932 f6bd
000003a0: 78ef 423c 57cb 0cbe e38e 47bd 633a d3bc
000003b0: c615 c43d 7e34 9a3d f904 2b3e eaac bbbd
000003c0: d2e2 8fbd 1403 35be cb81 89bd 646e 1cbe
000003d0: cbd5 8cbc d89a 01be d2a6 b2bc 2805 b33d
000003e0: 4d82 3dbe 7e90 963d 100f 3f3e 4ef6 283e
000003f0: 29b8 603e cc57 1dbe 6bb5 0dbe 466f 233e

walk_encoder.path_encoder.weight_hh_l0 f4 [96, 32]
0.06916519 0.21088926 0.032454092 0.078832194 0.25270733 -0.1971312 -0.022344366 -0.2974491
-0.06360657 0.08963822 -0.11279002 0.087728456 -0.069394365 0.28614026 0.14526513 -0.067121044
-0.020590741 0.008016183 0.08865617 0.104068756 -0.06847844 -0.1686152 0.0006821131 -0.017157625
0.017021446 -0.009007286 -0.04988522 0.15961106 0.10756676 -0.0014657656 -0.2289795 -0.08616668
-0.15195331 -0.15287481 -0.06549551 0.07040816 -0.0150005575 -0.12664177 -0.17024077 0.07617309
-0.13645147 -0.08356157 -0.072428465 0.23565575 0.21908548 -0.08625006 -0.0699326 0.012195652
0.16116934 -0.065768495 0.006638724 -0.21093026 -0.15048192 0.054817118 -0.29959103 0.19145805
0.15467434 -0.072533056 -0.035032615 0.018657517 0.107748486 -0.117183 0.15332364 0.12717177
-0.19239442 0.05493417 -0.32438672 0.1390057 -0.10556588 -0.12998354 0.026814388 0.2131372
0.07213846 0.25895554 0.19876988 -0.31166443 -0.18478264 -0.04518895 -0.18937317 0.2551519
-0.18269046 0.15738009 -0.108607076 0.119233705 0.12959476 0.038692422 -0.2011362 -0.2408808
0.17922619 -0.011978074 0.121992804 -0.29127192 -0.26229122 -0.22915277 0.1949125 0.21821359
-0.14477287 -0.18662351 -0.123393565 0.13607292 -0.21464854 -0.116615035 -0.09138824 0.2751332
-0.16687763 0.08170284 -0.16269115 0.122609675 0.07066063 -0.24545789 -0.20472905 -0.010008712
-0.03291861 0.032088913 -0.009620135 0.048158683 -0.0586738 0.25595373 -0.19484513 -0.1749638
0.30249006 -0.061142124 -0.10808746 -0.31468102 -0.020762116 -0.15683976 0.18674096 0.081441715
0.054145627 -0.36456016 -0.12297253 -0.08955216 0.08600298 -0.06809888 0.019267268 -0.018514877
-0.14807454 0.055138446 -0.2456816 -0.035392407 -0.16417857 -0.1533095 0.17154717 -0.1516181
-0.0934632 -0.15555796 -0.07865285 -0.105976894 -0.19638996 0.039433714 -0.23840211 -0.013455878
0.10796578 -0.13477802 -0.117845945 0.0685864 -0.31834716 -0.10428832 0.00053329597 -0.12802124
0.005455149 0.113279425 -0.025454322 0.22207025 -0.107867986 -0.2680549 -0.048315603 0.012768187
0.031724297 -0.08504681 -0.015228881 0.16748472 0.2734049 -0.1001202 0.079366684 -0.20989743
0.07152864 0.120796755 -0.028712202 -0.12599573 0.17356777 -0.13278094 -0.04094366 0.031808265
0.11741739 0.004066231 0.18649127 0.15755902 -0.019399758 -0.045820042 -0.060970012 -0.16221258
0.27306303 -0.048944965 0.016331265 -0.107312106 0.107883334 -0.16146252 -0.19773738 -0.038123455
-0.17281519 -0.16836567 -0.18264948 0.1270953 -0.0025174608 -0.018654834 0.19388011 0.103149936
-0.3563907 -0.24015035 -0.003342316 0.02573178 -0.0053311056 0.06314554 0.116332136 0.14951776
-0.031887006 -0.17214519 -0.12452757 -0.04309712 -0.08756377 -0.16792941 -0.2606883 0.025023542
-0.2759487 -0.24898784 -0.21899603 -0.024749525 0.21034393 -0.33547935 -0.0917863 0.1844757
-0.15079254 0.056134935 -0.40255284 0.09051991 0.11608273 -0.20757477 -0.03852534 0.26157078
0.0916803 -0.24110937 -0.12052836 0.06789297 -0.05707976 -0.12328076 -0.3357908 0.13942434
0.05948037 0.103727244 0.108673535 -0.15475626 -0.14508148 -0.0056192367 0.21363859 0.14598441
00000000: 7ba6 8d3d 5bf3 573e 95ee 043d c672 a13d
00000010: db62 813e c3dc 49be 880b b7bc 404b 98be
00000020: 2944 82bd 3e94 b73d 74fe e6bd faaa b33d
00000030: a21e 8ebd fa80 923e 62c0 143e c276 89bd
00000040: eaad a8bc 4f56 033c 5e91 b53d 0022 d53d
00000050: 6d3e 8cbd 77a9 2cbe d6cf 323a 268e 8cbc
00000060: 8f70 8b3c 4c93 13bc 7254 4cbd 1571 233e
00000070: f64b dc3d ef1e c0ba 9a79 6abe 2878 b0bd
00000080: a699 1bbe 378b 1cbe 8322 86bd 2732 903d
00000090: e6c4 75bc 61ae 01be 9953 2ebe a300 9c3d
000000a0: efb9 0bbe 5422 abbd 6055 94bd be4f 713e
000000b0: f257 603e dfa3 b0bd d338 8fbd 46d0 473c
000000c0: 9309 253e a2b1 86bd a789 d93b 1afe 57be
000000d0: ef17 1abe ea87 603d ff63 99be 940d 443e
000000e0: f362 1e3e 368c 94bd 5c7e 0fbd a6d7 983c
000000f0: 3dab dc3d a4fd efbd df00 1d3e 5139 023e
00000100: 0b03 45be a702 613d 0416 a6be 8357 0e3e
00000110: ed32 d8bd 681a 05be d9a9 db3c a340 5a3e
00000120: 54bd 933d d295 843e 558a 4b3e 7b92 9fbe
00000130: a937 3dbe 0c18 39bd 0aeb 41be 45a3 823e
00000140: 3513 3bbe 3f28 213e 636d debd cd30 f43d
00000150: 7db4 043e f27b 1e3d a6f6 4dbe 75a9 76be
00000160: 1287 373e af3f 44bc 5dd7 f93d 9821 95be
00000170: 094b 86be 06a7 6abe 2497 473e 6273 5f3e
00000180: 573f 14be 3c1a 3fbe c4b5 fcbd b356 0b3e
00000190: d4cc 5bbe ddd3 eebd c229 bbbd 42de 8c3e
000001a0: f8e1 2abe d253 a73d 8298 26be c81a fb3d
000001b0: 85b6 903d 5059 7bbe 7ea4 51be 95fb 23bc
000001c0: aad5 06bd aa6f 033d c59d 1dbc 0a42 453d
000001d0: f053 70bd 5e0c 833e 7b85 47be b629 33be
000001e0: fadf 9a3e 2a70 7abd f55c ddbd df1d a1be
000001f0: 5015 aabc 9a9a 20be 0639 3f3e eaca a63d
00000200: cec7 5d3d a1a7 babe 06d9 fbbd 1f67 b7bd
00000210: 5522 b03d 6d77 8bbd 64d6 9d3c 83ac 97bc
00000220: daa0 17be dad8 613d f593 7bbe a1f7 10bd
00000230: 6d1e 28be 2afd 1cbe 10aa 2f3e c641 1bbe
00000240: a269 bfbd 964a 1fbe bf14 a1bd 6a0a d9bd
00000250: 731a 49be 3f85 213d af1f 74be 0b76 5cbc
00000260: 2a1d dd3d 4003 0abe 3759 f1bd 0777 8c3d
00000270: 66fe a2be 1d95 d5bd e3cc 0b3a 0018 03be
00000280: 1bc1 b23b 0bff e73d 9585 d0bc 6266 633e
00000290: e4e9 dcbd 7e3e 89be 95e6 45bd a831 513c
000002a0: 56f1 013d 062d aebd 8e82 79bc 1d81 2b3e
000002b0: bafb 8b3e d20b cdbd 008b a23d 5aef 56be
000002c0: 9c7d 923d 4a64 f73d da35 ebbc 0605 01be
000002d0: c0bb 313e baf7 07be 8ab4 27bd 6249 023d
000002e0: 8778 f03d 053e 853b 91f7 3e3e 2757 213e
000002f0: 3eec 9ebc ccad 3bbd b1bb 79bd 0e1b 26be
00000300: ebce 8b3e 847a 48bd 25c9 853c 73c6 dbbd
00000310: f0f1 dc3d 6e56 25be ab7b 4abe 5727 1cbd
00000320: 77f6 30be 0d68 2cbe 7708 3bbe 4525 023e
00000330: fcfb 24bb 06d2 98bc 8288 463e 4640 d33d
00000340: d878 b6be f9e9 75be c20a 5bbb 74cb d23c
00000350: 8eb0 aebb 7352 813d 8b3f ee3d 2f1b 193e
00000360: f39b 02bd d446 30be 5008 ffbd 9b86 30bd
00000370: a254 b3bd b0f5 2bbe f078 85be 2cfe cc3c
00000380: 2649 8dbe abf6 7ebe 7f40 60be 84bf cabc
00000390: 6664 573e f3c3 abbe 75fa bbbd 33e7 3c3e
000003a0: 5c69 1abe bfed 653d 681b cebe 8162 b93d
000003b0: c8bc ed3d 7b8e 54be bfcc 1dbd 9bec 853e
000003c0: e2c2 bb3d 60e5 76be 93d7 f6bd 780b 8b3d
000003d0: 77cc 69bd a07a fcbd c6ec abbe 41c5 0e3e
000003e0: b0a1 733d f36e d43d 3b90 de3d 6d78 1ebe
000003f0: 3d90 14be 9321 b8bb 13c4 5a3e f07c 153e

walk_encoder.path_encoder.bias_ih_l0 f4 [96]
-0.14019968 -0.001084056 -0.16339998 -0.28171802 -0.061070897 0.008910734 -0.0593165 0.014344671
-0.2605849 -0.106173456 0.0022779037 -0.033086814 -0.25926152 -0.16126691 -0.37554678 -0.0638859
0.03328253 -0.1175904 -0.06950656 -0.20343965 -0.017355023 0.059673034 -0.031988863 -0.048820987
0.21204315 -0.042139143 0.05980394 -0.18385656 -0.20939381 -0.056891184 -0.13283508 -0.12226845
0.32411993 -0.058810454 -0.12597367 0.2307403 0.18325691 -0.0934058 0.017675316 0.21763337
0.0708968 0.4090936 0.27977675 0.114999056 -0.096294224 -0.11656631 0.26016906 -0.04235654
0.28418696 0.20609327 0.30977413 -0.05136991 0.23158662 -0.16467257 0.040265787 0.11792903
0.007134279 0.3022116 0.27839068 -0.0005627221 0.05795694 0.29632774 0.21017252 0.1907498
-0.19339815 0.23119695 0.18172166 -0.15950285 0.10516443 0.3781571 0.19366382 -0.12516925
0.18081449 0.13808629 0.0071147126 -0.2018155 -0.2688903 0.05590646 0.16437036 -0.16071685
0.11630967 0.12464292 0.18545382 0.15947661 0.11806994 -0.3205984 0.25224337 -0.14166053
-0.14960234 -0.070970565 0.08101197 0.18161502 0.14390521 0.14924438 0.058267202 -0.059066076
00000000: 8190 0fbe e216 8eba 5352 27be 583d 90be
00000010: 7a25 7abd 54fe 113c dcf5 72bd e905 6b3c
00000020: 626b 85be 7871 d9bd e248 153b 0a86 07bd
00000030: edbd 84be 2723 25be ab47 c0be 9cd6 82bd
00000040: 4353 083d 3cd3 f0bd 7559 8ebd 7c52 50be
00000050: 1f2c 8ebc b66b 743d c106 03bd 84f8 47bd
00000060: d721 593e 189a 2cbd faf4 743d e544 3cbe
00000070: 556b 56be bb06 69bd eb05 08be e267 fabd
00000080: 0cf3 a53e 3be3 70bd 3eff 00be 2f47 6c3e
00000090: b3a7 3b3e 8a4b bfbd d3cb 903c 48db 5e3e
000000a0: 5732 913d b774 d13e e63e 8f3e a084 eb3d
000000b0: e835 c5bd 51ba eebd e134 853e 0d7e 2dbd
000000c0: f480 913e 1d0a 533e b79a 9e3e 4169 52bd
000000d0: 0b25 6d3e ed9f 28be bded 243d c684 f13d
000000e0: abc6 e93b 7bbb 9a3e 3989 8e3e a483 13ba
000000f0: 4264 6d3d 45b8 973e 7737 573e ea53 433e
00000100: 2a0a 46be e5be 6c3e 3e15 3a3e b754 23be
00000110: 7360 d73d cf9d c13e cf4f 463e 5e2c 00be
00000120: 6f27 393e 7e66 0d3e 8922 e93b b9a8 4ebe
00000130: fdab 89be 2cfe 643d b450 283e f592 24be
00000140: c433 ee3d ca44 ff3d 9be7 3d3e d64d 233e
00000150: a7ce f13d 7925 a4be 0b26 813e 750f 11be
00000160: 5b31 19be 0459 91bd 9be9 a53d 4af9 393e
00000170: e35b 133e 85d3 183e 97a9 6e3d 45ef 71bd

walk_encoder.path_encoder.bias_hh_l0 f4 [96]
-0.019579373 -0.026869155 0.0482259 -0.3277089 -0.08341785 -0.08891846 0.034555126 0.017643673
-0.23567873 -0.032325823 0.060947735 -0.23087572 -0.2592462 0.07049674 -0.035060517 -0.003252963
-0.15041548 -0.1710519 -0.11395786 -0.28909022 -0.15199986 0.030908333 0.0060434625 -0.07819253
0.3009764 -0.01157038 0.0028092144 -0.06389077 -0.038659398 -0.19549859 -0.032820866 -0.14424883
0.042338382 -0.058985107 -0.11786372 0.15561633 0.15708351 0.06074346 -0.050113726 0.1863373
0.06901866 0.24098903 0.088088445 -0.045335 0.12495327 -0.03564103 -0.052721508 -0.07971092
0.093396634 0.1551445 0.21219647 0.20875445 0.22086555 0.09698607 0.1115276 0.2240806
0.2656283 0.21664092 0.025103552 -0.11314191 0.090301074 0.07064368 0.13251519 0.060043532
0.21855496 0.06715225 -0.009144296 -0.01259216 0.24021001 0.2203247 0.24173748 -0.05528924
-0.06245928 0.0027460554 0.05149187 -0.12630261 -0.01251261 0.23096544 0.12659025 0.14469163
-0.013077209 0.1543444 -0.010697067 0.16393577 0.009834496 -0.08000752 -0.13670124 -0.13064693
-0.06834943 0.22522475 0.095258445 -0.1518556 -0.093186624 -0.019796183 0.10846643 0.0016620226
00000000: ec64 a0bc b41c dcbc 8588 453d 76c9 a7be
00000010: fad6 aabd e21a b6bd ad89 0d3d 7789 903c
00000020: c455 71be 1568 04bd 55a4 793d af6a 6cbe
00000030: ebbb 84be 9860 903d 9e9b 0fbd aa2f 55bb
00000040: 8406 1abe 3b28 2fbe bd62 e9bd a203 94be
00000050: daa5 1bbe 7933 fd3c 3d08 c63b 6823 a0bd
00000060: 9419 9a3e b191 3dbc cc1a 383b 2ad9 82bd
00000070: 5159 1ebd c830 48be 2c6f 06bd f7b5 13be
00000080: 036b 2d3d 5e9a 71bd 8962 f1bd e359 1f3e
00000090: 80da 203e 22ce 783d 0d44 4dbd 35cf 3e3e
000000a0: a859 8d3d d4c5 763e b767 b43d 31b1 39bd
000000b0: 80e7 ff3d 54fc 11bd 82f2 57bd 7b3f a3bd
000000c0: bc46 bf3d 33de 1e3e 084a 593e bac3 553e
000000d0: 942a 623e a2a0 c63d 9568 e43d 6375 653e
000000e0: 6f00 883e 1ed7 5d3e f7a5 cd3c f2b6 e7bd
000000f0: c5ef b83d a2ad 903d 10b2 073e 35f0 753d
00000100: dfcc 5f3e 1e87 893d f5d1 15bc 594f 4ebc
00000110: 9df9 753e cc9c 613e 088a 773e f876 62bd
00000120: 4dd5 7fbd 2af7 333b 24e9 523d 7955 01be
00000130: b101 4dbc 3482 6c3e e0a0 013e 0b2a 143e
00000140: ca41 56bc 750c 1e3e c042 2fbc c7de 273e
00000150: de20 213c fcda a3bd 69fb 0bbe 4fc8 05be
00000160: c9fa 8bbd 51a1 663e dc16 c33d 0980 1bbe
00000170: a1d8 bebd 9b2b a2bc a623 de3d 39d8 d93a

bn.weight f4 [32]
0.96097827 0.9849365 0.82151663 0.84999335 0.7888324 0.87617177 0.8032856 0.9418749
0.7826717 0.8142019 1.0077733 0.87656724 0.99548596 0.93226105 0.9469948 0.894874
0.91154414 0.93053067 0.8884713 0.8040206 0.8965381 0.85948616 0.9029322 0.877114
0.8552064 0.86198515 0.91442955 0.98458856 0.82820773 0.7818179 0.862848 0.7700815
00000000: ac02 763f cc24 7c3f ea4e 523f 2a99 593f
00000010: ecf0 493f cb4c 603f 20a4 4d3f b71e 713f
00000020: 2c5d 483f 896f 503f b7fe 803f b666 603f
00000030: 2bd8 7e3f a9a8 6e3f 406e 723f 7616 653f
00000040: f55a 693f 4237 6e3f db72 633f 4bd4 4d3f
00000050: 8583 653f 4907 5c3f 9126 673f 8b8a 603f
00000060: ceee 5a3f 0fab 5c3f 0e18 6a3f ff0d 7c3f
00000070: 6c05 543f 3825 483f 9be3 5c3f 1024 453f

bn.bias f4 [32]
0.09259379 0.14275159 0.22309603 -0.04628627 0.17458677 -0.0055846907 -0.054350317 -0.10739048
-0.0056420425 -0.15133035 0.011650967 0.021694535 0.02405424 0.12236631 0.11513322 -0.15306677
-0.06489812 -0.12702277 0.17556584 0.09580349 -0.1670054 0.14678255 0.1020413 0.21125363
-0.1453824 0.010013153 -0.080082536 0.16965774 -0.030422812 0.04444235 -0.0068931514 -0.2411989
00000000: d0a1 bd3d 792d 123e 4973 643e ac96 3dbd
00000010: e0c6 323e c8ff b6bb 709e 5ebd 8aef dbbd
00000020: e2e0 b8bb 58f6 1abe b3e3 3e3c bdb8 b13c
00000030: 660d c53c 309b fa3d f7ca eb3d 89bd 1cbe
00000040: 4ee9 84bd 4212 02be 88c7 333e 9f34 c43d
00000050: 7703 2bbe 2a4e 163e 07fb d03d df52 583e
00000060: 20df 14be 350e 243c 5002 a4bd c2ba 2d3e
00000070: 4339 f9bc 2e09 363d f2df e1bb d8fc 76be

bn.running_mean f4 [32]
0.050173603 0.405208 0.4420682 -0.17134808 0.06814613 0.68916416 0.5258283 -0.12104688
0.2700414 0.01071978 0.22091216 -0.13547595 -0.063442744 0.40628105 0.20713508 -0.31994018
0.06141235 0.09266632 0.25844574 -0.011495647 0.027579406 -0.3220172 0.46039197 0.010762161
-0.15018678 -0.043870065 0.06498463 0.4151563 0.34089112 0.22935735 -0.15600146 -0.2252282
00000000: d682 4d3d 6c77 cf3e c356 e23e df75 2fbe
00000010: 3390 8b3d 106d 303f af9c 063f 6de7 f7bd
00000020: de42 8a3e 04a2 2f3c cc36 623e 35ba 0abe
00000030: 45ee 81bd 1204 d03e 381b 543e 33cf a3be
00000040: 848b 7b3d d7c7 bd3d 0053 843e 3d58 3cbc
00000050: 35ee e13c 70df a4be 7fb8 eb3e c653 303c
00000060: 90ca 19be 19b1 33bd a916 853d 5e8f d43e
00000070: 4889 ae3e a7dc 6a3e d9be 1fbe 39a2 66be

bn.running_var f4 [32]
0.008960022 0.0056470186 0.0078040855 0.0040019797 0.0068746177 0.0039494154 0.016203605 0.010318563
0.0048691165 0.0022520255 0.005757814 0.0050679436 0.0069467975 0.0114139505 0.003707119 0.010784774
0.0036710277 0.006453764 0.010478263 0.0041203615 0.0034163042 0.0042409664 0.0046054623 0.0028344742
0.00559174 0.0060035833 0.014277576 0.008849981 0.0054808143 0.0034802214 0.0040029017 0.0029297406
00000000: 0ecd 123c a00a b93b 6ab9 ff3b 0a23 833b
00000010: 7944 e13b 196a 813b 6cbd 843c 310f 293c
00000020: 1c8d 9f3b b896 133b 0bac bc3b fe10 a63b
00000030: f6a1 e33b 9401 3b3c 23f3 723b 9fb2 303c
00000040: a095 703b 197a d33b 05ad 2b3c 1904 873b
00000050: 13e4 5f3b cef7 8a3b 6be9 963b 96c2 393b
00000060: ea3a b73b b5b9 c43b 7eec 693c 83ff 103c
00000070: 6798 b33b 6d14 643b c62a 833b e400 403b

fc1.weight f4 [64, 32]
-0.051402822 -0.252338 -0.2336402 -0.074837394 -0.22136895 -0.013783081 -0.043399345 0.1706796
-0.11727276 0.123106845 -0.08828458 -0.1713096 -0.22942157 -0.119201355 -0.04605645 0.15546277
-0.14751825 0.12611102 0.0029295145 -0.036051955 0.15423475 -0.03896594 -0.1452497 -0.1451842
0.14144914 -0.12935981 -0.12778467 -0.11045802 0.0071430574 -0.0041219555 0.1483263 0.11643053
-0.11220538 -0.2613085 -0.092073835 0.025579603 0.21745117 0.16611826 -0.15727542 0.039343014
-0.0054445975 -0.0967051 -0.16380894 0.011227616 -0.18763769 0.04137027 0.16080494 0.0992255
0.12936553 -0.14510255 0.03951709 0.17213632 -0.17826733 0.00994659 -0.12731192 0.011698596
-0.0056881765 -0.15995209 0.07713784 -0.15954731 -0.01578881 0.025549838 0.0020123017 0.08734083
0.14704925 -0.21167412 -0.19521594 0.14965793 -0.007565563 0.040177584 0.07457752 -0.11056819
-0.1994579 -0.046718117 -0.17584433 0.1536259 -0.020075185 -0.05304859 -0.025612995 0.072080396
0.06678392 -0.2486246 0.12963153 -0.043683957 0.005342696 0.2550362 0.0005729627 -0.0014158264
0.01301224 -0.103000306 0.06668748 -0.07784612 -0.2653712 0.10169289 -0.04779148 -0.062273778
-0.1488915 -0.0018131357 -0.010339767 0.09044776 0.024641728 -0.08479102 0.03855139 0.015044837
-0.13201256 0.028132418 0.002183716 0.13525298 -0.15589324 0.079833634 0.1540803 -0.06572555
-0.14883158 0.07969904 -0.1840603 0.020902982 0.10455309 0.15178582 -0.11908424 0.146305
0.00493154 -0.0185073 0.012694378 -0.18332295 0.0047443286 -0.25056347 -0.1629605 0.012133099
0.119477764 0.0022566195 0.06844925 -0.10090177 0.09747815 -0.10961146 0.09791259 -0.040602755
-0.10846242 0.09221877 -0.016428439 -0.0039006462 -0.13509266 0.104470834 -0.076599285 0.12123475
-0.16253011 -0.08968955 -0.019431937 -0.064860545 0.183755 0.052876703 0.017043231 -0.033930685
0.0697114 0.11935769 0.007869728 0.010704451 -0.21345608 -0.05363126 -0.03146166 -0.08924596
-0.16106988 -0.25295153 -0.079489 -0.13395998 -0.026803713 -0.0031099468 0.09361936 0.117471315
0.10619031 0.16542172 -0.15252833 -0.045288846 -0.05888068 -0.1009776 0.040280644 -0.06807307
-0.081375755 0.015289022 0.10573381 0.1841394 0.08405398 0.18141574 -0.26778954 -0.1323921
0.072604984 0.07491054 -0.15800382 -0.057432678 -0.09112946 -0.03082627 0.08493882 0.18762924
-0.04987779 -0.01576551 -0.16743375 -0.17768224 -0.075731784 0.03223798 0.18563725 -0.055005416
0.06271486 0.11062416 -0.027340084 0.020560393 -0.05592832 -0.099316485 0.08060557 -0.06108095
-0.11209648 0.0019590724 -0.06465554 -0.08407888 -0.10175371 -0.066904955 0.086343154 0.08169809
0.15641084 -0.13767315 0.043458104 0.08840847 0.14439788 0.11839918 0.04297497 -0.10853829
-0.20368831 0.020813752 -0.14131561 -0.04848228 -0.0540619 -0.11926787 -0.14628656 0.19920479
-0.11133921 -0.065273546 -0.31930184 -0.042175 0.12830359 -0.07397222 -0.10365185 0.12870513
0.095023334 0.2618957 -0.08278782 -0.1616663 0.21330398 -0.13809434 -0.053995498 -0.13634431
0.002088505 -0.0550026 0.0747149 -0.14710674 -0.13566451 -0.18204188 0.042180356 0.020441765
00000000: c48b 52bd 7232 81be 603f 6fbe 5944 99bd
00000010: 8bae 62be 6fd2 61bc 83c3 31bd a2c6 2e3e
00000020: b32c f0bd 711f fc3d 8cce b4bd c96b 2fbe
00000030: 7ded 6abe d71f f4bd b0a5 3cbd a231 1f3e
00000040: 060f 17be 3f23 013e 19fd 3f3b 37ab 13bd
00000050: b7ef 1d3e c09a 1fbd 56bc 14be 2bab 14be
00000060: 0bd8 103e e676 04be fcd9 02be d037 e2bd
00000070: 4f10 ea3b 7811 87bb d9e2 173e 2173 ee3d
00000080: efcb e5bd 3aca 85be 3591 bcbd 518c d13c
00000090: 85ab 5e3e e81a 2a3e cf0c 21be 2426 213d
000000a0: 9868 b2bb 530d c6bd 88bd 27be 09f4 373c
000000b0: 1824 40be df73 293d 0daa 243e bd36 cb3d
000000c0: 6678 043e c395 14be acdc 213d 8144 303e
000000d0: b68b 36be 06f7 223c 0e5e 02be 78ab 3f3c
000000e0: e263 babb 7bca 23be 72fa 9d3d 5f60 23be
000000f0: 8957 81bc e54d d13c d2e0 033b c0df b23d
00000100: 1494 163e 1ac1 58be b0e6 47be ee3f 193e
00000110: 8be8 f7bb 4091 243d 19bc 983d 9371 e2bd
00000120: b13e 4cbe 7f5b 3fbd 8910 34be 1c50 1d3e
00000130: b774 a4bc 7a49 59bd 58d2 d1bc e39e 933d
00000140: 02c6 883d 7297 7ebe 21be 043e f3ed 32bd
00000150: c811 af3b 1b94 823e e032 163a 4093 b9ba
00000160: 4a31 553c d3f1 d2bd 7293 883d c96d 9fbd
00000170: bcde 87be 5d44 d03d 00c1 43bd ca12 7fbd
00000180: 0377 18be bda6 edba 2068 29bc ad3c b93d
00000190: 73dd c93c eaa6 adbd 10e8 1d3d 9f7e 763c
000001a0: 4d2e 07be f575 e63c ad1c 0f3b c27f 0a3e
000001b0: 7aa2 1fbe d17f a33d 3ac7 1d3e 1e9b 86bd
000001c0: 4e67 18be 4039 a33d 4e7a 3cbe bb3c ab3c
000001d0: ee1f d63d be6d 1b3e 70e2 f3bd fad0 153e
000001e0: c298 a13b 9f9c 97bc 15fc 4f3c 03b9 3bbe
000001f0: 5076 9b3b db49 80be 1edf 26be e8c9 463c
00000200: c2b0 f43d cbe3 133b 1f2f 8c3d 96a5 cebd
00000210: a0a2 c73d f97b e0bd 6586 c83d 134f 26bd
00000220: 8c21 debd 32dd bc3d ef94 86bc fca1 7fbb
00000230: bb55 0abe cef4 d53d 16e0 9cbd ed49 f83d
00000240: 4b6e 26be 28af b7bd ba2f 9fbc 9bd5 84bd
00000250: 452a 3c3e 3e95 583d 3f9e 8b3c e7fa 0abd
00000260: dac4 8e3d ce71 f43d 08f0 003c b961 2f3c
00000270: 3b94 5abe 74ac 5bbd f1dd 00bd 96c6 b6bd
00000280: 81ef 24be dd82 81be 21cb a2bd ce2c 09be
00000290: 7693 dbbc 40d0 4bbb 82bb bf3d cd94 f03d
000002a0: 4e7a d93d 5064 293e 6330 1cbe cc80 39bd
000002b0: de2c 71bd 58cd cebd 51fd 243d e569 8bbd
000002c0: 55a8 a6bd ce7e 7a3c f88a d83d 0a8f 3c3e
000002d0: 7e24 ac3d 0cc5 393e b61b 89be cb91 07be
000002e0: ecb1 943d b26a 993d c1cb 21be 873e 6bbd
000002f0: 15a2 babd 6087 fcbc 67f4 ad3d e121 403e
00000300: a74c 4cbd ac26 81bc c173 2bbe 55f2 35be
00000310: 4419 9bbd f90b 043d b117 3e3e 5c4d 61bd
00000320: a670 803d eb8e e23d 50f8 dfbc 456e a83c
00000330: 1815 65bd 7166 cbbd 8814 a53d 0530 7abd
00000340: d792 e5bd c863 003b 206a 84bd 8c31 acbd
00000350: 4064 d0bd 7705 89bd aed4 b03d 5451 a73d
00000360: 2a2a 203e 31fa 0cbe 2001 323d 800f b53d
00000370: 0add 133e 457b f23d 8606 303d 5349 debd
00000380: ab93 50be 9a81 aa3c 0ab5 10be 5b95 46bd
00000390: 0370 5dbd b742 f4bd 25cc 15be 57fc 4b3e
000003a0: d005 e4bd 23ae 85bd 887b a3be b1bf 2cbd
000003b0: 0462 033e bf7e 97bd 6c47 d4bd 47cb 033e
000003c0: 989b c23d 3117 863e a98c a9bd da8b 25be
000003d0: 5c6c 5a3e 9a68 0dbe 622a 5dbd d89d 0bbe
000003e0: 4ddf 083b 684a 61bd 2004 993d 26a3 16be
000003f0: a3eb 0abe 3069 3abe 4fc5 2c3d 7d75 a73c

fc1.bias f4 [64]
-0.08901091 -0.12124419 -0.25748077 -0.014594026 -0.025690021 0.027725572 -0.17150533 -0.25030997
-0.06577738 -0.32296512 0.19989266 -0.18091683 -0.11835324 0.060166422 -0.12320823 0.07886313
-0.039137654 -0.25660515 -0.25524303 0.0848549 -0.35078508 -0.24380489 0.052512173 0.040922906
-0.083111495 -0.11221516 0.24456194 -0.11634174 0.14873959 -0.22401194 -0.08361893 -0.091940895
-0.0378824 -0.120755985 0.003478069 -0.18085092 0.098480314 -0.28925014 0.16200942 -0.085347794
-0.18100469 0.103074946 -0.18981215 -0.21306895 -0.29646626 -0.2022208 -0.26285988 0.06880621
-0.15168743 -0.012033817 -0.028227992 -0.31630602 -0.18141122 0.16225274 -0.050720345 -0.008954179
-0.2615718 -0.25076455 -0.33918127 -0.07434907 0.17013527 -0.21925181 -0.0030974604 -0.014017517
00000000: 5a4b b6bd e04e f8bd 85d4 83be c81b 6fbc
00000010: e173 d2bc bd20 e33c 189f 2fbe a128 80be
00000020: 4ab6 86bd af5b a5be a9b0 4c3e 4342 39be
00000030: 2f63 f2bd 1171 763d 9954 fcbd fe82 a13d
00000040: ce4e 20bd c061 83be 37af 82be 68c8 ad3d
00000050: 1a9a b3be fda7 79be 0117 573d c79e 273d
00000060: 5c36 aabd 10d1 e5bd 726e 7a3e 9444 eebd
00000070: 314f 183e 6363 65be 6740 abbd 824b bcbd
00000080: 932a 1bbd ea4e f7bd 51f0 633b fc30 39be
00000090: 0cb0 c93d 9818 94be cce5 253e d3ca aebd
000000a0: 4b59 39be f518 d33d 1e5e 42be bf2e 5abe
000000b0: 6dca 97be f812 4fbe 9295 86be 45ea 8c3d
000000c0: f353 1bbe 7d29 45bc 643e e7bc ddf2 a1be
000000d0: ddc3 39be 9525 263e 23c0 4fbd 8cb4 12bc
000000e0: bdec 85be 3664 80be 2ba9 adbe 5344 98bd
000000f0: f137 2e3e 8c83 60be c3fe 4abb baa9 65bc

fc2.weight f4 [2, 64]
-0.10496593 -0.034624074 0.1570474 -0.10311388 -0.045505468 0.04124256 0.021331722 -0.050682157
-0.08569628 -0.16334061 0.11508855 -0.032846656 0.124714136 0.046202738 -0.08987295 0.12559913
0.01789782 -0.12474216 -0.07762474 0.14294225 -0.036952376 -0.17918894 0.074881904 -0.089291364
-0.02737064 0.027584665 0.03251987 -0.0463779 -0.0661245 -0.0501337 0.05503856 -0.13052627
0.09822984 -0.12781037 -0.06132956 -0.07845934 0.07121563 0.057635926 0.04203205 0.039466724
0.027031964 -0.020147217 -0.07928147 -0.07750527 0.044169746 -0.044386305 -0.1555978 0.060781818
-0.1015601 -0.07971897 0.008788032 0.04451516 0.0091479635 -0.082294725 -0.020027045 0.05777049
-0.028360456 0.16042262 0.17160802 -0.03642391 0.12326207 0.010466666 0.080412075 0.022079747
0.080538996 -0.07702707 0.06650699 -0.039252613 -0.068882406 0.07277576 -0.012440669 0.114678696
-0.07066283 0.022744486 -9.8324264e-05 0.047020823 0.007293862 0.020554151 -0.03657024 -0.0082792165
-0.10355022 0.039715417 0.12752101 0.0394392 -0.025732163 0.114900015 0.027812615 -0.07059931
-0.073445834 0.087267086 -0.13113119 -0.030575175 -0.1722213 0.14872535 0.06208551 0.093181945
0.03674275 -0.093766496 -0.038647506 0.09937531 0.0015452036 0.17051265 -0.059360903 0.0043213107
0.09762836 0.15226853 0.1484467 0.11613157 0.03269719 0.10786702 0.10706836 -0.045976702
0.06255235 -0.064595014 0.018799154 0.11384177 -0.11673772 -0.06615503 0.044290997 0.14951544
-0.019926807 -0.051341534 -0.0021538963 -0.018156618 -0.01962619 0.06095136 0.042113196 -0.09610678
00000000: 61f8 d6bd f9d1 0dbd 09d1 203e 5f2d d3bd
00000010: f163 3abd f5ed 283d ddbf ae3c 1898 4fbd
00000020: 8881 afbd c342 27be 8cb3 eb3d 378a 06bd
00000030: 206a ff3d 153f 3d3d 4f0f b8bd 0f9d 003e
00000040: 739e 923c d178 ffbd b8f9 9ebd 745f 123e
00000050: 605b 17bd 4e7d 37be af5b 993d 64de b6bd
00000060: 6438 e0bc 3cf9 e13c 8e33 053d c1f6 3dbd
00000070: 486c 87bd ff58 4dbd 1d70 613d aea8 05be
00000080: ba2c c93d b9e0 02be b434 7bbd 4aaf a0bd
00000090: 80d9 913d a613 6c3d cd29 2c3d dca7 213d
000000a0: 2372 dd3c c70b a5bc 535e a2bd 15bb 9ebd
000000b0: 56eb 343d 6ace 35bd 0855 1fbe 5bf6 783d
000000c0: befe cfbd b343 a3bd aefb 0f3c 8755 363d
000000d0: 57e1 153c 238a a8bd c20f a4bc c0a0 6c3d
000000e0: 3054 e8bc d445 243e 03ba 2f3e 3d31 15bd
000000f0: d370 fc3d 617c 2b3c 16af a43d 96e0 b43c
00000100: a1f1 a43d 5ec0 9dbd d134 883d 59c7 20bd
00000110: 3812 8dbd 750b 953d f3d3 4bbc aadc ea3d
00000120: acb7 90bd a552 ba3c 7033 ceb8 e898 403d
00000130: 5901 ef3b 2e61 a83c adca 15bd 8da5 07bc
00000140: 2312 d4bd a2ac 223d de94 023e 008b 213d
00000150: 42cc d2bc b350 eb3d 48d7 e33c 5f96 90bd
00000160: c56a 96bd 16b9 b23d 4147 06be ca78 fabc
00000170: c85a 30be 754b 183e 604d 7e3d 2dd6 be3d
00000180: 917f 163d a608 c0bd d94c 1ebd 4885 cb3d
00000190: 6e88 ca3a de9a 2e3e 6b24 73bd c899 8d3b
000001a0: 61f1 c73d 48ec 1b3e 6902 183e 63d6 ed3d
000001b0: 7ded 053d 62e9 dc3d a846 db3d 1152 3cbd
000001c0: 721b 803d 644a 84bd af00 9a3c e025 e93d
000001d0: 3014 efbd 4a7c 87bd 7a6a 353d 931a 193e
000001e0: 8b3d a3bc 804b 52bd 6228 0dbb 30bd 94bc
000001f0: 1bc7 a0bc 22a8 793d e37e 2c3d a2d3 c4bd

fc2.bias f4 [2]
0.018038252 -0.20995091
00000000: f5c4 933c 5ffd 56be
