rwgnn/checkpoints/model_fold_2.pt (torch, 69539 bytes, 16 tensors)

adj_hidden f4 [16, 10]
-0.40927863 0.82468784 0.3723904 -0.014051557 -0.979463 0.14612877 0.80666935 0.98926246
-0.008765817 0.8527261 0.25311399 -0.99174666 -0.45169985 0.6696423 -0.7619542 -0.017281175
0.072399616 -0.9348762 -0.3645407 0.80577695 -0.5541893 0.5585642 -0.94469213 0.17755449
0.8970417 0.6717695 -0.23523664 -0.44908595 0.29729784 0.82152605 0.24188936 -0.9201206
-0.10850537 0.8499861 -0.416108 0.035952806 0.99727833 0.29714108 0.6050837 -0.2245512
-0.029495716 0.60392904 -0.64302146 -0.196159 0.7669164 -0.0238806 -0.41067553 0.7221819
0.59606075 0.81063163 0.16754115 -0.894657 -0.62349904 0.38647676 -0.7725756 0.79343975
-0.8476237 -0.8549125 -0.19056642 0.9240875 0.8009579 -0.42008162 -0.64774203 -0.15037632
-0.8238081 0.23085463 -0.68519104 -0.41176856 -0.58870506 -0.37565506 0.41847813 -0.71349657
-0.14257133 -0.525964 0.20836413 0.35059202 -0.22501743 -0.5903803 0.1963706 0.7472546
0.17605245 -0.4410448 -0.097186446 0.69786024 -0.482916 0.24992108 0.5817734 0.7279762
-0.6609851 0.9426788 -0.009643078 0.8768749 0.13081503 -0.63561654 0.43292868 -0.41227984
0.6063688 0.9844427 0.57327497 -0.64179766 0.03126347 0.6105076 0.22120011 -0.5414741
-0.49917042 -0.55431676 -0.17510748 -0.91636634 0.08805907 -0.38933527 0.83350825 0.5643542
-0.45786595 -0.75717163 0.13377976 0.057652473 -0.13863373 0.9411261 0.7899531 0.32543075
-0.50685465 0.59623146 0.32152712 0.8753638 -0.6607684 -0.68694055 0.059208274 0.012509346
0.8308016 -0.2228899 -0.10250366 -0.9703419 0.7519468 0.1293428 -0.5024314 0.79206944
0.29893017 0.7793652 0.16784406 -0.9399557 -0.24594355 0.9519118 0.0230093 0.58079946
-0.23212183 -0.39666677 0.9642265 -0.2875669 -0.91313267 0.67944956 0.8857647 0.58223116
0.49291217 0.063853025 -0.28301847 0.33140373 -0.72710776 -0.97167933 0.49355042 0.28179288
00000000: f88c d1be be1e 533f f4a9 be3e 8038 66bc
00000010: 16be 7abf c8a2 153e e281 4e3f 4e40 7d3f
00000020: 809e 0fbc 424c 5a3f 2898 813e 1ce3 7dbf
00000030: 3445 e7be ae6d 2b3f 6e0f 43bf 4091 8dbc
00000040: 4046 943d 0c54 6fbf 14a5 babe 6647 4e3f
00000050: 5adf 0dbf 10fe 0e3f 58d7 71bf d8d0 353e
00000060: 86a4 653f 16f9 2b3f e0e1 70be 98ee e5be
00000070: 6c37 983e 884f 523f d8b1 773e 068d 6bbf
00000080: 1038 debd b098 593f 1c0c d5be 4043 133d
00000090: a24d 7f3f e022 983e c4e6 1a3f c0f0 65be
000000a0: 00a1 f1bc 189b 1a3f 0e9d 24bf e8dd 48be
000000b0: a254 443f 40a1 c3bc 1044 d2be eae0 383f
000000c0: 7097 183f 8e85 4f3f e88f 2b3e 3e08 65bf
000000d0: a29d 1fbf 48e0 c53e 84c7 45bf de1e 4b3f
000000e0: defd 58bf 8cdb 5abf d823 43be 0091 6c3f
000000f0: 940b 4d3f f014 d7be 6cd2 25bf 40fc 19be
00000100: 16e5 52bf 2865 6c3e ae68 2fbf 54d3 d2be
00000110: 60b5 16bf dc55 c0be c442 d63e b6a7 36bf
00000120: 38fe 11be 94a5 06bf 685d 553e cc80 b33e
00000130: f86a 66be 2a23 17bf 6015 493e 144c 3f3f
00000140: 1847 343e a0d0 e1be b009 c7bd f8a6 323f
00000150: c440 f7be 50eb 7f3e 1aef 143f a65c 3a3f
00000160: 5236 29bf 6653 713f 00fe 1dbc e07a 603f
00000170: 60f4 053e c4b7 22bf d4a8 dd3e 5816 d3be
00000180: fc3a 1b3f 7004 7c3f 26c2 123f da4c 24bf
00000190: 200e 003d 3a4a 1c3f 4882 623e 0c9e 0abf
000001a0: 4493 ffbe b4e7 0dbf 604f 33be fc96 6abf
000001b0: 5058 b43d f456 c7be cc60 553f 8479 103f
000001c0: 686d eabe 00d6 41bf 90fd 083e 0025 6c3d
000001d0: 00f6 0dbe a4ed 703f 5e3a 4a3f dc9e a63e
000001e0: 3ac1 01bf a0a2 183f 349f a43e d817 603f
000001f0: 1e28 29bf 56db 2fbf 6084 723d 00f4 4c3c
00000200: 6aaf 543f 403d 64be 70ed d1bd 5468 78bf
00000210: 967f 403f 7072 043e 589f 00bf 10c5 4a3f
00000220: 600d 993e 7a84 473f 50df 2b3e f0a0 70bf
00000230: a0d8 7bbe 7eb0 733f 007e bc3c 46af 143f
00000240: 58b1 6dbe e817 cbbe 8cd7 763f f83b 93be
00000250: 10c3 69bf 68f0 2d3f 7ac1 623f 1a0d 153f
00000260: fc5e fc3e 60c5 823d cce7 90be c0ad a93e
00000270: bc23 3abf fabf 78bf a4b2 fc3e 2847 903e

features_hidden f4 [16, 5, 32]
0.94136226 0.37285435 0.08825576 0.3838187 0.3169015 0.87150687 0.9189388 0.36473125
0.6241688 0.44248718 0.623399 0.7441574 0.46276343 0.93379277 0.22876006 0.3689388
0.7272446 0.42097706 0.4604357 0.81290203 0.17908257 0.8955194 0.23502982 0.89663124
0.5070178 0.11908656 0.7421791 0.2881481 0.037838638 0.07076484 0.2031076 0.73766536
0.59136796 0.80148476 0.6583714 0.16135156 0.34902334 0.29036093 0.28840387 0.10609168
0.6851482 0.8546582 0.36327082 0.40713298 0.40283084 0.0007445812 0.36842573 0.8475165
0.6621891 0.898856 0.76450956 0.3517297 0.94799566 0.9000527 0.50389093 0.97362155
0.81981057 0.6473726 0.73912364 0.16228914 0.72900516 0.8953454 0.43785506 0.02020228
0.5692435 0.71116376 0.5796192 0.7634136 0.9982483 0.48107725 0.013436675 0.56062883
0.5057034 0.49159652 0.061016142 0.27783304 0.8729537 0.781284 0.18403858 0.11671156
0.077563405 0.2613569 0.71521205 0.87746555 0.78846866 0.38578767 0.7051238 0.51968634
0.06931293 0.3086635 0.3465647 0.17501974 0.55971056 0.32293773 0.24507582 0.66329974
0.0922091 0.44183117 0.468014 0.659186 0.03640783 0.9007509 0.115137875 0.23352396
0.43982542 0.18688428 0.19013536 0.7035468 0.68396944 0.9355996 0.98463124 0.319893
0.24335647 0.4246167 0.79201686 0.4632001 0.5239154 0.6054197 0.050456822 0.24432707
0.99393225 0.25995988 0.5622509 0.559821 0.9522102 0.03168702 0.21399897 0.7391511
0.036981165 0.31898975 0.08215356 0.23037297 0.8235613 0.12324792 0.46364462 0.81100106
0.74270236 0.21442622 0.7898342 0.7264957 0.52465206 0.65601194 0.73126656 0.5368623
0.5179016 0.6393632 0.641507 0.19136167 0.12956727 0.4097728 0.59574777 0.48385763
0.035497606 0.38443834 0.49373126 0.8522303 0.77722454 0.68365806 0.91091186 0.7980402
0.65405196 0.34641463 0.8014747 0.19337314 0.016262233 0.124243736 0.6278699 0.9585948
0.056595683 0.089383185 0.5638166 0.16702712 0.19629908 0.30193174 0.58013356 0.10561079
0.4858387 0.3448826 0.29238755 0.6810829 0.4456529 0.12446147 0.41144788 0.58527803
0.6901159 0.6014056 0.358033 0.29862404 0.23141229 0.7736118 0.8658616 0.0070468187
0.83146834 0.62444705 0.49441946 0.8922708 0.956113 0.97038853 0.69937027 0.77736044
0.13027143 0.07599455 0.5926784 0.8435504 0.6859135 0.7875821 0.03794229 0.7248468
0.6245898 0.89210457 0.18544406 0.54623896 0.1780476 0.85078025 0.565025 0.7729507
0.75744754 0.5929686 0.42601448 0.3165611 0.46019 0.38386697 0.7160015 0.5738593
0.029234946 0.6930256 0.28003895 0.14052153 0.37189448 0.5476239 0.61872685 0.8053912
0.8722006 0.31612933 0.8945843 0.03575772 0.029949188 0.74767196 0.2585256 0.98719627
0.98588604 0.55422235 0.87657946 0.10945338 0.87350196 0.62907326 0.105267525 0.78533506
0.5279041 0.27011484 0.22177547 0.33371782 0.06512153 0.27026337 0.88633686 0.25558156
00000000: 1efd 703f c4e6 be3e 70bf b43d e283 c43e
00000010: ea40 a23e 131b 5f3f 933f 6b3f 0ebe ba3e
00000020: 87c9 1f3f ae8d e23e 1497 1f3f 1981 3e3f
00000030: 54ef ec3e 0b0d 6f3f 1440 6a3e 8ce5 bc3e
00000040: b42c 3a3f 4e8a d73e 3abe eb3e 591a 503f
00000050: 6c61 373e c240 653f a8ab 703e a089 653f
00000060: ebcb 013f a8e3 f33d 73ff 3d3f 2688 933e
00000070: b0fc 1a3d 28ed 903d 70fb 4f3e a3d7 3c3f
00000080: e463 173f 1b2e 4d3f 078b 283f 5839 253e
00000090: 30b3 b23e 30aa 943e aca9 933e 9846 d93d
000000a0: df65 2f3f e1ca 5a3f a2fe b93e bc73 d03e
000000b0: d83f ce3e 0030 433a 4ca2 bc3e d7f6 583f
000000c0: 3a85 293f 6d1b 663f e6b6 433f ea15 b43e
000000d0: d8af 723f db69 663f fffe 003f 433f 793f
000000e0: 1bdf 513f 36ba 253f 3537 3d3f 202f 263e
000000f0: 15a0 3a3f 5b35 653f 8a2e e03e 407f a53c
00000100: f1b9 113f d40e 363f ed61 143f 136f 433f
00000110: 338d 7f3f c24f f63e 8025 5c3c 5f85 0f3f
00000120: c775 013f 8ab2 fb3e 10ec 793d 2240 8e3e
00000130: e579 5f3f 3a02 483f 9c74 3c3e 7806 ef3d
00000140: 90d9 9e3d 92d0 853e 2318 373f 95a1 603f
00000150: 15d9 493f f685 c53e fe82 343f 2a0a 053f
00000160: f0f3 8d3d 2409 9e3e ee70 b13e 6038 333e
00000170: 3149 0f3f 1858 a53e 28f5 7a3e 03ce 293f
00000180: 20d8 bc3d b237 e23e 889f ef3e 6ac0 283f
00000190: 6020 153d 9c97 663f 68cd eb3d e820 6f3e
000001a0: cc30 e13e 985e 3f3e d8b2 423e a51b 343f
000001b0: 9f18 2f3f 7583 6f3f cb10 7c3f 04c9 a33e
000001c0: 7032 793e 5c67 d93e 9ec1 4a3f 9028 ed3e
000001d0: 521f 063f c9fc 1a3f d0ab 4e3d e030 7a3e
000001e0: 5872 7e3f 7619 853e adef 0f3f 6e50 0f3f
000001f0: 0cc4 733f 40ca 013d 8c22 5b3e 0239 3d3f
00000200: 9079 173d a052 a33e 2040 a83d e4e6 6b3e
00000210: ead4 523f 6869 fc3d d462 ed3e c49d 4f3f
00000220: be21 3e3f 8c92 5b3e 9332 4a3f 9ffb 393f
00000230: 994f 063f 66f0 273f 4934 3b3f cf6f 093f
00000240: 3395 043f 4fad 233f ce39 243f 50f4 433e
00000250: 48ad 043e becd d13e ed82 183f 30bc f73e
00000260: f065 113d 1ad5 c43e 58ca fc3e c42b 5a3f
00000270: 30f8 463f 3704 2f3f 8531 693f 5d4c 4c3f
00000280: f36f 273f 425d b13e 722d 4d3f 9c03 463e
00000290: 6038 853c 8073 fe3d 15bc 203f 7866 753f
000002a0: e0d0 673d 880e b73d 4956 103f 2809 2b3e
000002b0: a002 493e cc96 9a3e a283 143f 784a d83d
000002c0: dabf f83e 7494 b03e d2b3 953e 735b 2e3f
000002d0: 9e2c e43e a8e5 fe3d 4ca9 d23e c8d4 153f
000002e0: 70ab 303f b8f5 193f 1a50 b73e 40e5 983e
000002f0: 58f7 6c3e 6c0b 463f 1ba9 5d3f 00e9 e63b
00000300: 1cdb 543f c3db 1f3f 8c24 fd3e dc6b 643f
00000310: d2c3 743f 626b 783f ee09 333f 1801 473f
00000320: e065 053e 08a3 9b3d c6b9 173f ebf2 573f
00000330: 0798 2f3f fb9e 493f 6069 1b3d 8f8f 393f
00000340: 1ee5 1f3f f760 643f 0ce5 3d3e 51d6 0b3f
00000350: 1c52 363e bccc 593f 7aa5 103f 19e0 453f
00000360: 15e8 413f cacc 173f 921e da3e 4c14 a23e
00000370: 069e eb3e 368a c43e e04b 373f 71e8 123f
00000380: 207e ef3c 206a 313f 4461 8f3e e0e4 0f3e
00000390: f468 be3e 1431 0c3f e264 1e3f 1e2e 4e3f
000003a0: 8a48 5f3f b4db a13e 7a03 653f b076 123d
000003b0: 0058 f53c 6e67 3f3f 785d 843e e5b8 7c3f
000003c0: 0763 7c3f 84e1 0d3f 8367 603f 1829 e03d
000003d0: d39d 5f3f f20a 213f 8096 d73d b80b 493f
000003e0: b924 073f 7e4c 8a3e 1c19 633e 10dd aa3e
000003f0: 705e 853d f65f 8a3e f9e6 623f 96db 823e

walk_encoder.feature_encoder.weight f4 [32, 136]
-0.022285452 -0.023827478 0.41539466 0.021682888 0.013927353 -0.060210753 -0.09208457 -0.0018113202
-0.0843706 -0.05615044 -0.0779998 0.057280652 0.19113538 -0.07843211 -0.02979106 -0.17989454
0.08332342 0.010888491 -0.13833007 0.03323421 -0.053369645 0.2055915 -0.16198261 0.04728498
0.087020375 0.03286361 0.14003278 0.07016916 0.017446442 0.07023839 0.059181273 0.15270695
-0.12456106 -0.11634 0.1257763 0.24924044 -0.009515822 -0.05533603 0.2722738 0.02973203
0.082235575 0.15109189 0.088434055 -0.0805522 -0.0003920494 0.19118533 0.040505875 0.034723524
-0.055465117 0.13322277 -0.04761432 -0.043557994 -0.027144184 -0.02531459 -0.031081393 -0.012823466
-0.04334724 -0.13127552 0.07810785 0.07467466 -0.038437467 -0.03442837 0.035892848 0.022683488
-0.106840365 0.06968751 -0.02987448 0.07036191 0.033682406 0.02774499 -0.05604467 -0.108185105
0.07789941 0.07748974 -0.0682565 0.039814208 -0.01741212 0.083983675 -0.017752834 -0.038049817
-0.049927104 0.048845444 0.034917336 -0.019909833 0.00072673085 -0.08264138 -0.07583569 -0.05225937
-0.031601004 -0.07257927 0.07431678 -0.0297203 -0.031326022 -0.060535327 0.056588016 0.07474105
-0.07252197 0.03185707 -0.056143224 0.040060047 -0.027782239 -0.07798926 -0.040751033 0.055741005
0.079479985 0.017439036 0.017433945 0.038633585 -0.07613612 0.0845081 0.045939174 -0.035200056
0.069470964 0.004945754 -0.047837675 -0.02617609 -0.012361089 -0.07206513 0.044623576 -0.013890123
0.059615318 -0.077109054 0.06428357 -0.06071826 -0.07416486 0.03532032 -0.053599052 -0.029031903
-0.08484176 0.003926845 0.0077779847 0.0046119513 -0.028119037 0.00025030886 -0.013248849 -0.05445289
0.045201067 0.056363154 -0.58888465 -0.24338873 -0.0939498 -0.066534474 0.019861763 -0.0857026
-0.016496258 0.09772423 0.15338565 0.058080673 -0.057673704 0.046103273 -0.043722957 0.07935926
0.20167534 0.0075684614 -0.013287889 0.12672937 -0.048731416 0.1684979 0.28828248 -0.13751234
0.03595262 -0.072945446 -0.025094658 -0.07042895 0.13953513 -0.17163044 0.011919412 0.28347516
0.13990267 0.24035656 -0.04704357 0.07677665 -0.024582444 -0.015915226 -0.41135225 0.013782218
0.1306936 -0.066351466 -0.091942355 0.27132127 0.08716391 0.15075642 -0.058828827 0.0631313
0.08002902 -0.07260858 -0.00026268783 -0.06989271 0.021757418 0.044943918 0.17908771 0.007599977
0.089214906 0.072771356 -0.21920286 0.28507245 0.2912632 -0.005479083 0.05193336 0.16902824
0.22078012 -0.02864889 -0.0047281664 -0.010445731 -0.009554007 0.067672394 0.07006416 0.0080773905
0.046044942 -0.085068256 0.0129464995 0.0073383623 -0.015476584 0.073156744 0.031994577 0.03251104
0.060709186 -0.067932926 -0.0150234895 0.11691719 0.018963786 -0.044944428 0.014866173 0.06847265
0.018821556 0.044343606 -0.059136044 0.039432317 0.065297194 -0.046742458 -0.081409514 -0.064025104
-0.05453742 -0.020868115 0.037525352 0.023562357 -0.063568205 0.042851154 0.020540578 0.05935263
0.014812147 0.063619636 0.053996272 0.046642587 0.041752532 -0.010811724 -0.007623498 0.05643211
0.032135703 0.06059856 -0.037373748 0.036042627 0.024841307 0.02053148 -0.014929722 0.04845036
00000000: fb8f b6bc d831 c3bc 9cae d43e 50a0 b13c
00000010: 8d2f 643c 8d9f 76bd d696 bcbd d269 edba
00000020: 7eca acbd 01fe 65bd 5cbe 9fbd 1e9f 6a3d
00000030: feb8 433e 04a1 a0bd 620c f4bc 4636 38be
00000040: 78a5 aa3d a465 323c 66a6 0dbe 9820 083d
00000050: 219a 5abd 9486 523e c5de 25be e5ad 413d
00000060: bd37 b23d fe9b 063d c164 0f3e d9b4 8f3d
00000070: d7eb 8e3c 25d9 8f3d 1068 723d 365f 1c3e
00000080: de19 ffbd aa43 eebd 81cb 003e e338 7f3e
00000090: 40e8 1bbc 08a8 62bd 7967 8b3e 9690 f33c
000000a0: 206b a83d d5b7 1a3e ea1c b53d 8df8 a4bd
000000b0: fb8b cdb9 16c6 433e 7de9 253d 413a 0e3d
000000c0: 642f 63bd 8d6b 083e 3c07 43bd de69 32bd
000000d0: 7b5d debc 8b60 cfbc 689e febc 8419 52bc
000000e0: e08c 31bd 176d 06be 02f7 9f3d 07ef 983d
000000f0: 9b70 1dbd c304 0dbd 6104 133d b9d2 b93c
00000100: 1fcf dabd 53b8 8e3d 53bb f4bc e819 903d
00000110: 90f6 093d 7649 e33c 198f 65bd 2790 ddbd
00000120: ba89 9f3d f1b2 9e3d 10ca 8bbd 3914 233d
00000130: dda3 8ebc a2ff ab3d 646e 91bc 20da 1bbd
00000140: 5d80 4cbd 2912 483d 7b05 0f3d f219 a3bc
00000150: 1582 3e3a e23f a9bd be4f 9bbd ec0d 56bd
00000160: 0e70 01bd 71a4 94bd 6533 983d fd77 f3bc
00000170: b74f 00bd e4f3 77bd d6c8 673d d611 993d
00000180: 6686 94bd 8f7c 023d 70f6 65bd 0116 243d
00000190: 9497 e3bc d5b8 9fbd 8eea 26bd ae50 643d
000001a0: 67c6 a23d 4fdc 8e3c a2d1 8e3c 403e 1e3d
000001b0: 41ed 9bbd 9512 ad3d b72a 3c3d ef2d 10bd
000001c0: cb46 8e3d fe0f a23b 70f1 43bd 3d6f d6bc
000001d0: 2a86 4abc e296 93bd 36c7 363d 6693 63bc
000001e0: 312f 743d 5aeb 9dbd 1ba7 833d b6b3 78bd
000001f0: bfe3 97bd 0aac 103d ae8a 5bbd 50d4 edbc
00000200: 84c1 adbd c3ac 803b 77de fe3b da1f 973b
00000210: e559 e6bc e33b 8339 b311 59bc fe09 5fbd
00000220: c124 393d 0ddd 663d 25c1 16bf e53a 79be
00000230: c168 c0bd 3a43 88bd 23b5 a23c d884 afbd
00000240: 2923 87bc a423 c83d 2111 1d3e 00e6 6d3d
00000250: 433b 6cbd c9d6 3c3d d816 33bd 1c87 a23d
00000260: fb83 4e3e db00 f83b 72b5 59bc 58c5 013e
00000270: 989a 47bd b78a 2c3e c399 933e 09d0 0cbe
00000280: 0e43 133d 6c64 95bd 5093 cdbc 0e3d 90bd
00000290: 4ce2 0e3e e4bf 2fbe a349 433c a823 913e
000002a0: a542 0f3e 0820 763e c2b0 40bd 143d 9d3d
000002b0: 1f61 c9bc a660 82bc c39c d2be d0ce 613c
000002c0: 8bd4 053e 47e3 87bd 464c bcbd 9fea 8a3e
000002d0: fe82 b23d e45f 1a3e 7ff6 70bd fc4a 813d
000002e0: 41e6 a33d cfb3 94bd 5db9 89b9 e923 8fbd
000002f0: 9d3c b23c 1d17 383d c562 373e 3a09 f93b
00000300: 4eb6 b63d 2609 953d b776 60be 04f5 913e
00000310: 7320 953e e189 b3bb 13b8 543d bd15 2d3e
00000320: 2f14 623e 14b1 eabc bcee 9abb 9224 2bbc
00000330: 6988 1cbc d397 8a3d cc7d 8f3d 0857 043c
00000340: 9f99 3c3d 4438 aebd 8e1d 543c a576 f03b
00000350: 8091 7dbc 34d3 953d bf0c 033d 4c2a 053d
00000360: 32aa 783d 6b20 8bbd 1525 76bc 4872 ef3d
00000370: f159 9b3c a617 38bd 4091 733c 643b 8c3d
00000380: aa2f 9a3c a4a1 353d a338 72bd c883 213d
00000390: 89ba 853d 0575 3fbd 08ba a6bd 981f 83bd
000003a0: a162 5fbd 9cf3 aabc 2fb4 193d d805 c13c
000003b0: 0c30 82bd b184 2f3d b744 a83c be1b 733d
000003c0: a6ae 723c 034b 823d 322b 5d3d 4c0c 3f3d
000003d0: b404 2b3d a823 31bc 89ce f9bb 5b25 673d
000003e0: baa0 033d 3236 783d 3715 19bd 6fa1 133d
000003f0: ff7f cb3c a231 a83c cb9b 74bc e273 463d

walk_encoder.feature_encoder.bias f4 [32]
-0.28382254 0.08195585 -0.02451751 -0.07878143 0.0017230571 0.035323553 -0.031838894 -0.09429086
-0.16039512 -0.05780478 0.18746403 -0.18088248 0.022354867 -0.31886166 0.007776344 -0.012301594
0.0022386778 0.09834926 -0.1284801 0.08214238 0.22007689 -0.06788037 0.15304554 0.082237825
-0.0009786858 -0.30586076 -0.05109953 -0.1349898 -0.19836682 0.06793134 -0.0026185238 -0.20785677
00000000: 3051 91be 78d8 a73d f2d8 c8bc 2958 a1bd
00000010: 34d8 e13a 6eaf 103d 8069 02bd 911b c1bd
00000020: 9e3e 24be b4c4 6cbd 92f6 3f3e 4239 39be
00000030: 8e21 b73c d641 a3be b4d0 fe3b a08c 49bc
00000040: c8b6 123b 566b c93d 4a90 03be 443a a83d
00000050: d65b 613e dd04 8bbd f8b7 1c3e 4e6c a83d
00000060: 3f47 80ba c899 9cbe be4d 51bd c43a 0abe
00000070: ac20 4bbe 961f 8b3d 8a9b 2bbb 68d8 54be

walk_encoder.path_encoder.weight_ih_l0 f4 [96, 32]
0.010035231 0.09137907 0.1589065 0.12845992 0.11440489 0.0980903 0.117431976 -0.04985763
0.08621979 -0.20200595 0.1111055 0.014640386 -0.046408966 0.0977713 -0.13330044 -0.17814383
-0.13050838 -0.23891723 0.17073448 -0.026860733 0.11368688 -0.097049154 -0.03846311 0.19114453
-0.07500488 0.04728048 -0.10663156 -0.05091627 0.029346062 -0.09939083 -0.20338255 0.03193848
0.12380244 0.047680125 0.02221832 -0.14566118 -0.0961737 -0.22800972 0.20573491 -0.0380313
0.09123296 0.015830219 0.011787009 -0.114005454 -0.24016277 0.03271029 0.20385492 -0.043300968
-0.14994976 0.07236006 -0.0189346 0.015412095 -0.1963802 -0.049716607 -0.20492148 -0.03197205
0.062474832 0.1642865 -0.018264629 0.23460008 0.0067476146 0.09662954 -0.10935266 0.17785473
0.19163994 -0.21521983 0.06077326 -0.07768671 -0.21000698 -0.15737441 0.047858015 0.2751515
-0.11010419 0.14094907 -0.14537299 0.06256647 -0.20674069 0.21698831 0.13285056 0.12049928
0.08425786 0.014146624 -0.11138897 0.045694944 -0.10624388 -0.19135755 -0.2219203 0.111936755
0.045385543 0.16999026 0.072776675 -0.14331357 0.30156463 0.16574112 -0.104845256 -0.05238363
0.14937074 0.15446593 0.19045857 -0.19534975 0.2088519 0.06641018 -0.053461395 -0.13883884
-0.03540499 -0.28681874 -0.04000231 0.11852361 -0.02560581 0.16470268 0.0026393635 -0.06905497
-0.25980836 -0.12511323 0.25880578 -0.0012229669 0.1472653 0.11232307 0.20452793 -0.03103868
-0.051649027 0.017899422 0.1021806 -0.0037210716 0.09737385 0.01836478 -0.080294825 -0.13254848
0.023402898 0.064882465 0.23794398 -0.17019999 -0.05780272 0.12538725 0.03449001 0.12246442
0.19081819 0.02047562 0.15419765 0.15847701 -0.028994586 0.2902266 -0.28190166 -0.15034406
0.13607907 -0.02318882 0.20887142 -0.1582551 -0.10347196 0.05178295 -0.17860205 -0.020972366
0.13868077 0.21224253 0.08475207 -0.14418289 -0.18395853 -0.04451016 -0.22240183 0.12005703
-0.16191117 0.14693306 0.10422754 -0.050867293 0.09803868 0.073799476 0.32861075 0.2881918
0.086348146 0.19994687 0.08815191 0.080028094 -0.08374509 0.26923352 0.17817543 0.15712363
0.14169726 -0.10774006 0.014884027 -0.25162843 -0.15732718 -0.127105 -0.17723513 -0.19702399
-0.16145205 0.024164854 -0.052192982 -0.116766214 -0.041052155 -0.07382229 -0.14279489 0.20460191
0.099393465 -0.18080312 -0.09504434 -0.13054934 0.2463711 0.2501805 -0.07491255 0.07799479
-0.067782514 0.19349322 -0.3185938 0.016241048 -0.15603824 0.31262356 -0.00294072 -0.035860594
0.031945113 0.013973019 -0.07744521 0.30517665 0.011647136 -0.03598398 0.02815357 -0.12196766
-0.08774359 -0.16941233 -0.12007523 0.19753383 0.28275967 0.21675664 -0.023229554 0.3351813
0.10010779 0.17233115 0.032857988 0.0239358 0.015518826 0.021424223 0.0010004322 -0.06441264
0.20677237 -0.052995782 0.07405852 0.08006326 0.18019567 -0.08145975 0.12509616 0.16816697
-0.15230481 0.050054204 0.09713079 -0.17080797 0.20630838 -0.22706267 0.0061016483 0.051202536
-0.11901597 -0.117197365 -0.03373507 -0.025051566 -0.007335966 0.0698004 0.09293102 0.11044858
00000000: cf6a 243c f324 bb3d 63b8 223e ff8a 033e
00000010: 1c4d ea3d 91e3 c83d 2d80 f03d 8437 4cbd
00000020: 0094 b03d a6da 4ebe 488b e33d 3bde 6f3c
00000030: 5417 3ebd 523c c83d e97f 08be 566b 36be
00000040: fda3 05be b8a6 74be 05d5 2e3e 0a0b dcbc
00000050: abd4 e83d b5c1 c6bd 7e8b 1dbd 64bb 433e
00000060: 299c 99bd 2da9 413d a661 dabd 948d 50bd
00000070: 2767 f03c 6b8d cbbd 8443 50be ecd1 023d
00000080: 228c fd3d 3c4c 433d 3203 b63c 3428 15be
00000090: b8f6 c4bd 617b 69be 2cac 523e b5c6 1bbd
000000a0: 59d8 ba3d 60ae 813c 4d1e 413c b17b e9bd
000000b0: 3bed 75be 3afb 053d 58bf 503e 5b5c 31bd
000000c0: 6e8c 19be 8331 943d bc1c 9bbc 0383 7c3c
000000d0: e417 49be a4a3 4bbd f0d6 51be 20f5 02bd
000000e0: 9ce5 7f3d b83a 283e b49f 95bc 013b 703e
000000f0: 181b dd3b b5e5 c53d 4af4 dfbd 8d1f 363e
00000100: 433d 443e 9662 5cbe 62ed 783d 361a 9fbd
00000110: 120c 57be c226 21be c406 443d a8e0 8c3e
00000120: 4e7e e1bd f454 103e a8dc 14be d922 803d
00000130: d5b3 53be 2f32 5e3e fa09 083e 54c8 f63d
00000140: 638f ac3d 3ec7 673c e61f e4bd 9f2a 3b3d
00000150: 6496 d9bd 3cf3 43be 133f 63be 193f e53d
00000160: 31e6 393d ed11 2e3e f00b 953d cbc0 12be
00000170: ae66 9a3e 0ab8 293e 1cb9 d6bd 3890 56bd
00000180: a5f4 183e 512c 1e3e 9207 433e c409 48be
00000190: 46dd 553e 0f02 883d 56fa 5abd c52b 0ebe
000001a0: d304 11bd e8d9 92be 76d9 23bd 82bc f23d
000001b0: 47c3 d1bc d2a7 283e 2cf9 2c3b b16c 8dbd
000001c0: 9a05 85be af1d 00be 3182 843e f64b a0ba
000001d0: b7cc 163e a309 e63d c56f 513e d444 febc
000001e0: ee8d 53bd cfa1 923c 1044 d13d 39dd 73bb
000001f0: f16b c73d bc71 963c 9d71 a4bd caba 07be
00000200: 6fb7 bf3c 19e1 843d 96a7 733e e848 2ebe
00000210: 8cc2 6cbd 8465 003e 6645 0d3d a0ce fa3d
00000220: d865 433e 7dbc a73c fde5 1d3e cc47 223e
00000230: 0e86 edbc 9598 943e 6a55 90be cbf3 19be
00000240: 5058 0b3e 7bf6 bdbc 64e2 553e a00d 22be
00000250: 1be9 d3bd 5c1a 543d 75e3 36be 3dce abbc
00000260: 5502 0e3e 1b56 593e 7e92 ad3d aea4 13be
00000270: a05f 3cbe 4950 36bd 4ebd 63be 76e0 f53d
00000280: 0bcc 25be 9f75 163e 4075 d53d 395a 50bd
00000290: 81c8 c83d 2e24 973d ab3f a83e e08d 933e
000002a0: 4cd7 b03d dfbe 4c3e fd88 b43d c5e5 a33d
000002b0: 8c82 abbd fad8 893e 9f73 363e 04e5 203e
000002c0: 1619 113e d2a6 dcbd 22dc 733c 71d5 80be
000002d0: 601a 21be d027 02be 207d 35be a8c0 49be
000002e0: b053 25be 5ff5 c53c 4fc8 55bd 2023 efbd
000002f0: 4e26 28bd 2430 97bd d338 12be 2a83 513e
00000300: cd8e cb3d 7424 39be 9ba6 c2bd baae 05be
00000310: b548 7c3e a917 803e c06b 99bd bcbb 9f3d
00000320: 8fd1 8abd 1623 463e ba1e a3be f20b 853c
00000330: 7dc8 1fbe 3210 a03e 18b9 40bb 8fe2 12bd
00000340: e1d8 023d 17ef 643c 989b 9ebd 1d40 9c3e
00000350: a1d3 3e3c f063 13bd 51a2 e63c 2eca f9bd
00000360: e9b2 b3bd 6d7a 2dbe 01ea f5bd 4f46 4a3e
00000370: e0c5 903e 74f5 5d3e e84b bebc e29c ab3e
00000380: 5005 cd3d 9477 303e 1996 063d 0315 c43c
00000390: ad42 7e3c da81 af3c ef20 833a c6ea 83bd
000003a0: 23bc 533e 1b12 59bd feab 973d 35f8 a33d
000003b0: 3785 383e 5fd4 a6bd 3519 003e f633 2c3e
000003c0: cbf5 1bbe a305 4d3d 82ec c63d 49e8 2ebe
000003d0: 8142 533e 1e83 68be 56f0 c73b c0b9 513d
000003e0: a5be f3bd 2c05 f0bd c92d 0abd f138 cdbc
000003f0: 8b62 f0bb 83f3 8e3d 9e52 be3d dd32 e23d

walk_encoder.path_encoder.weight_hh_l0 f4 [96, 32]
0.15087357 -0.036287487 -0.07000218 0.1875075 0.109618686 0.12054169 -0.096994795 -0.099764526
-0.11593001 -0.061668366 -0.34256035 0.18312901 -0.17896782 -0.19966099 -0.25132295 0.0512283
0.040254273 0.07069722 -0.08905838 -0.14116892 0.22018208 -0.09276831 0.12597188 -0.07882085
-0.07917088 0.06799276 0.13154823 -0.25506192 0.006053705 -0.025678866 -0.1989074 0.27043694
0.1390185 0.2901849 -0.050886504 -0.10220496 -0.23001038 -0.33013332 -0.086904846 -0.06055166
0.066862136 0.25624534 -0.20233597 0.010427485 0.007343001 -0.064789236 -0.11197894 0.03975511
-0.115444094 0.18492465 -0.08926183 -0.16826403 -0.094123766 -0.17821702 -0.09351411 -0.024255617
-0.0312438 0.29355177 -0.2663683 -0.12722294 0.15138178 0.02922759 0.1032998 -0.10982763
-0.08752227 0.0480107 -0.015557263 0.13948533 -0.25651368 -0.22261624 -0.051873323 0.1632278
-0.1760797 0.26512605 -0.30867904 -0.07209072 -0.00670415 -0.19900103 -0.17401858 -0.15010476
-0.14347795 0.11243612 -0.09779601 0.00849252 -0.07591688 -0.10108553 0.048259396 -0.056837343
0.13638198 0.16071108 -0.016290637 -0.104946434 0.18138103 0.06580965 0.2084919 -0.19980302
0.010765192 0.064174555 -0.025918337 0.10433451 -0.05019666 0.021103961 -0.017481744 -0.26789588
-0.053857584 0.25388274 -0.16007416 -0.159503 -0.17429526 0.027302781 -0.0019986378 -0.017958537
0.12698327 0.05552709 -0.054263342 -0.107055515 0.10063096 0.08113567 -0.27712625 -0.0014488923
0.057226542 0.2604118 0.1919181 0.049651045 -0.0668296 -0.014863503 -0.015825164 -0.1286877
0.40424156 0.2253161 -0.07879287 0.118160956 -0.107197694 -0.002246324 0.022036768 -0.05293091
-0.1311824 0.07731288 -0.10640745 0.105614744 0.2471715 -0.38019443 -0.33374357 0.32499272
0.029181175 0.04592254 -0.19512874 0.14570436 -0.01566294 0.060890805 0.042264294 0.023253413
-0.14690053 -0.018491957 0.13874435 -0.1178899 -0.12708707 -0.3730762 -0.21207695 0.2788164
-0.16305289 -0.043593056 -0.016057916 -0.043037225 -0.086717084 -0.07778229 -0.09721076 -0.15914007
-0.16082335 -0.086083084 0.062441297 0.04081506 0.10946594 -0.1528733 0.1412256 0.16205633
-0.037269127 -0.14906402 -0.0154336225 0.13408962 -0.06152044 0.13284218 0.014278028 0.028775387
-0.0038386453 0.16705115 -0.10904 0.083035566 -0.13680293 -0.02292936 0.08830098 -0.14556727
-0.051237043 -0.12253959 0.0837101 -0.07307803 -0.20802523 -0.18984202 -0.05208266 0.19458759
-0.11874391 -0.17924595 -0.07843082 -0.006973403 0.019373152 -0.01559094 0.09660474 -0.096984364
-0.15848759 0.04049802 0.101862974 0.06733889 0.14429298 0.31677014 -0.16795613 -0.10403336
-0.07717388 -0.016595049 0.005754564 -0.17699102 0.1276567 -0.08938659 -0.120566174 -0.15695511
-0.14326517 -0.19848464 0.10726574 -0.07701068 -0.01262128 -0.18641388 0.024365695 0.06866432
0.09087985 0.09088774 -0.13209479 -0.05615951 0.13663031 -0.062483724 0.11756236 -0.018459827
0.017445177 0.13812989 0.12011558 -0.16181189 0.031826213 0.07805097 -0.14878924 -0.15473805
0.18482897 0.08085346 0.125183 0.12584344 0.060473237 0.14164107 0.12059716 -0.15508121
00000000: 9a7e 1a3e 30a2 14bd 4e5d 8fbd f701 403e
00000010: c37f e03d 90de f63d 35a5 c6bd 5851 ccbd
00000020: b76c edbd f897 7cbd 1264 afbe 2c86 3b3e
00000030: 5743 37be ee73 4cbe 67ad 80be c4d4 513d
00000040: aae1 243d b4c9 903d 3d64 b6bd 968e 10be
00000050: 6977 613e 50fd bdbd c6fe 003e d36c a1bd
00000060: 5824 a2bd ca3f 8b3d 94b4 063e 7a97 82be
00000070: 285e c63b 7c5c d2bc 62ae 4bbe b676 8a3e
00000080: de5a 0e3e 1d93 943e 5e6e 50bd d650 d1bd
00000090: d787 6bbe 3c07 a9be 2bfb b1bd 0405 78bd
000000a0: 04ef 883d 9732 833e 2931 4fbe 0bd8 2a3c
000000b0: 8f9d f03b 38b0 84bd 3755 e5bd 41d6 223d
000000c0: f46d ecbd e35c 3d3e e8ce b6bd 684d 2cbe
000000d0: f6c3 c0bd 867e 36be 5384 bfbd b7b3 c6bc
000000e0: fff2 ffbc 6b4c 963e 6d61 88be bb46 02be
000000f0: d303 1b3e b36e ef3c d88e d33d 4fed e0bd
00000100: e03e b3bd dea6 443d e4e3 7ebc 3ed5 0e3e
00000110: c355 83be 83f5 63be 1f79 54bd 3025 273e
00000120: 3d4e 34be 9abe 873e 2e0b 9ebe 4da4 93bd
00000130: 7cae dbbb edc6 4bbe ed31 32be 10b5 19be
00000140: e2eb 12be e944 e63d 4649 c8bd 3624 0b3c
00000150: 4f7a 9bbd ee05 cfbd a5ab 453d 46ce 68bd
00000160: b8a7 0b3e 7291 243e f173 85bc 28ee d6bd
00000170: f3bb 393e 36c7 863d e77e 553e 2a99 4cbe
00000180: 7d60 303c f36d 833d b152 d4bc 55ad d53d
00000190: 039b 4dbd 37e2 ac3c e035 8fbc a629 89be
000001a0: c599 5cbd ebfc 813e 7bea 23be c154 23be
000001b0: 757a 32be 15aa df3c 94fb 02bb c81d 93bc
000001c0: e707 023e 6070 633d 3d43 5ebd ec3f dbbd
000001d0: 9b17 ce3d 752a a63d 7ee3 8dbe c2e8 bdba
000001e0: 6166 6a3d b254 853e 2e86 443e e55e 4b3d
000001f0: f5dd 88bd 0d86 73bc c6a3 81bc b5c6 03be
00000200: c0f8 ce3e 44b9 663e 285e a1bd 5ffe f13d
00000210: 778a dbbd 1037 13bb 7486 b43c 15ce 58bd
00000220: ae54 06be 3756 9e3d 26ec d9bd 8b4c d83d
00000230: 871a 7d3e d8a8 c2be 70e0 aabe 7265 a63e
00000240: 5c0d ef3c 4619 3c3d d4cf 47be 8633 153e
00000250: 914f 80bc a368 793d 531d 2d3d f17d be3c
00000260: 186d 16be 727c 97bc 0013 0e3e 4370 f1bd
00000270: 1d23 02be d803 bfbe b32a 59be 06c1 8e3e
00000280: 56f7 26be a28e 32bd e48b 83bc cd47 30bd
00000290: ba98 b1bd 524c 9fbd 6f16 c7bd 9df5 22be
000002a0: e0ae 24be 544c b0bd 72c2 7f3d b12d 273d
000002b0: ae2f e03d d18a 1cbe 729d 103e 18f2 253e
000002c0: 83a7 18bd 3da4 18be 4edd 7cbc ca4e 093e
000002d0: dbfc 7bbd c807 083e 64ee 693c 5cba eb3c
000002e0: c891 7bbb 750f 2b3e 5d50 dfbd 8d0e aa3d
000002f0: 1116 0cbe 5ad6 bbbc 25d7 b43d 960f 15be
00000300: efdd 51bd 09f6 fabd 3370 ab3d efa9 95bd
00000310: 9104 55be f265 42be a154 55bd f841 473e
00000320: 0230 f3bd 408c 37be 56a0 a0bd 2581 e4bb
00000330: 72b4 9e3c 2471 7fbc b5d8 c53d bd9f c6bd
00000340: 924a 22be 40e1 253d 899d d03d f9e8 893d
00000350: 8ac1 133e b22f a23e b1fc 2bbe 710f d5bd
00000360: 570d 9ebd 57f2 87bc c890 bc3b 223d 35be
00000370: 70b8 023e 5110 b7bd 66eb f6bd d7b8 20be
00000380: 1bb4 12be 8f3f 4bbe 24ae db3d c7b7 9dbd
00000390: 7cc9 4ebc 48e3 3ebe 919a c73c e19f 8c3d
000003a0: 371f ba3d 5a23 ba3d db43 07be 8407 66bd
000003b0: d1e8 0b3e efee 7fbd 89c4 f03d 1039 97bc
000003c0: 30e9 8e3c ec71 0d3e 28ff f53d 04b2 25be
000003d0: 345c 023d 30d9 9f3d 355c 18be a773 1ebe
000003e0: ce43 3d3e 8096 a53d f92f 003e 1add 003e
000003f0: c9b2 773d 5b0a 113e a5fb f63d 9ccd 1ebe

walk_encoder.path_encoder.bias_ih_l0 f4 [96]
-0.09552521 -0.09273361 -0.26943523 0.027260581 0.068281144 0.14263989 -0.18305284 -0.19316941
0.0129143195 0.27647662 -0.24192958 0.04178966 -0.3544398 -0.22655486 0.12915236 0.02624432
0.22883587 -0.024335677 0.13966729 -0.01124388 0.22838825 -0.020960039 0.13500242 -0.2818123
-0.07307631 0.1576982 -0.096800536 -0.20478691 -0.040615868 -0.05374419 -0.22169544 -0.13913469
-0.047467627 0.2403088 0.029001687 0.2352774 -0.024980616 0.07005035 0.1620538 0.27454814
0.2845227 -0.07099488 0.01865057 0.0015656464 0.068032235 0.16080901 -0.034854036 0.053913374
-0.025220847 0.06731912 0.14073662 0.057011586 -0.12661918 0.104499 0.30556524 -0.11171476
0.0006775354 -0.14569376 0.12596008 0.21603796 0.088614024 -0.1095133 0.12390007 0.0582067
-0.14185822 -0.18786961 0.28503188 -0.10871777 0.3536737 0.13094987 0.37570557 -0.19085164
0.09040537 -0.2115089 0.294404 -0.09071148 0.0657346 0.16706385 -0.032943998 -0.055149727
0.067078784 -0.17420723 0.15515277 0.10026408 0.07019174 0.19651447 0.008286893 0.109904416
-0.03278347 -0.26166356 0.12735458 0.1367369 0.015613097 0.16900422 -0.2698203 0.029624056
00000000: b9a2 c3bd 1eeb bdbd 6af3 89be 9551 df3c
00000010: fcd6 8b3d 3110 123e 3472 3bbe 34ce 45be
00000020: 9596 533c 588e 8d3e 63bc 77be a22b 2b3d
00000030: 2279 b5be fffd 67be 8440 043e 54fe d63c
00000040: f353 6a3e 9d5b c7bc f104 0f3e 4038 38bc
00000050: 9cde 693e 63b4 abbc 133e 0a3e b449 90be
00000060: 08a9 95bd a37b 213e 5c3f c6bd a9b3 51be
00000070: d35c 26bd de22 5cbd 2104 63be 5379 0ebe
00000080: 6a6d 42bd 8313 763e f294 ed3c 8fec 703e
00000090: 26a4 ccbc 8f76 8f3d 6ef1 253e 9391 8c3e
000000a0: f6ac 913e c365 91bd 15c9 983c 6036 cd3a
000000b0: 7c54 8b3d 1eab 243e 1bc3 0ebd 45d4 5c3d
000000c0: f39b cebc 9bde 893d 431d 103e fb84 693d
000000d0: 75a8 01be 9203 d63d 0c73 9c3e b5ca e4bd
000000e0: a29c 313a bf30 15be aefb 003e 0e39 5d3e
000000f0: 457b b53d 8248 e0bd 52bf fd3d 266a 6e3d
00000100: 4843 11be e460 40be b3ef 913e 6ca7 debd
00000110: b814 b53e b917 063e 7b5c c03e 9d6e 43be
00000120: 7326 b93d ca95 58be 1fbc 963e f1c6 b9bd
00000130: dd9f 863d c912 2b3e 49f0 06bd aee4 61bd
00000140: 9a60 893d 6163 32be 5ee0 1e3e 4157 cd3d
00000150: b0c0 8f3d 173b 493e c0c5 073c 9115 e13d
00000160: f647 06bd c4f8 85be 3d69 023e c204 0c3e
00000170: 13ce 7f3c 710f 2d3e e325 8abe 26ae f23c

walk_encoder.path_encoder.bias_hh_l0 f4 [96]
0.06883157 -0.20728992 -0.076837085 -0.1532495 -0.13884357 0.0391006 -0.33552507 -0.05214396
-0.0023410197 0.18469888 -0.22919768 0.09069542 -0.21234882 -0.15490144 0.19153564 -0.04878892
0.154707 -0.005694339 0.07956904 -0.1691206 -0.016679395 -0.008070918 -0.020674892 -0.07077302
-0.13726765 -0.016868712 -0.0010287043 -0.1673898 0.018829688 -0.055840455 -0.30189645 0.09581817
0.08798312 0.14154637 -0.0025498383 0.01906505 0.076552995 -0.08957711 -0.057672165 0.20167959
0.3819104 0.028149087 0.12982608 0.11397867 0.010524685 0.1431271 -0.0759687 0.06724249
0.16326252 0.05770907 0.31216988 0.23815146 0.12702975 -0.13645624 0.24408862 -0.020832082
0.07534095 -0.0047883275 0.24459484 0.1860613 0.20061556 -0.008549505 0.30972528 -0.10509146
0.0013308797 -0.04157687 0.04702633 0.11161684 0.20923293 0.14423396 0.12873137 -0.11947938
0.08022877 0.025715312 0.058447003 -0.23044413 0.093991876 0.06945265 0.07369736 -0.16976655
0.0010260013 0.014342787 0.17244603 -0.11725321 -0.19582236 0.018400703 -0.013637973 0.1743621
0.07465385 -0.27032977 0.21833377 0.14810814 -0.0265347 0.00020936003 -0.109211296 0.02383831
00000000: 91f7 8c3d cf43 54be c35c 9dbd 70ed 1cbe
00000010: 022d 0ebe f327 203d f1c9 abbe e894 55bd
00000020: cb6b 19bb b421 3d3e ccb2 6abe 85be b93d
00000030: f871 59be 7c9e 1ebe eb21 443e e4d6 47bd
00000040: 836b 1e3e 9497 babb 18f5 a23d f32d 2dbe
00000050: 3aa3 88bc e23b 04bc 645e a9bc 72f1 90bd
00000060: e48f 0cbe 4130 8abc 97d5 86ba 3b68 2bbe
00000070: b840 9a3c f6b8 64bd 2c92 9abe 513c c43d
00000080: 7e30 b43d 88f1 103e 301b 27bb 4f2e 9c3c
00000090: d1c7 9c3d 3474 b7bd a639 6cbd 1885 4e3e
000000a0: c389 c33e ea98 e63c 21f1 043e a66d e93d
000000b0: ba6f 2c3c e98f 123e 7a95 9bbd 6eb6 893d
000000c0: 4a2e 273e 5960 6c3d bbd4 9f3e fadd 733e
000000d0: 1614 023e 2fbb 0bbe 5ef2 793e 0ba8 aabc
000000e0: 5b4c 9a3d 67e7 9cbb 1277 7a3e da86 3e3e
000000f0: 2a6e 4d3e 3913 0cbc 5094 9e3e 313a d7bd
00000100: ea70 ae3a 824c 2abd ae9e 403d 5f97 e43d
00000110: 2841 563e 11b2 133e 28d2 033e 9bb1 f4bd
00000120: fb4e a43d eba8 d23c 2066 6f3d 8cf9 6bbe
00000130: d07e c03d 313d 8e3d a4ee 963d 48d7 2dbe
00000140: e47a 863a 02fe 6a3c b195 303e 7322 f0bd
00000150: a885 48be 12bd 963c ce71 5fbc fa8b 323e
00000160: 1ee4 983d aa68 8abe e392 5f3e a9a9 173e
00000170: 4d5f d9bc a887 5b39 2caa dfbd 8f48 c33c

bn.weight f4 [32]
0.71890634 1.0171434 0.8985022 0.81680506 0.81267256 0.76572114 0.94633424 0.820865
0.8819049 0.8520238 0.86375684 0.8778032 0.8719705 0.82253593 0.81607974 0.94703704
0.8453454 0.99806345 0.93881834 0.80197364 0.75440913 0.75573206 0.9943914 0.8304391
0.9424548 0.93032455 0.8209197 0.9992293 0.99046034 0.85889626 0.7979591 0.88865983
00000000: 3f0a 383f c131 823f 3d04 663f 231a 513f
00000010: 4f0b 503f 4d06 443f f642 723f 3524 523f
00000020: 85c4 613f 3b1e 5a3f 2b1f 5d3f b6b7 603f
00000030: 7539 5f3f b791 523f 9aea 503f 0571 723f
00000040: 8e68 583f 1681 7f3f 6656 703f 254e 4d3f
00000050: f520 413f a877 413f 6f90 7e3f a897 543f
00000060: b844 713f c029 6e3f cb27 523f 7ecd 7f3f
00000070: cf8e 7d3f a0e0 5b3f 0c47 4c3f 367f 633f

bn.bias f4 [32]
-0.063430496 -0.0708627 0.06934398 0.025472261 -0.15370461 0.027430339 0.051262546 0.16523191
-0.086450465 -0.09555863 -0.013625162 0.07921282 0.099838994 -0.053600598 -0.102428116 0.114785515
0.098880805 -0.14902462 -0.09178514 0.12016582 0.007859593 0.06684689 0.14692344 -0.07168632
-0.07243728 -0.17085196 0.085336424 -0.1826298 -0.12486274 -0.08930038 -0.13258687 0.12718606
00000000: d9e7 81bd 7720 91bd 3704 8e3d 34ab d03c
00000010: be64 1dbe 97b5 e03c adf8 513d 8e32 293e
00000020: f10c b1bd 3eb4 c3bd 123c 5fbc 553a a23d
00000030: 6378 cc3d 4d8c 5bbd d5c5 d1bd ab14 eb3d
00000040: 0582 ca3d e999 18be d9f9 bbbd 7f19 f63d
00000050: 86c5 003c 06e7 883d 1973 163e 47d0 92bd
00000060: ff59 94bd d1f3 2ebe ddc4 ae3d 4e03 3bbe
00000070: 09b8 ffbd 1ee3 b6bd dac4 07be 103d 023e

bn.running_mean f4 [32]
-0.4382361 -0.3009465 0.58780205 -0.1028185 0.39977613 0.56796056 0.6016737 0.04751432
0.053981084 -0.77773356 0.37010592 -0.13514398 -9.653762e-05 0.24414527 0.43640268 -0.10889318
0.2139674 -0.2381863 0.11949315 0.046241798 0.14317282 0.19304517 0.12682821 0.122596145
-0.123357095 -0.66446054 0.15406325 0.08458958 -0.0014469589 0.3305506 -0.25994474 0.28159073
00000000: 7b60 e0be a915 9abe 327a 163f 8192 d2bd
00000010: 75af cc3e dd65 113f 4a07 1a3f 609e 423d
00000020: 451b 5d3d 8c19 47bf 867e bd3e 2f63 0abe
00000030: 3d74 cab8 3801 7a3e 2c70 df3e 6303 dfbd
00000040: 451a 5b3e 1ce7 73be d3b8 f43d 0a68 3d3d
00000050: e59b 123e a2ad 453e 41df 013e b013 fb3d
00000060: a5a2 fcbd 161a 2abf c2c2 1d3e 4d3d ad3d
00000070: e2a7 bdba ee3d a93e 7a17 85be a92c 903e

bn.running_var f4 [32]
0.0067089624 0.0054104 0.006477552 0.0044984664 0.006125185 0.0060271877 0.006275721 0.0029847072
0.0017093846 0.0074881553 0.005758613 0.0077162557 0.0042319912 0.007924634 0.010042267 0.0069100736
0.013755436 0.006905355 0.0030590836 0.0075155497 0.022187915 0.0052109878 0.005272144 0.0031928301
0.009875336 0.006786698 0.0032875135 0.0020284767 0.0051978207 0.0075580943 0.0067677787 0.014105545
00000000: dbd6 db3b ba49 b13b a541 d43b df67 933b
00000010: c7b5 c83b b77f c53b 90a4 cd3b 149b 433b
00000020: 6e0d e03a 335f f53b bfb2 bc3b a5d8 fc3b
00000030: 84ac 8a3b 53d6 013c 5288 243c e66d e23b
00000040: 7b5e 613c 5146 e23b e87a 483b 0045 f63b
00000050: 6ec3 b53c efc0 aa3b f3c1 ac3b cd3e 513b
00000060: 29cc 213c f362 de3b 5373 573b 31f0 043b
00000070: 7b52 aa3b e4a9 f73b 3ec4 dd3b f21a 673c

fc1.weight f4 [64, 32]
-0.00073608244 -0.052860085 0.033781473 0.02581628 -0.13605726 -0.1570273 0.122775264 -0.11000661
-0.09561109 -0.12195351 0.14945316 0.1675954 0.22448814 0.09096252 -0.111853294 0.1845764
-0.037922572 -0.2524877 0.16956341 -0.042140838 -0.0729706 -0.2142512 -0.025652133 0.1324019
0.038107745 -0.15418887 -0.20604071 0.112555504 -0.21753973 0.033239476 -0.17849508 -0.05563108
0.05691648 0.08835683 -0.14784655 0.01577402 -0.025532544 0.09324944 -0.1790544 4.4981018e-05
0.061184797 0.08627383 0.06706598 -0.08975588 0.019345826 0.08387034 0.03566344 -0.058953356
-0.12659793 -0.06154909 -0.27887636 -0.040944587 0.01832028 0.0048741163 -0.07383284 0.19006632
0.106339626 0.12510084 0.092755295 0.19736242 0.17038645 0.00034498132 -0.005813508 0.038407005
-0.01488827 0.18975887 -0.18955074 -0.065704755 -0.08767653 0.06935435 -0.2813629 -0.04538492
0.14610223 -0.01877812 0.059970867 0.18268433 -0.014693394 0.15126787 0.063445106 -0.13786891
0.056808688 0.25254625 -0.05778768 0.120578356 -0.0073842993 0.08758679 -0.1586213 0.21460643
-0.12474044 0.19306982 -0.12953466 0.26755196 0.04957383 -0.01432695 0.03763003 -0.05225155
-0.038458873 -0.010392179 -0.000938875 -0.15553822 -0.08580687 0.007996917 0.09557987 -0.13019955
0.057585277 0.13139792 0.19447789 0.025637053 -0.025474941 -0.09806022 -0.21663244 -0.1502469
0.064085096 0.054765083 -0.12302171 -0.055953354 0.08720555 -0.16503821 -0.14506458 -0.067302465
0.06173506 0.09146695 0.058371693 -0.05156484 0.07854737 0.12855367 0.1537917 0.09703334
-0.11275901 0.05807224 -0.044838168 0.16196248 -0.031430993 -0.049813297 0.18735354 0.14147103
-0.00299265 0.09571411 -0.11309063 -0.16092218 -0.081154004 0.19291708 0.15972295 -0.234365
-0.029536476 -0.014573638 -0.029373 0.04271248 -0.1943271 0.17993432 -0.24582309 -0.18683085
0.1939548 -0.024217363 0.17850111 0.18973874 0.13188058 -0.054365512 -0.057841744 0.038390566
-0.009306565 -0.0063665397 0.041138962 -0.062726684 0.17436099 0.030329311 0.082611784 0.01643481
0.02868851 0.15119193 -0.055333402 -0.05582211 -0.08351778 0.17972207 0.12616085 0.059301697
-0.033953536 0.06144911 -0.004462747 0.001682052 -0.028345127 -0.1402887 0.06750217 -0.057353593
-0.053444974 -0.13098365 -0.075336955 0.13364057 0.081988245 0.08990295 0.11000058 0.0945043
-0.12539385 0.18546015 -0.081553966 -0.05223188 -0.004642917 -0.043501746 -0.04625122 -0.020588733
0.09950201 -0.004472913 -0.07729569 -0.011903545 -0.07539551 0.069075614 0.10592767 0.026102694
-0.07167244 0.21573454 0.033326466 0.13005875 0.07863093 -0.13543858 0.088492945 0.10094986
0.07791946 -0.045678563 0.03427778 0.10005173 -0.16648832 0.10448308 0.13221808 -0.057614
-0.030901901 0.2510059 -0.012581596 -0.134081 -0.0023723152 -0.18524131 -0.2635942 -0.16196577
0.10748358 0.2605789 -0.17878103 -0.04599999 0.10047592 0.124928065 0.092089705 -0.07421393
-0.047476713 -0.13855724 0.16374739 -0.04060509 -0.069622874 0.08713866 -0.055208474 0.19701326
0.024870696 0.15870054 -0.1163613 0.05242174 0.18399474 0.044050578 0.25372308 -0.12818624
00000000: a8f5 40ba d183 58bd 715e 0a3d aa7c d33c
00000010: 9852 0bbe c4cb 20be 9971 fb3d 254b e1bd
00000020: bfcf c3bd c3c2 f9bd 400a 193e 219e 2b3e
00000030: 38e0 653e 8f4a ba3d 5713 e5bd 9901 3d3e
00000040: b354 1bbd 1146 81be 08a2 2d3e df9b 2cbd
00000050: 9c71 95bd ab64 5bbe 6c24 d2bc 5d94 073e
00000060: de16 1c3d b0e3 1dbe 56fc 52be 8083 e63d
00000070: bcc2 5ebe 1e26 083d 6ac7 36be 6add 63bd
00000080: 4121 693d 6df4 b43d 1665 17be 8538 813c
00000090: a029 d1bc 90f9 be3d 095a 37be 00aa 3c38
000000a0: e99c 7a3d 55b0 b03d e359 893d eed1 b7bd
000000b0: 237b 9e3c 36c4 ab3d d413 123d 1379 71bd
000000c0: e3a2 01be e61a 7cbd e2c8 8ebe 83b5 27bd
000000d0: 6914 963c 0db7 9f3b ac35 97bd bfa0 423e
000000e0: 97c8 d93d 6f1a 003e 7df6 bd3d 6019 4a3e
000000f0: c979 2e3e 9cde b439 3d7f bebb aa50 1d3d
00000100: eeed 73bc 2650 423e 9719 42be 3790 86bd
00000110: c18f b3bd a709 8e3d cc0e 90be 8ae5 39bd
00000120: d39b 153e 92d4 99bc 03a4 753d 9a11 3b3e
00000130: 90bc 70bc f7e5 1a3e 82ef 813d 822d 0dbe
00000140: 3ab0 683d be4d 813e c6b2 6cbd c9f1 f63d
00000150: fef7 f1bb b460 b33d 9f6d 22be cac1 5b3e
00000160: ea77 ffbd 18b4 453e bca4 04be 92fc 883e
00000170: ee0d 4b3d 95bb 6abc f221 1a3d b905 56bd
00000180: 0d87 1dbd f543 2abc d61e 76ba 6945 1fbe
00000190: 83bb afbd 8005 033c 61bf c33d 0853 05be
000001a0: 8ade 6b3d 2d8d 063e 3625 473e cc04 d23c
000001b0: d3b0 d0bc ccd3 c8bd e5d4 5dbe 53da 19be
000001c0: 0c3f 833d 5a51 603d cef2 fbbd 582f 65bd
000001d0: d398 b23d c7ff 28be cf8b 14be e0d5 89bd
000001e0: e7dd 7c3d 0653 bb3d 2817 6f3d a735 53bd
000001f0: 72dd a03d 93a3 033e 927b 1d3e 6ab9 c63d
00000200: 32ee e6bd 28dd 6d3d 3aa8 37bd 7ed9 253e
00000210: c9bd 00bd 0709 4cbd 9bd9 3f3e c8dd 103e
00000220: 5620 44bb c205 c43d 0f9c e7bd c9c8 24be
00000230: 1234 a6bd 0e8c 453e 6a8e 233e 61fd 6fbe
00000240: 7bf6 f1bc 45c6 6ebc a59f f0bc 48f3 2e3d
00000250: affd 46be b440 383e 0cb9 7bbe 9650 3fbe
00000260: 169c 463e 7e63 c6bc ffc8 363e df4a 423e
00000270: b40b 073e 5fae 5ebd 77eb 6cbd 6d3f 1d3d
00000280: 907a 18bc 689e d0bb 5481 283d d976 80bd
00000290: b08b 323e 2d75 f83c 5e30 a93d 4ba2 863c
000002a0: 2b04 eb3c 0fd2 1a3e 47a5 62bd baa5 64bd
000002b0: 5f0b abbd 1009 383e 4f30 013e 56e6 723d
000002c0: dd12 0bbd 10b2 7b3d 3c3c 92bb 4d78 dc3a
000002d0: 0a34 e8bc d7a7 0fbe 943e 8a3d 9aeb 6abd
000002e0: 1ee9 5abd 9420 06be 434a 9abd 13d9 083e
000002f0: 74e9 a73d 0a1f b83d fc47 e13d 788b c13d
00000300: 3f67 00be 44e9 3d3e c405 a7bd 19f1 55bd
00000310: 9c23 98bb e32e 32bd eb71 3dbd b4a9 a8bc
00000320: b6c7 cb3d 8491 92bb 344d 9ebd 1607 43bc
00000330: f668 9abd 8477 8d3d 9bf0 d83d 51d5 d53c
00000340: 00c9 92bd 84e9 5c3e 5581 083d 1f2e 053e
00000350: 4109 a13d 69b0 0abe ca3b b53d cdbe ce3d
00000360: 3d94 9f3d 7219 3bbd dc66 0c3d ece7 cc3d
00000370: ea7b 2abe 3afb d53d 2d64 073e a8fc 6bbd
00000380: fc25 fdbc d883 803e 0a23 4ebc 884c 09be
00000390: d878 1bbb e6af 3dbe d2f5 86be 5bda 25be
000003a0: 5a20 dc3d 996a 853e 6012 37be 7c6a 3cbd
000003b0: 52c6 cd3d 49da ff3d 8799 bc3d 79fd 97bd
000003c0: f176 42bd f3e1 0dbe 65ad 273e 8651 26bd
000003d0: 7096 8ebd c175 b23d 4822 62bd d8bd 493e
000003e0: a1bd cb3c 6582 223e d54e eebd 2eb8 563d
000003f0: 1e69 3c3e 616e 343d fee7 813e 4143 03be

fc1.bias f4 [64]
0.21552718 -0.27560487 -0.26183236 -0.1137949 0.015845481 -0.16022173 -0.18008614 -0.2612984
0.00037050946 -0.12783338 -0.08901194 -0.20694818 -0.035013855 0.07089399 -0.16450115 -0.2762711
-0.058256168 -0.38072896 -0.12085392 -0.028021865 0.24060984 -0.038549047 -0.23472401 -0.15031306
-0.24644126 -0.12651283 0.038475122 -0.098494306 -0.18427978 -0.060224555 -0.07207868 -0.3652899
0.0709916 -0.083433084 0.002617547 -0.21640696 -0.06837081 0.08311323 0.050196283 -0.025590736
-0.0249875 0.0041221734 -0.19962567 0.013681568 -0.25332555 -0.08303723 0.052869685 -0.37155795
-0.08797587 0.0010288432 -0.0109808 -0.09463553 -0.04073511 0.12799232 0.074286945 -0.11301013
-0.21306264 0.114581116 -0.08058562 0.0963053 -0.12024748 -0.26731995 0.023125842 -0.051850032
00000000: 28b3 5c3e 151c 8dbe e40e 86be 4d0d e9bd
00000010: 62ce 813c 2a11 24be 8068 38be e7c8 85be
00000020: f040 c239 c1e6 02be e44b b6bd 39ea 53be
00000030: b06a 0fbd de30 913d fd72 28be 6873 8dbe
00000040: 059e 6ebd e8ee c2be 4382 f7bd 1c8e e5bc
00000050: 6d62 763e 9be5 1dbd 7e5b 70be abeb 19be
00000060: 195b 7cbe 948c 01be 1798 1d3d 62b7 c9bd
00000070: d7b3 3cbe 06ae 76bd fd9d 93bd 4707 bbbe
00000080: 0b64 913d f7de aabd 278b 2b3b c999 5dbe
00000090: ff05 8cbd 4537 aa3d 9e9a 4d3d aaa3 d1bc
000000a0: 96b2 ccbc 4c13 873b ac6a 4cbe a828 603c
000000b0: e3b3 81be 6c0f aabd e28d 583d d83c bebe
000000c0: b12c b4bd 40da 863a d0e8 33bc 46d0 c1bd
000000d0: dcd9 26bd 6b10 033e c123 983d db71 e7bd
000000e0: 182d 5abe 81a9 ea3d 130a a5bd b73b c53d
000000f0: 5044 f6bd 29de 88be 6872 bd3c b360 54bd

fc2.weight f4 [2, 64]
0.17274031 -0.0517624 0.009044314 0.05831226 -0.07531578 0.039334305 -0.04367132 -0.17596623
-0.061559245 -0.009809928 0.045424208 -0.05651405 -0.07078194 0.08946532 -0.010071758 0.14368568
0.017780878 -0.004986897 0.022399554 -0.082690954 0.13595895 -0.052025754 0.028407931 -0.034339122
-0.12988819 0.0021182836 0.00052919926 0.06322925 -0.04091154 -0.032317266 0.01798673 -0.016674763
0.010608516 0.08003833 0.006596841 0.06712667 -0.001997613 0.059412938 0.005979631 -0.016971093
0.00191634 -0.065286905 -0.082207255 -0.0122437 0.008948337 -0.088499986 0.014953207 0.066562764
-0.08986304 -0.008917348 0.13043438 -0.09187688 0.062714964 0.1616742 -0.11175852 -0.13449633
-0.057665262 0.022883479 0.09532123 0.08770165 0.0971007 0.039785966 0.022436574 -0.07594497
-0.007526034 -0.0058199326 0.16649835 0.054409176 0.10347002 0.048238795 -0.04796527 0.08470881
0.024989918 0.101729885 -0.088572696 -0.007451731 -0.06811529 -0.021230584 0.2077266 0.060288053
0.101296514 0.09694279 0.12861362 0.067395024 -0.04866574 0.011333582 0.1633066 -0.025369257
0.033748887 0.004777984 0.019096196 0.07981242 -0.037648335 -0.0051846253 -0.07875096 0.06910989
-0.076410055 0.0979171 0.092551604 0.08699883 0.035861846 -0.08456928 -0.0032579997 -0.009307732
-0.0028519258 0.09403159 -0.082183614 -0.096278064 0.032888215 0.10077764 -0.0499106 -0.068167925
-0.035623204 -0.07358589 -0.07138982 0.066602424 -0.06287095 -0.14477944 0.08697344 0.08776995
0.040683262 -0.028462358 -0.06389458 -0.098403424 0.102926016 0.083902605 -0.05641527 -0.0811627
00000000: d6e2 303e cf04 54bd 9a2e 143c d6d8 6e3d
00000010: 293f 9abd 021d 213d b3e0 32bd 7e30 34be
00000020: 8c25 7cbd d2b9 20bc bc0e 3a3d 477b 67bd
00000030: 1ff6 90bd 9839 b73d 0404 25bc 5722 133e
00000040: 34a9 913c 2069 a3bb 457f b73c e059 a9bd
00000050: d338 0b3e f518 55bd c0b7 e83c 2ea7 0cbd
00000060: 6901 05be e7d2 0a3b f6b9 0a3a 567e 813d
00000070: dc92 27bd 1c5f 04bd e858 933c 8399 88bc
00000080: 57cf 2d3c 23eb a33d 502a d83b b579 893d
00000090: 63ea 02bb fb5a 733d c8f0 c33b f606 8bbc
000000a0: b32d fb3a 24b5 85bd 475c a8bd cd99 48bc
000000b0: 0c9c 123c 7b3f b5bd 4cfe 743c 0f52 883d
000000c0: 1d0a b8bd 121a 12bc 9790 053e f229 bcbd
000000d0: b470 803d ec8d 253e a7e1 e4bd 68b9 09be
000000e0: 6932 6cbd 2276 bb3c c737 c33d ec9c b33d
000000f0: bbdc c63d 9cf6 223d e8cc b73c 0989 9bbd
00000100: f39c f6bb 22b5 bebb 8b7e 2a3e 28dc 5e3d
00000110: 17e8 d33d 0b96 453d 3b77 44bd d07b ad3d
00000120: a8b7 cc3c c257 d03d 9a65 b5bd a62d f4bb
00000130: 0780 8bbd c3eb adbc 48b6 543e 9bf0 763d
00000140: 8c74 cf3d f189 c63d 4ab3 033e 6706 8a3d
00000150: ba55 47bd 7db0 393c d839 273e 30d3 cfbc
00000160: 463c 0a3d a390 9c3b a06f 9c3c b274 a33d
00000170: 2435 1abd cae3 a9bb 2f48 a1bd 7c89 8d3d
00000180: e07c 9cbd c388 c83d b28b bd3d 712c b23d
00000190: dfe3 123d a932 adbd 2a84 55bb 757f 18bc
000001a0: 60e7 3abb a293 c03d e24f a8bd 6f2d c5bd
000001b0: cbb5 063d 8264 ce3d 0f6f 4cbd a09b 8bbd
000001c0: a3e9 11bd 33b4 96bd d334 92bd da66 883d
000001d0: 7cc2 80bd 1041 14be 221f b23d bbc0 b33d
000001e0: 7ea3 263d e429 e9bc 29db 82bd bc87 c9bd
000001f0: e0ca d23d 21d5 ab3d b313 67bd a138 a6bd

fc2.bias f4 [2]
0.09972837 -0.043610934
00000000: 633e cc3d 61a1 32bd
