rwgnn/checkpoints/model_fold_8.pt (torch, 69539 bytes, 16 tensors)

adj_hidden f4 [16, 10]
00000000: 24c6 453f f09b a7be ee8f 753f b030 133e
00000010: 00a2 4bbd a80c 24bf 90b3 18bf 7289 4abf
00000020: c840 a3be f05a dbbe 94ee df3e b42f 81be
00000030: 008c 763b 46f8 2c3f 468f 0b3f ec7b 8bbe
00000040: 7418 b2be 947a f0be e8eb 213e 4e7d 323f
00000050: 7010 5abf 0458 553f 8c3e c53e 3228 40bf
00000060: 6c7f 563f 006b 6f3e 88eb 3bbf aea9 6a3f
00000070: 54f6 253f 8007 babe 3c0d 713f 5c22 8a3e
00000080: 2c6e 1cbf 74d4 86be eee7 26bf c8d4 5cbf
00000090: 8819 fabe e0d2 c73e b452 89be 78a9 d6be
000000a0: d4c9 ae3e d085 53be d0b1 9ebe 502d b73e
000000b0: fa4a 383f 6cad 33bf 048c b33e e489 3dbf
000000c0: 245a f83e 96c5 6a3f e25e 3cbf b841 d23e
000000d0: ee44 34bf 22a8 5cbf d060 9f3d a04e f3be
000000e0: e480 003f eae9 7ebf 7819 36be 7cbe 933e
000000f0: dcd2 6fbf ace6 4f3f a691 4abf 400d 0fbd
00000100: 5836 37be b812 4bbf 3c82 56bf 0a7d 5d3f
00000110: 38cd 85be 9009 8abd c4a3 23bf 10d0 8cbd
00000120: 2083 3dbf 8885 22bf 001a 56bd 0ce0 763f
00000130: c87a 63be 2006 b43d c000 f5be 667c 283f
00000140: 4cd6 6e3f d44a 10bf 5c15 8cbe d083 16be
00000150: f03f 1a3e b4f8 dcbe 60a8 dfbd 1208 213f
00000160: d4c3 ab3e 407b 02bd 3ce9 90be 2482 1abf
00000170: f26b 293f 3e7d 44bf 904a cbbd caaf 57bf
00000180: 406d fe3c e043 c3be 1c11 d03e 185e db3e
00000190: 92a1 5abf b846 8fbe 00cf be3d 10be 11bf
000001a0: 58f1 b83e 6814 9d3e f88d 69be 2eae 7c3f
000001b0: ccb4 9c3e cce6 073f d869 0fbe 28f4 423f
000001c0: 5869 51bf 0892 1dbf 72a4 51bf fc4e 353f
000001d0: 4854 163f 5c43 733f 7074 16bf 4e61 473f
000001e0: 2cdc cd3e 0243 0abf d022 9c3d 2c79 8b3e
000001f0: a871 973e 027e 22bf f8d1 1cbe ecba 51bf
00000200: 48ef 123e 4462 48bf b88f 38be 008f 323e
00000210: 4e59 073f 1eba 39bf 4cd4 f8be 3cf4 b13e
00000220: 6a58 7ebf 32ea 6e3f 7852 a5be 5c36 c53e
00000230: 7ab0 3b3f 5ed6 0b3f b818 1d3f 1446 29bf
00000240: c0d7 e7bd f8b6 1e3f 88f5 3fbf 8293 25bf
00000250: 56ab 2e3f f252 2bbf 96d1 6a3f 9031 efbe
00000260: ba16 7e3f e630 043f 8c6a d73e 5c57 ef3e
00000270: 3017 a4bd 1035 64bf f4ec 8bbe 70fe b93d
0.77255464 -0.32736158 0.95922744 0.14374042 -0.049715042 -0.6408181 -0.5964899 -0.79115975
-0.31885362 -0.42842817 0.43736708 -0.25231707 0.0037620068 0.67566335 0.5451549 -0.27242982
-0.3478428 -0.4696852 0.15812647 0.6972245 -0.8518133 0.83337426 0.38524282 -0.75061333
0.8378818 0.23380661 -0.7340627 0.9166516 0.6482899 -0.36333847 0.9416082 0.2697934
-0.6110561 -0.26333964 -0.65197647 -0.8626218 -0.48847604 0.39028072 -0.2682091 -0.4192617
0.34138358 -0.20656514 -0.30995035 0.35776758 0.71989405 -0.70186496 0.3506776 -0.7403853
0.48506272 0.9170774 -0.7358228 0.41065764 -0.7041768 -0.8619405 0.077821374 -0.47520924
0.5019667 -0.99575675 -0.17783153 0.28856266 -0.9368112 0.8121135 -0.7912849 -0.034924746
-0.17891824 -0.7932544 -0.8379247 0.8651892 -0.26133132 -0.06740105 -0.6392176 -0.06875622
-0.74028206 -0.63485 -0.05227089 0.9643562 -0.22214806 0.08790231 -0.47852135 0.65814817
0.9329574 -0.5636418 -0.27360046 -0.1469872 0.15063453 -0.43158495 -0.10920787 0.6290294
0.33547843 -0.03185582 -0.28302944 -0.6035483 0.66180336 -0.76753604 -0.09926331 -0.8425261
0.031057954 -0.38137722 0.40638053 0.42845225 -0.85402787 -0.27983642 0.09316826 -0.5693064
0.3612163 0.3067963 -0.22808063 0.9870328 0.30606687 0.53086543 -0.1400522 0.761538
-0.81801367 -0.6155095 -0.8189155 0.70823646 0.58722353 0.9502466 -0.5877142 0.7788285
0.4020704 -0.54008496 0.076238275 0.27240884 0.295789 -0.6347352 -0.15314472 -0.81925845
0.14349091 -0.7827494 -0.18023574 0.17437363 0.52870643 -0.7254962 -0.4859947 0.3475665
-0.9935366 0.93326104 -0.3228948 0.38518035 0.73316157 0.54623973 0.6136584 -0.66122556
-0.11320448 0.6199794 -0.74984026 -0.64678204 0.6823019 -0.6692344 0.9172605 -0.467175
0.9925343 0.51637113 0.42073476 0.46746337 -0.08012235 -0.89143467 -0.27329218 0.09081733

features_hidden f4 [16, 5, 32]
00000000: 2b53 113f 5ec5 e83e 5c76 213f a33c 263f
00000010: 66bd f63e 864d 193f 9082 783d 4c20 3b3e
00000020: 009b 9a3d 631a 7d3f 7041 2c3d fcf1 703f
00000030: 3ebc e53e 60e6 2c3d e62b 463f e97c 353f
00000040: bc00 d73e 7005 763f 2d85 723f 3e20 6d3f
00000050: e006 103e 7c2b cd3e c084 de3d 4272 443f
00000060: 886f 683f 32f9 a83e 4e1a 203f 5d86 353f
00000070: 94f8 273e 5eb0 3a3f 097f 183f 42a1 f73e
00000080: 8410 543f 9b96 093f b024 fb3d 84e1 4d3f
00000090: 2feb 163f f917 6a3f 6e08 473f fa56 2e3f
000000a0: bc84 f93e 707f 2c3f 8a8f 083f 1785 443f
000000b0: 1be2 643f 4c3c 333e e646 543f d04b ff3d
000000c0: c7e1 7e3f c2f9 ad3e 2e64 a13e 326f e83e
000000d0: fbe7 233f 90ae c83e bca8 b73e a0da b63e
000000e0: 5c8b 173e aa54 8d3e d99b 4d3f f81d 343e
000000f0: 58b4 b93d 8cd9 713e e4d1 593f 1064 203f
00000100: f655 403f fee7 1a3f b09e ac3e 15af 383f
00000110: 9890 243e 04ca 0f3e a6da 383f 9690 a33e
00000120: a933 4e3f b438 7e3f 9c22 eb3e 92dd de3e
00000130: e87a 993e 8a84 5f3f 6fab 193f 5081 4a3e
00000140: 0c53 203e 9023 bd3d fe4a 0a3f a01e 753e
00000150: 3ce0 3d3f e094 eb3c 40bc d03c 8ca6 8b3e
00000160: 926a 4f3f a469 693e f04a 4f3e 3596 563f
00000170: e054 3f3f 373c 653f 8058 413d 1c7b b73e
00000180: 4037 953c ca43 123f ea2d 1f3f 1463 5d3f
00000190: f51c 103f ef4f 403f db14 0a3f 017b 143f
000001a0: 208a 163e 6411 743f eef9 b23e 94c8 ca3e
000001b0: e841 113e 1024 5d3e 0a9b a63e fce3 3f3f
000001c0: 00da 593d 6104 413f 1a8d cf3e 647c 183f
000001d0: 44ad 333e 0c3a 003e 90cb 7b3e 80ae 9f3d
000001e0: 6ba7 233f c068 513d 20b7 7a3d 30b8 3f3e
000001f0: 7df6 423f f84c c53e ae0c 883e 1009 4d3f
00000200: a0ba 243e 88c7 ff3e f74b 1e3f 281f 353e
00000210: c82e ab3e c8ad 633e e140 013f 05ed 5d3f
00000220: 36cd cc3e a48f fb3e ab9a 4f3f 2a85 db3e
00000230: fa8d 403f b2bd c93e 165c 463f 88f9 b33d
00000240: 6ad0 573f 66c9 b23e 100b c13e e881 fa3e
00000250: fec0 9d3e b82e 993d d265 2a3f 78cd f53e
00000260: 08a9 713f f613 253f a370 183f 34df c33e
00000270: 2c7a 5b3e 5098 4c3e 41bb 213f 98d1 b33d
00000280: 44a4 473e 0bd5 323f 808c 203f 40b3 cf3c
00000290: d784 5a3f cc20 6f3f 18a7 a13d aefe 2f3f
000002a0: 506f 8e3e 40a3 963c 1a89 183f 8057 c83d
000002b0: a9e5 1f3f f4b5 413f 7ce7 5f3f 6534 4b3f
000002c0: 4fab 6e3f 6891 8d3d a038 583f c130 1b3f
000002d0: fce8 713e 10d0 483f 5bd4 7f3f 84bc ed3e
000002e0: 288e 7f3e e016 6b3e e03e a23d a9f6 123f
000002f0: a48e 373e 20a5 953d 2f37 1f3f 8b14 513f
00000300: 6581 583f 9112 3a3f 58e3 263e 58be d43e
00000310: 93db 253f b010 913d 6b80 4b3f f86d 073f
00000320: cf9d 003f b45e bb3e fc35 e63e e08d 5b3d
00000330: 90a1 b03e df35 1c3f 0e5b b13e 70af fd3d
00000340: e8f9 493e a473 393f cc9c 503e 265d c53e
00000350: 0f43 4c3f 7cde 583e 3844 973d eac1 323f
00000360: cb5f 453f a651 393f 3bf4 513f 55f7 633f
00000370: fd65 273f 00ab e83d f9a7 5d3f 0628 673f
00000380: a569 523f 88a0 e03d 19bb 623f 4844 333e
00000390: e227 453f 8801 0c3e 5e82 ef3e 83a9 583f
000003a0: d13a 633f ddeb 0e3f 84cb 103f 98e5 543e
000003b0: 444e 4b3e 1434 313e e51e 623f a019 863c
000003c0: 68bb 453e 549d 103f 364a f13e 8659 fa3e
000003d0: 3033 e93d f825 643e 28dc c73d 5c86 8b3e
000003e0: 403e 813e d0b0 1d3f 8072 603f f0a7 b53e
000003f0: 2899 473e b405 4d3f d2eb ea3e dd29 7b3f
0.5676753 0.4546308 0.6307123 0.64936274 0.48191375 0.59883916 0.06067139 0.18274039
0.07549095 0.9886839 0.042054594 0.9411924 0.4487018 0.04221189 0.77410734 0.7089372
0.41992748 0.96102047 0.9473446 0.9262732 0.14065123 0.40072238 0.10865164 0.76736844
0.90795183 0.3300262 0.6254014 0.7090815 0.16403419 0.72925365 0.5956884 0.48365217
0.828377 0.5374543 0.12262857 0.80422235 0.5895261 0.9144283 0.7774724 0.68101466
0.4873408 0.67381954 0.53344023 0.7676558 0.8940751 0.1750347 0.8292068 0.12465632
0.9956326 0.33979613 0.31521744 0.45397335 0.6402585 0.3919568 0.35870922 0.35713673
0.14799255 0.27603656 0.8031593 0.17589557 0.09067601 0.23618144 0.8508589 0.62652683
0.75131166 0.6051024 0.3371482 0.72142154 0.16070783 0.14041907 0.7220863 0.31946248
0.8054758 0.9930527 0.45924842 0.4352842 0.29976583 0.87311614 0.6002721 0.19775891
0.1565668 0.09235299 0.5402068 0.23937464 0.7417028 0.028757513 0.02548039 0.27275503
0.8102199 0.22794205 0.2024343 0.8382295 0.74738884 0.89545006 0.04720354 0.35836112
0.018214822 0.5713469 0.62179434 0.86479306 0.56294185 0.7512197 0.5393807 0.5800019
0.14701128 0.95339036 0.34956306 0.39606154 0.14185297 0.21595788 0.3254016 0.7495725
0.053186417 0.75397307 0.4053734 0.59564805 0.17546564 0.12522143 0.24589372 0.07796955
0.63927335 0.051125288 0.061209798 0.18722606 0.7615736 0.38535285 0.26572174 0.80091953
0.16086817 0.49956918 0.61834663 0.17687666 0.3343413 0.22234261 0.5048962 0.8668979
0.40000314 0.49133027 0.8109538 0.42875034 0.7521664 0.3940254 0.7748426 0.08787829
0.8430239 0.3491928 0.37703753 0.48927236 0.30811304 0.07479614 0.66561615 0.48008323
0.94398546 0.6448358 0.5954687 0.38256228 0.21433324 0.19979978 0.6317635 0.08780211
0.19496256 0.6985633 0.62714386 0.025354028 0.8535895 0.9340942 0.07893199 0.68747985
0.278193 0.01838839 0.595842 0.09782314 0.6245981 0.75668263 0.8746259 0.7937682
0.93230146 0.069125 0.844614 0.6062127 0.23624033 0.7844248 0.99933404 0.46432889
0.24956572 0.22957945 0.07922149 0.57407624 0.17925507 0.07306886 0.6219358 0.8167197
0.8457244 0.7268458 0.16297662 0.4155147 0.6478817 0.07083261 0.79492825 0.52902174
0.50240797 0.3659569 0.44963062 0.0536021 0.34498262 0.610197 0.34639782 0.12386978
0.19724238 0.7244208 0.20372313 0.3854763 0.79789823 0.21178621 0.073860586 0.6982714
0.77099293 0.7239021 0.8201329 0.89049274 0.65389997 0.11360741 0.8658443 0.90295446
0.8219245 0.10968119 0.8856674 0.17506516 0.7701398 0.13672459 0.4677915 0.84633654
0.8876162 0.5582865 0.5656054 0.20790708 0.19854075 0.17305022 0.8832839 0.01636964
0.19309771 0.56490064 0.4712693 0.48896426 0.11386716 0.22280109 0.09758788 0.27250946
0.25242805 0.6159792 0.87674713 0.3547969 0.19492018 0.8008683 0.45883042 0.98110753

walk_encoder.feature_encoder.weight f4 [32, 136]
00000000: e1ae 853d 7663 b93d 79ea a13e 9b05 003d
00000010: 9129 303e e9cb 73bc 7d76 983a 4989 fd39
00000020: 1a2f 91bd 14c3 02bb f3db 02bc 3f24 a0bd
00000030: 0f35 053d 8ee9 21bc 7c13 ab3c d123 a23d
00000040: 3bab 22be aede fbbc 5635 9dbd 748c 3bbc
00000050: 7a7a ceba 0b15 82be 7f2d bbbd 3562 00bd
00000060: dc1d 1b3e d654 02be 005c f0bc cdc9 cdbd
00000070: 39ad 19bd 6645 2e3c 3fa5 a6be b11f 9bbd
00000080: 8aed bfbc dbc4 9fbe 88b7 d0bd 7664 f6bd
00000090: 7567 383e 2eb5 0abb de05 273e 94a5 00be
000000a0: 4e76 d3bd 4b4d f5bd 5e02 1f3e b0ba 3bbe
000000b0: 6d99 37bd f7b8 1fbd 23fc 803d f9e9 fd3c
000000c0: 9a37 8c3d 1410 a1bd 5a35 283d 5005 babd
000000d0: 6a30 98bd ea1b 273d c749 0fbe 47b2 98bd
000000e0: 39d1 4fbd a422 36be 74b5 b23d 4189 17be
000000f0: 9f4d 29be 2b1f 8fbd d40d a9bd 3b13 8cbd
00000100: b81b 8d3c b56c b3bd 61da a2bd 9e1d f5ba
00000110: a0da 7ebd e3ad 453d 9000 bfbc e26f 96be
00000120: 432b 463d 1af1 e8bc cc22 653d ae9f 913d
00000130: a732 a3bd 47e9 81bd c3c0 47bc 4ba7 53bd
00000140: 6be6 fe3c c9bd 2b3d 8949 65bc 21ba c3bd
00000150: 08de 92bd a7b8 903d cc79 b3bd 2fe5 a63b
00000160: 0b20 0dbd a86f 9ebd c18a 913c 44b3 363d
00000170: 1c91 56bd 1073 773d 7180 913d 3e7c ecbc
00000180: 90c1 87bd 92cc 25bd ffd0 86bc 5c68 9c3d
00000190: c426 7b3d b732 46bb 8e9a 3f3d 787f 86bc
000001a0: 9caa 54bc 74a3 5c3d 7a42 4cbd 2d69 633d
000001b0: b862 85bc 7e90 7bbd 25c3 563d 1570 133d
000001c0: 072c 47bc 080c 8bbd 2e37 35bc fbf4 4ebd
000001d0: de3c b13c 9f6a a1bd bdd6 a53d 4995 c7bc
000001e0: 92c5 8a3d 76b2 6d3d 27cd 2dbd ab20 283d
000001f0: fb69 a33d 766f 45bd fd0f af3d 6547 263d
00000200: 227d 573c 3a8b 673c de74 29bc e8cc 07bc
00000210: ff2d 9bbd 060a 01bd d87a 68bd 44a0 12be
00000220: 0d0a 1abd dab8 3c3d 51df c6be f7c9 19be
00000230: 2ea1 babc 5510 ae3d 826f 1fbe 9268 6d3c
00000240: 3425 a73b c635 c4bc 9957 023e ddc9 b63d
00000250: 20af ad3d 9241 083d 2039 0abe 7f38 12bd
00000260: 7acd ff3d 55c0 113d 1152 333e 3ee2 1d3d
00000270: 9b1d 92bd 2921 373e da60 a8bc c8e4 503c
00000280: 72ac b5ba 40cc c83d 71c5 08bd f87d 80be
00000290: 573c 2d3d 181b 59bd b364 b43e ed8c 563e
000002a0: 92e9 283c 74ed 1e3e 0dea 193d ac73 8ebd
000002b0: e289 f9bd ed9d 95bd de3c 4bbe 5a4e 843e
000002c0: f4d4 11bd 6f7a ebbc 8afc 90be 89c1 363e
000002d0: 441f d83d 76c6 143e 6d23 3cbd 1ac4 603d
000002e0: 5f67 66be e089 8fbd ae6d 25be 19ff 383d
000002f0: 4178 753d 6d99 1d3c 0bf6 973c 7198 af3d
00000300: 89d5 2b3e ca1f c33c 84c6 51be 8172 603e
00000310: c29f 383e 9154 a1bc 2d56 be3d b48e a13d
00000320: cd9a f33d 57ba 603d e4ab f93b 0ac3 48bc
00000330: cc71 b9ba b629 63bc 5d2b e83c 68da b13d
00000340: 63dd 443c 8bc3 a13d 450c 993d c959 36bc
00000350: f72e a7bd 1331 9e3c 2482 093d 46be 83bd
00000360: 08ea 30ba 81bc 86bc ba79 68bd 1743 be3d
00000370: 53b8 8bbc 2683 253d 6b03 f13d 4bd4 16bd
00000380: a725 87bc 500d 75bd 4b8c 903d 1308 413d
00000390: caa1 0fbd 738f 413d 1e20 06bd 41c4 173d
000003a0: 809d 45bd a01f 19bd 53e3 ee3c 8692 be3c
000003b0: 4b7a 9d3d 4afb babc 382e 92bd 6a6e 7fbd
000003c0: 0c9c 853d c0c3 953c c61c 103a cd67 0fbd
000003d0: 36f4 283d a277 883d 20d3 4fbd 75a9 a1bd
000003e0: e0ea a1bd a15d 4f3d 7775 303d 9e56 fabc
000003f0: 51d9 423d 604b 303d 9da8 32ba 8b0c e03c
0.06527496 0.09052174 0.316242 0.031255346 0.17203356 -0.014880159 0.0011631992 0.00048358206
-0.07089062 -0.0019952701 -0.00798701 -0.078194134 0.032521304 -0.009882344 0.020883314 0.07916988
-0.15885632 -0.03074583 -0.07676189 -0.011447061 -0.0015753054 -0.2540668 -0.09139537 -0.031343658
0.15148109 -0.12727675 -0.029340744 -0.10048256 -0.037518714 0.010636663 -0.32547948 -0.07574404
-0.023428697 -0.31204876 -0.10191256 -0.1203088 0.18008216 -0.002116512 0.16310832 -0.12563163
-0.10325299 -0.11977633 0.15528247 -0.18332934 -0.044824053 -0.038994756 0.06298091 0.030995356
0.06846543 -0.07864395 0.041066505 -0.090830445 -0.07431109 0.040798105 -0.13992988 -0.07455879
-0.05073664 -0.17786652 0.08726016 -0.14798452 -0.16533516 -0.06988367 -0.08254591 -0.068396054
0.017225131 -0.087609686 -0.07951809 -0.0018700843 -0.062220216 0.048261534 -0.023315698 -0.29382235
0.0483811 -0.028435279 0.055941388 0.071105346 -0.079686455 -0.06343322 -0.012191954 -0.051673215
0.031115731 0.04192904 -0.013994583 -0.09556986 -0.07171255 0.0706647 -0.08763465 0.005093239
-0.034454387 -0.077361405 0.017766358 0.044604555 -0.05238448 0.060412467 0.071045764 -0.028867837
-0.06628716 -0.040478297 -0.016457079 0.076370925 0.061316267 -0.003024263 0.046778254 -0.016418204
-0.01298013 0.05386682 -0.049868084 0.055520225 -0.016282424 -0.061417095 0.052432198 0.03599556
-0.012156493 -0.06789404 -0.011060519 -0.0505266 0.021635469 -0.078816645 0.08097599 -0.024363177
0.06775965 0.05803152 -0.042431977 0.04104678 0.079791985 -0.048202 0.085479714 0.04059543
0.013152393 0.014132315 -0.010342805 -0.0082886 -0.075771324 -0.0315037 -0.056757778 -0.14318949
-0.03760724 0.046074726 -0.38842252 -0.1501845 -0.022781935 0.08499209 -0.1556988 0.014490264
0.0051008705 -0.023951422 0.12728728 0.08925221 0.08480668 0.033265658 -0.13498354 -0.03569841
0.124903634 0.035583813 0.17511775 0.03854584 -0.07134553 0.17883743 -0.020553995 0.012749858
-0.0013860597 0.098045826 -0.03339142 -0.25096107 0.042293873 -0.053004354 0.35233077 0.20952196
0.010309594 0.15520269 0.037576724 -0.069556564 -0.12184502 -0.073055126 -0.19847438 0.25841027
-0.03560348 -0.028744904 -0.28317672 0.17847265 0.105528384 0.14528832 -0.045932222 0.054874517
-0.2250037 -0.070087194 -0.1615512 0.045165155 0.059929136 0.009619099 0.01854994 0.08573998
0.16780676 0.02381887 -0.20485884 0.2191868 0.18029693 -0.019693645 0.092937805 0.078885466
0.1189476 0.054865208 0.007619368 -0.012253532 -0.0014148294 -0.013864925 0.02834099 0.08684236
0.012015673 0.07898625 0.07473043 -0.011129805 -0.08163255 0.01931051 0.033571377 -0.06432776
-0.00067487406 -0.016447308 -0.056756712 0.0929014 -0.017055666 0.040408276 0.1176823 -0.036823552
-0.016497446 -0.05982715 0.07058009 0.04712684 -0.035066403 0.047255944 -0.032745473 0.037052397
-0.048245907 -0.037383676 0.029161131 0.023263227 0.07689341 -0.022824902 -0.07137722 -0.06236116
0.06523904 0.018281817 0.00054974516 -0.0350111 0.041248523 0.06663443 -0.050738454 -0.078936495
-0.07906127 0.0506264 0.043080773 -0.03055888 0.04757053 0.043040633 -0.00068152865 0.027349731

walk_encoder.feature_encoder.bias f4 [32]
00000000: bf42 aa3c 8612 393e 9907 87bd 377e 803d
00000010: 68f7 15be 75e5 853e b29c 423e 1c81 05bd
00000020: ad2c a6bd 3967 10be 9c77 f33d 29dc 733e
00000030: 3c1d c6bd 31ed 253e ccf8 5e3d 47ef 283e
00000040: 53ab c63d 6f3b ad3c 68f3 eebb f1aa d0bd
00000050: b775 bfbc 1811 e2bd 879e 6fbe 4012 863d
00000060: b2f0 c0bd cc0e 31be 570e 24be b326 933e
00000070: 75a2 1abe 2230 1fbd 877c 1d3e 92e1 3ebd
0.02078378 0.18073472 -0.06593246 0.062740736 -0.14645159 0.26151624 0.19005087 -0.03259383
-0.0811399 -0.14101876 0.11888048 0.23814453 -0.09673545 0.16203763 0.05443649 0.16497527
0.09700646 0.021146504 -0.0072922 -0.101888545 -0.02337156 -0.110384166 -0.23400317 0.0654645
-0.09420909 -0.17290801 -0.16021095 0.28740463 -0.15101035 -0.038864262 0.15379535 -0.04660184

walk_encoder.path_encoder.weight_ih_l0 f4 [96, 32]
00000000: f69a a2bb d563 ccbc 2add 78be 63e9 393e
00000010: 60a6 81bb e8b2 3639 3d9f 343c aa76 6ebc
00000020: 0111 1b3e 391b 23be 5e69 003e 3fac 3bbe
00000030: 4db6 633c f703 27be 445f c4bc 36e5 3e3e
00000040: f448 493d e7b9 143d 1374 c2bc d432 563e
00000050: 63a3 0a3e 47b3 2bbe 516c 0cbe bfea 78be
00000060: f501 2bbd bde2 ebbc 6838 4f3b 9b8b 5e3d
00000070: c0a3 4bbd 04ff dd3d 809b debc f191 083e
00000080: 70cd 0ebe d637 76be 01c9 613e f90c 10be
00000090: 1bbe 0e3e 7ba8 76be c19d 83be 2138 4b3e
000000a0: c51b 72bc da29 023e bfea 563d 986a 10bd
000000b0: 20d6 253e 27b4 84bd d95d 4e3e 93c8 2ebd
000000c0: 7394 4cbd fedf 8a3e 47d5 00bd a4fb d23d
000000d0: ae16 26bd ea3c 683d cb7d d7bc c3c8 cabb
000000e0: 6b27 903d 9c86 f3bd e5cd fabc fb8e f8bc
000000f0: df29 2b3e 9566 0fbe 386a 01be 6b2f 4a3e
00000100: 4714 7d3d 0870 b03d 3920 42bd 53b4 53be
00000110: 59db 9bbd 14ac 003c b82a 233e 5ed3 803e
00000120: c3eb 0b3c 9a5b bf3d e931 1a3e 7faf c83d
00000130: 7efa f73d 7dde 6b3e 37ee 04be f3f2 6c3e
00000140: 69a7 8a3d 082b 1b3d 72dc 883e b21d 813d
00000150: d591 8b3d 04e5 82bd cc2e c03d 6ae8 593d
00000160: fd1d b7bd 3bf8 293e be37 b13d cc8a 34bd
00000170: e137 4a3e b8e1 c4bd 793c 473e 13c4 8abe
00000180: b4fe 283e fcaf 293b dbc0 24be d3ef 47be
00000190: 6a1f 983e 2675 9d3c 147a f7bd 61f4 433e
000001a0: f6fc 913d 68f3 7a3e 6ddc edbd 632d 2dbe
000001b0: 7bea 7abd 94d6 f2bd 590e 46be 62ca 7b3e
000001c0: 525e aabd d89c 133e 9540 26bd 8f0c 4a3e
000001d0: 54d6 93be d508 78bc c580 d03d d51b 81bd
000001e0: 42e7 51be 5487 a33e fbbb 33bd 47cb a53d
000001f0: 42c4 9dbd 2be9 01be e1fe 253d 37d5 4f3e
00000200: 4f1a 3d3e 7d35 dabe 962b 303d 75a0 b3bc
00000210: 8688 413e 9903 49be 57d1 6abe a36d 4bbd
00000220: 10a0 8bbd abab 873e fd5b d7bd 411f adbe
00000230: e02f b23d fc08 86be b0a4 723e ff5e 34be
00000240: bb36 19be 4c39 473e 9be0 57be 2009 b43e
00000250: a488 54bb 13c7 9a3c 4136 64be 5085 9c3d
00000260: 0f30 1f3e 30ac b13d e2eb a73c d734 6ebe
00000270: 3617 433d 8c6d 2fbd 771f 67be 6143 103d
00000280: 6912 883d cd70 27be f43d 2a3d a63d e43d
00000290: 49b3 f3bd 4040 453a 31d5 27bd 5ef7 a1bd
000002a0: 9f58 16be 22b0 b6bd c844 10bd 1fde 87bd
000002b0: 04f3 2fbc a48e 98bd 16f9 9fbd 45e9 d03d
000002c0: ce1a cf3d 00c6 043e e020 55bd 509b b43d
000002d0: 7070 b53d 25c1 06be 7a37 16bc e553 653e
000002e0: 4ad7 a1bd 4847 f0bc 6543 27be ac78 13be
000002f0: de18 2dbe ba5f e33b a061 13bb 142f 213e
00000300: 92d6 403e 7bfc 6abd 2270 743d 8558 13bd
00000310: 7cf0 26be 9aa0 f5bd 0267 39be 776c df3c
00000320: e782 02be 0873 4abd 3a4e b5bc 42c5 a93d
00000330: 3efd 653d 8fdb 4ebe c400 ca3b 499f 393d
00000340: c5fe e9bc 8250 6bbb bbdd 33be a39e 8c3d
00000350: 202c 93b8 a590 43be 78ce 6b3d 1f17 ecbd
00000360: c8d6 173e e651 83be a8b6 89be 6400 e23d
00000370: 52be 77be b11d 2b3e 3857 17be 5004 bf3d
00000380: 4233 9e3c 4232 89bd e6ff b5bd 7904 8fbd
00000390: 8c9e 1e3e 1092 4dbe 5d7b 1cbc 0754 aebd
000003a0: ad40 7b3e 7076 933d 3187 063d cf3f 6bbe
000003b0: 31a4 8c3c ae71 75be 38b7 fa3d 3808 d1bd
000003c0: 1074 98bd baac 26bc d4f4 d83d bbff a93d
000003d0: 8dd6 843e 478d 703d 414d 42be 3490 bb3d
000003e0: d295 3e3d 01c6 f23d 1927 383e 900b 5c3d
000003f0: 06eb 003c bca5 9a3b 0e1e 09be 529d 14be
-0.0049623204 -0.024949947 -0.24303117 0.18155436 -0.003956601 0.0001742352 0.0110242935 -0.014554659
0.15143205 -0.15928353 0.12540194 -0.18327425 0.013898444 -0.16310106 -0.023971207 0.18642125
0.04914184 0.036310103 -0.02373699 0.20917827 0.1353889 -0.16767608 -0.13713194 -0.24308299
-0.041749913 -0.02879464 0.0031619314 0.054332357 -0.04971671 0.10839656 -0.027173758 0.13336922
-0.13945556 -0.24044737 0.22049333 -0.14067449 0.13939707 -0.24087708 -0.25706294 0.1984563
-0.014777129 0.12711278 0.052469965 -0.035257906 0.16194963 -0.06479674 0.20152988 -0.04267175
-0.04994626 0.27124017 -0.031453397 0.10301903 -0.040548973 0.056698717 -0.0263051 -0.0061884834
0.070387684 -0.11890909 -0.030615756 -0.030341616 0.16715191 -0.14003976 -0.12638175 0.19744651
0.061786916 0.08615118 -0.04739401 -0.20674257 -0.076101966 0.007853527 0.15934265 0.2516126
0.008540097 0.093436435 0.15058102 0.09799098 0.121083245 0.23034091 -0.12981497 0.23139553
0.06770212 0.037882835 0.26730686 0.06304492 0.06814925 -0.063913375 0.09383926 0.053200163
-0.08941267 0.16598599 0.0865321 -0.04407768 0.19747879 -0.09613365 0.19456662 -0.27102718
0.16503412 0.0025892248 -0.16089194 -0.1952508 0.29711467 0.0192209 -0.120838314 0.19136192
0.071283266 0.24506915 -0.116143085 -0.16911845 -0.061258774 -0.11857334 -0.1934141 0.24588922
-0.083187714 0.144153 -0.040588934 0.19731353 -0.28874457 -0.0151388245 0.10180811 -0.06304137
-0.20498374 0.31939185 -0.043880444 0.08095413 -0.07703449 -0.12686603 0.040526275 0.20296179
0.18467067 -0.42618933 0.043010317 -0.021927098 0.18899736 -0.19630279 -0.2293142 -0.049665105
-0.06817639 0.2649816 -0.10515592 -0.33812907 0.08700538 -0.2617873 0.23695636 -0.17614363
-0.14962284 0.19455451 -0.21081774 0.35163212 -0.0032430077 0.018893754 -0.22286321 0.07642615
0.15545677 0.0867542 0.02049822 -0.23262344 0.047629558 -0.04282908 -0.22570597 0.035220508
0.066441365 -0.16351624 0.04156299 0.11144571 -0.1189943 0.00075245276 -0.0409748 -0.0790851
-0.14682244 -0.089203134 -0.035221845 -0.06634163 -0.010739092 -0.074490815 -0.07811181 0.10200743
0.101125345 0.12966156 -0.052033305 0.08818686 0.088593364 -0.13159616 -0.0091685 0.22395284
-0.07902391 -0.029330865 -0.16334303 -0.14401501 -0.16904017 0.0069389017 -0.002248861 0.15740615
0.18831852 -0.05736969 0.05967725 -0.03597309 -0.16302675 -0.11993523 -0.181057 0.0272734
-0.12745248 -0.04942611 -0.022132028 0.08289577 0.056149714 -0.20200942 0.006164642 0.04531792
-0.028563866 -0.003590614 -0.17565052 0.06866195 -7.017725e-05 -0.19098146 0.05756995 -0.115278475
0.14828026 -0.2564842 -0.26897168 0.11035231 -0.24193695 0.16710545 -0.14779365 0.093269944
0.019311551 -0.06699039 -0.088866994 -0.06983275 0.15490168 -0.2007525 -0.0095508965 -0.08512121
0.2453639 0.072003245 0.032843772 -0.2297356 0.017168136 -0.23969147 0.122419775 -0.10206646
-0.07444012 -0.010173017 0.10593572 0.0830073 0.2594494 0.058728483 -0.18974783 0.09158364
0.0465296 0.118541725 0.17983665 0.053721964 0.007868534 0.004719464 -0.13390371 -0.14513138

walk_encoder.path_encoder.weight_hh_l0 f4 [96, 32]
00000000: 7936 97bd 3e46 fd3d 0641 d7bd 762a c93d
00000010: 5acc 7b3c 5c39 1d3e 9f89 52be 443f 1dbd
00000020: 9235 533e 03a7 67bd 874d 783c a62e 55bc
00000030: 00c9 fcbd ce64 adbc 3d5f 64bd f820 8bbe
00000040: 19e0 a73d a885 873d b880 7c3c 3b76 0d3d
00000050: cefe 35bd 62f5 77bc 4c7e 66be 1cef 6abe
00000060: 80ab 82be 047b 463d 6ac4 21bb 2736 9d3e
00000070: 7edc 963d 8422 3bbe 1169 dabd a54a 8e3d
00000080: a293 31bd 49b8 273d e574 1dbd 7a8a 4cbd
00000090: 0b24 d93d 3724 a1be 764e 313e 56aa b7bd
000000a0: 50a0 8fbe 7af9 81bd 3b8f 253c 724c 25bd
000000b0: 42e0 28bc b350 453d ebfe 27be f460 313e
000000c0: c083 ba3e e2bb f53d cbc9 f83d 59aa e4bd
000000d0: f4a5 a63d 1a1f b33e ae2a 903e 6e2d 803e
000000e0: 3382 e8bd d3dc 593d a3ff 87be df65 83bc
000000f0: 34f4 98be b633 5d3e ec3e a23d 9a7c 88be
00000100: 6875 0abe ce9a 44be 5334 073e 3616 213e
00000110: 19c4 84be a1e5 0a3d 5193 18be a6d4 dbbc
00000120: ec96 3bbc 532d 793e 0589 3cbe d43f 663e
00000130: e9fa 3ebe 93d2 4fbd e0d2 753c 7381 5bbe
00000140: e2cc 203d 0b25 af3d f377 433d 89a7 cbbd
00000150: c28f 2d3e d195 173d f425 79ba 1817 0cbe
00000160: a7be 1abe 020d 03be 584e 5d3d b882 b43d
00000170: d2a4 97bd b445 b53c 9db5 633e 73ba fcbd
00000180: 253c aebd 29dd 013e acbf 893c e8e6 0dbd
00000190: d2f9 34be 37de 223e 9082 363d 588f 5e3e
000001a0: dae1 0ebe 0448 6ebd b35c 26be 0f96 0a3e
000001b0: a89e e13d e543 1b3e a932 0e3e 66f3 083e
000001c0: daf7 a43e 7974 3a3d c77b 0d3d 2d09 25be
000001d0: f103 8e3e f25c 4b3e d0e0 4b3e cbe3 723d
000001e0: 14e8 62be b90e ee3c 7856 2fbe fc52 90bd
000001f0: 46c6 82be e749 493d b28f 883d d677 83be
00000200: 5eab 773d 7135 86bd 80e9 25be e165 fcbd
00000210: 72fe 86be a012 b5be e9fa 803e fd0c d13d
00000220: cf27 dbbd ccdd 54bd 9a9d 75be 0ad2 a9bd
00000230: 63a3 263d 757c dc3d 81c3 8dbd 37be 6a3e
00000240: 3ba0 953e fefc 133e a33b 5f3e 5ace 2d3d
00000250: a74b 183e b271 c43a 792c 1d3e 964a 743d
00000260: 4117 a73b 333f 903e 3750 3bbe 4f10 303c
00000270: 48ae 70be 80e9 7f3e 2df2 cebc 3592 9dbe
00000280: 0177 1b3e 7143 19be e96b 01be 8f6e 2a3d
00000290: b33b 013e 0e3a 9ebd 1245 97bd c0b1 30be
000002a0: 8ac0 64bd f0d1 39bd 7c81 2bbe 45c5 763c
000002b0: 6bb9 62bd ce97 103d d19e 9ebd 2089 6b39
000002c0: 399c ffbc ce91 e2bd af75 bd3d fa6f 81bd
000002d0: 8a18 ffbd c369 273d 83f7 06be 6945 e93c
000002e0: 88a8 cebd 2dab cfbc f36a 57bb 1530 3d3d
000002f0: 2c4f 3a3e 1b36 88be f31a 66be 55e4 683e
00000300: c93b 0dbd 506b 8e3d 3523 a5be 58f2 52be
00000310: cea9 81bd 860b 38be 2ad8 e93d 30c9 e0bb
00000320: ef56 64bd 19af 943c 4ba8 8fbd 2bbf 18be
00000330: 425c d03c 7725 15be a043 4abd 49d1 f63d
00000340: 025a cfbc b8aa 05be fcbd bcbd ac18 03be
00000350: e0bd 233d eb3c 6a3e 01a5 3bbd 951a 663e
00000360: 3401 563b 78fd 7c3c 783f 9a3d 25dc ec3c
00000370: 0d70 5b3c 586c 20be c0d4 76be c77b fcbc
00000380: 1f26 82be cdb9 a9bd 32a0 303d 9da4 543e
00000390: 319d 08be e244 3a3d 6c16 6d3e d821 8e3d
000003a0: 81ad f3bd 4ecb 9cbd 598d 5ebe 94eb 26bd
000003b0: af63 b13c 11d9 0d3e 9b9d 3d3e c71c 7fbc
000003c0: f6fa 8c3e 50a6 8a3e cb22 e63d 9972 373e
000003d0: fda0 f13d 3792 64bd db5d 103e a079 72bb
000003e0: 2f60 54bc 3cad 2f3d 8875 af3d 6a54 f4bc
000003f0: b2ec 853d 22c5 ae3d 6ec1 103e 2c2f 20be
-0.07383437 0.12366913 -0.10510449 0.09822552 0.015368545 0.15353912 -0.20560311 -0.038390413
0.20625904 -0.05655576 0.015155203 -0.01301161 -0.12343025 -0.021166231 -0.05575489 -0.2717359
0.0819704 0.0661729 0.015411548 0.03453658 -0.044432454 -0.015134187 -0.22509116 -0.22942775
-0.2552147 0.04845716 -0.0024683722 0.30705377 0.07366274 -0.18274885 -0.10664571 0.06947831
-0.043353684 0.040947232 -0.038441557 -0.04993675 0.10602578 -0.31472942 0.17315087 -0.08968036
-0.28051996 -0.06346412 0.01010495 -0.040356107 -0.0103073735 0.048172664 -0.16405837 0.17322141
0.36428642 0.119987264 0.12147864 -0.11165304 0.08137122 0.34984666 0.28157562 0.2503466
-0.113529585 0.05318911 -0.26562223 -0.016039787 -0.29873812 0.21601757 0.07922158 -0.26657563
-0.1352135 -0.19199678 0.13203554 0.15731129 -0.2593086 0.033910397 -0.14899947 -0.026834797
-0.011449557 0.24333696 -0.18411644 0.22485286 -0.18650402 -0.05073793 0.01500389 -0.214361
0.03925789 0.08551987 0.047721814 -0.09944064 0.1694937 0.03700811 -0.00095042516 -0.13680685
-0.1511179 -0.12797931 0.054029793 0.08813995 -0.07404484 0.022127964 0.22237249 -0.1234025
-0.085075654 0.12682022 0.01681503 -0.034644037 -0.17673424 0.1590508 0.044558108 0.21734369
-0.13953343 -0.05817415 -0.162463 0.13533805 0.110165894 0.15162618 0.13886513 0.13374099
0.32220346 0.045521233 0.03454187 -0.16116782 0.27737382 0.19859675 0.19909978 0.05929927
-0.22158843 0.029059755 -0.17122829 -0.07047078 -0.25541896 0.049142744 0.06668033 -0.25677365
0.060466163 -0.06553162 -0.16202354 -0.12324119 -0.26366 -0.35365772 0.2519143 0.102075554
-0.10700952 -0.051969334 -0.23985901 -0.08292015 0.04068316 0.10765926 -0.06922055 0.22924124
0.2922381 0.14451978 0.21800093 0.04243312 0.14872609 0.0014987497 0.15348996 0.059641443
0.0050992076 0.28173217 -0.18292318 0.010746076 -0.23503983 0.24991417 -0.025261963 -0.3077561
0.15182115 -0.14967133 -0.1263882 0.041609343 0.1262043 -0.07725917 -0.07386221 -0.17255306
-0.055847682 -0.045366228 -0.16748613 0.015061681 -0.05535261 0.035301022 -0.077451356 0.0002246243
-0.031202422 -0.11062966 0.09250962 -0.06320186 -0.12455852 0.040872347 -0.13180356 0.02847548
-0.100907385 -0.025350178 -0.0032870143 0.046188433 0.18194264 -0.2660378 -0.22471218 0.22743352
-0.034480844 0.06954062 -0.32253423 -0.2060026 -0.06331216 -0.17973146 0.11418183 -0.006859921
-0.05574697 0.0181499 -0.07014521 -0.14916675 0.025434617 -0.14565073 -0.0493809 0.12051637
-0.025311474 -0.13053405 -0.09215924 -0.1280238 0.039976 0.22874801 -0.045811657 0.22471078
0.0032654526 0.015441291 0.07531637 0.028913567 0.013393414 -0.1566633 -0.24104595 -0.03082074
-0.2541971 -0.08287392 0.043121524 0.2076592 -0.13341214 0.045475848 0.23153085 0.06940049
-0.118983276 -0.07655965 -0.21733607 -0.04075201 0.021653978 0.13852336 0.18517153 -0.015570826
0.27535218 0.2708001 0.11237105 0.1791481 0.11798284 -0.055803504 0.14098303 -0.0036998764
-0.012962385 0.04288982 0.08567339 -0.029825408 0.06539287 0.08533694 0.14136288 -0.15642995

walk_encoder.path_encoder.bias_ih_l0 f4 [96]
00000000: 473c 1f3d a75a ebbd bc8b 8ebc 8f0f 2ebd
00000010: 19ee fabd f476 153d 34d4 e9bd 54e5 07be
00000020: 93ab 333d d76d 00be 054c f3bd 5e8d 25be
00000030: 0566 89be bf1f 1fbe 62f9 613d 6316 0d3e
00000040: 986c 9a3c 7ce6 90be a6bb c83d ed3b ae3c
00000050: 566b dc3d c60b af3d 922f a8bc dc8b 32be
00000060: 0ce6 d93c 78f7 e03d 8f64 40be d50b 85be
00000070: 74c1 0fbe 4a74 6abe 75c4 24bc 2b84 e03d
00000080: 3576 963e 88d9 a83e 787c 18be edda 8d3d
00000090: 3ce7 853e 3b01 15be 03f6 ce3d ade3 3e3e
000000a0: c5be 053e edfd 78bd d8d0 463e 6516 483e
000000b0: 9809 723d 82e4 76bd 7d18 913d 6e23 a1bd
000000c0: 0369 f7bc 4b4e 2fbe 6aca 4b3e d52c bbbd
000000d0: 79b2 d83d a28c a13e 4760 8dbd 5320 99bc
000000e0: 28b3 85bd 60ef ae3d 4428 543e fcf7 d13d
000000f0: a907 01be 3418 893e 5185 4bbd 9c9b 213d
00000100: d7dc e93e 80d2 e4bd 2de0 673d 81ad 6bbe
00000110: c627 573b 2056 613e 4ccc 29be 5ab7 29be
00000120: bcdd c93c f9d1 573e c109 fc3c 50e2 2dbc
00000130: e1a3 22be 73d7 80be 9982 ecbd d8a9 32be
00000140: ee47 323b f4c4 a7be 67dc 3d3d 156d d1bd
00000150: 34a7 51be 44be 85bd a8e7 75bd aeea 2bbd
00000160: a863 a5bc e3de 39be b255 18be c79d 083d
00000170: 9774 b83d 2c5c 0fbe 2b72 1d3e 7b26 4f3e
0.038875844 -0.114919 -0.017400615 -0.042495307 -0.12252445 0.036490396 -0.11417428 -0.13271075
0.043864798 -0.125419 -0.11879734 -0.16167209 -0.26835647 -0.15539454 0.05516947 0.13778071
0.01885061 -0.28300846 0.09801416 0.02126881 0.1076266 0.085471675 -0.020530496 -0.17436165
0.026598953 0.10984701 -0.1878836 -0.2598559 -0.1403864 -0.22895923 -0.010056605 0.10962709
0.2938706 0.32978463 -0.14891231 0.069265224 0.2615298 -0.1455125 0.10105517 0.18641539
0.13061054 -0.060789037 0.19415605 0.19539793 0.05909118 -0.060276516 0.07084749 -0.07868086
-0.03020144 -0.1711971 0.19901434 -0.091394104 0.10580916 0.31552607 -0.06903129 -0.018692171
-0.06528312 0.08541751 0.20718485 0.102523774 -0.12600578 0.26776278 -0.049687687 0.03945504
0.456763 -0.11172962 0.056610275 -0.23015405 0.0032830103 0.2200551 -0.1658184 -0.1657385
0.024641864 0.21076192 0.03076637 -0.010613039 -0.15882827 -0.25164375 -0.11548347 -0.17447603
0.0027203518 -0.3276745 0.04635277 -0.10225884 -0.20473939 -0.06530431 -0.060035378 -0.041971855
-0.020189121 -0.18151431 -0.1487644 0.033353593 0.09006613 -0.14000005 0.15375583 0.20229523

walk_encoder.path_encoder.bias_hh_l0 f4 [96]
00000000: f028 63bc c185 20be fa60 683e c8f0 acbd
00000010: 83d4 4d3d eb20 c1bd 2ab6 493d 27af b0be
00000020: f6d4 c9bd 86f3 4bbd d507 823d 8d99 11be
00000030: 6ce5 05bd 5aab b1bc 6bc2 853d 5f9f d73d
00000040: 3aeb 1ebd 2f84 4abb a97a d23d 982b 923c
00000050: b747 d7bc 5ed8 1a3d 3e19 36be 4454 46be
00000060: b0e9 e8bd ce83 96bb 2f52 3bbd a0de 50be
00000070: 204d 9bbe a627 8b3c e1a6 b53c 9e51 b03d
00000080: 4128 503e fabb 8d3e 8300 2e3d 23f1 883e
00000090: 9427 873e 9f1b 513d 4f20 073d 9532 923e
000000a0: cf9c 8e3d 5587 b73d ca83 9e3e 93cb 913e
000000b0: 8526 013b 5303 843c a200 8d3e 922c cc3d
000000c0: df90 c1bd 9038 65bd 0089 863e ddd6 3f3d
000000d0: 076c 24be 4946 503d 17c8 4b3e 0485 1c3e
000000e0: 1b6b 52bd 1323 08be 59cd 223e 4498 6e3d
000000f0: b9c4 16be 6f60 bc3d e331 dd3d 5141 cd3c
00000100: c5d3 fd3a 1966 32be 5cd1 e23d 2f8a 933d
00000110: 452c 063d c672 f23d 8ac7 ddbd 74d1 07be
00000120: 8f81 09bd 99b1 0b3e ae4d c13d 3df2 a9bd
00000130: 6b4c 36be cc63 af3c 23bb b4bd 0dc3 99be
00000140: fa46 f93a 3717 89bc f6bf 5fbe 53b0 e7bd
00000150: 0e74 bfbc fb27 bdbe 3e20 0ebd 07f9 463d
00000160: 3714 203e 29aa cbbd 650e 81be 793b 3d3e
00000170: a8ff 29be 67cc c4bd a7d9 09bd 41a6 0ebe
-0.013864741 -0.15676023 0.22693244 -0.08444363 0.050251495 -0.09430107 0.04924599 -0.3450863
-0.09855072 -0.04979279 0.0634915 -0.14218731 -0.032689497 -0.021688152 0.06531223 0.105284445
-0.03879855 -0.0030901541 0.10277302 0.017843053 -0.026279313 0.037804 -0.17783067 -0.19368082
-0.11372697 -0.004593349 -0.045732673 -0.20397425 -0.3033228 0.01698668 0.0221743 0.08609317
0.20327856 0.27682477 0.042480957 0.26746473 0.26397383 0.051051732 0.032989796 0.28554216
0.069635026 0.089613594 0.30959922 0.28475627 0.0019706797 0.016114866 0.27539545 0.099694386
-0.0945146 -0.055962145 0.26276398 0.04683577 -0.16056834 0.05084828 0.19900547 0.15285116
-0.051371675 -0.1329463 0.15898646 0.05825068 -0.14723481 0.09198081 0.10800531 0.02505556
0.001936548 -0.1742176 0.110750884 0.07204091 0.032757062 0.118382975 -0.10829075 -0.13263494
-0.033570822 0.13641967 0.09438644 -0.082981564 -0.17802589 0.021409892 -0.08824756 -0.30031624
0.0019018345 -0.016734703 -0.21850571 -0.11312928 -0.023370769 -0.36944565 -0.034698717 0.048577335
0.15632711 -0.09944565 -0.25206295 0.18479718 -0.16601431 -0.09609299 -0.033654835 -0.13930608

bn.weight f4 [32]
00000000: 387c 563f 517c 7a3f 2e34 623f 6a7a 6a3f
00000010: 0ad5 683f d1a6 403f 052e 353f 0cc9 483f
00000020: c21a 803f ce50 363f 9943 623f 8950 6a3f
00000030: 1e70 5d3f ed14 563f 4343 3d3f 66f8 4f3f
00000040: 2576 723f ce40 533f 019c 743f 3dd2 533f
00000050: d3a9 703f c13c 663f dc6d 7a3f c2b2 793f
00000060: c445 603f d289 393f b309 6f3f 1cca 6f3f
00000070: 5872 8b3f 1e3a 583f 4a03 583f 6c01 5c3f
0.8378329 0.9784594 0.8836087 0.9159304 0.9095007 0.7525454 0.70773345 0.78431773
1.0008166 0.7121705 0.88384396 0.91529137 0.864992 0.8362568 0.7393076 0.812384
0.94711524 0.8252076 0.95550543 0.82742673 0.9400913 0.89936453 0.9782388 0.9753839
0.87606454 0.7247592 0.93374175 0.9366777 1.089427 0.8446368 0.8438002 0.8593967

bn.bias f4 [32]
00000000: 72d6 e03c 72cc 173d 94b8 e63c dacc bebd
00000010: 0350 dd3d c078 e33b 60d3 f93c aa88 ce3d
00000020: c96c 8d3d d613 8c3a b1eb b3bc 2be0 96bd
00000030: 131f 12be 9652 95bd ca6c b43c d589 79bd
00000040: e733 5bbd 930b 9b3d 6e97 dabd f002 3d3e
00000050: 9fda dfbd 9384 ed3b 40b2 db3d 37a2 a3bd
00000060: d405 6fbd 5834 5ebd adfc c43d 7e17 e93c
00000070: 251d 213e 451a 2abe 33d1 2ebe ef61 333d
0.027446005 0.03706021 0.028164186 -0.09316416 0.10806277 0.0069418848 0.0304963 0.1008466
0.06905515 0.0010687064 -0.021962972 -0.073669754 -0.14269666 -0.07291143 0.02202453 -0.060922462
-0.053516295 0.07570567 -0.10673414 0.18458152 -0.109303705 0.00724847 0.10727358 -0.079899244
-0.058355168 -0.054249138 0.096185066 0.028453585 0.15733774 -0.16611584 -0.1707199 0.04379457

bn.running_mean f4 [32]
00000000: f972 b33e 7ff9 6dbd 0a55 ae3e 7142 4ebe
00000010: 6358 093e d39f d13e ec82 bbbe 845e 19bc
00000020: 7318 7b3e e6a3 0a3f ca54 f73d 2ba0 a4bd
00000030: acae a8be dece e7be bbbe 3cbe 2bd7 40bf
00000040: d113 e6be 2b26 06bf 8222 a9be e858 c6bc
00000050: bed4 1abf 7247 81be 19e2 90be a3e5 25be
00000060: 7d01 a83e 121c c3be b080 c3bc 2e39 0d3e
00000070: 19f3 8a3e 80c8 09be 7ba6 943d 1e9f e03e
0.35048655 -0.058099266 0.34049255 -0.20142533 0.13412623 0.4094225 -0.36623323 -0.009360913
0.24521045 0.5415634 0.12076719 -0.08038362 -0.32945764 -0.45275015 -0.18432133 -0.7532832
-0.44936994 -0.5240199 -0.3303414 -0.024212316 -0.6048087 -0.2524982 -0.282975 -0.1620088
0.32813635 -0.38107353 -0.023865074 0.13791344 0.27138594 -0.13455391 0.07258316 0.43871397

bn.running_var f4 [32]
00000000: c657 eb3b c6c0 053b 1caf 293c b46d 743b
00000010: 8255 c23b da85 7e3b ce93 c83b c81a 7c3b
00000020: 0d9d 823b 0735 d83b 2de9 123b 87b0 313b
00000030: acf8 b13b 25d2 9b3b 926a 633b 231f 643b
00000040: f6fe f43b cda4 803b 474f aa3b f0b7 063c
00000050: a9e9 c13b 4341 2c3b 168c a23b 0f8c 9d3b
00000060: 4d0e ea3b 7f13 9e3b dd0d 213b 8b71 373b
00000070: d5ac 163c df33 953b d349 123c a801 9c3b
0.0071820943 0.0020409091 0.010356691 0.0037296833 0.0059306035 0.0038837106 0.0061211353 0.0038468111
0.003986007 0.006598118 0.0022416816 0.0027113275 0.0054312553 0.004755276 0.0034700972 0.0034808598
0.007476683 0.003925896 0.005197439 0.008222565 0.005917747 0.0026284016 0.004960547 0.004807956
0.007142818 0.0048241015 0.0024574914 0.002799126 0.00919648 0.0045533027 0.008928734 0.0047609396

fc1.weight f4 [64, 32]
00000000: 344a 4b3e 2cb7 793c cfcb e93b 2cdc 113e
00000010: c88f 0e3e b8f4 c3ba cb41 d7bd 945d 1cbe
00000020: 4386 f03d 7cc0 12bd 9fe5 a2bd 5161 4bbe
00000030: 69a0 3e3e 64de dc3d 3781 a8bd 2b81 d93d
00000040: 8c37 93be ad85 a93c 18ae f9bd c02d 45bd
00000050: e6a0 ee3d bdb8 2ebe 067a 7d3e 13cd 79bc
00000060: 83be f2bd b2de ec3d 5afa a63c f0c4 9bbe
00000070: 4943 d9bb 18f8 53bc 7d44 2abe ebd0 df3d
00000080: 2a87 02be 0e81 f2bc d29d d7bd 2446 02bb
00000090: 7df5 883e bbd9 37bc f7fc 0ebd 0a2a 843e
000000a0: bc53 203e de04 05bd 46cb c03d 5b81 52be
000000b0: eff3 8ebd 9d1a 04be 6ac1 363e 8ab9 d8bd
000000c0: 8622 9c3d 3cda 1ebe e570 b33d c3c3 cb3d
000000d0: c9ed 83bd 2dd0 833d 7e6a 7ebe aba5 3ebd
000000e0: 33ed 53be d266 533d c34d a53d 08bf 1f3e
000000f0: b4fd 70be 6620 debd 195d 54be 2c69 263e
00000100: b2ac 7b3c 7cf9 8dbd c337 763c 5216 643c
00000110: 1341 c6bd e2df 6437 a392 c2bc 0cd8 ddbd
00000120: 3d5c b0be 4fec 963d 61a4 813d 83c0 ac3d
00000130: f86d 62bc 091b 653c b924 bfbd 848b 4b3d
00000140: 38d4 a63e 16ea 833c 0b5a 5d3e 922f debd
00000150: bb16 ce3d 9803 873e a13e 2abe f652 323d
00000160: 19d9 a0bd 6ef0 1f3e e810 9fbe 4339 01be
00000170: 476a 2dbe 15b2 313e 2550 24bd 60d4 eabc
00000180: 1a18 8c3c 7a73 98bd da0d 233c 47dd 6a3b
00000190: 02e5 0cbc 2862 c83d f01b 1cbe fe8c fd3b
000001a0: 9474 7ebd f050 193c b890 d83a f938 003e
000001b0: 6af2 033d b163 813d a572 05be 4dfc 50be
000001c0: c988 6bbb 51d2 49be 4df9 ae3c 149b 42bc
000001d0: d452 dbbd c633 be3d afa3 b2be a3f2 263e
000001e0: 4c29 033e 190e b23d 86be 56bc 39ad 563d
000001f0: 1a01 c9bd a1f4 163d c52b c43d 491d 90bc
00000200: 2231 a3bd d22a 7abd 4a2f d53c 6f09 de3d
00000210: 401a 02be 1339 8bbd 4b4b debd 8d39 9ebd
00000220: 4928 d4bd fc71 92be 7ae6 f03d 94a7 8fbd
00000230: 3199 3c3d f5f1 21bd 7d78 963d 7660 763a
00000240: ac8b c5bd 3042 93bd 3867 8c3d e674 0d3c
00000250: 14c3 113e f9ea 323e 8957 70bc 25a9 ffbd
00000260: d45c 9c3d e72c 18be 846d 963d cc6c db3d
00000270: 6192 c53d 5bbe f13d 14b4 d3bc e60e 26bd
00000280: d5d7 61bd f9cd 10be 1750 c9bd aeb4 873e
00000290: e737 8dbc 0034 80bd d0f7 a23d 6ae9 f2bc
000002a0: fe9c f4bd b39c 643d 7273 e2bd a48c d6bd
000002b0: aeb2 6b3e 4fc9 d63d 0a5a acbd 8060 2b3e
000002c0: 1aec 3b3e 57a5 2cbd 477f 933d bb5f 06be
000002d0: 2855 1b3e 08ea 05be 5a93 833d 5f31 32be
000002e0: 1199 72be a76e acbb 0c90 24bd e81b 8abe
000002f0: 74e5 193e 85c0 20be b422 ce3d 2c37 863d
00000300: 4c3c aa3b 427c 15bd 6db4 dabd 8d05 84bd
00000310: a1e6 2bbe 7cd3 033e 9ee2 a63d 0e7b a7bd
00000320: 1e6f b53d 8619 443e ba91 023e d47b d5bd
00000330: 345c 893d 27ff c0bc 3e0b c83c 33c8 e0bd
00000340: b16d 3f3e 3662 2c3d 8d66 9a3d a193 003e
00000350: c14b dbbd 06f6 db3d 249f 8cbd 7d26 613d
00000360: a35e fdbd 2a37 8abd 3ec1 05bd 73e2 b0bd
00000370: 37a6 b13d fa3e 8b3d 9abd 43bc d633 f73d
00000380: 4048 5abd 4b6f 87be d6ab 5a3d 86bb 333d
00000390: 54d0 733e 7d64 18be dd9d 373d 3942 7abd
000003a0: daff 8d3b e660 06be c5d4 b4bd 3cb0 02be
000003b0: 6606 f33c a5ac 0d3e 994f c33c aa11 6f3d
000003c0: d0b7 22bc 19b2 2c3c 5946 393e aeeb f23d
000003d0: dcfe 143e 8746 b8be 81ac a93e fbd9 d43c
000003e0: 3657 07be b65c 0cbd db9e 3dbe f045 36bd
000003f0: bce6 a23c c5df 56be c417 07bb 0ee8 43bd
0.19852525 0.0152414255 0.0071348916 0.14244145 0.13922036 -0.0014950251 -0.10510596 -0.15270072
0.117443584 -0.0358281 -0.07953953 -0.19861342 0.18615879 0.10784605 -0.08227771 0.1062034
-0.28753316 0.020693624 -0.12191409 -0.048139334 0.11651783 -0.1706266 0.2475358 -0.015246647
-0.118527435 0.11565913 0.020383049 -0.3042369 -0.0066303355 -0.012937568 -0.16627689 0.1092852
-0.12746873 -0.029602554 -0.10528149 -0.0019878233 0.26749793 -0.011221345 -0.034909215 0.25813323
0.15656942 -0.032475345 0.09413771 -0.20557158 -0.069801204 -0.12900777 0.17847219 -0.10582264
0.07623772 -0.15512937 0.08761767 0.09949448 -0.06441838 0.06436191 -0.24845311 -0.046544712
-0.20695953 0.05161173 0.080714725 0.15600216 -0.2353428 -0.10846023 -0.20738639 0.16251057
0.015360998 -0.06932351 0.015027943 0.013921337 -0.09680381 1.3641986e-05 -0.023751562 -0.10832223
-0.34445372 0.07369291 0.06330181 0.08435156 -0.013820164 0.013983496 -0.09333176 0.0496936
0.32583785 0.016102832 0.2161638 -0.10848917 0.10062929 0.2636993 -0.16625454 0.04353615
-0.07853908 0.1561906 -0.31067586 -0.126195 -0.16935073 0.17353089 -0.040115494 -0.028665721
0.017101336 -0.074439004 0.009952033 0.0035837458 -0.008599522 0.09784347 -0.15245032 0.007737755
-0.062122896 0.009357676 0.0016522622 0.12521733 0.032213606 0.06317843 -0.13032015 -0.20408745
-0.0035939685 -0.19709136 0.02135911 -0.011877794 -0.107091576 0.09287219 -0.34890506 0.16303496
0.12808722 0.08694095 -0.013106948 0.05241129 -0.09814663 0.03685439 0.09578661 -0.01759209
-0.07968356 -0.061075993 0.026023526 0.10841643 -0.12705326 -0.067979954 -0.10854205 -0.07725821
-0.10359246 -0.28602588 0.1176271 -0.07014385 0.046044532 -0.03953739 0.073472 0.0009398529
-0.09645781 -0.07190359 0.06855625 0.008633828 0.14234573 0.17472447 -0.0146693075 -0.12483434
0.07634893 -0.14860879 0.07345107 0.10714111 0.0964706 0.118038855 -0.025842704 -0.040541552
-0.055137474 -0.14141072 -0.09829729 0.26505035 -0.01723857 -0.06259918 0.07957423 -0.029652316
-0.119440064 0.055813503 -0.11057176 -0.10476044 0.2301738 0.10487615 -0.08415611 0.1673603
0.18351784 -0.042149868 0.072020106 -0.13122456 0.15169203 -0.13077557 0.064245895 -0.17401646
-0.23691203 -0.005262214 -0.040176436 -0.26974416 0.15028936 -0.1569844 0.10065213 0.06553492
0.005195176 -0.036495455 -0.10678945 -0.06446371 -0.16787197 0.12873644 0.081486925 -0.08177768
0.088590845 0.19150361 0.12750903 -0.10424009 0.067070395 -0.023559166 0.024419423 -0.10975685
0.18694188 0.04208585 0.07539091 0.12556316 -0.10707808 0.107402846 -0.06866291 0.054968346
-0.12371566 -0.06748803 -0.032654993 -0.08636942 0.08674281 0.06799121 -0.01194706 0.12070434
-0.05329156 -0.26452097 0.05338653 0.04388001 0.2380994 -0.14882083 0.044828285 -0.06109831
0.0043334784 -0.13122901 -0.08829645 -0.1276254 0.029666137 0.1383539 0.023841666 0.058366455
-0.00993152 0.010540509 0.18093242 0.118613586 0.14550346 -0.35991308 0.33139423 0.025982847
-0.13216862 -0.034268104 -0.1851763 -0.04450029 0.019885413 -0.20983799 -0.002061353 -0.047828726

fc1.bias f4 [64]
00000000: 1408 80be c6ef 063e c3b0 a83c faa8 96be
00000010: 8a77 92be aee4 e9bd 2a74 e93b 905c 9cbe
00000020: a4e9 1fbe 6bc9 7cbe 2213 423e b6ff b1bb
00000030: 1bed 33be b61f 8ebe 5ff4 c3bd 6ee3 61bd
00000040: 8325 43be 5de3 33be 57b8 c3bc af44 57be
00000050: b479 2bbe 6cfe adbe 8460 7b3d 13b4 4abd
00000060: 5a9a 19be 0a72 b2be 32b1 4ebe af06 9ebd
00000070: 8783 c1bd 4f3b d7be df65 87be 51e4 85be
00000080: 6735 1ebe 8aab 633d 24c2 533c 75ac 63be
00000090: e751 993d 50bf cd3c cfea 4f3d eb4c 67be
000000a0: 30ab b1bd 5d5a b73c da20 e53d 70a7 59be
000000b0: 1d16 5bbe 36dd 13be 25d1 58bd d741 953c
000000c0: 83c5 9cbd 160c aabc cb07 ddbd 6381 8a3d
000000d0: 9aed f5bc 2dc9 ecbd 62ff 92be 5390 04bd
000000e0: 4958 663e c55e 11be a744 213e 8a88 85be
000000f0: 93cb 5ebe 4837 963d 453f 56be bce9 b1be
-0.25006163 0.13177404 0.020592099 -0.29425794 -0.28606826 -0.1142057 0.0071244435 -0.3053937
-0.1561647 -0.2468621 0.18952611 -0.0054320944 -0.17570917 -0.2775857 -0.095680945 -0.055148534
-0.19057278 -0.17567201 -0.023891611 -0.21022294 -0.16745645 -0.3398317 0.06137134 -0.04948814
-0.15000287 -0.3485263 -0.20184782 -0.077161185 -0.09448915 -0.42037436 -0.2644491 -0.26150754
-0.15450059 0.055583514 0.012924705 -0.22233756 0.07486325 0.025115639 0.05076104 -0.22587936
-0.086752295 0.022381956 0.111879066 -0.21255279 -0.21395154 -0.14439854 -0.05293383 0.018219871
-0.0765486 -0.020757716 -0.10792502 0.0676296 -0.030020524 -0.11561809 -0.28710467 -0.0323642
0.22494616 -0.14196308 0.15748845 -0.26080734 -0.21757345 0.07334763 -0.20922573 -0.34748638

fc2.weight f4 [2, 64]
00000000: 656e aebd 4723 203e 7d99 98bd 8e15 58bc
00000010: a4c6 bdbd 566e 0fbe 07bf ce3c be4c adbd
00000020: 8700 013d c0ed 2c3a 1ee1 063c dc2f d03d
00000030: 1ecf 6fbd 6ffd ecbd 6111 583d 37d0 863d
00000040: 715f 36bd 540d 8e3d 5a0a 7d3d cb04 a2bd
00000050: ca08 87bd 5b09 ffbc 479f 79bd 1e4c a0bc
00000060: 6b5b 023c ca13 13bc 852c 063d cb15 963d
00000070: 6128 e93d 58dc 123d 5680 213d d742 4bbd
00000080: 75a1 9e3d 0a48 03bd 6bae c63c 9a22 b63c
00000090: 968f b63c 59c7 243d 99d7 cbbd fb6a 3c3d
000000a0: c206 ee3d fa5a 9f3c cfb5 723d 0778 033d
000000b0: 68e4 d6bd 225d b53c 20fa 18be 7ab2 23bd
000000c0: f5f2 823b 9cd5 33bd 4ac6 b6bd 7ff7 6a3d
000000d0: 1d1f 31bd c63c 953d 0cdf 08bb 9083 48be
000000e0: 1ac9 933c a519 31bc c06d 0ebd 02fe 1cbd
000000f0: ef7b e9bd 1518 b73c 6bdb 4a3d a600 3cbd
00000100: ec2f 223e 28e7 4dbd 8879 d43d 5e65 cd3c
00000110: 72c4 f8bd 316f e13d 9251 e9bb 9289 333e
00000120: e521 9f3d c050 3bbd 80c9 693c 3197 febc
00000130: 5dd3 2c3e 564f 42bd e31d 5f3d 079e d7bc
00000140: fc0b 8cbd 181a f0bd 0fd1 57bd 9315 d53d
00000150: efc2 2c3c 6d56 14bd 9adb 693c 580c 133e
00000160: f2e4 e73d f2c2 fb3d ebcc ec3d 9847 793d
00000170: 1cab 73bd c04a 9abd 8537 5e3d d1cb 7b3d
00000180: 9d98 df3a 68dd d13b 8d8f 113d b9c6 0abe
00000190: b3eb c93d 632d 94bd 5577 b63d 4b20 493d
000001a0: 5199 da3d a34d b2bd 0cbe 50bc c7d5 2a3e
000001b0: 66a0 f33b 74da dfbd 64e1 5e3d f6fc 9ebd
000001c0: 7c54 81bd 56ea 83bd 90e2 043d dd41 d0bc
000001d0: 2e95 bbbc 6e90 973d 9567 1f3c 7013 15bd
000001e0: 08dd 97bd 85c3 bf3d 90ee 94bd c6bd 0dbd
000001f0: a43c cd3b 4df0 8cbd 139d 893d 5b06 fc3c
-0.0851715 0.15638457 -0.074511506 -0.013188733 -0.09266403 -0.14006934 0.025237573 -0.08461903
0.031494644 0.0006596707 0.008232383 0.101653785 -0.05854713 -0.11571776 0.05275095 0.065826826
-0.044524614 0.06936136 0.06177745 -0.079110704 -0.06593473 -0.03113239 -0.060942914 -0.019567546
0.007956366 -0.008976886 0.0327573 0.073283754 0.11384655 0.035854667 0.03942903 -0.04962429
0.07745639 -0.032051124 0.02425309 0.022233296 0.022285264 0.040229175 -0.09953231 0.046000462
0.11622383 0.01945256 0.059255417 0.03209689 -0.10492784 0.022139136 -0.14939165 -0.03996513
0.003996248 -0.043904886 -0.089245394 0.057364937 -0.043242563 0.07286982 -0.00208849 -0.19581437
0.018040229 -0.010809337 -0.034772635 -0.03832818 -0.114005916 0.02235035 0.04952566 -0.045899056
0.15838593 -0.050269276 0.10374743 0.02507275 -0.12146844 0.11007536 -0.0071203196 0.17532948
0.07770137 -0.045731306 0.014269233 -0.031077953 0.16877504 -0.047438942 0.05447186 -0.02632047
-0.06838223 -0.11723727 -0.05268961 0.104045056 0.010544523 -0.036215235 0.0142735485 0.14360178
0.11322965 0.12293042 0.115625225 0.060859293 -0.059489354 -0.07533789 0.054252166 0.06147367
0.0017059032 0.0064045675 0.03553729 -0.13552369 0.09859409 -0.07235219 0.089094795 0.049103063
0.10673774 -0.08706214 -0.012740623 0.16683112 0.0074348925 -0.109303385 0.054414168 -0.07763092
-0.06314942 -0.064411804 0.03244263 -0.025422031 -0.022898283 0.07400595 0.009729286 -0.03639549
-0.07415205 0.09363464 -0.07272065 -0.03460481 0.0062633324 -0.06881771 0.06719413 0.03076475

fc2.bias f4 [2]
00000000: b06c 4d3e 3c40 dbbd
0.20060992 -0.10705611
