rwgnn/checkpoints/model_fold_6.pt (torch, 69539 bytes, 16 tensors)

adj_hidden f4 [16, 10]
0	0x3f61cb92	0.8820125
1	0xbf68c244	-0.90921426
2	0xbf4879ba	-0.7831074
3	0xbe9bd00c	-0.30432165
4	0xbf206b9c	-0.626642
5	0xbf525c4a	-0.8217207
6	0x3f169fbe	0.588375
7	0xbf134e0e	-0.57540977
8	0x3d43f1e0	0.04783809
9	0x3ebe1754	0.37127173
10	0xbf055cd0	-0.52094746
11	0x3ed99d84	0.42502987
12	0x3c440880	0.011964917
13	0x3f2b885c	0.6700494
14	0xbf3f328a	-0.7468649
15	0xbf6ffddc	-0.93746734
16	0xbe560aa0	-0.2090249
17	0xbf49f74a	-0.7889296
18	0x3e1054b0	0.14094806
19	0x3f5c2118	0.85988
20	0x3e1f6e20	0.15569353
21	0xbe9a1a2c	-0.30098093
22	0xbf188f86	-0.59594
23	0x3c72eb80	0.014826655
24	0x3ecf2f88	0.4046595
25	0xbf661934	-0.89882207
26	0x3ebb7564	0.36613
27	0xbf2cf09a	-0.6755463
28	0xbe91bddc	-0.28465164
29	0xbe430c70	-0.19047713
30	0x3ea45a1c	0.32099998
31	0xbf33c52e	-0.7022275
32	0x3f7b5958	0.981832
33	0xbf366e9e	-0.7126254
34	0x3e8456a4	0.25847352
35	0xbf2c7f3c	-0.67381644
36	0x3c600900	0.013674021
37	0x3f78644c	0.9702804
38	0xbf2346c8	-0.6377988
39	0xbec88808	-0.39166284
40	0x3e899b88	0.26876473
41	0xbebc9a90	-0.36836672
42	0xbe7fb968	-0.2497307
43	0x3e30da90	0.17270875
44	0xbf0b8f86	-0.54515874
45	0xbe9bb128	-0.30408597
46	0xbf362892	-0.71155655
47	0x3f450c30	0.7697172
48	0xbf0492ac	-0.51786304
49	0xbebd9ea4	-0.37035096
50	0xbf6346b0	-0.88779736
51	0x3f3f9564	0.74837327
52	0xbf7567f2	-0.9586173
53	0x3f0f75b2	0.56038964
54	0xbe7e6398	-0.2484268
55	0x3f08982c	0.53357196
56	0xbf6dd68e	-0.9290551
57	0xbf1bc5c0	-0.6084862
58	0xbf591ad8	-0.84806585
59	0xbd202d60	-0.039105773
60	0xbf55001e	-0.83203304
61	0xbc889440	-0.016672254
62	0xbec8a108	-0.39185357
63	0x3f4954a0	0.7864475
64	0xbf0f54bc	-0.5598867
65	0xbf658980	-0.89662933
66	0x3e75d448	0.2400676
67	0xbf6a9bee	-0.9164418
68	0xbf31ce7c	-0.69455695
69	0xbf4286ae	-0.75986755
70	0xbf09510c	-0.5363929
71	0xbf3b4d8c	-0.731652
72	0x3f45291e	0.77015865
73	0xbefee4ac	-0.49783838
74	0x3f2d5e92	0.6772243
75	0x3f23dea4	0.640116
76	0xbf778ee2	-0.96702397
77	0xbf03f000	-0.51538086
78	0xbf07fbca	-0.53118575
79	0xbf1ca5b0	-0.6119032
80	0xbe2cec70	-0.16887069
81	0xbf3dc1d8	-0.7412391
82	0x3eaa3c4c	0.33249128
83	0x3f44eea8	0.7692666
84	0x3ed9c778	0.42534995
85	0xbe25fab8	-0.16208923
86	0xbf3c8fb8	-0.736568
87	0x3f056c54	0.5211842
88	0xbf7ff696	-0.99985635
89	0xbedffbe8	-0.43746877
90	0x3e49c428	0.19703734
91	0xbee11cd0	-0.43967295
92	0x3f203d6c	0.6259372
93	0xbf50ed58	-0.8161216
94	0xbddb6f20	-0.10714555
95	0xbf49d11e	-0.7883471
96	0xbf1d4180	-0.6142807
97	0x3e535bf0	0.2064054
98	0x3f3092f2	0.6897422
99	0x3dbbf7d0	0.09178126
100	0xbf7fa29a	-0.99857485
101	0x3d805530	0.06266248
102	0xbf3c6778	-0.7359538
103	0xbbbc1100	-0.0057393312
104	0xbf4b6ef4	-0.79466176
105	0xbcb203c0	-0.021730304
106	0x3f2feb70	0.68718624
107	0xbe024290	-0.12720704
108	0x3f0c1da4	0.5473273
109	0x3f4d2126	0.80128706
110	0x3f36dac0	0.71427536
111	0xbe314e60	-0.17315054
112	0x3e111e68	0.14171755
113	0xbf601468	-0.8753114
114	0x3e1c67d0	0.15273976
115	0x3ea553e0	0.32290554
116	0xbf2c15f6	-0.6722101
117	0x3efbd930	0.49189138
118	0x3f243d46	0.64155996
119	0xbe385cb8	-0.1800412
120	0x3e95f934	0.2929169
121	0x3e3e56c0	0.1858778
122	0xbda27b70	-0.079337
123	0x3ece5e74	0.40306437
124	0x3ea555d0	0.32292032
125	0xbdee9be0	-0.116508245
126	0xbf2b596a	-0.6693331
127	0xbef080c8	-0.46973252
128	0x3f1125ba	0.5669819
129	0x3ecd7b90	0.40133333
130	0x3f4dd66a	0.80405295
131	0xbe3606c0	-0.17776012
132	0x3db322f0	0.08746898
133	0x3f141998	0.5785155
134	0x3dc12d90	0.094325185
135	0x3c8a58c0	0.016888022
136	0x3e3fa428	0.18714964
137	0xbf28e6e0	-0.6597729
138	0x3ef058e0	0.46942806
139	0x3e9fdbe0	0.3122244
140	0xbe1d8228	-0.15381682
141	0xbf2e6fe8	-0.68139505
142	0x3f04305a	0.5163628
143	0xbf4da5f4	-0.8033135
144	0xbe0b65a8	-0.13612998
145	0xbe9af2ac	-0.3026327
146	0x3e1da518	0.1539501
147	0xbe4dfb68	-0.20115435
148	0x3f0452ce	0.5168885
149	0xbdefb7d0	-0.11704981
150	0xbecceb4c	-0.40023267
151	0x3e32da78	0.17466152
152	0xbf2fa49a	-0.6861054
153	0x3ec7082c	0.38873422
154	0xbe2a63d8	-0.1663965
155	0xbeb35de4	-0.3503257
156	0xbf400b8e	-0.7501763
157	0x3f04ea8e	0.519204
158	0x3e91213c	0.28345668
159	0x3ec3427c	0.3813666

features_hidden f4 [16, 5, 32]
0	0x3f01223a	0.5044285
1	0x3ebcc3e6	0.3686821
2	0x3f1c7c45	0.6112712
3	0x3e461560	0.19344091
4	0x3f3ee0c5	0.7456172
5	0x3e0e60c4	0.139041
6	0x3da3c0c8	0.079957545
7	0x3f12eb01	0.5738984
8	0x3f7e522c	0.99344134
9	0x3e9ca0ce	0.30591434
10	0x3e992078	0.29907584
11	0x3f51660d	0.8179634
12	0x3ee2a342	0.4426518
13	0x3f4161e7	0.7554001
14	0x3f7f887c	0.99817634
15	0x3e9035a4	0.28165925
16	0x3f59a66a	0.8501955
17	0x3e07580c	0.13217181
18	0x3f30fcc4	0.6913569
19	0x3d3b2380	0.045688152
20	0x3efd988c	0.49530447
21	0x3f6dbcba	0.928661
22	0x3e9efef2	0.31053883
23	0x3f5cd7bb	0.8626668
24	0x3f23ff70	0.6406164
25	0x3e97e9c0	0.29670525
26	0x3ef674b6	0.48135918
27	0x3f6cfc14	0.9257214
28	0x3ef2d62e	0.4742903
29	0x3d79dbf0	0.061000764
30	0x3d6ef630	0.05834025
31	0x3f1b0eae	0.60569274
32	0x3ef065a4	0.46952546
33	0x3e62e41c	0.2215733
34	0x3f4f4575	0.8096536
35	0x3ebda200	0.3703766
36	0x3f5a7eb4	0.85349584
37	0x3f1f17e7	0.6214585
38	0x3dd41f78	0.10357565
39	0x3f594d9e	0.8488406
40	0x3ed555c2	0.4166699
41	0x3f260a72	0.6485969
42	0x3dfb1e88	0.12261683
43	0x3ef7c14c	0.4838966
44	0x3f5c32d7	0.86015075
45	0x3e9d7412	0.30752617
46	0x3f6838ec	0.90711856
47	0x3ed4409e	0.4145555
48	0x3f769407	0.9631962
49	0x3d618460	0.055057883
50	0x3d5f9150	0.05458194
51	0x3f1315a6	0.5745491
52	0x3f115dca	0.56783736
53	0x3f3c772a	0.7361933
54	0x3bb11900	0.0054045916
55	0x3d89ef20	0.067350626
56	0x3f1968ec	0.59925723
57	0x3dc53b40	0.09630442
58	0x3f3bba78	0.73331404
59	0x3f31d022	0.6945821
60	0x3f208c9a	0.6271454
61	0x3f366682	0.71250165
62	0x3e905eb6	0.2819726
63	0x3d081a10	0.03322798
64	0x3c99cbe0	0.018773973
65	0x3f46916d	0.7756565
66	0x3e948652	0.29008728
67	0x3f64c941	0.8936959
68	0x3e11d388	0.14240849
69	0x3eee8b16	0.4659049
70	0x3f617d11	0.8808146
71	0x3eb14e90	0.3463025
72	0x3f0ab2a3	0.5417883
73	0x3ec3bc82	0.38229758
74	0x3e1a9b9c	0.15098423
75	0x3e496c34	0.19670182
76	0x3e1e4c0c	0.15458697
77	0x3eb36364	0.35036767
78	0x3f782535	0.96931773
79	0x3cf2ab00	0.029622555
80	0x3e5d215c	0.21594757
81	0x3f3fda3b	0.7494237
82	0x3eaeeff2	0.3416744
83	0x3f6b3545	0.9187816
84	0x3e8a98b6	0.27069634
85	0x3c95eee0	0.018302381
86	0x3f2331a8	0.63747644
87	0x3f41bfce	0.75683296
88	0x3f5e3924	0.8680594
89	0x3e02ad7c	0.12761492
90	0x3f7bedba	0.98409617
91	0x3e441b58	0.19151056
92	0x3ea241a6	0.3169071
93	0x3f6b6178	0.919456
94	0x3f4e2deb	0.80538815
95	0x3f2fdddb	0.686979
96	0x3f616df2	0.8805839
97	0x3dd10c10	0.10207379
98	0x3cb59f00	0.022170544
99	0x3e78dc38	0.24302757
100	0x3f101f9f	0.5629825
101	0x3f2ca5c9	0.6744047
102	0x3ea03a38	0.31294417
103	0x3ba75f80	0.00510782
104	0x3f2893e9	0.65850693
105	0x3ea62088	0.32446694
106	0x3f5fdf9c	0.87450576
107	0x3f64c5c0	0.8936424
108	0x3eb4d1c2	0.35316283
109	0x3efaffae	0.49023193
110	0x3f12fe2c	0.57419086
111	0x3e4d3708	0.20040524
112	0x3f214356	0.6299337
113	0x3f33adb4	0.70186925
114	0x3f42ae3a	0.760471
115	0x3e2da06c	0.16955727
116	0x3ec57aca	0.38570243
117	0x3f3e11a7	0.74245685
118	0x3e616e90	0.22014832
119	0x3f6257cc	0.8841522
120	0x3e94ab16	0.29036778
121	0x3f646dbd	0.8922995
122	0x3e56f244	0.20990855
123	0x3f10790c	0.564347
124	0x3f31334c	0.692189
125	0x3f1a4d03	0.6027376
126	0x3f71f989	0.94521385
127	0x3f3abc8a	0.7294394
128	0x3f359bcf	0.7094087
129	0x3e483334	0.19550782
130	0x3ed0eb98	0.40804744
131	0x3e00a0ec	0.12561387
132	0x3f6203ca	0.8828703
133	0x3f08209d	0.53174764
134	0x3eb10f22	0.34581858
135	0x3f18fe8d	0.59763414
136	0x3f222e56	0.63351953
137	0x3ec7ca16	0.39021367
138	0x3eda83b6	0.42678612
139	0x3e0bc9d0	0.13651204
140	0x3ea398bc	0.31952465
141	0x3e82e0c0	0.25562096
142	0x3f0c2c27	0.5475487
143	0x3f1a0f8d	0.6017998
144	0x3f3ce6b3	0.7378952
145	0x3f799c47	0.97504085
146	0x3e84a68a	0.2590831
147	0x3f52bc10	0.8231821
148	0x3f670f5d	0.9025782
149	0x3e5d280c	0.21597308
150	0x3f46de7d	0.7768324
151	0x3f159e7f	0.5844497
152	0x3cddb7c0	0.027065158
153	0x3eb6921a	0.35658342
154	0x3f729240	0.9475441
155	0x3f6d097d	0.925926
156	0x3ef28c08	0.4737246
157	0x3f77a29c	0.967325
158	0x3f061f91	0.52391917
159	0x3ec85e92	0.3913465
160	0x3e706f0c	0.23479861
161	0x3f5cc9a5	0.86245185
162	0x3f3b6be1	0.73211485
163	0x3eada8a8	0.33917737
164	0x3f1b9a96	0.60782754
165	0x3f08b39f	0.5339908
166	0x3e138d04	0.14409262
167	0x3f330f8d	0.69945604
168	0x3e4e1618	0.20125616
169	0x3c346dc0	0.011012495
170	0x3f063de3	0.5243818
171	0x3ea255ce	0.3170609
172	0x3ec0a4e6	0.37625808
173	0x3e90e29e	0.28297895
174	0x3f1cbdab	0.6122691
175	0x3ed60868	0.41803288
176	0x3f294019	0.6611343
177	0x3e517538	0.20454872
178	0x3f728c19	0.9474502
179	0x3f1e3739	0.61803013
180	0x3f5cdfb2	0.8627883
181	0x3f4ce4dc	0.8003671
182	0x3f54327e	0.82889545
183	0x3efc0b6e	0.4922747
184	0x3ebe8220	0.37208652
185	0x3f5cc41c	0.8623674
186	0x3ea2f144	0.31824696
187	0x3ecfe2e0	0.4060278
188	0x3ed98fae	0.4249243
189	0x3da93628	0.082622826
190	0x3f28fd71	0.6601172
191	0x3eca299a	0.39484864
192	0x3f45e1c8	0.7729764
193	0x3e559984	0.20859343
194	0x3e120f54	0.1426366
195	0x3f7e2ef8	0.9929042
196	0x3f304fce	0.6887177
197	0x3d32c280	0.04364252
198	0x3eac0e44	0.33604634
199	0x3f3a45c0	0.7276268
200	0x3e8534c6	0.26016825
201	0x3f02081c	0.50793624
202	0x3e6d67ac	0.23184079
203	0x3f5c6d16	0.8610395
204	0x3f1fbc0a	0.623963
205	0x3e8de6e0	0.27715206
206	0x3f634900	0.88783264
207	0x3e375d34	0.17906648
208	0x3f632676	0.8873056
209	0x3ec90560	0.39261913
210	0x3edd738a	0.43252212
211	0x3f539211	0.82644755
212	0x3f79bc95	0.9755338
213	0x3f268c14	0.6505749
214	0x3f0b30b1	0.5437117
215	0x3ce55fe0	0.027999818
216	0x3f199424	0.5999167
217	0x3e353e20	0.1769948
218	0x3f365a63	0.7123167
219	0x3f39027d	0.7226942
220	0x3f0c4446	0.54791677
221	0x3edaf802	0.4276734
222	0x3f03f335	0.5154298
223	0x3f72d527	0.94856495
224	0x3f16db62	0.589285
225	0x3f5a144d	0.85187227
226	0x3f6c5787	0.92321056
227	0x3e1ebe1c	0.15502208
228	0x3ea15af2	0.31514698
229	0x3f4f9207	0.81082195
230	0x3cdfd520	0.027323306
231	0x3e734e0c	0.23760241
232	0x3cfad580	0.030619383
233	0x3f761afa	0.9613491
234	0x3ea65c8a	0.32492477
235	0x3f09079b	0.5352723
236	0x3ec43800	0.38323975
237	0x3e864ece	0.26231998
238	0x3f3796b5	0.71714336
239	0x3e324f98	0.17413175
240	0x3e5b5f94	0.21423179
241	0x3f174402	0.59088147
242	0x3f7daf2a	0.99095404
243	0x3f0115a1	0.5042363
244	0x3f40ebc6	0.7535976
245	0x3f349347	0.7053723
246	0x3f48b4c4	0.78400826
247	0x3eaf334a	0.34218818
248	0x3f3da527	0.7408013
249	0x3f324a5c	0.69644713
250	0x3e9ff016	0.3123786
251	0x3f27b812	0.65515244
252	0x3f3f2b5d	0.7467554
253	0x3f276909	0.65394646
254	0x3e8f4ed4	0.2798983
255	0x3f31693e	0.6930121

walk_encoder.feature_encoder.weight f4 [32, 136]
0	0x3d23c7fc	0.03998564
1	0xbd5626cd	-0.052283097
2	0x3dfa160c	0.12211236
3	0xbc3ba2bc	-0.011452373
4	0x3cbbb84a	0.022915024
5	0xbd9e2bf9	-0.07723231
6	0xbddb004a	-0.106934145
7	0xbdeacc9d	-0.11464808
8	0xbd81007b	-0.0629892
9	0x3bb3ade4	0.005483376
10	0xbe3297c9	-0.17440714
11	0x3dc8be5d	0.09801934
12	0xbd4198ab	-0.047264736
13	0x3dbf7a5f	0.09349512
14	0x3dca8543	0.09888699
15	0xbd77c511	-0.06049067
16	0x3e12cd68	0.14336169
17	0x3e3a2ecd	0.18181916
18	0x3cfcd307	0.030862344
19	0x3bc0175f	0.005862161
20	0xbec19d1c	-0.37815177
21	0x3e474382	0.19459346
22	0x3ebd7e34	0.37010348
23	0x3d5c670b	0.053809207
24	0x3e87ea44	0.26545918
25	0x3b94bfda	0.004539472
26	0xbda63be0	-0.08116889
27	0x3df98ec8	0.121854365
28	0x3e2d724e	0.16938135
29	0x3afe9b24	0.0019424898
30	0x3e671192	0.22565296
31	0x3e93529b	0.2877396
32	0x3e62a1c8	0.22132027
33	0xbe24b20b	-0.16083543
34	0x3dfc942f	0.12332951
35	0x3e4f48a6	0.20242557
36	0x3e1ebd2e	0.15501854
37	0x3db9d90d	0.09074602
38	0x3e83905e	0.2569608
39	0x3e2e468b	0.17019098
40	0x3e8f651f	0.28006837
41	0x3e357258	0.177194
42	0x3efcc933	0.49372253
43	0x3e352355	0.1768926
44	0x3e529346	0.20563993
45	0x3dc6fa1f	0.097156756
46	0x3d64f031	0.055893127
47	0xbd3de607	-0.04636195
48	0x3d72e5b1	0.059301082
49	0x3d1e1c20	0.03860104
50	0x3e64d712	0.22347668
51	0x3dbf20ec	0.09332451
52	0x3d6547ae	0.055976562
53	0x3d99090a	0.07472427
54	0x3e952873	0.29132423
55	0x3cca2d04	0.024679668
56	0x3e9cbea2	0.3061419
57	0xbe144a14	-0.14481384
58	0x3da4b78e	0.08042823
59	0x3cc9eea6	0.02464993
60	0x3e735259	0.23761882
61	0xbd3e52ba	-0.046465613
62	0xbe23a924	-0.15982491
63	0x3d0adab8	0.033899993
64	0x3deb65f4	0.114940554
65	0xbbab60c4	-0.005230041
66	0x3d6139d5	0.054986794
67	0xbc194208	-0.009354122
68	0x3e7bf015	0.24603303
69	0xbd48e982	-0.049050815
70	0x3d6d6fe6	0.057968043
71	0xbdd67b84	-0.104727775
72	0xbd77e3bd	-0.060519923
73	0xbd839b95	-0.06426159
74	0x3c20682e	0.009790463
75	0xbc8fda10	-0.017560035
76	0x3ca9b324	0.020715304
77	0xbc0f7cc4	-0.008757774
78	0x3ce24a9d	0.027623469
79	0xbc8bbdca	-0.017058272
80	0x3cb5c6db	0.022189548
81	0x3d6bd8bb	0.057579737
82	0x3d5eec23	0.054424416
83	0x3e1c1ac1	0.15244581
84	0xbda3a1dd	-0.07989857
85	0xbc2a513e	-0.010395346
86	0xbd09afb8	-0.033614844
87	0xbcac6e52	-0.021048699
88	0xbd7fc1c4	-0.06244065
89	0xbd2aa2d2	-0.041659184
90	0x3d44357b	0.047902565
91	0xbd843653	-0.06455674
92	0xbcd5f676	-0.026118498
93	0x3cc3fa0c	0.023922943
94	0xbd018811	-0.031623904
95	0xbd400f95	-0.04688986
96	0x3d7a6687	0.061132934
97	0xbd886c8d	-0.066613294
98	0xbad55094	-0.0016274625
99	0x3cb213d7	0.021737976
100	0xbc24e04a	-0.01006324
101	0x3d5ec0f9	0.05438325
102	0x3ce14e93	0.027503287
103	0xbd0141ec	-0.03155701
104	0x3c9116a6	0.017710995
105	0x3d8d00d5	0.06884924
106	0xbce3f629	-0.02782734
107	0x3c01147a	0.007878417
108	0xbd3b9784	-0.045798793
109	0x3d3c303f	0.04594445
110	0xbcc54567	-0.024080945
111	0xbced88ca	-0.02899589
112	0x3d752576	0.05985018
113	0xbcb31735	-0.021861652
114	0x3ce2a57c	0.0276668
115	0x3c131575	0.008977284
116	0xbce12677	-0.027484162
117	0x3a4468a4	0.00074923993
118	0xbd2c47d2	-0.04206068
119	0xbd43354b	-0.047658246
120	0xbcaf3cba	-0.021391261
121	0xbc4303f7	-0.011902801
122	0x3d052970	0.03251022
123	0x3d728e89	0.059217963
124	0x3c2416e8	0.010015227
125	0xbd237fdc	-0.039916858
126	0xbd553589	-0.05205301
127	0x3d93a10f	0.07208454
128	0xbba8d6e0	-0.005152568
129	0xbcf417e9	-0.029796558
130	0x3d0e5d11	0.034756724
131	0x3cea402b	0.02859505
132	0xbc3f63d1	-0.011681513
133	0x3c2a3eb8	0.01039093
134	0x3d701d27	0.05862155
135	0x3d13d683	0.036093246
136	0xbda13b53	-0.07872643
137	0xbd83f9e8	-0.0644415
138	0xbd8ad6a3	-0.0677922
139	0xbde56c55	-0.11202303
140	0x3c62e9e6	0.013849711
141	0xbdfd122f	-0.12356984
142	0x3d9dfc51	0.07714141
143	0xbc5d8a3c	-0.013521727
144	0xbddee2e0	-0.10883117
145	0x3cf3f025	0.029777596
146	0xbe622ca1	-0.22087337
147	0xbd04bfaa	-0.032409348
148	0xbe2efa46	-0.17087659
149	0x3e83c5ea	0.25736934
150	0x3d62f8da	0.055413105
151	0x3e350d09	0.17680754
152	0x3e7c29af	0.24625276
153	0xbda1fd58	-0.079096496
154	0x3ce1ab87	0.02754761
155	0x3d86615e	0.0656154
156	0x3cf0357e	0.029322382
157	0x3c381dee	0.011237605
158	0x3edf3583	0.43595514
159	0x3e04d995	0.12973626
160	0x3e31e329	0.17371811
161	0xbc572b09	-0.013132819
162	0x3e05b9df	0.13059185
163	0x3ddd1266	0.10794525
164	0x3d22f29c	0.03978215
165	0x3e71ed63	0.23625712
166	0x3e54ada4	0.20769364
167	0x3e429729	0.19002976
168	0x3e69f160	0.22845984
169	0xbeacbbe6	-0.33737105
170	0x3ea9a006	0.331299
171	0x3e9a3356	0.3011729
172	0x3d591cee	0.053006105
173	0x3e81ebfb	0.2537535
174	0x3d9c7ec1	0.07641364
175	0x3e1d8b38	0.15385139
176	0x3e65c04f	0.22436641
177	0x3e3fa5ee	0.18715641
178	0x3e332d12	0.17497662
179	0x3d9f084e	0.07765256
180	0x3e4d98de	0.20077845
181	0x3c82b7bd	0.015956754
182	0x3d88b3ec	0.066749424
183	0xbc0eb6a5	-0.008710538
184	0xbc490640	-0.0122695565
185	0x3e07f58d	0.13277264
186	0x3d2ac756	0.041694008
187	0xbc2c9d12	-0.010535495
188	0x3c0d8c47	0.008639402
189	0xbd0b8dd6	-0.034070812
190	0x3c95cce6	0.01828618
191	0x3d0dedf3	0.034650754
192	0x3e883d98	0.26609492
193	0xbe580f64	-0.21099621
194	0x3e162980	0.14664268
195	0x3d39c633	0.045355033
196	0x3da2908f	0.079377286
197	0x3d9ad8c4	0.07560876
198	0xbe016ff0	-0.12640357
199	0xbcfd4498	-0.030916497
200	0xbe3e6a6f	-0.18595289
201	0x3e10c608	0.14138043
202	0xbd7be61d	-0.06149875
203	0x3d2dbd9f	0.042417165
204	0xbceda084	-0.029007204
205	0xbd8156e2	-0.063154
206	0x3cdc8726	0.026919913
207	0xbe3529d6	-0.1769174
208	0xbda7298e	-0.08162223
209	0xbbbb9000	-0.0057239532
210	0x3d388d94	0.045056894
211	0xbd60eb78	-0.05491206
212	0x3d1e6efc	0.03868006
213	0x3da347e0	0.079726934
214	0x3cb3e86a	0.02196141
215	0x3c34b300	0.011029005
216	0x3d30d5e1	0.04317272
217	0x3d142292	0.03616578
218	0xbcca4ab3	-0.024693822
219	0x3e051118	0.12994802
220	0xbd27c83d	-0.040962446
221	0x3d8dee2b	0.069301926
222	0x3dbb1514	0.0913488
223	0xbd076e66	-0.03306427
224	0xbd815ddb	-0.0631673
225	0xbd9541a0	-0.072879076
226	0x3d1e1550	0.038594544
227	0x3dade2ff	0.08490562
228	0xb9be578d	-0.00036304854
229	0xbd8d1448	-0.06888634
230	0x3d5a43e6	0.05328741
231	0x3d3194e3	0.04335488
232	0xbd95c324	-0.07312611
233	0x3cac2cf5	0.021017531
234	0x3d8b6c81	0.06807805
235	0x3d09f751	0.033683125
236	0x3d724828	0.059150845
237	0xbd485e74	-0.048918203
238	0x3d6fc4db	0.058537345
239	0x3ba2d396	0.0049690707
240	0xbcc35f19	-0.023849057
241	0x3c550689	0.013002046
242	0xbd9f266d	-0.07771001
243	0x3d4e6014	0.050384596
244	0x3b89e82f	0.0042085866
245	0x3bc871d5	0.0061170855
246	0xbdac8068	-0.08422929
247	0x3c0af79f	0.008481889
248	0xbd1546aa	-0.036444344
249	0x3d0ab68a	0.03386549
250	0x3d6cb6ed	0.05779164
251	0xbd9bf04e	-0.07614194
252	0xbd65812f	-0.056031402
253	0xbc779484	-0.0151110925
254	0x3d449815	0.0479966
255	0xbd1141e0	-0.035463214

walk_encoder.feature_encoder.bias f4 [32]
0	0x3d5d83e7	0.05408087
1	0xbe6eedc4	-0.23332888
2	0xbdc7f596	-0.09763639
3	0x3e254878	0.16140926
4	0x3ded99bf	0.1160159
5	0x3e0d934e	0.13825724
6	0x3a9d57b6	0.0012004289
7	0x3d9b14b2	0.07572307
8	0xbeb8aff6	-0.36071748
9	0xbca40b5b	-0.020024946
10	0xbdb72458	-0.08942479
11	0x3d8d2b00	0.06892967
12	0xbd6cfde4	-0.057859316
13	0x3e423310	0.18964791
14	0xbd42906b	-0.04750101
15	0x3bfee97c	0.0077792984
16	0x3e2bf12e	0.16791221
17	0xbd40192c	-0.046899006
18	0x3daab3dc	0.08335087
19	0x3dedeffa	0.116180375
20	0x3e13f1e0	0.14447737
21	0x3e0c46f2	0.13698938
22	0x3c4a2ae8	0.012339331
23	0x3e0ccd09	0.1375009
24	0x3d5df31d	0.05418693
25	0x3d4857aa	0.048911728
26	0xbeb07fc3	-0.34472474
27	0xbdf67e53	-0.12035813
28	0x3e294773	0.16531162
29	0x3dc46d08	0.095911086
30	0x3e153ddc	0.14574379
31	0x3db8454a	0.08997591

walk_encoder.path_encoder.weight_ih_l0 f4 [96, 32]
0	0xbdd68b64	-0.104758054
1	0x3e2d1010	0.16900659
2	0x3e1cc067	0.1530777
3	0xbea38b7a	-0.3194235
4	0x3c0e6bf2	0.008692728
5	0xbd819c34	-0.063286215
6	0xbdccb319	-0.09995098
7	0xbdc932b0	-0.09824121
8	0x3e4f9f7b	0.2027568
9	0xbdfc79e9	-0.1232794
10	0xbdda2b60	-0.106528044
11	0x3d94cd91	0.07265771
12	0x3dd2853f	0.10279321
13	0xbdcc9554	-0.099894196
14	0x3dda9d55	0.1067454
15	0xbde2a53a	-0.11066671
16	0x3cc1e569	0.023668962
17	0x3dc3484f	0.09535276
18	0xbe4d58d3	-0.20053415
19	0xbdc58be4	-0.09645823
20	0x3d2c0916	0.042000853
21	0xbe32c871	-0.17459275
22	0x3e257d31	0.16161038
23	0xbe820a5f	-0.25398538
24	0xbd7c0ac1	-0.061533693
25	0x3ccca66f	0.024981705
26	0x3ee00e0b	0.43760714
27	0xbe238d93	-0.15971975
28	0xbe4cd079	-0.20001401
29	0xbdbc9099	-0.09207267
30	0xbbfe38b6	-0.0077582253
31	0x3e7d1b23	0.24717383
32	0xbe044455	-0.12916692
33	0x3e03859a	0.12843934
34	0x3e78a201	0.2428055
35	0xbe0baab0	-0.13639331
36	0xbdc93a6b	-0.098255955
37	0xbe42ae17	-0.19011723
38	0xbe3a07b6	-0.18167004
39	0x3ddd1f90	0.10797036
40	0x3ddc2708	0.10749632
41	0xbe8c7730	-0.27434683
42	0x3e4a2821	0.1974187
43	0x3d22a955	0.03971227
44	0x3da9a538	0.08283466
45	0xbe5c92a1	-0.2154031
46	0xbe0bdef8	-0.13659275
47	0xbdeb317e	-0.11484049
48	0xbe0190ed	-0.12652941
49	0x3e3dd0b8	0.18536651
50	0x3dcf1115	0.1011068
51	0xbe741a38	-0.23838127
52	0x3df900fc	0.12158391
53	0xbe6958ce	-0.22787783
54	0xbe77e1b6	-0.24207196
55	0xbda6d122	-0.08145358
56	0xbda87f99	-0.08227462
57	0x3e849ea5	0.25902286
58	0x3ef2ffee	0.47460884
59	0x3e148a92	0.14505985
60	0x3dc2164f	0.09476911
61	0xbdac16ba	-0.08402772
62	0x3d9d3dd7	0.07677811
63	0x3e85f93c	0.26166713
64	0x3e27ce49	0.16387285
65	0x3eb9e74d	0.3630928
66	0x3e4d2370	0.2003305
67	0xbe6aa508	-0.22914517
68	0xbd5ff1bf	-0.054673906
69	0xbe072b40	-0.13200092
70	0x3e0858ec	0.13315171
71	0xbe1d32c9	-0.15351404
72	0x3dd6cfab	0.10488828
73	0xbb4ec6f4	-0.003155169
74	0x3d45e2ad	0.048311878
75	0x3e6e24d1	0.23256232
76	0x3ceb4aed	0.02872225
77	0xbec7fde6	-0.39060897
78	0x3e98106a	0.29700023
79	0xbe607b76	-0.21922097
80	0xbd125c69	-0.03573266
81	0x3dbfa8a8	0.093583405
82	0xbd995250	-0.07486403
83	0xbe03d9bc	-0.12876028
84	0xbc09c197	-0.008407972
85	0xbe9f6ebc	-0.3113917
86	0xbe05290c	-0.1300394
87	0xbd435c36	-0.04769536
88	0xbc3a500c	-0.011371624
89	0xbe256792	-0.1615279
90	0x3e264d52	0.16240433
91	0x3de1edce	0.11031686
92	0xbe8b008a	-0.2714885
93	0x3c9b4926	0.018955778
94	0xbb7c65b8	-0.0038512778
95	0xbdef76a4	-0.11692551
96	0x3d98edff	0.07467269
97	0x3b0d492a	0.0021558502
98	0x3de7c6f9	0.11317248
99	0x3e19645d	0.14979692
100	0xbdd9e0c2	-0.10638572
101	0x3d915f37	0.07098239
102	0x3db73a8e	0.08946715
103	0xbd5c9844	-0.05385615
104	0xbd867276	-0.065648004
105	0x3d03d07f	0.03218126
106	0xbdd957b6	-0.10612433
107	0xbd89ad30	-0.06722486
108	0xbe4f1a3f	-0.20224856
109	0xbdc9d3c9	-0.09854848
110	0x3e5c04c3	0.21486191
111	0xbe8de390	-0.2771268
112	0xbe378d45	-0.17924984
113	0xbd8e88a2	-0.069596544
114	0x3e38d479	0.18049802
115	0xbe774549	-0.24147524
116	0x3ce4dd07	0.027937425
117	0x3dd2bdb6	0.10290091
118	0x3d8c658c	0.06855306
119	0xbe57c173	-0.21069889
120	0x3da7eb6c	0.081992
121	0xbdc2e262	-0.09515835
122	0x3e287de3	0.16454272
123	0xbd58f933	-0.05297203
124	0xbcf1be62	-0.029509727
125	0xbe21935c	-0.1577887
126	0xbdc5d56e	-0.09659849
127	0x3e5b3f4c	0.21410865
128	0x3dee9c9c	0.116509646
129	0x3ea6108f	0.32434508
130	0x3e851010	0.25988817
131	0x3d69d697	0.057089414
132	0x3c730e50	0.014834955
133	0xbd8ac8de	-0.067765936
134	0x3eb0604e	0.34448475
135	0xbc488625	-0.012239014
136	0xbda3c896	-0.07997243
137	0xbe095d87	-0.13414584
138	0xbc960d92	-0.018317018
139	0x3e755684	0.23958784
140	0xbec6c1bc	-0.38819683
141	0x3e030efd	0.12798686
142	0x3e2bec10	0.1678927
143	0x3dbbd0f5	0.09170715
144	0xbc0009dc	-0.007814851
145	0x3c6b6447	0.01436717
146	0x3ddbb428	0.107277215
147	0xbea05315	-0.31313387
148	0xbd671496	-0.056416117
149	0xbe829547	-0.25504515
150	0x3dd8047c	0.1054773
151	0x3e0e438c	0.13892955
152	0x3e257b5c	0.16160339
153	0x3c82dc56	0.015974205
154	0xbec9648a	-0.39334518
155	0xbe8b2e91	-0.27183965
156	0xbe4f3e2c	-0.2023856
157	0xbdef485a	-0.11683722
158	0xbe826b3a	-0.25472432
159	0xbcd826cf	-0.026385693
160	0xbea7a6c0	-0.32744408
161	0x3de32f15	0.110929646
162	0xbcb9b25a	-0.022668052
163	0x3e2a16a0	0.16610193
164	0xbde82193	-0.11334529
165	0x3d61acac	0.055096313
166	0x3e29720e	0.16547415
167	0x3e2c9cb8	0.16856658
168	0x3ddbbb6d	0.10729108
169	0xbc8384b1	-0.016054483
170	0x3e0761fc	0.13220972
171	0x3dc04120	0.093874216
172	0x3e443338	0.19160163
173	0x3bf1325a	0.0073607387
174	0xbe0c5cf4	-0.13707334
175	0xbd0e3b08	-0.034724265
176	0xbd8d41d5	-0.06897322
177	0xbe3fcff3	-0.1873167
178	0x3e2cf01a	0.16888466
179	0xbdaa1647	-0.0830503
180	0xbc61ec34	-0.013789225
181	0xbdce7b9c	-0.1008217
182	0xbd60a73d	-0.05484699
183	0x3d2d1ace	0.04226189
184	0x3d00926a	0.03138963
185	0x3d817221	0.063205965
186	0x3db86202	0.090030685
187	0x3dc09541	0.09403468
188	0xbd8223bf	-0.06354474
189	0x3dce3e7d	0.100705124
190	0xbd9f6fcb	-0.07784995
191	0x3dc1f5ca	0.09470709
192	0xbe8c54a3	-0.27408323
193	0x3c8f1fd5	0.017471233
194	0xbe54923e	-0.20758912
195	0x3b2dda14	0.002652769
196	0xbc9211af	-0.017830698
197	0xbdccafa7	-0.099944405
198	0x3dfac29c	0.1224415
199	0x3d212379	0.03934047
200	0x3e6fc3b5	0.234145
201	0x3bf25f4a	0.0073966132
202	0xbe5ed5b0	-0.21761203
203	0xbec49ac7	-0.38399336
204	0x3e765464	0.2405563
205	0x3d1f2ed0	0.038863003
206	0xbdb5a93b	-0.08870169
207	0x3d19e88c	0.03757529
208	0xbd778152	-0.060426064
209	0xbe3aaac8	-0.1822921
210	0xbdcc450a	-0.09974106
211	0x3e2c64dd	0.16835351
212	0x3e7e6435	0.24842913
213	0x3eb40962	0.3516341
214	0x3e0cf41c	0.13764995
215	0xbee2eb6c	-0.44320238
216	0x3d24d59a	0.04024277
217	0x3de6b560	0.11265063
218	0x3dc3f06f	0.095673434
219	0x3dacb972	0.084338084
220	0xbe9570e1	-0.29187682
221	0x3eb6c47f	0.3569679
222	0xbe1d3fd1	-0.15356375
223	0x3dff2928	0.12459022
224	0xbd937c23	-0.072014116
225	0x3e2ee042	0.17077735
226	0x3e89f7fb	0.26947007
227	0xbdde1782	-0.108443275
228	0x3e291e8c	0.16515559
229	0xbe2f50da	-0.17120686
230	0xbbb512ec	-0.0055259373
231	0xbe22cb4f	-0.15897869
232	0x3d8ade9d	0.06780741
233	0xbde654c5	-0.11246637
234	0x3db0014d	0.08593998
235	0xbdbb6671	-0.091503985
236	0x3d0b1138	0.033951968
237	0x3cc5456d	0.024080956
238	0xbe94b46c	-0.290439
239	0xbf0268fd	-0.5094145
240	0xbeb61ac8	-0.35567307
241	0x3e71cebf	0.23614024
242	0x3e19634b	0.14979284
243	0xbeb58e1f	-0.35459992
244	0x3dcdd858	0.1005103
245	0x3da02deb	0.07821258
246	0xbd84e6c6	-0.06489329
247	0xbeb369a7	-0.35041544
248	0x3d013490	0.031544268
249	0x3e922e1e	0.2855081
250	0x3f42fcb8	0.7616687
251	0x3ec8b30d	0.39199105
252	0x3d829a75	0.063771166
253	0x3c82cc91	0.015966685
254	0xbc029fa1	-0.007972629
255	0x3eb4f0f0	0.3534007

walk_encoder.path_encoder.weight_hh_l0 f4 [96, 32]
0	0xbea7bedd	-0.32762805
1	0xbe839ebb	-0.2570704
2	0x3eb06c9b	0.3445786
3	0x3c2b8c65	0.010470484
4	0x3df9d46e	0.12198721
5	0xbd380bb2	-0.04493303
6	0xbea003ab	-0.31252798
7	0x3e54ef28	0.20794356
8	0xbec43c82	-0.38327414
9	0x3d5ad632	0.05342693
10	0x3e300e73	0.17193012
11	0x3ebd7f23	0.3701106
12	0xbdeb5d92	-0.114924565
13	0x3da07b3d	0.07836006
14	0xbd13aa06	-0.03605082
15	0x3dfbda1b	0.1229746
16	0x3e0b5fd5	0.13610776
17	0xbddf7391	-0.109107144
18	0x3e1549ac	0.14578885
19	0x3e299168	0.16559374
20	0x3ecd7eec	0.40135896
21	0xbe33694c	-0.17520636
22	0x3bbd18e2	0.0057707885
23	0xbd319adc	-0.043360576
24	0x3e2d7c56	0.16941962
25	0xbeee8398	-0.46584773
26	0x3e46de49	0.19420733
27	0x3e17d8d9	0.14828815
28	0x3caf3005	0.021385202
29	0xbdd9b02c	-0.10629305
30	0x3ca7956e	0.020456996
31	0xbbcae1e1	-0.0061914776
32	0xbe67dd3e	-0.22642991
33	0xbea72d1a	-0.32651597
34	0xbd261dfe	-0.040555947
35	0x3c2b7152	0.010464029
36	0x3e087668	0.13326418
37	0x3e874fa7	0.26427957
38	0xbdfaa9ac	-0.122393936
39	0x3e3e6ab1	0.18595387
40	0xbf094f52	-0.5363666
41	0x3e0eba56	0.13938269
42	0xbe14ed8f	-0.14543746
43	0x3e84a8ed	0.2591013
44	0xbe0568f9	-0.13028325
45	0xbd6fcb61	-0.058543567
46	0x3e5e71b5	0.21723063
47	0x3e44fb48	0.19236481
48	0x3dbc362b	0.09190019
49	0xbeb2dede	-0.3493566
50	0xbe2a8637	-0.16652761
51	0xbe48bbb8	-0.19602859
52	0x3dc89e86	0.09795861
53	0xbe3aef94	-0.18255454
54	0x3e9dc9c5	0.30818
55	0xbc3297c7	-0.010900444
56	0x3dd35fb6	0.1032099
57	0xbd600a0c	-0.05469708
58	0xbda7af1c	-0.08187696
59	0xbe6cbf25	-0.23119791
60	0xbc377772	-0.011197912
61	0x3e54ef7e	0.20794484
62	0x3c4bf78c	0.0124491565
63	0xbe81a5d7	-0.25321838
64	0xbc335c41	-0.010947288
65	0xbe153b34	-0.14573365
66	0x3e2c4db8	0.16826522
67	0x3d150c12	0.036388464
68	0x3d7df8b2	0.062004752
69	0x3e218176	0.15772042
70	0xbdacafa8	-0.08431941
71	0x3e672a5c	0.22574753
72	0xbd0a56e1	-0.03377426
73	0x3c2abb31	0.0104206065
74	0xbe7bd213	-0.24591856
75	0x3d98a1e0	0.0745275
76	0xbc85ad31	-0.016317936
77	0x3dcecd02	0.10097696
78	0x3d4cd776	0.050010167
79	0x3d93677b	0.07197472
80	0x3d986f32	0.07443084
81	0xbd039f26	-0.032134198
82	0xbdde0a57	-0.10841816
83	0xbe226462	-0.15858606
84	0xbdb0c2f7	-0.086309366
85	0x3d9ab3bd	0.075538136
86	0x3d0497e8	0.03237143
87	0x3d2147d5	0.039375145
88	0x3ca7f052	0.020500336
89	0xbe606b07	-0.21915828
90	0x3d7c15e0	0.0615443
91	0x3e02fbe5	0.12791403
92	0x3e00cd14	0.12578231
93	0x3e9103cd	0.28323212
94	0x3dfb76ac	0.12278494
95	0xbe5c31e6	-0.2150341
96	0xbe365778	-0.17806804
97	0xbd7955bb	-0.060872775
98	0xbe4f8519	-0.20265616
99	0xbe0d775c	-0.13815063
100	0x3cb0ce59	0.02158277
101	0x3e121bd7	0.14268433
102	0xbe58f4e3	-0.21187167
103	0x3dcdbeb7	0.100461416
104	0x3d6e042c	0.058109447
105	0xbe329e57	-0.17443214
106	0xbe7db8c2	-0.24777511
107	0x3e34eab4	0.17667657
108	0xbe67febd	-0.22655769
109	0x3df13de8	0.11779386
110	0x3da2de50	0.07952559
111	0xbc9af8cc	-0.018917464
112	0xbe8e3d3b	-0.2778109
113	0xbe0db934	-0.1384018
114	0x3dceea29	0.10103256
115	0xbdbf59b4	-0.093432814
116	0x3e823830	0.25433493
117	0x3dca4089	0.0987559
118	0x3de88853	0.11354127
119	0x3dbe55cd	0.09293709
120	0x3e06e489	0.13173117
121	0xbe14e04f	-0.14538692
122	0x3d60dadf	0.05489623
123	0xbe4ac065	-0.19799955
124	0x3ce5abd9	0.028036045
125	0x3eb5e74f	0.35528037
126	0x3e534aad	0.20633955
127	0x3dbd3d77	0.09240239
128	0xbe308dbe	-0.1724157
129	0x3ee66baa	0.45004016
130	0x3c8a4c87	0.016882194
131	0xbe093703	-0.13399892
132	0x3e39f4ae	0.18159744
133	0x3b3f5499	0.0029194711
134	0xbca4dd2c	-0.020124994
135	0xbd53f337	-0.05174562
136	0xbe3c41fe	-0.18384549
137	0xbe14c9da	-0.14530125
138	0xbe62ea92	-0.22159794
139	0x3e576ed5	0.21038373
140	0x3e06fdc7	0.13182746
141	0xbdbd5d50	-0.092463136
142	0xbe277d5c	-0.16356415
143	0xbe7fdd17	-0.24986683
144	0xbe2efbe1	-0.17088272
145	0xbd13a4c9	-0.036045823
146	0x3b753d9b	0.0037420753
147	0xbdea7e90	-0.11449921
148	0x3e4e409e	0.20141837
149	0xbe267d76	-0.16258797
150	0x3cdb06f6	0.026736718
151	0x3e9820f6	0.29712647
152	0x3e18f7f8	0.14938343
153	0x3d5471de	0.051866405
154	0xbe236a72	-0.15958574
155	0xbe43b487	-0.19111834
156	0x3dc36aa4	0.095418245
157	0x3e82dc19	0.25558546
158	0x3c0dfec8	0.008666702
159	0x3d802f99	0.062590785
160	0x3da60e0f	0.0810815
161	0xbc74e847	-0.014947957
162	0xbe40ce24	-0.18828636
163	0xbd5c57e2	-0.05379475
164	0x3da96a1d	0.082721926
165	0x3e60739d	0.21919103
166	0x3d8a7309	0.067602225
167	0x3e6552b3	0.22394828
168	0x3d81df2b	0.06341394
169	0x3bdad600	0.006678343
170	0x3b328c41	0.0027244242
171	0xbc3034c7	-0.010754771
172	0x3d26e0f8	0.04074189
173	0xbdbf708a	-0.09347637
174	0x3ce50e87	0.027961029
175	0xbdfc85a7	-0.1233018
176	0xbd683d16	-0.05669888
177	0x3d8d9823	0.069137834
178	0xbd03a7f8	-0.03214261
179	0xbe43e742	-0.19131187
180	0xbe0e1abe	-0.13877389
181	0x3df4c0d0	0.119508386
182	0x3e04262b	0.12905185
183	0x3e460bb0	0.19340396
184	0xbceca363	-0.028886503
185	0xbdfcaa51	-0.12337173
186	0x3d33ed04	0.043927208
187	0x3da6bba8	0.08141261
188	0x3d356cf0	0.044293344
189	0x3dcd70b9	0.10031266
190	0xbe519a8f	-0.20469116
191	0xbe81fa87	-0.2538645
192	0x3dcac6e3	0.09901216
193	0xbbbf7b5c	-0.005843563
194	0x3bb96b35	0.005658532
195	0x3e32bf06	0.17455682
196	0xbd87f8ec	-0.06639275
197	0xbdd83411	-0.10556806
198	0xbe31de50	-0.17369962
199	0x3e0b003b	0.13574307
200	0x3d507074	0.050888494
201	0x3e5c0da2	0.21489576
202	0xbe180ba1	-0.14848186
203	0x3e8808b8	0.26569152
204	0xbe9c7bef	-0.30563304
205	0x3e953188	0.29139352
206	0xbe627fdc	-0.22119087
207	0x3e0b3eff	0.1359825
208	0x3e56925f	0.20954274
209	0xbd7363f9	-0.059421513
210	0xbd3c5b22	-0.04598535
211	0xbb3c27fa	-0.0028710351
212	0x3d840a13	0.06447234
213	0x3dfa9082	0.12234594
214	0x3d2bb4cc	0.04192047
215	0xbe9497a4	-0.29021943
216	0x3d6f4d76	0.058423482
217	0xbc8c5838	-0.01713191
218	0x3e705d3d	0.23473068
219	0x3e253ce7	0.16136514
220	0xbe88a61f	-0.2668924
221	0xbe3f46d0	-0.18679357
222	0x3e0cc22f	0.1374595
223	0xbe42b92a	-0.19015947
224	0x3e3b1a3e	0.1827173
225	0xbf181761	-0.59410673
226	0x3c06bd30	0.008223817
227	0xbe02acaf	-0.12761186
228	0x3e3749b7	0.17899214
229	0x3e996de7	0.2996666
230	0xbe4f33c3	-0.2023459
231	0x3efd2f69	0.49450234
232	0xbdf3f77b	-0.119124375
233	0x3e4205d0	0.1894753
234	0xbe69f328	-0.22846663
235	0x3e9325e3	0.28739843
236	0xbea6af9f	-0.32555863
237	0x3c8737a9	0.016506033
238	0xbb6bdab9	-0.0035988523
239	0xbdd54dcc	-0.10415229
240	0xbcfb167f	-0.030650375
241	0xbe1fb01a	-0.15594521
242	0xbd5cb014	-0.05387886
243	0xbe72e1c3	-0.23718934
244	0x3e51a930	0.20474696
245	0xbda539b3	-0.08067646
246	0x3e6dad10	0.2321055
247	0xbe4e3ffd	-0.20141597
248	0x3e20cfd2	0.15704277
249	0xbe4e7604	-0.20162207
250	0x3d0fc132	0.035096355
251	0x3d31b6fc	0.043387398
252	0x3e679163	0.22614054
253	0x3e0b796d	0.13620539
254	0xbd8a91e9	-0.067661114
255	0x3d03935c	0.032122955

walk_encoder.path_encoder.bias_ih_l0 f4 [96]
0	0xbe86819d	-0.26270762
1	0xbbaad56a	-0.005213429
2	0xbdbbd34f	-0.09171163
3	0xbe80926e	-0.25111717
4	0x3dd5be0a	0.10436638
5	0xbde0e09d	-0.109803416
6	0xbe2f4c59	-0.17118968
7	0xbde65b69	-0.11247904
8	0x3d98be34	0.07458153
9	0xbe381050	-0.17974973
10	0xbd88408e	-0.06652938
11	0xbe5d1d6a	-0.21593252
12	0x3dc1fb0a	0.0947171
13	0xbd5311d3	-0.05153067
14	0xbed6b765	-0.41936794
15	0xbdeaa11e	-0.11456512
16	0x3e2bfef3	0.16796474
17	0xbe8013c0	-0.25015068
18	0xbda80446	-0.0820394
19	0x3be3d6ae	0.006953082
20	0x3dbc28b7	0.09187453
21	0xbe01edf4	-0.12688428
22	0xbeb047fd	-0.34429923
23	0xbe9854ef	-0.297523
24	0x3bc8e7df	0.006131157
25	0xbe973e34	-0.29539645
26	0xbd7f4e10	-0.062330306
27	0xbde25aa2	-0.11052443
28	0xbe1ccd6c	-0.15312737
29	0xbe979896	-0.296086
30	0xbe83c8d7	-0.25739166
31	0xbba6594a	-0.005076562
32	0x3dba3607	0.09092336
33	0x3e4679b9	0.19382371
34	0x3e830c19	0.25595167
35	0x3e438c96	0.19096598
36	0xbb708a07	-0.0036703364
37	0x3e0e0b48	0.13871491
38	0xbd00dda3	-0.03146137
39	0xbdb8a1fa	-0.090152696
40	0xbd8d12f8	-0.068883836
41	0x3c657c62	0.014006706
42	0x3ed603ee	0.41799873
43	0x3d135f08	0.0359793
44	0x3e32ef1d	0.17474027
45	0x3bafa7ec	0.005360594
46	0x3e6152a6	0.22004184
47	0x3ec183fc	0.3779601
48	0xbb88a2a2	-0.004169778
49	0xbddf9433	-0.10916939
50	0x3e27baff	0.16379927
51	0x3e60825e	0.21924731
52	0xbc66967f	-0.014073967
53	0x3f1781a6	0.591822
54	0x3e39c868	0.18142855
55	0x3da41ec2	0.08013679
56	0x3cac0f4a	0.021003384
57	0xbdb3efb3	-0.087859534
58	0x3ebe1fe1	0.37133697
59	0x3e9204a8	0.28519177
60	0x3e34d387	0.17658816
61	0x3e6a5fe8	0.22888148
62	0x3d02e2d8	0.031954616
63	0x3dbde7da	0.09272738
64	0x3cbd9f01	0.023147108
65	0x3ec7d711	0.3903127
66	0xbe9059a1	-0.2819338
67	0xbdf85f84	-0.12127593
68	0xbe4c699c	-0.19962162
69	0xbde02fbb	-0.10946604
70	0x3e97178a	0.29510146
71	0xbc12f1b2	-0.008968757
72	0x3ef99ae2	0.4875098
73	0x3e010577	0.12599741
74	0xbe2e6002	-0.17028812
75	0xbeac892c	-0.33698404
76	0x3e1d0a81	0.15336038
77	0xbe807cea	-0.25095302
78	0x3e74ae4a	0.23894611
79	0xbe42d0e4	-0.19024998
80	0xbe2e5d68	-0.17027819
81	0x3f00a2ac	0.5024822
82	0xbe9ca726	-0.30596274
83	0xbe01da1c	-0.12680858
84	0xbe9189ce	-0.2842545
85	0x3d64cfd6	0.05586227
86	0xbe53cf6a	-0.20684591
87	0xb9c765dc	-0.0003803213
88	0xbe80d521	-0.25162604
89	0x3e685dcc	0.2269203
90	0xbd29b163	-0.041428935
91	0xbdec919f	-0.115512125
92	0x3d9918b7	0.07475417
93	0x3da5c012	0.08093275
94	0xbdb98dec	-0.090602726
95	0x3d07ca0f	0.033151682

walk_encoder.path_encoder.bias_hh_l0 f4 [96]
0	0xbe618283	-0.22022443
1	0xbe9aa529	-0.30204132
2	0xbcc34fef	-0.023841826
3	0xbe839687	-0.2570078
4	0x3e55b68e	0.2087042
5	0xbde4ddba	-0.111751035
6	0xbe822282	-0.25416952
7	0xbe97bcfe	-0.29636377
8	0x3e848b51	0.2588754
9	0xbef71551	-0.4825845
10	0x3dd01553	0.10160317
11	0xbd8eeaf5	-0.06978408
12	0xbc23740b	-0.009976397
13	0xbe86e258	-0.26344562
14	0xbdf60fca	-0.1201473
15	0x3cd411e1	0.025887432
16	0xbd326371	-0.043551866
17	0xbe71432e	-0.23560783
18	0xbe5056bf	-0.20345591
19	0xbe1ecbc7	-0.15507422
20	0x3ddafcd5	0.10692755
21	0xbe908238	-0.2822435
22	0xbeaaac95	-0.33334795
23	0xbdbbaf2a	-0.09164269
24	0xbe850bfe	-0.25985712
25	0x3ca95455	0.020670095
26	0xba6b3059	-0.0008971743
27	0xbe56921a	-0.20954171
28	0xbc840a9e	-0.016118344
29	0xbed3e0b0	-0.4138236
30	0xbe42af9d	-0.19012304
31	0xbe13709c	-0.14398426
32	0xbbfa8af6	-0.00764596
33	0x3df479c4	0.119372874
34	0x3eaf0dc2	0.34190184
35	0x3c19ccad	0.009387177
36	0x3e7fdec0	0.24987316
37	0x3dc33ef9	0.095334955
38	0xbc95e0bf	-0.018295644
39	0x3dc5ef81	0.09664822
40	0xbd4eb554	-0.050465897
41	0x3e6784e8	0.22609293
42	0x3e993e33	0.29930267
43	0x3d61d8e0	0.05513847
44	0x3ebc521b	0.36781392
45	0x3af19fb4	0.0018434436
46	0x3ef2447b	0.4731787
47	0x3e251fb5	0.16125377
48	0xbd7395fa	-0.0594692
49	0xbe531720	-0.2061429
50	0x3ea4c46d	0.3218111
51	0x3efea691	0.49736455
52	0x3d914876	0.07093899
53	0x3f032fbf	0.5124473
54	0x3e7ddc98	0.24791181
55	0xbd100460	-0.035160422
56	0x3e730051	0.2373059
57	0x3e5faad3	0.21842508
58	0x3dfbee57	0.12301319
59	0x3ec8b7ea	0.39202815
60	0x3e24f164	0.16107708
61	0x3e82efe2	0.2557364
62	0x3cb07de2	0.0215444
63	0x3d70abe3	0.058757674
64	0x3d48c892	0.049019404
65	0x3d6abb55	0.05730756
66	0xbd6540b6	-0.055969916
67	0xbdabb4de	-0.08384107
68	0x3dfebac2	0.12437965
69	0xbd41156c	-0.04713957
70	0x3ce5df8e	0.0280607
71	0x3e4a00e2	0.197269
72	0x3ecc096f	0.39850947
73	0x3e423b48	0.18967927
74	0xbe3608e1	-0.17776825
75	0xbdeb273f	-0.11482095
76	0x3d9a6be7	0.07540112
77	0xbd7043e0	-0.05865848
78	0xbbb3562a	-0.005472918
79	0xbe7f530c	-0.24934024
80	0xbdd8a093	-0.10577502
81	0x3ed4ee2c	0.4158796
82	0xbd690e66	-0.056898497
83	0xbd9c70e8	-0.07638723
84	0xbe91fc02	-0.2851258
85	0xbd1474cf	-0.03624421
86	0xbe63ce07	-0.22246562
87	0x3d2a0fe8	0.041519076
88	0xbc4d28b9	-0.012521916
89	0x3e44884e	0.19192621
90	0xbd568345	-0.052371282
91	0xbdc0fd1d	-0.094232775
92	0x3cbdba85	0.023160229
93	0x3df240b8	0.1182875
94	0xbd425903	-0.04744817
95	0xbe86258d	-0.26200524

bn.weight f4 [32]
0	0x3f645544	0.89192605
1	0x3f6586bd	0.8965872
2	0x3f378525	0.7168754
3	0x3f482140	0.78175735
4	0x3f31e80e	0.6949471
5	0x3f64586f	0.8919744
6	0x3f5281e6	0.8222946
7	0x3f5cd782	0.8626634
8	0x3f1f6263	0.622595
9	0x3f54715a	0.8298546
10	0x3f49bb6f	0.78801626
11	0x3f4633a3	0.7742254
12	0x3f6211d2	0.8830844
13	0x3f40b218	0.7527175
14	0x3f7cb175	0.9870828
15	0x3f819733	1.0124267
16	0x3f4658eb	0.7747943
17	0x3f5232ff	0.82109064
18	0x3f4a8751	0.79112726
19	0x3f7e8e33	0.9943573
20	0x3f4aaf6f	0.7917394
21	0x3f5b8738	0.857532
22	0x3f6bffe1	0.92187315
23	0x3f36bad4	0.7137883
24	0x3f7761f3	0.96633834
25	0x3f2a89f5	0.66616756
26	0x3f4f0516	0.80867136
27	0x3f836e1a	1.0267975
28	0x3f6d4f27	0.926989
29	0x3f4c3009	0.79760796
30	0x3f0d3fcf	0.5517549
31	0x3f4ec7f3	0.8077385

bn.bias f4 [32]
0	0xbc94b621	-0.018153252
1	0x3b2c99db	0.0026336822
2	0x3de3847a	0.11109252
3	0x3dbd577e	0.092452034
4	0xbd9b6994	-0.07588497
5	0xbe0fa829	-0.14028992
6	0x3e8e58a2	0.27801996
7	0xbd49c396	-0.04925879
8	0x3e2d0280	0.16895485
9	0x3e7e6f67	0.24847184
10	0x3d3974cc	0.0452774
11	0xbdab386d	-0.08360372
12	0xbd8f6ff4	-0.07003775
13	0xbcf34a2e	-0.029698458
14	0xbd6c91aa	-0.057756104
15	0x3e321c74	0.17393667
16	0x3e18813d	0.1489305
17	0x3e13217e	0.14368245
18	0x3d85dce6	0.06536274
19	0x3e1b2f7b	0.15154831
20	0x3d802a5f	0.06258082
21	0x3a9f03de	0.001213189
22	0xbdf53d1d	-0.11974547
23	0xbd8570e7	-0.06515675
24	0xbd631f1b	-0.055449586
25	0xbde9806c	-0.11401448
26	0xbd251ffa	-0.0403137
27	0x3e746fa8	0.23870718
28	0xbd7416fb	-0.05959223
29	0xbdc0fc8d	-0.0942317
30	0xbdc4105a	-0.09573431
31	0x3da259ad	0.079272605

bn.running_mean f4 [32]
0	0x3cc6e5de	0.024279531
1	0x3ed0905d	0.4073514
2	0xbdef9ccb	-0.11699828
3	0xbd84976f	-0.06474196
4	0xbe947514	-0.28995574
5	0xbe6944c7	-0.22780143
6	0x3ef39b9d	0.4757966
7	0xbda5c4c7	-0.08094173
8	0x3f45dc3f	0.77289194
9	0x3e3f495d	0.1868033
10	0xbdebda6a	-0.115162686
11	0xbf070e15	-0.5275586
12	0x3dfed3aa	0.124427155
13	0xbe74941c	-0.23884624
14	0x3d68c3ab	0.05682723
15	0x3a4374d2	0.0007456067
16	0xbd0cabd4	-0.034343556
17	0x3f08aaf8	0.5338588
18	0xbe139e79	-0.14415921
19	0xbd16c4df	-0.036808845
20	0xbed188a8	-0.40924573
21	0x3d9d9aef	0.07695567
22	0xbe8e5754	-0.27801
23	0x3daef537	0.08542865
24	0xbe9a4384	-0.30129635
25	0x3ebbd0d3	0.36682758
26	0xbc4da19b	-0.012550737
27	0xbd95dba6	-0.07317285
28	0xbdb5318a	-0.088473395
29	0xbd2be577	-0.04196688
30	0xbe0d7108	-0.13812649
31	0x3cfec6a1	0.031100573

bn.running_var f4 [32]
0	0x3cbb10f6	0.022835236
1	0x3c7aa242	0.015297474
2	0x3be63b78	0.007026132
3	0x3bb516af	0.0055263857
4	0x3c4c3307	0.012463338
5	0x3bd93b2f	0.0066293697
6	0x3c898d9d	0.01679116
7	0x3c93bda4	0.018034764
8	0x3be8c2ec	0.0071033146
9	0x3c9c5f03	0.019088274
10	0x3b904dd4	0.004403809
11	0x3c2bceb1	0.010486291
12	0x3c835410	0.016031295
13	0x3bd4ca4a	0.0064938413
14	0x3b566607	0.0032714622
15	0x3bc366b3	0.0059631704
16	0x3c0f4e30	0.008746669
17	0x3c9ee775	0.019397477
18	0x3bd198d3	0.006396392
19	0x3b8f4017	0.004371654
20	0x3c0292b6	0.007969549
21	0x3b977dd8	0.004623156
22	0x3c2544fe	0.01008725
23	0x3c663be7	0.014052368
24	0x3c50cec1	0.0127446065
25	0x3bfeafb0	0.0077724084
26	0x3b230d5e	0.0024879794
27	0x3badc1bf	0.0053026373
28	0x3bde9c5e	0.0067935428
29	0x3b9a6cb0	0.0047126636
30	0x3bfc1a96	0.007693599
31	0x3c01a998	0.007913969

fc1.weight f4 [64, 32]
0	0x3ec9793e	0.39350313
1	0xbc4c13ec	-0.012455922
2	0xbda49ab5	-0.080373205
3	0xbe12c50d	-0.14332981
4	0x3d6e9c85	0.058254737
5	0xbe53d946	-0.20688352
6	0xbd9c4ab4	-0.07631436
7	0x3dc24516	0.09485833
8	0x3dcf3a7c	0.10118577
9	0x3dd16ef8	0.10226244
10	0x3dbecb33	0.09316101
11	0xbd5c6322	-0.053805478
12	0xbe400728	-0.1875273
13	0xbdaf20de	-0.08551191
14	0xbd9fbcb0	-0.07799661
15	0x3e5e70ff	0.21722792
16	0x3be4f0e9	0.0069867265
17	0xbcfa6805	-0.030567179
18	0xbd9e4686	-0.07728295
19	0xbd2f59e1	-0.042810325
20	0x3e561412	0.20906094
21	0xbe263838	-0.16232383
22	0xbd0f2ab4	-0.034952834
23	0xbe41c822	-0.18924001
24	0x3c05cd9c	0.008166697
25	0xbce5355d	-0.027979547
26	0x3e158ace	0.14603731
27	0xbd4fed2c	-0.050763294
28	0xbd207fb6	-0.039184295
29	0xbe48d1f6	-0.19611344
30	0x3e3577c9	0.17721476
31	0x3df832dc	0.12119076
32	0x3d807868	0.06272966
33	0x3e0236a4	0.12716156
34	0x3d901d3a	0.070368245
35	0xbd8bda82	-0.068287864
36	0xbe02c3e6	-0.12770042
37	0x3da78951	0.08180488
38	0xbcdefc5e	-0.027219947
39	0x3d481161	0.0488447
40	0xbdc858a6	-0.09782533
41	0xbe1842bc	-0.14869207
42	0x3e578d55	0.21050008
43	0xbda59ab2	-0.080861464
44	0x3e317d19	0.17332877
45	0x3d718830	0.05896777
46	0x3ec8df0f	0.3923268
47	0xbd89cb39	-0.06728215
48	0xbe1cc3e7	-0.15309106
49	0xbe1b849c	-0.15187305
50	0xbd9a13fd	-0.07523344
51	0x3e2ae677	0.16689478
52	0x3ddf84f2	0.10914029
53	0x3e64319a	0.22284546
54	0x3e217a20	0.15769243
55	0xbc580f28	-0.013187207
56	0x3e26767e	0.16256139
57	0x3e79a63f	0.24379824
58	0xbe6438e4	-0.22287327
59	0xbe740fa2	-0.23834088
60	0xbd1e1984	-0.038598552
61	0xbe6b45f6	-0.22975907
62	0xbd3c29c0	-0.045938253
63	0xbca409d1	-0.020024212
64	0x3e3ef5e9	0.18648495
65	0xbe416f09	-0.18890013
66	0x3d0a2ff0	0.033737123
67	0xbde0fa7c	-0.10985276
68	0xbe43936b	-0.19099204
69	0x3e460ef7	0.19341646
70	0xbe7a9f67	-0.2447487
71	0x3e4a6ed4	0.1976884
72	0xbdd70f2f	-0.10500943
73	0x3da26562	0.079294935
74	0xbdd094c4	-0.10184625
75	0x3d6e5da4	0.05819477
76	0x3e5efcbb	0.21776097
77	0x3d58f91a	0.052971937
78	0x3e36bb1d	0.17844816
79	0x3d8b9a17	0.068165
80	0x3cc82ad4	0.024434485
81	0xbdc78192	-0.097415105
82	0xbd44a500	-0.04800892
83	0xbe48b95a	-0.19601956
84	0x3dd04b70	0.101706386
85	0x3d596214	0.05307205
86	0x3d914ef5	0.07095138
87	0xbdb02958	-0.08601636
88	0x3e870179	0.2636831
89	0xbd0ccd60	-0.03437555
90	0x3dce1446	0.100624606
91	0xbea66414	-0.3249823
92	0x3e7e1a21	0.24814655
93	0xbe3fdf71	-0.1873758
94	0x3d930214	0.07178131
95	0xbdc79a28	-0.097462
96	0x3e890396	0.26760548
97	0xbe4a1746	-0.1973544
98	0x3cf0b242	0.029381875
99	0xbe2d0de6	-0.16899833
100	0x3e16fdd5	0.14745267
101	0xbc5f07a9	-0.013612666
102	0x3baaf539	0.005217221
103	0x3d3a8652	0.045538254
104	0xbcb4c39e	-0.022065934
105	0xbda9553a	-0.08268209
106	0xbda4bbbc	-0.0804362
107	0x3e1e8b13	0.1548274
108	0x3cb84a00	0.022496223
109	0x3e11f9b8	0.14255416
110	0xbe087446	-0.13325605
111	0xbe240a4b	-0.16019551
112	0xbd146a3b	-0.03623412
113	0xbe0fcc71	-0.14042832
114	0xbe2fc196	-0.17163691
115	0xbdcabdf0	-0.09899509
116	0x3ddb78f0	0.10716426
117	0xbda6c06f	-0.081421725
118	0x3e67600f	0.22595237
119	0x3ca78cb6	0.020452838
120	0x3d9e628f	0.07733642
121	0xbe3c4a5e	-0.18387744
122	0xbe407ba8	-0.18797171
123	0xbe83274d	-0.25615922
124	0x3e6afd33	0.2294815
125	0x3d3d7869	0.04625741
126	0xbdb0619e	-0.08612369
127	0xbd35f54b	-0.044423383
128	0x3e850185	0.25977722
129	0xbded84c5	-0.115975894
130	0xbdc4b662	-0.09605099
131	0x3d8fa6cc	0.07014236
132	0x3d9e7448	0.07737023
133	0x3e2c2d7c	0.16814226
134	0xbd19cef4	-0.03755088
135	0xbcafa680	-0.021441698
136	0xbdb7641a	-0.0895464
137	0x3c8e8e59	0.017401861
138	0x3d35baf9	0.044367764
139	0xbd494a3d	-0.049143065
140	0xbc9213ae	-0.01783165
141	0x3e2177bc	0.15768331
142	0x3da0b3e6	0.07846813
143	0x3e239691	0.15975405
144	0xbafd3ab1	-0.001931986
145	0x3c7deed9	0.01549884
146	0x3d9ab5a5	0.07554177
147	0xbcfd5aa6	-0.030927014
148	0xbd14ef80	-0.036361217
149	0x3dc623d0	0.096747994
150	0xbd23aa05	-0.039957065
151	0x3e51b472	0.2047899
152	0xbd5c14f0	-0.053730905
153	0x3e080e78	0.1328677
154	0xbd75b772	-0.0599894
155	0xbe395342	-0.18098167
156	0x3dd62be9	0.10457594
157	0x3daa35a8	0.08311015
158	0xbd722e6f	-0.059126314
159	0xbce59436	-0.028024774
160	0xbb8f0f03	-0.004365803
161	0x3daac370	0.08338058
162	0xbddc8d3f	-0.10769128
163	0x3e7017e4	0.23446614
164	0xbd392afb	-0.045207005
165	0x3d60513e	0.05476498
166	0xbe7089b7	-0.23490034
167	0xbd58bef6	-0.05291649
168	0xbd3e7962	-0.04650248
169	0x3e8151a0	0.25257587
170	0x3c006b46	0.007838076
171	0xbcbe08b4	-0.02319751
172	0x3a538790	0.00080692116
173	0xbd638a02	-0.055551536
174	0x3e35cc74	0.17753774
175	0x3df9b81c	0.12193319
176	0x3e4d3045	0.20037945
177	0x3e2bd764	0.16781384
178	0xbdbf7094	-0.093476444
179	0x3e2ef83e	0.17086884
180	0xbd5c2a14	-0.053751066
181	0x3e10a9b0	0.1412723
182	0xbd917b34	-0.07103577
183	0x3e32bb76	0.17454323
184	0xbdf6da17	-0.12053316
185	0xbe2dfa40	-0.16989994
186	0x3e0d477a	0.13796797
187	0x3de99e91	0.11407197
188	0x3dcabd31	0.09899367
189	0xbb259727	-0.0025267096
190	0x3dcd8b10	0.1003629
191	0x3e38c330	0.18043208
192	0xbc8484ae	-0.016176548
193	0xbb23b8b5	-0.002498192
194	0xbc7e7ffc	-0.015533444
195	0x3dfbc9c4	0.12294343
196	0x3cfe7574	0.031061865
197	0xbdfc2050	-0.123108506
198	0x3d0c42ac	0.03424327
199	0x3cd042ad	0.025422418
200	0xbe0252a6	-0.1272684
201	0xbc84a183	-0.016190296
202	0xbd870dd4	-0.065944344
203	0xbdbbbf0e	-0.091673
204	0x3e294b5c	0.16532654
205	0x3e2266b0	0.15859485
206	0xbd57c2e0	-0.05267608
207	0xbc5b7b90	-0.013396159
208	0xbd322c5c	-0.043499336
209	0x3d061002	0.03273011
210	0x3d73ce7a	0.059523083
211	0x39c43032	0.00037419942
212	0x3ce3a67c	0.027789347
213	0xbe1f0bee	-0.15531895
214	0x3d41cfd6	0.04731735
215	0xbe0673cc	-0.1313011
216	0xbd9a92a7	-0.07547503
217	0x3d85f9c6	0.06541781
218	0x3cf8e8b6	0.030384403
219	0x3e153c16	0.14573702
220	0x3d8103f4	0.06299582
221	0xbcd3a64c	-0.025836132
222	0x3dadc0c1	0.084840305
223	0x3d695df1	0.056974355
224	0xbe52b865	-0.20578153
225	0x3e49b387	0.1969739
226	0x3db48d70	0.088160396
227	0xbdcb78d0	-0.099351525
228	0xbe012969	-0.12613453
229	0xbc5bd175	-0.013416638
230	0xbe88cccd	-0.2671875
231	0xbe18f198	-0.1493591
232	0xbde8d336	-0.1136841
233	0x3b16c98c	0.0023008315
234	0xbd8e3ded	-0.06945405
235	0xbdaba883	-0.083817504
236	0xbd030684	-0.031988636
237	0xbe6d49af	-0.2317264
238	0xbdfc21ae	-0.123111114
239	0x3cb94bdc	0.02261918
240	0x3d8b56da	0.06803675
241	0xbdbef5a1	-0.09324194
242	0xbda9f2db	-0.08298274
243	0x3e8274a4	0.25479615
244	0xbe0a5fb6	-0.13513073
245	0x3e241c8d	0.16026516
246	0x3e0b9f29	0.13634934
247	0x3d0602a9	0.03271738
248	0x3d94e6b3	0.07270565
249	0x3e773052	0.24139526
250	0x3e098247	0.13428603
251	0xbe8d7b29	-0.27633026
252	0xbc2cbf9f	-0.010543733
253	0xbd36dbd0	-0.044643223
254	0x3e327947	0.17429076
255	0x3e304a4e	0.17215845

fc1.bias f4 [64]
0	0xbcf35c09	-0.029706972
1	0x3d3f9337	0.046771254
2	0xbe3cb1b0	-0.18427157
3	0xbe09129f	-0.1338601
4	0xbe0fcd25	-0.140431
5	0x3d1c52f1	0.038165037
6	0x3cd8356c	0.026392661
7	0x3dbcaa55	0.09212176
8	0xbeaeea53	-0.3416315
9	0xbe3709ad	-0.17874785
10	0xbded6acd	-0.11592636
11	0x3e060bdd	0.13090463
12	0xbe8321ca	-0.25611717
13	0xbd934598	-0.07191008
14	0x3e77c98f	0.24197982
15	0xbe74f641	-0.23922063
16	0xbe9ccb97	-0.30624077
17	0x3d986604	0.07441333
18	0x3e1ac1a9	0.15112938
19	0xbd01a072	-0.031647153
20	0xbefc7ee6	-0.49315566
21	0x3d8da05d	0.069153525
22	0xbda82f2b	-0.082121216
23	0xbdd549c3	-0.104144596
24	0xbd4fb359	-0.05070815
25	0x3df4f51a	0.11960812
26	0xbedceeaa	-0.43150836
27	0xbed978a8	-0.42474866
28	0x3dc87eed	0.09789834
29	0xbe2de11b	-0.16980402
30	0xbea14957	-0.31501266
31	0x3e37af86	0.1793805
32	0xbe12c5ce	-0.14333269
33	0xbe93320d	-0.28749123
34	0xbe4528c1	-0.19253828
35	0x3e1416d4	0.14461833
36	0xbdc74693	-0.09730258
37	0xbe7fb6da	-0.24972096
38	0xbdf94e4d	-0.12173138
39	0xbdaaa07a	-0.0833139
40	0xbe8439af	-0.2582526
41	0xbe9446b3	-0.2896019
42	0x3c08ec4e	0.008357121
43	0xbe9e31b6	-0.308973
44	0x3dac9c00	0.08428192
45	0xbeb97d48	-0.36228395
46	0xbe8f8000	-0.28027344
47	0x3e2c2dfc	0.16814417
48	0xbd21d1ea	-0.03950683
49	0xbd7c34db	-0.061573844
50	0xbd7ac295	-0.061220724
51	0xbd7a576d	-0.061118532
52	0xbc90501a	-0.01761632
53	0xbdecdf5e	-0.115660414
54	0xbd611110	-0.054947913
55	0xbe26f372	-0.16303805
56	0xbe882dfe	-0.2659759
57	0xbeb48391	-0.35256627
58	0x3ccd9cc7	0.025099171
59	0xbeb1dea3	-0.3474017
60	0xbe3a9422	-0.1822057
61	0xbeb75c0b	-0.3581241
62	0xbec77912	-0.38959557
63	0xbd61244a	-0.05496625
