rwgnn/checkpoints/model_fold_7.pt (torch, 69539 bytes, 16 tensors)

adj_hidden f4 [16, 10]
0.6722269 0.28459656 -0.18929791 0.21832895 0.004419565 -0.88503754 0.58503735 -0.32312834
-0.95152295 0.7340497 0.5970049 0.68555474 -0.04208553 -0.8370544 -0.72337186 -0.4473287
-0.51038253 0.35924459 -0.3788352 0.71704674 0.22364283 -0.06991339 -0.37188613 -0.90467596
-0.07342613 0.65697575 0.03323829 0.21586871 -0.030478835 -0.2379992 0.8104944 -0.9338596
-0.53498316 0.69290316 -0.641889 0.66876376 0.088685274 -0.33251178 -0.10831678 -0.050776124
0.21736002 -0.7572012 0.038677573 0.3827294 0.15971684 0.24069369 -0.25012934 0.21320045
-0.15191007 0.007943034 -0.4505993 -0.22922015 -0.54134035 0.5556127 -0.7766663 -0.50852025
0.6555283 0.91648245 -0.11221385 -0.5647496 0.7913276 -0.850291 -0.015123606 0.59681475
-0.22679341 -0.8735522 -0.97696054 -0.7198763 0.37983656 0.55257106 0.9960668 0.23086953
-0.26045752 0.3501613 0.33452213 0.8891908 0.027205467 -0.42680645 -0.68278444 -0.038577795
-0.9762089 -0.9360819 -0.98930156 0.65492237 -0.32210302 -0.37372875 0.78945243 -0.27805686
-0.016648889 0.70643485 0.40996027 -0.8238108 0.48016334 0.36836004 -0.037831545 0.6348512
-0.47770333 -0.54962516 -0.52079785 0.04178095 0.52387214 -0.39345145 -0.02189207 0.2773739
-0.5541756 0.38558936 -0.8892853 0.46324933 0.95995307 0.5200715 -0.30742478 -0.3618096
-0.6853347 0.1358298 0.10713637 -0.026156902 0.10244894 -0.7869202 0.7797245 0.24927568
0.7068579 0.5229703 0.18263125 -0.22685349 -0.37424958 -0.6600503 -0.36261582 -0.41862214
-0.12922347 -0.7774296 0.38912475 -0.19243717 0.23095071 -0.41044152 -0.3294176 -0.13452137
0.39497828 -0.106143 -0.80511045 0.89940095 -0.2839234 0.309093 0.7906147 0.81784844
-0.5515255 0.028789043 -0.5423429 0.4316182 -0.08834624 -0.45983553 -0.58081865 0.10648048
0.8876494 0.72563756 0.012558699 -0.65559137 0.4434483 0.55091333 -0.19280231 -0.8795928
00000000: 1017 2c3f a4b6 913e 50d7 41be a091 5f3e
00000010: 00d2 903b d291 62bf 02c5 153f 1471 a5be
00000020: 0297 73bf aeea 3b3f 50d5 183f 8480 2f3f
00000030: e061 2cbd 3249 56bf e62e 39bf 4408 e5be
00000040: 6ea8 02bf e8ee b73e b0f6 c1be 6090 373f
00000050: a002 653e c02e 8fbd dc67 bebe d898 67bf
00000060: 7060 96bd 902f 283f e024 083d b00c 5d3e
00000070: c0ae f9bc 10b6 73be 907c 4f3f 6c11 6fbf
00000080: a8f4 08bf 1a62 313f d652 24bf 1a34 2b3f
00000090: a0a0 b53d fc3e aabe 30d5 ddbd a0fa 4fbd
000000a0: a093 5e3e f0d7 41bf 606c 1e3d 1cf5 c33e
000000b0: d08c 233e 6878 763e f410 80be 3851 5a3e
000000c0: 508e 1bbe 8023 023c f4b4 e6be b0b8 6abe
000000d0: 4895 0abf a23c 0e3f 9ad3 46bf 622e 02bf
000000e0: b4d0 273f 989e 6a3f 60d0 e5bd 6e93 10bf
000000f0: 7294 4a3f acac 59bf 00c9 77bc dac8 183f
00000100: 883c 68be 1ea1 5fbf 161a 7abf d049 38bf
00000110: f079 c23e 4c75 0d3f 3cfe 7e3f 1069 6c3e
00000120: b05a 85be 5848 b33e 7c46 ab3e 02a2 633f
00000130: 00de de3c 6086 dabe f6ca 2ebf c003 1ebd
00000140: d4e8 79bf 10a3 6fbf de42 7dbf fea8 273f
00000150: b0ea a4be 6059 bfbe 8e19 4a3f 785d 8ebe
00000160: 4063 88bc ead8 343f 50e6 d13e 44e5 52bf
00000170: f8d7 f53e b099 bc3e 40f5 1abd 9c85 223f
00000180: 8895 f4be 3cb4 0cbf 0253 05bf 8022 2b3d
00000190: 7c1c 063f 7872 c9be 0057 b3bc f403 8e3e
000001a0: 74de 0dbf f86b c53e 34a8 63bf 042f ed3e
000001b0: 7cbf 753f 6823 053f c866 9dbe 1c3f b9be
000001c0: 1872 2fbf f816 0b3e 506a db3d 0047 d6bc
000001d0: c0d0 d13d 9a73 49bf 069c 473f 2042 7f3e
000001e0: a4f4 343f 62e1 053f b003 3b3e 484c 68be
000001f0: a49d bfbe 0ef9 28bf c8a8 b9be a455 d6be
00000200: 2853 04be a005 47bf 5c3b c73e 400e 45be
00000210: 587e 6c3e 6425 d2be 6ca9 a8be f8bf 09be
00000220: 983a ca3e 8061 d9bd b81b 4ebf 243f 663f
00000230: 685e 91be 7041 9e3e ba65 4a3f 845e 513f
00000240: c630 0dbf 00d7 eb3c fcd6 0abf 10fd dc3e
00000250: e0ee b4bd 906f ebbe 88b0 14bf 7012 da3d
00000260: fe3c 633f 62c3 393f 00c3 4d3c d6d4 27bf
00000270: a80b e33e a808 0d3f f86d 45be fe2c 61bf

features_hidden f4 [16, 5, 32]
0.40462792 0.22601855 0.4747718 0.0045661926 0.9858615 0.40092772 0.73284715 0.661528
0.54070497 0.24496144 0.5419965 0.06668091 0.25320983 0.1792553 0.5811426 0.34842515
0.30045748 0.07241619 0.86245406 0.63753265 0.905669 0.8885397 0.8040466 0.76343787
0.77962863 0.55478024 0.44000137 0.7086427 0.69891506 0.8543802 0.7171294 0.2841233
0.12633687 0.10976082 0.73401856 0.5119761 0.6865982 0.96668375 0.7066892 0.88991743
0.035830915 0.004975021 0.53898984 0.37891763 0.14348722 0.028876662 0.6643273 0.32090694
0.5487451 0.49185294 0.43794852 0.01553911 0.6659705 0.9957568 0.41447383 0.12871403
0.72678727 0.8115505 0.2747587 0.9236808 0.4085611 0.21137297 0.45020962 0.41141152
0.71249354 0.7139986 0.26838773 0.41546547 0.61347574 0.18127137 0.5223746 0.98663956
0.12691605 0.3954723 0.1522134 0.79279155 0.5642656 0.088578045 0.6524295 0.9398968
0.19653815 0.8958107 0.9100092 0.29119712 0.83435756 0.075568795 0.72403896 0.92864805
0.19238192 0.6869552 0.831525 0.83389777 0.77397895 0.31815678 0.6801215 0.59279436
0.5043947 0.9028443 0.56052643 0.6071821 0.21023345 0.757853 0.03621471 0.03215331
0.013266325 0.7725942 0.40628314 0.7839795 0.49201608 0.20741123 0.91908765 0.19669437
0.65058506 0.15218747 0.90145314 0.124349415 0.46637923 0.3055578 0.319736 0.6877793
0.7607001 0.7134933 0.64033955 0.6920174 0.50490654 0.18998271 0.082371 0.023929656
0.250786 0.4849261 0.10400063 0.89873856 0.87709194 0.7377753 0.36849153 0.4299174
0.9708932 0.120503664 0.3316871 0.62186015 0.19619691 0.7650256 0.811298 0.35498625
0.44755727 0.4478401 0.079793155 0.9403153 0.15751362 0.12458712 0.37010902 0.46428645
0.9990008 0.31833845 0.19422573 0.81693166 0.14094293 0.03305608 0.63674945 0.46516544
0.3559159 0.45914656 0.3271342 0.19321936 0.704869 0.38060868 0.07269621 0.64419866
0.53703123 0.6127034 0.14577359 0.69862586 0.7294049 0.43468308 0.7802334 0.78242916
0.78771716 0.92939776 0.022813618 0.46193993 0.12926674 0.03341937 0.4296558 0.07895392
0.63410497 0.5829974 0.036599636 0.3552276 0.89159876 0.9969766 0.51815623 0.7304447
0.072068095 0.6933067 0.117143214 0.75323534 0.14446032 0.30519527 0.24520999 0.8460746
0.64662004 0.27466726 0.77818644 0.22630876 0.9768685 0.54232246 0.3857088 0.54422784
0.3745228 0.4361111 0.5331927 0.30344182 0.45093066 0.46171224 0.8500787 0.7901651
0.83206487 0.65291166 0.6642044 0.85418916 0.9550958 0.27082467 0.83226055 0.80985516
0.45535403 0.48880833 0.7734107 0.96199733 0.32145143 0.06277609 0.029404044 0.14677507
0.9857712 0.49178886 0.3514936 0.80478394 0.12668395 0.89532894 0.60947627 0.31091458
0.5775469 0.81634194 0.88546836 0.7178282 0.9261716 0.14405066 0.4009846 0.3004495
0.2973439 0.6827716 0.36882162 0.14856476 0.28970063 0.44734627 0.46934474 0.5601969
00000000: 642b cf3e 6871 673e 4a15 f33e 00a0 953b
00000010: 6b61 7c3f 6646 cd3e df9b 3b3f e659 293f
00000020: a46b 0a3f 2cd7 7a3e 48c0 0a3f 0090 883d
00000030: b8a4 813e b48e 373e c3c5 143f c864 b23e
00000040: 90d5 993e f04e 943d cac9 5c3f 5735 233f
00000050: ecd9 673f 5677 633f ffd5 4d3f aa70 433f
00000060: be95 473f 1406 0e3f dc47 e13e 9c69 353f
00000070: 19ec 323f a9b8 5a3f cb95 373f 9c78 913e
00000080: 745e 013e 48ca e03d a4e8 3b3f de10 033f
00000090: e6c4 2f3f 9678 773f 95e9 343f a1d1 633f
000000a0: 70c3 123d 8005 a33b 3dfb 093f 7e01 c23e
000000b0: 50ee 123e c08e ec3c 5b11 2a3f ea4d a43e
000000c0: 8f7a 0c3f 26d4 fb3e ca3a e03e c097 7e3c
000000d0: 0b7d 2a3f ebe9 7e3f ea35 d43e 9ccd 033e
000000e0: bb0e 3a3f c6c1 4f3f 2cad 8c3e 5876 6c3f
000000f0: ec2e d13e 2872 583e e081 e63e 88a4 d23e
00000100: fa65 363f 9dc8 363f 1e6a 893e e4b7 d43e
00000110: bf0c 1d3f 349f 393e 57ba 053f 6994 7c3f
00000120: 48f6 013e 587b ca3e d4dd 1b3e 63f4 4a3f
00000130: b673 103f 6868 b53d 9f05 273f 149d 703f
00000140: 4c41 493e da53 653f 5df6 683f ca17 953e
00000150: 7598 553f d0c3 9a3d 9e5a 393f e1bb 6d3f
00000160: c4ff 443e 4cdc 2f3f d3de 543f 537a 553f
00000170: 7c23 463f 72e5 a23e 711c 2e3f 5fc1 173f
00000180: 0320 013f ce20 673f a97e 0f3f 4970 1b3f
00000190: 7047 573e a702 423f e055 143d 30b3 033d
000001a0: 005b 593c bcc8 453f 5804 d03e e1b2 483f
000001b0: 88e9 fb3e 9c63 543e 5449 6b3f 406a 493e
000001c0: be8c 263f 08d7 1b3e a2c5 663f e8aa fe3d
000001d0: 42c9 ee3e 1272 9c3e 70b4 a33e 4e12 303f
000001e0: 3ebd 423f 7fa7 363f 4bed 233f 0d28 313f
000001f0: 8e41 013f d48a 423e 20b2 a83d 2008 c43c
00000200: 0667 803e 3c48 f83e 48fe d43d bb13 663f
00000210: 1989 603f d8de 3c3f ecaa bc3e 221e dc3e
00000220: 758c 783f a0ca f63d e4d2 a93e 3a32 1f3f
00000230: d8e7 483e b8d8 433f 3ab1 4f3f c2c0 b53e
00000240: 3a26 e53e 4c4b e53e 986a a33d 81b8 703f
00000250: 404b 213e 8827 ff3d ee7e bd3e f4b6 ed3e
00000260: 84be 7f3f 42fd a23e 1ce3 463e 6f22 513f
00000270: 5853 103e d065 073d 0302 233f 2a2a ee3e
00000280: 9c3a b63e 4215 eb3e 227e a73e 4cdb 453e
00000290: 4b72 343f 24df c23e c0e1 943d 34ea 243f
000002a0: e17a 093f 21da 1c3f ac45 153e 25d9 323f
000002b0: 48ba 3a3f c88e de3e 60bd 473f 474d 483f
000002c0: d5a7 493f 03ed 6d3f a0e3 ba3c 6483 ec3e
000002d0: 805e 043e c0e2 083d d8fb db3e 98b2 a13d
000002e0: b454 223f 513f 153f 80e9 153d 64e0 b53e
000002f0: d13f 643f dc39 7f3f e3a5 043f 6dfe 3a3f
00000300: 7098 933d 8c7c 313f c8e8 ef3d 08d4 403f
00000310: 68ed 133e 8e42 9c3e 5418 7b3e 5898 583f
00000320: e488 253f 30a1 8c3e 3a37 473f 7cbd 673e
00000330: 0e14 7a3f a5d5 0a3f a07b c53e 8452 0b3f
00000340: 74c1 bf3e f449 df3e 517f 083f ba5c 9b3e
00000350: 62e0 e63e 8c65 ec3e c29e 593f 4348 4a3f
00000360: 3402 553f 3825 273f 4d09 2a3f 24ac 5a3f
00000370: 2981 743f 88a9 8a3e 070f 553f ab52 4f3f
00000380: 2a24 e93e 1645 fa3e 3efe 453f 7545 763f
00000390: 4895 a43e c090 803d c0e0 f03c 344c 163e
000003a0: 805b 7c3f c0cb fb3e f8f6 b33e 5206 4e3f
000003b0: 70b9 013e 4734 653f a306 1c3f 3230 9f3e
000003c0: 1dda 133f c9fb 503f 0eae 623f 97c3 373f
000003d0: 9519 6d3f 0482 133e da4d cd3e 84d4 993e
000003e0: 763d 983e 1fca 2e3f 30d6 bc3e 5c21 183e
000003f0: a453 943e 920a e53e f44d f03e 1069 0f3f

walk_encoder.feature_encoder.weight f4 [32, 136]
-0.041769225 -0.2933836 -0.5381746 -0.30915245 -0.044481736 -0.0129709635 0.03394697 -0.088831335
-0.027975282 0.08189763 0.13743576 0.006211012 -0.056150693 0.01794541 0.093197174 -0.14486712
0.11536236 0.019489046 -0.04193226 0.116120964 0.06178611 0.16295785 0.20161794 0.0035961862
0.063987516 0.059391234 -0.23658131 -0.082254894 0.050942324 0.027628355 0.19306067 0.38570133
0.13908318 0.10236563 0.24228686 0.2180731 -0.13845661 0.107970245 -0.38875926 0.01886063
0.23123159 -0.0069745854 -0.13548197 0.08406432 0.25039682 -0.08189075 -0.04367336 -0.013474594
-0.3351017 0.013396702 0.043731466 0.27944726 -0.07933693 -0.015080109 0.19611935 0.32777148
0.23418805 0.012968306 -0.23404749 0.27850088 0.18870956 -0.011152692 0.118515655 0.09287772
0.11238715 0.25836012 -0.0062688533 0.0017402021 0.37184107 -0.071549684 -0.025902782 0.27770627
0.04112237 0.035107866 0.059421454 0.010962101 -0.07726598 0.06528189 -0.064984806 0.07573374
-0.06644073 -0.06493591 0.072271354 0.27471185 -0.04132437 0.057472873 -0.007290349 0.074354246
-0.059952665 -0.0458036 -0.08038927 -0.039646555 -0.02393893 -0.057259794 -0.08082598 0.0696148
0.01718935 0.08307156 -0.054277208 -0.06055433 0.02130795 -0.036639035 -0.041643012 0.06853874
0.079871096 -0.03469525 -0.003989169 -0.061734147 0.084970936 -0.030715065 0.04194241 0.035647336
0.034525417 0.025202546 0.04924345 0.040650275 -0.035423145 0.028265202 0.050355423 -0.031790543
0.035030525 -0.07183897 -0.03270751 0.012230787 -0.056456726 -0.08347181 -0.05215571 0.013972247
-0.024722822 0.051286463 0.02329466 -0.062608555 0.0101704085 0.033773366 -0.0097342925 0.076397814
0.060971126 0.15033923 -0.20319976 -0.040349387 0.11280922 0.0439269 0.16566338 0.01185542
0.034060244 -0.06378771 -0.22046298 0.032835715 -0.017289443 0.1863405 0.106187165 0.3065809
-0.08035006 0.052612025 0.005102477 -0.11768565 0.19289634 -0.5961351 0.46869758 -0.06457846
0.18051971 -0.102751605 -0.07319996 0.268381 0.013752197 0.07217221 -0.24655539 -0.4136986
0.10575436 0.2330353 -0.5290313 -0.43543532 -0.2621285 -0.10087022 -0.2571273 -0.4030826
-0.28165966 -0.1431252 -0.32536763 -0.1413045 -0.12230637 -0.30780432 -0.028875176 0.0325489
-0.37863237 0.06790184 -0.23627307 -0.19894694 -0.0009019481 -0.012983268 -0.077115275 0.18378739
-0.041278042 0.0711528 -0.29951534 -0.028018558 -0.3060668 0.06589835 -0.044573467 0.03606721
-0.05776041 -0.18290028 -0.033304837 -0.023672223 -0.07040074 0.006886637 -0.030177034 -0.1453332
0.05102913 -0.06980567 -0.0032186569 0.016703514 -0.031315245 0.057196368 0.012610039 -0.0172427
-0.034199066 0.013954481 -0.07969946 -0.10679833 -0.05238907 0.03982122 -0.014414661 0.058792364
0.067058936 0.061191466 0.06465891 -0.08429953 0.037530772 -0.055598967 -0.051175173 0.026236676
-0.06991876 -0.01995064 0.03696645 -0.074560866 0.024709411 -0.051721517 0.015581596 0.017166024
0.07023375 -0.014571702 -0.07849947 -0.041278012 -0.018411895 0.08058916 -0.059629455 0.02961862
0.037502557 0.068594195 -0.0064330716 -0.035783872 -0.030269492 -0.052876584 0.018806407 -0.037310544
00000000: 3516 2bbd 6036 96be d0c5 09bf 3b49 9ebe
00000010: 7b32 36bd 2a84 54bc fa0b 0b3d 34ed b5bd
00000020: 6b2c e5bc f2b9 a73d f6bb 0c3e bf85 cb3b
00000030: 45fe 65bd 4102 933c 29de be3d 0c58 14be
00000040: 1a43 ec3d 7ea7 9f3c 29c1 2bbd d4d0 ed3d
00000050: 6f13 7d3d 6cde 263e ef74 4e3e fead 6b3b
00000060: e30b 833d 3944 733d 5f42 72be 4175 a8bd
00000070: e6a8 503d dc54 e23c b2b1 453e a57a c53e
00000080: d26b 0e3e 12a5 d13d 0c1a 783e 8e4e 5f3e
00000090: 92c7 0dbe 811f dd3d 740b c7be 9c81 9a3c
000000a0: f9c7 6c3e 108b e4bb c9bb 0abe ea29 ac3d
000000b0: 0334 803e 56b6 a7bd d6e2 32bd 8bc4 5cbc
000000c0: 7392 abbe d77d 5b3c c41f 333d b613 8f3e
000000d0: 667b a2bd 9012 77bc 83d3 483e aad1 a73e
000000e0: fece 6f3e 0579 543c 25aa 6fbe ab97 8e3e
000000f0: 143d 413e c8b9 36bc 56b8 f23d ad36 be3d
00000100: 3c2b e63d c747 843e f46a cdbb 7e17 e43a
00000110: f461 be3e a488 92bd 1232 d4bc 842f 8e3e
00000120: ee6f 283d 44cd 0f3d e963 733d 629a 333c
00000130: a03d 9ebd 83b2 853d c116 85bd 4b1a 9b3d
00000140: 1412 88bd 1efd 84bd 0103 943d 08a7 8c3e
00000150: be43 29bd ad68 6b3d e1e3 eebb 0a47 983d
00000160: ed90 75bd 8e9c 3bbd 21a3 a4bd 6d64 22bd
00000170: 931b c4bc 3f89 6abd 1788 a5bd 3492 8e3d
00000180: aed0 8c3c 6c21 aa3d c751 5ebd d107 78bd
00000190: 038e ae3c d012 16bd dd91 2abd 0a5e 8c3d
000001a0: 7593 a33d 9b1c 0ebd 93b7 82bb f2dc 7cbd
000001b0: 3e05 ae3d 299e fbbc cecb 2b3d f102 123d
000001c0: 866a 0d3d 9275 ce3c 80b3 493d e780 263d
000001d0: dc17 11bd 6d8c e73c 7d41 4e3d cd36 02bd
000001e0: 2b7c 0f3d 4f20 93bd 4ff8 05bd a463 483c
000001f0: 2b3f 67bd 45f3 aabd 3aa1 55bd daeb 643c
00000200: 8487 cabc c111 523d 71d4 be3c ea38 80bd
00000210: c9a1 263c f155 0a3d 957c 1fbc 7576 9c3d
00000220: dcbc 793d 87f2 193e 9913 50be 6645 25bd
00000230: 8508 e73d b1ec 333d a9a3 293e 3c3d 423c
00000240: c182 0b3d 22a3 82bd 0cc1 61be be7e 063d
00000250: 97a2 8dbc 0bd0 3e3e a878 d93d 2cf8 9c3e
00000260: 928e a4bd b57f 573d ae32 a73b 2d05 f1bd
00000270: 9e86 453e 4f9c 18bf 21f9 ef3e b641 84bd
00000280: 29da 383e 6f6f d2bd dce9 95bd 3c69 893e
00000290: e550 613c 06cf 933d 0479 7cbe 4ed0 d3be
000002a0: be95 d83d cea0 6e3e 986e 07bf 61f1 debe
000002b0: b535 86be 0c95 cebd 31a6 83be d860 cebe
000002c0: b235 90be 6a8f 12be 9696 a6be 20b2 10be
000002d0: c37b fabd 8798 9dbe a28b ecbc ff51 053d
000002e0: 1adc c1be 1f10 8b3d 91f1 71be bfb8 4bbe
000002f0: b670 6cba c6b7 54bc 9dee 9dbd c332 3c3e
00000300: 2a13 29bd 8fb8 913d 135a 99be 2d87 e5bc
00000310: cab4 9cbe b7f5 863d ab92 36bd 36bb 133d
00000320: 2e96 6cbd 364a 3bbe a76a 08bd 40ec c1bc
00000330: 432e 90bd 4ca9 e13b d435 f7bc 3ad2 14be
00000340: ec03 513d 46f6 8ebd 1af0 52bb cfd5 883c
00000350: 6a44 00bd bd46 6a3d 569a 4e3c 9040 8dbc
00000360: 5214 0cbd 56a1 643c 7839 a3bd 15b9 dabd
00000370: ec95 56bd 931b 233d 782b 6cbc 43d0 703d
00000380: 3256 893d e7a3 7a3d e46b 843d 3ba5 acbd
00000390: deb9 193d bebb 63bd 0f9d 51bd 4cee d63c
000003a0: 9131 8fbd 866f a3bc 226a 173d 5eb3 98bd
000003b0: 646b ca3c f1d9 53bd f349 7f3c c39f 8c3c
000003c0: b6d6 8f3d 26be 6ebc 55c4 a0bd 2213 29bd
000003d0: 8bd4 96bc ee0b a53d 043e 74bd c0a2 f23c
000003e0: 489c 193d 1d7b 8c3d 84cc d2bb 1c92 12bd
000003f0: baf7 f7bc 1e95 58bd e50f 9a3c f1d2 18bd

walk_encoder.feature_encoder.bias f4 [32]
0.092808604 -0.071117945 -0.0700192 -0.13623108 0.018061385 0.20715478 0.16747934 -0.30825368
0.022088533 -0.028999066 -0.13286284 -0.21279927 0.0684382 0.14472872 0.06647828 0.0022933371
0.057714943 -0.26127443 -0.07741841 -0.10369929 0.15296671 -0.14751318 0.054426406 0.011802046
0.23396578 0.14564216 -0.05938796 -0.17850254 0.06452058 -0.15405673 -0.065706685 0.099652745
00000000: 7012 be3d 49a6 91bd 3a66 8fbd 2980 0bbe
00000010: 78f5 933c 6220 543e b47f 2b3e 6dd3 9dbe
00000020: 03f3 b43c 738f edbc 320d 08be 0de8 59be
00000030: 5429 8c3d c433 143e c425 883d d04b 163b
00000040: 8166 6c3d c3c5 85be 8b8d 9ebd 4b60 d4bd
00000050: 4ea3 1c3e b20d 17be 39ee 5e3d 5e5d 413c
00000060: ba94 6f3e 3823 153e ca40 73bd 5fc9 36be
00000070: 5e23 843d 0cc1 1dbe 3a91 86bd bd16 cc3d

walk_encoder.path_encoder.weight_ih_l0 f4 [96, 32]
-0.31014338 0.141451 -0.1585814 -0.11945788 -0.23122002 -0.36873668 -0.2215423 0.14659981
0.15503114 0.0843237 -0.09403375 -0.16059558 0.070999466 -0.041954774 -0.2913177 0.012760775
0.013391735 0.00618207 -0.065671794 -0.16196279 -0.00096451514 -0.011157202 -0.11579286 0.10443305
0.055093307 0.33419302 -0.035875212 -0.31158245 -0.38692045 -0.0229097 -0.29832372 -0.20229506
0.21209759 -0.06238289 -0.22873694 -0.058637064 -0.16933547 0.022410713 0.040250115 -0.0022950254
-0.27505854 -0.06580088 -0.093291834 0.06578359 -0.052514452 0.190676 0.11676395 0.10241761
-0.31575227 -0.0653651 -0.024566477 0.37406695 0.093014166 -0.15389512 -0.19850136 0.07856848
-0.29953876 -0.043273248 -0.101607636 0.06711837 -0.1106372 0.007575299 0.11283231 -0.037831932
-0.19288635 -0.036073547 -0.026784701 -0.022117103 -0.031044126 0.06575604 0.020114113 0.16832198
-0.105235204 0.015598604 0.00923323 0.12708887 -0.049599208 0.111304134 -0.03436983 -0.17589581
-0.08067821 0.18644129 -0.13162762 0.19410333 -0.0846651 0.13710776 0.030733665 -0.0016978094
-0.21236636 0.14462443 0.20078143 0.12620206 -0.075137086 -0.14019927 -0.16205952 0.08068455
0.12713014 -0.3066854 0.07837641 0.23297942 0.14663082 0.20893453 -0.16070297 0.092606165
-0.18575527 -0.22233732 0.06560035 -0.007902221 -0.08742325 -0.071081296 0.18657246 -0.20470685
-0.068162926 0.028766222 -0.042568833 -0.0844281 -0.1244119 0.17747585 0.050859597 -0.20838563
-0.27414596 -0.18085225 0.3699913 0.18331417 0.016956646 -0.30260772 0.14158307 0.0768158
0.15358764 -0.10587055 0.06334579 0.1330783 -0.28261986 0.13551776 0.16553384 -0.1337064
-0.15997532 0.01834742 -0.18034221 0.24597898 0.109127484 0.24615048 -0.090108484 -0.013285611
0.11737063 -0.17279823 -0.029959021 -0.013389523 -0.033077925 0.09460998 -0.10824844 0.11339924
-0.4829653 -0.14654225 -0.14978369 0.14940216 0.07374478 -0.049095172 0.0709987 -0.025452554
-0.028546205 -0.17901911 -0.059255786 -0.09398709 0.06200304 0.185271 -0.039356556 0.09565387
0.032281414 0.12197313 0.021772917 0.11598181 -0.20082776 0.15325369 -0.045097917 0.078505345
0.11814767 0.17347056 0.0995333 0.19540027 -0.36562902 -0.04939409 0.07943621 -0.049259167
-0.18635009 -0.19395813 0.038744878 0.09758565 -0.09929865 -0.13597718 0.31966534 -0.23667274
0.13560013 -0.050629638 0.053402238 0.087644786 0.059564456 0.030597853 -0.043746404 0.07988292
-0.08786534 0.07610335 0.064717636 0.06422545 -0.13342057 -0.09051786 -0.04939883 -0.003678278
-3.214227e-06 -0.12766258 0.32558548 0.12741327 0.15560767 -0.044996314 -0.06652948 -0.12543558
0.026000926 -0.06929184 0.22520553 0.13030973 -0.16022432 0.014190456 0.10905735 -0.20317645
0.18735647 -0.1228172 -0.032089114 -0.07995281 -0.21992777 0.075417496 -0.16597262 -0.11439235
-0.15856098 -0.034905773 0.004306893 -0.14532822 -0.007575509 0.14042456 -0.1742423 -0.05184214
-0.11269795 -0.024810383 0.074132085 -0.018885002 -0.09633762 0.056014627 0.055299897 -0.06115727
-0.20014064 -0.16099922 -0.30355886 0.00801796 -0.13345683 -0.09976068 -0.084304124 -0.08551273
00000000: 1dcb 9ebe 88d8 103e 2a63 22be 55a6 f4bd
00000010: f1c4 6cbe 0ecb bcbe fcdb 62be 431e 163e
00000020: 7cc0 1e3e e7b1 ac3d c494 c0bd 2b73 24be
00000030: 2b68 913d c5d8 2bbd 9827 95be 9212 513c
00000040: 0269 5b3c f692 ca3b ef7e 86bd 93d9 25be
00000050: 84d7 7cba b2cc 36bc cf24 edbd ffe0 d53d
00000060: 85a9 613d 591b ab3e e3f1 12bd bc87 9fbe
00000070: 701a c6be 20ad bbbc e3bd 98be 7026 4fbe
00000080: 1c30 593e 3485 7fbd 043a 6abe 6b2d 70bd
00000090: 4766 2dbe ac96 b73c 4edd 243d 2368 16bb
000000a0: 79d4 8cbe 9dc2 86bd ca0f bfbd 8cb9 863d
000000b0: 6519 57bd 9240 433e f021 ef3d 53c0 d13d
000000c0: 48aa a1be 23de 85bd a33f c9bc b485 bf3e
000000d0: 367e be3d af96 1dbe f143 4bbe 83e8 a03d
000000e0: 255d 99be 4a3f 31bd aa17 d0bd 5b75 893d
000000f0: c295 e2bd 373a f83b a014 e73d a8f5 1abd
00000100: 0084 45be dbc1 13bd 976b dbbc ed2e b5bc
00000110: 4050 febc 1aab 863d 5ac6 a43c 995c 2c3e
00000120: 8e85 d7bd 4a91 7f3c f946 173c 9623 023e
00000130: 8a28 4bbd 6cf3 e33d 61c7 0cbd 081e 34be
00000140: 9e3a a5bd 77ea 3e3e 64c9 06be 06c3 463e
00000150: e564 adbd fa65 0c3e 2bc5 fb3c 0889 deba
00000160: 9176 59be 6d18 143e a699 4d3e 1d3b 013e
00000170: 79e1 99bd 6690 0fbe eef2 25be f13d a53d
00000180: 672e 023e de05 9dbe d083 a03d 2892 6e3e
00000190: 6426 163e eff2 553e 528f 24be 4da8 bd3d
000001a0: a136 3ebe 65ac 63be 7a59 863d 5178 01bc
000001b0: f60a b3bd 1293 91bd da0c 3f3e ac9e 51be
000001c0: 0199 8bbd 24a7 eb3c a85c 2ebd a4e8 acbd
000001d0: abcb febd 3bbc 353e 2752 503d 0b63 55be
000001e0: dc5c 8cbe 5531 39be 806f bd3e b6b6 3b3e
000001f0: aae8 8a3c 66ef 9abe 27fb 103e 9a51 9d3d
00000200: 1446 1d3e a9d2 d8bd 70bb 813d ae45 083e
00000210: 8db3 90be 2bc5 0a3e b481 293e 55ea 08be
00000220: 92d0 23be 544d 963c a1ab 38be eae1 7b3e
00000230: 3b7e df3d df0e 7c3e cc8a b8bd e4ab 59bc
00000240: 0360 f03d 05f2 30be 9f6c f5bc bb5f 5bbc
00000250: b87c 07bd e1c2 c13d 5cb1 ddbd dc3d e83d
00000260: 3a47 f7be 2c0f 16be e560 19be e1fc 183e
00000270: 8107 973d 0518 49bd c467 913d e081 d0bc
00000280: bbd9 e9bc c950 37be 32b6 72bd 4e7c c0bd
00000290: e6f6 7d3d aeb7 3d3e 5734 21bd 2de6 c33d
000002a0: 8439 043d 0ccd f93d 1e5d b23c df87 ed3d
000002b0: cba5 4dbe 89ee 1c3e 98b8 38bd 69c7 a03d
000002c0: 68f7 f13d 44a2 313e 1dd8 cb3d 0217 483e
000002d0: ba33 bbbe 7551 4abd 74af a23d fbc3 49bd
000002e0: 8fd2 3ebe f69c 46be f3b2 1e3d fcda c73d
000002f0: 175d cbbd 9a3d 0bbe 2dab a33e 575a 72be
00000300: c3da 0a3e 0661 4fbd 4ebc 5a3d 1c7f b33d
00000310: dcf9 733d 59a8 fa3c 6e2f 33bd a899 a33d
00000320: bef2 b3bd 13dc 9b3d ae8a 843d a288 833d
00000330: 679f 08be 6e61 b9bd 6d56 4abd 440f 71bb
00000340: 00b4 57b6 fbb9 02be 24b3 a63e a078 023e
00000350: 9e57 1f3e 0e4e 38bd 9c40 88bd 2f72 00be
00000360: e5ff d43c e1e8 8dbd 479c 663e ea6f 053e
00000370: d811 24be 167f 683c 7659 df3d 7d0d 50be
00000380: 60da 3f3e 9687 fbbd e06f 03bd 4dbe a3bd
00000390: bf34 61be 7d74 9a3d baf4 29be 8946 eabd
000003a0: cf5d 22be 5bf9 0ebd d620 8d3b ecd0 14be
000003b0: fa3b f8bb 75cb 0f3e 936c 32be 6c58 54bd
000003c0: 2fce e6bd 253f cbbc 90d2 973d b8b4 9abc
000003d0: a84c c5bd 986f 653d 2582 623d 0c80 7abd
000003e0: abf1 4cbe fbdc 24be 116c 9bbe c35d 033c
000003f0: e8a8 08be 544f ccbd a4a7 acbd 4c21 afbd

walk_encoder.path_encoder.weight_hh_l0 f4 [96, 32]
0.121242404 0.007991679 0.17422007 0.113595776 0.055265196 -0.03812675 0.025745165 0.097047895
-0.2364202 0.07540318 -0.2565633 0.0680102 0.044515364 0.04852497 0.124644615 0.15132059
0.10985362 -0.13680947 -0.0890713 -0.22635607 -0.061214775 0.25104028 0.08028188 0.19541931
0.13664696 -0.14696065 0.04089625 -0.14383727 -0.106110126 0.24543606 -0.08690208 0.024717122
0.3228283 0.16238052 -0.31344444 -0.05307294 -0.121724196 0.18864585 -0.35079297 -0.08147149
0.14736545 -0.0048249364 0.016407548 1.1718017e-05 -0.0028533826 0.06421247 -0.027707871 -0.07787572
0.014452884 -0.05099243 0.28198376 0.024111697 0.2853503 -0.017977979 -0.04533843 -0.22324987
0.025612025 -0.14863314 0.117162235 0.09819959 -0.11957917 -0.009550329 0.010327306 -0.2596279
-0.15520197 -0.14973184 -0.07008301 0.025665997 0.10403076 -0.11603921 -0.008630986 -0.06841992
-0.0849162 -0.036497034 0.047115453 -0.027091578 -0.10288824 0.14807837 0.26451695 -0.047087897
0.027305484 -0.10321051 0.2420456 0.12663646 0.023014111 0.039461963 -0.2035121 0.101866014
-0.048777625 -0.2763359 -0.04016392 0.20682932 0.05844617 0.20334642 0.0029667579 -0.17230989
-0.18181357 0.14995359 -0.007678386 0.18280481 -0.21880308 0.1288349 -0.15964022 -0.24940388
0.0036567056 -0.052005228 -0.04779668 0.16437066 0.10526063 -0.25557336 -0.01891272 0.07587426
-0.24292617 0.020608114 0.2394115 0.11340737 -0.26496816 -0.062186718 -0.32080078 -0.18994164
0.28340214 -0.12407934 0.19280988 0.2151504 -0.13410772 0.025874024 0.04747296 -0.10157477
0.0037115803 0.13482237 -0.09017936 0.05001852 -0.20177707 0.012118129 -0.18214871 0.17262425
0.09150496 0.09203201 -0.02640974 0.058121037 -0.1702161 -0.03373007 0.15406594 0.09144536
-0.08390576 -0.1573072 0.2132057 0.028393012 0.17370501 -0.13089432 0.08862081 -0.21133856
-0.004544801 -0.11146558 -0.063339956 0.19903022 -0.04711173 -0.032765947 0.03876851 0.051810715
0.0714321 -0.012353617 -0.12795289 -0.09492638 -0.0018274726 0.2607347 -0.2774385 -0.18661433
0.06802777 0.062268697 0.25483006 0.007052024 -0.17806324 -0.14989187 0.1555433 -0.21427421
0.010653313 -0.11641149 0.302392 0.15285243 0.065641455 -0.28401294 -0.28303277 0.022728188
0.16950552 -0.0039201626 0.12635049 0.039103873 -0.029369846 -0.017501255 -0.01569473 -0.16145784
-0.15606886 0.096423835 -0.0053260033 0.17492616 -0.082151406 0.21606386 0.26225436 0.06050756
0.023784013 -0.5185245 0.003751079 0.29308945 0.23114462 0.065873474 0.1819461 0.12246948
-0.10030908 -0.33501205 0.2510424 -0.028661478 -0.27311814 0.07808915 -0.3765939 -0.13548039
0.09888173 -0.52512544 0.03754542 0.117181525 -0.12693919 0.096266285 -0.46556094 0.00408006
-0.15969737 -0.07614671 -0.0041791555 -0.14485218 0.013673982 0.06286705 0.053474434 -0.20348257
0.151011 0.019264733 0.17697611 -0.058937214 0.06971645 -0.23317447 0.09439135 0.02706118
-0.15217417 -0.19244443 0.24341547 0.05674482 0.12978873 0.006140792 -0.01137517 -0.120040216
0.014193663 0.064827256 0.18275692 0.09400001 -0.18359339 0.114054896 0.010932952 0.122036785
00000000: f04d f83d 88ef 023c bf66 323e e7a4 e83d
00000010: c25d 623d cc2a 1cbd 86e7 d23c 0cc1 c63d
00000020: 2318 72be fc6c 9a3d 445c 83be ef48 8b3d
00000030: be55 363d 1ec2 463d ad45 ff3d c9f3 1a3e
00000040: effa e03d c817 0cbe 046b b6bd e3c9 67be
00000050: 58bc 7abd 5a88 803e d46a a43d 001c 483e
00000060: 2eed 0b3e da7c 16be d482 273d 144a 13be
00000070: 4450 d9bd 9753 7b3e b8f9 b1bd 907b ca3c
00000080: c049 a53e 1447 263e ca7b a0be 0363 59bd
00000090: 894a f9bd 612c 413e 239b b3be 86da a6bd
000000a0: f8e6 163e 801a 9ebb 1f69 863c 8098 4437
000000b0: d1ff 3abb d481 833d 9efb e2bc 4e7d 9fbd
000000c0: cacb 6c3c 70dd 50bd 2d60 903e e585 c53c
000000d0: 6f19 923e 8e46 93bc cab4 39bd 9d9b 64be
000000e0: 4fd0 d13c 4933 18be c1f2 ef3d de1c c93d
000000f0: ede5 f4bd fc78 1cbc dc33 293c f3ed 84be
00000100: 44ed 1ebe 4e53 19be ae87 8fbd 7f41 d23c
00000110: 140e d53d f7a5 edbd fb68 0dbc be1f 8cbd
00000120: 8be8 adbd ea7d 15bd 22fc 403d 28ef ddbc
00000130: 12b7 d2bd dba1 173e c46e 873e 3ddf 40bd
00000140: c0af df3c 0860 d3bd cdda 773e fdac 013e
00000150: 1788 bc3c dea2 213d 7a65 50be 219f d03d
00000160: 0ccb 47bd e67b 8dbe ec82 24bd 11cb 533e
00000170: 4065 6f3d 0b3a 503e f06d 423b 0172 30be
00000180: 562d 3abe 6f8d 193e f89a fbbb 2f31 3b3e
00000190: ea0d 60be 4ced 033e ba78 23be bb63 7fbe
000001a0: 57a5 6f3b 6f03 55bd 74c6 43bd c850 283e
000001b0: e392 d73d 83da 82be d9ee 9abc f763 9b3d
000001c0: a3c1 78be 59d2 a83c 4a28 753e 2042 e83d
000001d0: e8a9 87be 80b7 7ebd 0040 a4be 1080 42be
000001e0: 161a 913e 4f1d febd f46f 453e 6350 5c3e
000001f0: 8953 09be c3f5 d33c 0273 423d 6f06 d0bd
00000200: fc3d 733b e00e 0a3e f5af b8bd 38e0 4c3d
00000210: a69e 4ebe 1e8b 463c 3185 3abe 69c4 303e
00000220: f466 bb3d 477b bc3d 3d59 d8bc 5310 6e3d
00000230: 214d 2ebe 8b28 0abd 76c3 1d3e b447 bb3d
00000240: c8d6 abbd 2315 21be 9852 5a3e 7698 e83c
00000250: badf 313e 2909 06be d47e b53d 2369 58be
00000260: 8eec 94bb 1148 e4bd 61b8 81bd 94ce 4b3e
00000270: 3bf8 40bd 9635 06bd bbcb 1e3d 7937 543d
00000280: fe4a 923d d366 4abc 1506 03be c368 c2bd
00000290: ce87 efba 057f 853e 6b0c 8ebe d417 3fbe
000002a0: 2552 8b3d 760d 7f3d 1679 823e aa14 e73b
000002b0: 3656 36be 417d 19be be46 1f3e b36a 5bbe
000002c0: 3c8b 2e3c 2669 eebd 20d3 9a3e 5985 1c3e
000002d0: 076f 863d 256a 91be ace9 90be 7730 ba3c
000002e0: db92 2d3e b574 80bb 0662 013e 622b 203d
000002f0: 0899 f0bc cb5e 8fbc 3c92 80bc 3455 25be
00000300: 84d0 1fbe dc79 c53d c185 aebb d81f 333e
00000310: ff3e a8bd d83f 5d3e 3446 863e c6d6 773d
00000320: b1d6 c23c 06be 04bf aad4 753b d20f 963e
00000330: 2db1 6c3e ace8 863d 1450 3a3e 47d1 fa3d
00000340: d96e cdbd b386 abbe a188 803e 7acb eabc
00000350: 24d6 8bbe 34ed 9f3d ead0 c0be 5fbb 0abe
00000360: 8182 ca3d 9f6e 06bf 3ac9 193d defc ef3d
00000370: 59fc 01be 4227 c53d 015e eebe 06b2 853b
00000380: b587 23be cef2 9bbd 4cf1 88bb 2154 14be
00000390: d608 603c 71c0 803d 0208 5b3d bc5d 50be
000003a0: a1a2 1a3e 13d1 9d3c 3a39 353e 2668 71bd
000003b0: 80c7 8e3d 4ac5 6ebe 4150 c13d 68af dd3c
000003c0: 8cd3 1bbe 2710 45be e841 793e 426d 683d
000003d0: 56e7 043e b238 c93b ec5e 3abc a5d7 f5bd
000003e0: 8a8c 683c 27c4 843d a124 3b3e 1483 c03d
000003f0: e8ff 3bbe 9d95 e93d 2020 333c 6cee f93d

walk_encoder.path_encoder.bias_ih_l0 f4 [96]
-0.017723665 0.18125859 -0.20105381 -0.13147557 0.08248827 0.13397901 -0.42429206 -0.079518564
-0.064946614 -0.10014301 0.048407182 0.078496575 -0.38817686 0.099706694 -0.19597231 -0.11705578
-0.2554497 -0.072702184 -0.031992435 0.10504908 -0.035410296 -0.107052766 -0.07103507 -0.033517104
-0.046550673 -0.113351315 -0.3562956 -0.18534191 0.135083 -0.1592206 0.07745778 -0.09337572
0.25654307 0.332356 0.2583371 0.048509378 0.07064365 0.2611212 0.14955498 0.16995819
0.5118688 0.0589486 0.28228316 0.26410878 -0.08897525 0.12479345 0.082060575 0.1096188
0.3480222 -0.091540806 0.12907581 0.26659024 0.19265528 0.22038668 -0.104390085 0.13679476
0.3106027 -0.3361095 0.049419727 -0.08213028 0.13129605 0.0118598575 -0.009325535 0.029688556
0.21575221 -0.07614629 0.0944527 -0.022910373 0.038412567 -0.086170435 -0.28789562 0.0446858
0.029453417 0.5893548 -0.23338743 -0.121626906 -0.19440615 0.040188704 0.029239714 -0.3140292
0.073639154 0.3803268 -0.17343664 0.16895713 0.24148591 -0.27098763 0.45992243 0.21079896
-0.19107065 0.7239692 -0.15551402 -0.50352633 0.3498506 -0.33152223 0.2549983 -0.27998108
00000000: 3831 91bc da9b 393e 0de1 4dbe 88a1 06be
00000010: 9cef a83d cb31 093e cf3c d9be a1da a2bd
00000020: bb02 85bd c717 cdbd 9c46 463d d0c2 a03d
00000030: 1ebf c6be 0633 cc3d f7ac 48be f1ba efbd
00000040: 4eca 82be e2e4 94bd 800a 03bd f923 d73d
00000050: 630a 11bd 7b3e dbbd d67a 91bd 3b49 09bd
00000060: ebab 3ebd bc24 e8bd 606c b6be 45ca 3dbe
00000070: 3353 0a3e ba0a 23be 2fa2 9e3d c53b bfbd
00000080: 9d59 833e 912a aa3e c344 843e c5b1 463d
00000090: 9ead 903d aeb1 853e f124 193e 8509 2e3e
000000a0: d509 033f 1674 713d 6b87 903e 4439 873e
000000b0: a838 b6bd b593 ff3d 600f a83d d27f e03d
000000c0: f72f b23e bf79 bbbd 732c 043e 847e 883e
000000d0: 6d47 453e 0cad 613e 78ca d5bd ed13 0c3e
000000e0: 5107 9f3e 8b16 acbe 576c 4a3d ec33 a8bd
000000f0: 7972 063e d94f 423c 21ca 18bc 6a35 f33c
00000100: 26ee 5c3e 96f2 9bbd 6b70 c13d 89ae bbbc
00000110: 7f56 1d3d 207a b0bd 0e67 93be 7508 373d
00000120: 4b48 f13c f5df 163f 1dfd 6ebe 8717 f9bd
00000130: 6812 47be e99c 243d 2088 ef3c 6fc8 a0be
00000140: 20d0 963d 32ba c23e 6099 31be 1903 2d3e
00000150: 1548 773e e4be 8abe f47a eb3e afdb 573e
00000160: 06a8 43be 0c56 393f 113f 1fbe 1ae7 00bf
00000170: 9e1f b33e 48bd a9be 238f 823e ae59 8fbe

walk_encoder.path_encoder.bias_hh_l0 f4 [96]
0.011527857 0.08112504 0.12772404 -0.1671501 -0.15353389 -0.09534941 -0.50569785 -0.25229898
-0.084442504 0.11760786 -0.20865045 0.072704695 -0.13655122 0.03399587 -0.29997182 -0.19418652
-0.16537176 -0.17637195 -0.12312147 0.21543264 0.09832573 -0.030601773 -0.19187586 -0.32787275
-0.20417458 -0.04017628 -0.31576052 -0.18305093 0.10118824 -0.35303947 -0.15652888 0.00025633222
0.42968547 0.37327275 0.17670192 0.10264622 0.21034098 0.2101235 0.4071309 0.44269225
0.33157647 0.20799342 0.2180509 0.26890627 -0.0941219 0.3249408 0.11789535 0.17883685
0.09030961 -0.21642584 0.11861696 0.09103168 0.072140455 0.26090088 0.10257237 0.011809798
0.18243991 -0.0026662 0.08583082 0.1041579 -0.06902549 0.010862069 0.054677863 0.26403517
0.2089852 0.02112336 0.1342901 -0.1998016 0.013643649 -0.050342027 0.07535873 -0.024258185
-0.15641688 0.044289567 -0.2150909 -0.13217948 0.062400978 0.12159689 0.05569566 -0.32575664
-0.06222221 0.16858217 0.12057307 0.174768 0.09288633 -0.09387309 0.14177406 0.1312043
-0.13783489 0.104430765 -0.1267246 -0.3822681 0.15920863 -0.007888419 0.18210664 -0.28027415
00000000: 56df 3c3c e324 a63d 17ca 023e 6529 2bbe
00000010: fd37 1dbe 8d46 c3bd 6a75 01bf 552d 81be
00000020: 31f0 acbd 64dc f03d 77a8 55be 33e6 943d
00000030: 15d4 0bbe 413f 0b3d e895 99be d5d8 46be
00000040: 3757 29be d99a 34be 1c27 fcbd 609a 5c3e
00000050: 005f c93d 92b0 fabc 1b7b 44be f0de a7be
00000060: 2413 51be e28f 24bd 5dab a1be b471 3bbe
00000070: c83b cf3d 97c1 b4be 1b49 20be 5464 8639
00000080: bcff db3e 9b1d bf3e 59f1 343e 2e38 d23d
00000090: a063 573e 9d2a 573e 7673 d03e 8fa8 e23e
000000a0: 64c4 a93e 3afc 543e bc48 5f3e 15ae 893e
000000b0: fcc2 c0bd a45e a63e 1e73 f13d 0221 373e
000000c0: 3ff4 b83d bc9e 5dbe 73ed f23d d16e ba3d
000000d0: 60be 933d cd94 853e 7611 d23d e27d 413c
000000e0: 87d1 3a3e 6abb 2ebb 12c8 af3d bd50 d53d
000000f0: 3c5d 8dbd d2f6 313c e5f5 5f3d 9e2f 873e
00000100: 3700 563e e60a ad3c 5883 093e ca98 4cbe
00000110: 9d89 5f3c 7133 4ebd ae55 9a3d 1ab9 c6bc
00000120: bf2b 20be fa68 353d ca40 5cbe 0f5a 07be
00000130: 2b98 7f3d ca07 f93d 2221 643d 93c9 a6be
00000140: b7dc 7ebd cea0 2c3e 04ef f63d 62f6 323e
00000150: 303b be3d 8940 c0bd 382d 113e 6c5a 063e
00000160: 9724 0dbe ccdf d53d 18c4 01be a5b8 c3be
00000170: 9607 233e 6d3e 01bc 2a7a 3a3e 1880 8fbe

bn.weight f4 [32]
0.9230303 0.87443566 0.9751579 1.0546885 0.8078534 0.84583414 1.087571 0.9325947
0.87975866 0.746661 0.9028261 0.5758373 0.8777282 0.9743611 0.8143956 0.65741557
1.0251759 0.47277883 0.7205611 0.71713614 0.83097196 0.73920894 0.85400206 0.8026204
0.7042041 0.813164 0.7413131 0.7368762 0.75146997 0.72622496 0.99324375 0.9474285
00000000: b74b 6c3f 04db 5f3f f3a3 793f 0800 873f
00000010: 7bcf 4e3f 9688 583f 8735 8b3f 87be 6e3f
00000020: dd37 613f 2d25 3f3f 9c1f 673f 136a 133f
00000030: ccb2 603f bb6f 793f 3b7c 503f 634c 283f
00000040: f738 833f 1110 f23e b176 383f 3c96 373f
00000050: 94ba 543f cc3c 3d3f e19f 5a3f 8878 4d3f
00000060: b846 343f 842b 503f b2c6 3d3f eba3 3c3f
00000070: 5660 403f e1e9 393f 3945 7e3f ad8a 723f

bn.bias f4 [32]
-0.22533494 -0.09231314 0.13212624 -0.03712219 0.20329188 -0.14351809 0.22743763 0.13459967
-0.21589567 0.17731664 -0.01590856 -0.18768036 0.13111638 0.046867944 0.005571385 0.065478034
-0.0390691 0.084666975 -0.06031215 -0.15880567 0.06669366 0.017708274 0.021960838 0.030335754
0.09122163 0.1308171 -0.13242899 -0.017294161 0.15820375 -0.20529178 -0.07923961 0.3021749
00000000: 34be 66be ac0e bdbd 1a4c 073e 700d 18bd
00000010: bf2b 503e 68f6 12be 69e5 683e 7fd4 093e
00000020: c113 5dbe 7e92 353e ab52 82bc 482f 40be
00000030: 5f43 063e 9af8 3f3d 2a90 b63b 5919 863d
00000040: ec06 20bd e165 ad3d df09 77bd f49d 22be
00000050: b096 883d f110 913c 37e7 b33c b082 f83c
00000060: 68d2 ba3d ebf4 053e 779b 07be 7cac 8dbc
00000070: 2a00 223e 0238 52be 6048 a2bd abb6 9a3e

bn.running_mean f4 [32]
0.036457602 0.052696448 0.065599754 -0.015623816 0.07147324 -0.06094196 0.008271457 0.15661761
-0.007807691 0.58209735 -0.104469396 -0.26147646 -0.32512146 0.025345227 0.072113454 -0.05558075
0.028316159 0.6816901 -0.34186006 0.048685588 0.23436631 -0.1089888 0.61747086 0.26916105
-0.07127434 0.82579356 -0.28345802 -0.6048395 0.7624859 -0.38854483 0.22222914 -0.07163257
00000000: 9154 153d 3bd8 573d 2a59 863d 09fb 7fbc
00000010: 9060 923d 479e 79bd 0185 073c 5e60 203e
00000020: a9d7 ffbb 5504 153f 0df4 d5bd 3ee0 85be
00000030: 5276 a6be cba0 cf3c 38b0 933d a4a8 63bd
00000040: 4af7 e73c 3e83 2e3f 4808 afbe 8a6a 473d
00000050: b9fd 6f3e 8535 dfbd 9212 1e3f 7acf 893e
00000060: 48f8 91bd 3567 533f 6921 91be c3d6 1abf
00000070: 4732 433f 59ef c6be 0990 633e 19b4 92bd

bn.running_var f4 [32]
0.0044410625 0.004626127 0.0033452667 0.017379707 0.006018565 0.0043546734 0.0057540922 0.0036898726
0.0021405935 0.0061650313 0.0050910716 0.007555251 0.008954699 0.0037482532 0.010515872 0.0053394306
0.007709453 0.004085881 0.011662557 0.015699513 0.0134523455 0.0059684496 0.009361221 0.011704734
0.005826414 0.0045039733 0.0066882856 0.0047838246 0.004727478 0.007476569 0.009746702 0.007421098
00000000: 5586 913b c496 973b 433c 5b3b e35f 8e3c
00000010: 6237 c53b a6b1 8e3b d38c bc3b cad1 713b
00000020: 3349 0c3b 0804 ca3b 01d3 a63b 0a92 f73b
00000030: bbb6 123c 41a5 753b c44a 2c3c 64f6 ae3b
00000040: 949f fc3b dbe2 853b 4f14 3f3c 449c 803c
00000050: 3a67 5c3c fc92 c33b cf5f 193c 36c5 3f3c
00000060: 81eb be3b 1196 933b 6829 db3b a1c1 9c3b
00000070: f6e8 9a3b 02fe f43b a2b0 1f3c af2c f33b

fc1.weight f4 [64, 32]
0.2081574 0.1782312 -0.18214701 0.042360295 -0.06398318 0.19543824 -0.15561153 -0.19036296
0.19191724 -0.032802854 0.26829937 0.057333086 -0.16182868 -0.187272 0.094384186 -0.23916091
-0.19662395 -0.16601864 -0.06431072 -0.07219297 0.22135253 -0.16149803 -0.21106566 -0.024225773
0.023989098 0.13782974 -0.046617888 0.043303065 -0.011557639 0.059181634 0.002895734 -0.12754527
-0.14432304 0.12402324 -0.20059772 -0.25079662 -0.22514568 -0.18060015 -0.37356427 -0.035981115
0.19331037 -0.2303392 -0.050255742 0.18911584 0.18181603 0.015069715 -0.25837824 -0.38087493
-0.13750724 -0.29967135 0.20542629 -0.027104057 -0.086036325 -0.106420495 0.16844437 0.04557394
0.003981867 -0.12708758 0.15775797 -0.07506093 -0.023136739 -0.05802962 -0.027305344 0.15419644
-0.14017029 -0.0114120785 -0.25403714 -0.21772526 -0.047331855 -0.14452972 -0.16760989 0.14987583
0.03995638 0.048580404 -0.025147105 0.029631097 0.31160682 -0.09203964 -0.19401337 -0.07957586
-0.104672015 -0.18544589 -0.007894471 -0.039934292 -0.11049866 -0.15306194 0.18373689 -0.035138503
-0.121160656 0.05406869 0.18200976 -0.120010026 -0.107958466 0.068023995 0.2045289 0.06491695
-0.12915996 0.062484775 0.13311967 -0.007349526 -0.09714236 0.013595235 0.15142801 -0.22149812
0.024736207 0.0996328 -0.0061699348 -0.063978 -0.022648368 0.08454566 0.16774966 -0.029607153
0.09207824 -0.05048913 0.09692379 -0.008903566 -0.063558556 -0.046098102 0.11052415 -0.11395037
-0.12110316 -0.04054244 -0.00021681475 0.03600871 -0.11129334 -0.098918594 0.016325766 -0.01648867
0.20499983 0.055954408 -0.18238556 0.17172533 0.00022323488 0.049107887 -0.033340108 -0.06483453
0.2031741 0.037719913 -0.18779196 -0.024639724 -0.28005993 -0.30598447 0.20456219 0.08493737
0.024918567 0.0335778 0.030258175 0.05571216 0.095694624 -0.08683541 -0.15319967 -0.05637158
-0.021238538 0.15044011 0.06669223 0.12918542 0.015354087 0.26402587 0.15354002 -0.19806446
0.13186479 0.25134358 -0.13844904 -0.07659553 -0.10831206 0.22016856 -0.0573888 0.16430576
0.1356075 -0.20260158 0.029907027 0.0021915731 -0.14275208 0.15940867 0.044061724 -0.035508055
0.29448494 0.08819849 -0.11305776 0.18375127 -0.015370032 0.015021232 -0.0626009 0.08882964
0.040276486 -0.2697022 -0.082652986 -0.05865075 0.023717508 0.036094867 -0.16219848 -0.10484927
0.15326004 -0.09468841 0.18497248 0.1424971 0.079461 -0.13267322 -0.0034889067 -0.0011632224
0.006025357 -0.15694176 0.0526954 0.056772217 -0.020761589 -0.014683789 0.19954702 0.08769341
0.11479247 -0.18786581 0.19409586 0.047517322 -0.109468795 -0.099430405 -0.029073035 0.005997674
-0.12390787 -0.20776902 0.12941284 0.06961252 -0.040969204 0.17938016 -0.15667482 -0.06392388
-0.07638869 -0.054465447 0.0094233025 -0.1651885 -0.16811216 0.17286664 0.008560826 -0.15313008
-0.086472265 0.11139073 -0.14845517 -0.16519225 -0.015826026 -0.07534262 0.13328631 0.02400346
0.037651666 0.047109593 0.18178985 0.046380226 0.18160962 0.12868619 0.06567748 -0.020903675
-0.009581132 -0.17367817 -0.1614073 -0.01728041 0.09730352 0.07010388 0.24425852 -0.031652965
00000000: 3727 553e 3d82 363e bf84 3abe fd81 2d3d
00000010: 9d09 83bd f620 483e a158 1fbe 82ee 42be
00000020: f485 443e 495c 06bd 895e 893e 19d6 6a3d
00000030: 6bb6 25be 3bc4 3fbe 7f4c c13d 99e6 74be
00000040: ca57 49be ca00 2abe 57b5 83bd e8d9 93bd
00000050: 3daa 623e bd5f 25be 9921 58be 2175 c6bc
00000060: c984 c43c 3d23 0d3e 66f2 3ebd 8e5e 313d
00000070: 405c 3dbc 7168 723d 5bc6 3d3b 3a9b 02be
00000080: 6bc9 13be e5ff fd3d 7d69 4dbe 6a68 80be
00000090: 978c 66be 3fef 38be d143 bfbe ef60 13bd
000000a0: 27f3 453e 0ade 6bbe f7d8 4dbd 95a7 413e
000000b0: fb2d 3a3e f7e6 763c 274a 84be 0a02 c3be
000000c0: b3ce 0cbe 866e 99be 455b 523e 5409 debc
000000d0: d033 b0bd fdf2 d9bd ae7c 2c3e bdab 3a3d
000000e0: 527a 823b 3f23 02be 4e8b 213e 8bb9 99bd
000000f0: 4289 bdbc 78b0 6dbd 75af dfbc ace5 1d3e
00000100: cd88 0fbe baf9 3abc 2811 82be 5ff3 5ebe
00000110: 0cdf 41bd 99ff 13be eda1 2bbe 0d79 193e
00000120: 4da9 233d 3ffc 463d 4d01 cebc eabc f23c
00000130: ee8a 9f3e 477f bcbd 71ab 46be abf8 a2bd
00000140: 485e d6bd 87e5 3dbe d057 01bc 2492 23bd
00000150: 1f4d e2bd 45bc 1cbe 8625 3c3e 64ed 0fbd
00000160: 1423 f8bd 2177 5d3d c460 3a3e d1c7 f5bd
00000170: 5419 ddbd 2a50 8b3d 0670 513e 2ef3 843d
00000180: 8242 04be 09f0 7f3d 8650 083e 4bd4 f0bb
00000190: 93f2 c6bd 8cbe 5e3c f20f 1b3e 67d0 62be
000001a0: 96a3 ca3c 480c cc3d 2a2d cabb e606 83bd
000001b0: 1289 b9bc 4626 ad3d 91c6 2b3e b38a f2bc
000001c0: 8493 bc3d b1cd 4ebd fb7f c63d 43e0 11bc
000001d0: fd2a 82bd 5dd1 3cbd 7c5a e23d d05e e9bd
000001e0: ef04 f8bd d40f 26bd c458 63b9 de7d 133d
000001f0: c3ed e3bd d595 cabd 9dbd 853c 3f13 87bc
00000200: 7aeb 513e 7330 653d 48c3 3abe c4d8 2f3e
00000210: 2814 6a39 5a25 493d a38f 08bd f7c7 84bd
00000220: df0c 503e 3280 1a3d 894c 40be 3fd9 c9bc
00000230: 0464 8fbe ffa9 9cbe c078 513e a5f3 ad3d
00000240: 0622 cc3c e088 093d fedf f73c 6f32 643d
00000250: 8bfb c33d c3d6 b1bd 60e0 1cbe e3e5 66bd
00000260: 71fc adbc f90c 1a3e f095 883d 2f49 043e
00000270: b58f 7b3c 662e 873e 9839 1d3e 69d1 4abe
00000280: 9007 073e 1bb0 803e 96c5 0dbe 1ede 9cbd
00000290: b7d2 ddbd de73 613e 8510 6bbd c53f 283e
000002a0: b1dc 0a3e ca76 4fbe 95ff f43c 7fa0 0f3b
000002b0: 9a2d 12be 073c 233e 117a 343d e570 11bd
000002c0: bbc6 963e 69a1 b43d d48a e7bd 4b29 3c3e
000002d0: 96d2 7bbc 9d1b 763c e734 80bd 50ec b53d
000002e0: f5f8 243d 6816 8abe f845 a9bd c53b 70bd
000002f0: 384b c23c 36d8 133d 5c17 26be 37bb d6bd
00000300: 33f0 1c3e ffeb c1bd 6d69 3d3e c3ea 113e
00000310: 73bc a23d 7ddb 07be 24a6 64bb 4477 98ba
00000320: 5c70 c53b 57b5 20be 22d7 573d fc89 683d
00000330: 3514 aabc 4694 70bc 0e56 4c3e 9a98 b33d
00000340: 5118 eb3d e55f 40be 11c1 463e 86a1 423d
00000350: 2d31 e0bd 2ba2 cbbd 932a eebc 2388 c43b
00000360: 69c3 fdbd 67c1 54be cd84 043e 0291 8e3d
00000370: 53cf 27bd 6faf 373e 5d6f 20be 86ea 82bd
00000380: ac71 9cbd 2917 5fbd 3264 1a3c 2d27 29be
00000390: 9825 2cbe f403 313e b542 0c3c 22ce 1cbe
000003a0: 5f18 b1bd d320 e43d a204 18be 2828 29be
000003b0: 95a5 81bc 3b4d 9abd 357c 083e e7a2 c43c
000003c0: a238 1a3d fdf5 403d 1e27 3a3e 31f9 3d3d
000003d0: dff7 393e 50c6 033e ea81 863d 2f3e abbc
000003e0: 2efa 1cbc b1d8 31be f547 25be a58f 8dbc
000003f0: 1147 c73d 9f92 8f3d e81e 7a3e 8aa6 01bd

fc1.bias f4 [64]
-0.047499236 0.030959401 -0.03550985 -0.31446168 -0.5116852 -0.2983887 0.13514042 0.064019985
-0.113537356 0.054235734 -0.2808837 -0.45514426 -0.2351731 0.029297441 0.010838253 -0.42920986
-0.24645165 -0.03990365 0.11716326 -0.07427586 -0.26084155 0.06745845 -0.3981217 0.051156078
-0.27317172 -0.18635473 -0.14358597 0.033998247 -0.601555 0.012667929 0.1351964 -0.01126363
-0.17702407 -0.17012626 -0.26314864 -0.37799993 -0.052744385 -0.22932376 -0.26158237 0.079358704
-0.09936042 -0.25055084 -0.07618654 0.025327384 0.06689237 -0.30706403 -0.09866194 -0.21136247
0.053304896 -0.32127312 -0.32851705 -0.33448362 -0.2984535 0.09715996 0.017161068 -0.21967278
-0.28352407 -0.04984735 -0.31141156 -0.13753296 0.031492494 -0.34352815 0.006293942 -0.17707239
00000000: 8f8e 42bd 929e fd3c c772 11bd 1f01 a1be
00000010: cdfd 02bf 67c6 98be 4062 0a3e e91c 833d
00000020: 4686 e8bd 4a26 5e3d fdcf 8fbe ab08 e9be
00000030: 38d1 70be 3001 f03c ee92 313c 65c1 dbbe
00000040: d25d 7cbe 0272 23bd 4bf3 ef3d f11d 98bd
00000050: 068d 85be a827 8a3d 9cd6 cbbe 0989 513d
00000060: 2add 8bbe c6d3 3ebe 3308 13be bf41 0b3d
00000070: 82ff 19bf 258d 4f3c ed70 0a3e 178b 38bc
00000080: cc45 35be 9435 2ebe 6bbb 86be 3589 c1be
00000090: 7f0a 58bd d9d3 6abe 20ee 85be d186 a23d
000000a0: 7a7d cbbd 3348 80be b007 9cbd 607b cf3c
000000b0: defe 883d 7f37 9dbe 450f cabd 676f 58be
000000c0: 3c56 5a3d e97d a4be 6333 a8be 7041 abbe
000000d0: e6ce 98be cdfb c63d 5e95 8c3c e7f1 60be
000000e0: 112a 91be bc2c 4cbd 5671 9fbe 71d5 0cbe
000000f0: 46fe 003d ece2 afbe 6a3d ce3b 7752 35be

fc2.weight f4 [2, 64]
-0.13182124 -0.19922042 -0.09132065 -0.080415875 -0.072974294 0.058757536 0.034524687 -0.00026828708
0.09524527 0.008416148 -0.052732773 -0.10844096 -0.0491089 -0.0003845157 0.12943743 0.12262064
0.01933749 0.16254084 -0.10517106 -0.037063397 -0.12640217 -0.0062010153 0.058037944 -0.13371569
-0.07628077 -0.07878463 0.049067277 -0.021994485 0.024050795 0.06795018 -0.14471988 -0.044904582
-0.10346859 -0.092433 -0.09068536 0.06693059 0.06338247 0.10642436 0.14995036 -0.023869952
0.046015635 -0.08804613 -0.16762745 0.075040884 0.055892576 -0.07742732 -0.07989718 -0.0869976
-0.14096044 -0.09213881 0.081084326 -0.080369376 -0.06089921 0.045901846 0.013231879 -0.21522583
-0.10155794 0.008346931 -0.14771102 0.124686845 -0.07238508 -0.14968005 -0.019258028 0.11722239
0.083120346 -0.029917268 0.0706951 -0.068331435 0.07218015 -0.039422076 -0.008048331 -0.061454542
0.077104814 -0.04402314 -0.081256606 0.054418236 -0.04789097 -0.0763265 -0.053094782 -0.16445342
-0.013197466 -0.07953611 0.08070267 -0.1657003 0.0065865563 -0.12175123 0.053932708 0.00094258646
-0.015591582 0.13130637 -0.15439202 -0.0028384668 -0.067337774 -0.13072243 0.023893747 -0.13275728
0.022161778 0.120978124 0.14335543 -0.07226159 0.0508043 0.1351971 -0.06721561 -0.11962573
-0.040522814 0.028977875 0.069588885 -0.052679863 -0.032349616 0.0037930124 -0.083988905 -0.08689338
0.07122073 0.22669645 -0.029684298 0.04620854 -0.015422352 -0.073404886 0.04509241 0.02410857
-0.072003745 0.035880774 0.109967776 0.08224751 -0.09996888 0.12488915 0.040781606 -0.11358372
00000000: 26fc 06be 7000 4cbe 5206 bbbd 14b1 a4bd
00000010: 8c73 95bd beab 703d c269 0d3d e2a8 8cb9
00000020: f40f c33d e2e3 093c 52fe 57bd 4b16 debd
00000030: 6a26 49bd d398 c9b9 3f8b 043e 8820 fb3d
00000040: a869 9e3c 1b71 263e ed63 d7bd cacf 17bd
00000050: 926f 01be e331 cbbb 32b9 6d3d c4ec 08be
00000060: 1839 9cbd d659 a1bd c5fa 483d c72d b4bc
00000070: 2c06 c53c 7729 8b3d 7331 14be deed 37bd
00000080: 57e7 d3bd 834d bdbd 3fb9 b9bd e812 893d
00000090: abce 813d 04f5 d93d 968c 193e eb8a c3bc
000000a0: e47a 3c3d 8851 b4bd 88a6 2bbe 09af 993d
000000b0: 9def 643d 3792 9ebd 22a1 a3bd cc2b b2bd
000000c0: ef57 10be 46b3 bcbd 8a0f a63d b398 a4bd
000000d0: 7371 79bd 9303 3c3d 86ca 583c 2964 5cbe
000000e0: 9cfd cfbd 91c1 083c 8f41 17be d15b ff3d
000000f0: a13e 94bd ba45 19be 03c3 9dbc 4b12 f03d
00000100: 003b aa3d 0f15 f5bc 98c8 903d 5af1 8bbd
00000110: 30d3 933d 0b79 21bd 26dd 03bc c2b7 7bbd
00000120: 21e9 9d3d 9c51 34bd dd69 a6bd a8e5 5e3d
00000130: 5229 44bd 1151 9cbd ea79 59bd 7a66 28be
00000140: 2f3a 58bc d4e3 a2bd 7147 a53d 57ad 29be
00000150: 0ad4 d73b b558 f9bd 8be8 5c3d e817 773a
00000160: d673 7fbc 2d75 063e f118 1ebe 9205 3abb
00000170: 63e8 89bd 1adc 05be d2bc c33c 86f1 07be
00000180: 9e8c b53c 61c3 f73d c4cb 123e e2fd 93bd
00000190: 2b18 503d 1c71 0a3e 56a8 89bd 56fe f4bd
000001a0: 40fb 25bd 0263 ed3c 9e84 8e3d d7c6 57bd
000001b0: 0881 04bd 3094 783b 6002 acbd 28f5 b1bd
000001c0: 2ddc 913d 1d23 683e 7c2c f3bc 2b45 3d3d
000001d0: 08ae 7cbc 4d55 96bd d2b2 383d 567f c53c
000001e0: b376 93bd b8f7 123d c936 e13d 6271 a83d
000001f0: 7cbc ccbd e2c5 ff3d 9d0a 273d 959e e8bd

fc2.bias f4 [2]
0.162405 -0.08928561
00000000: 7f4d 263e 60db b6bd
