rwgnn/checkpoints/model_fold_10.pt (torch, 69562 bytes, 16 tensors)

adj_hidden f4 [16, 10]
0.082692385 0.5417607 -0.35288656 0.41896343 0.63658607 -0.8880211 0.5614828 0.49234867
-0.39363098 -0.6589451 -0.70814645 0.56195736 0.80893445 0.5344422 0.33706498 0.66410625
-0.70314896 -0.7557993 0.81978667 0.2823857 -0.21135688 0.5931624 -0.5356835 -0.82357657
0.12801361 -0.9561186 0.15417564 0.31734288 -0.49314213 -0.86633146 -0.8519058 -0.56046164
0.35951662 -0.25596797 0.9564513 -0.3417064 0.64045095 -0.9724753 0.8390249 -0.7093911
-0.94547415 -0.3514235 0.10572791 -0.2895471 0.420915 0.2513839 0.80887926 0.9610045
-0.37569857 -0.43695092 -0.12445843 0.7772933 0.38663554 0.12756503 -0.7203182 -0.038034797
-0.5548816 -0.6221224 0.26076543 0.20858169 -0.9148433 0.40502048 0.4869082 0.6468494
-0.51292694 0.78208697 -0.534052 -0.31288242 0.19438732 -0.02246368 -0.56825507 0.29158163
0.99324226 -0.8466648 0.48858154 -0.20095432 -0.15622354 -0.58155835 0.057589054 0.36599684
-0.040665984 -0.68256676 0.23420799 0.5765041 -0.4018221 0.21695161 0.6552242 0.7421099
0.96240854 -0.45023906 0.20685172 0.5324174 0.10095203 0.28585005 -0.7021748 -0.7123685
0.523188 -0.029605865 0.9154813 0.090458035 -0.9076879 -0.88248956 -0.119742274 0.5333507
-0.5607089 -0.40270054 -0.13941109 -0.53239715 -0.5343944 0.15212178 0.954245 0.37714708
-0.9470172 -0.14316177 0.49143493 -0.82847726 -0.3279178 -0.9503957 0.3917446 0.72242343
-0.9009359 0.11196065 -0.68483806 -0.3006506 0.8637693 -0.54230785 0.13273609 0.1097312
-0.074560285 0.47228456 -0.73653996 0.8562056 0.3935616 0.9662926 0.5829165 0.44614053
-0.9216714 -0.9362807 0.6957269 0.9528816 -0.9112387 -0.8520583 -0.35808647 -0.8323914
0.8920251 0.6225413 -0.47348642 0.45791018 -0.02298665 -0.32226777 -0.52718484 -0.116609335
0.15028036 0.415038 -0.9064163 0.21363008 -0.39578664 0.3807553 -0.3953805 -0.57900727
00000000: a05a a93d d4b0 0a3f 8cad b4be 6082 d63e
00000010: 4ef7 223f 5a55 63bf 56bd 0f3f 2015 fc3e
00000020: 008a c9be a0b0 28bf 1649 35bf 70dc 0f3f
00000030: 5416 4f3f 34d1 083f c893 ac3e de02 2a3f
00000040: 9201 34bf 107c 41bf 8add 513f dc94 903e
00000050: f06d 58be 7ed9 173f 8e22 09bf ead5 52bf
00000060: 0016 033e 30c4 74bf 38e0 1d3e c47a a23e
00000070: 207d fcbe e6c7 5dbf 8016 5abf 6a7a 0fbf
00000080: 9012 b83e 3c0e 83be fed9 743f 24f4 aebe
00000090: 98f4 233f 24f4 78bf 56ca 563f a89a 35bf
000000a0: 980a 72bf c8ed b3be e087 d83d 843f 94be
000000b0: 2c82 d73e 64b5 803e b612 4f3f 6404 763f
000000c0: 905b c0be 08b8 dfbe 10e4 febd b2fc 463f
000000d0: 18f5 c53e 68a0 023e c666 38bf 60ca 1bbd
000000e0: b80c 0ebf 6a43 1fbf 0c83 853e 7096 553e
000000f0: 2c33 6abf d85e cf3e 084c f93e ec97 253f
00000100: 2e4f 03bf da36 483f a2b7 08bf 2032 a0be
00000110: 780d 473e c005 b8bc 2a79 11bf 304a 953e
00000120: 2045 7e3f 06bf 58bf 5c27 fa3e f8c6 4dbe
00000130: 10f9 1fbe 02e1 14bf 80e2 6b3d f063 bb3e
00000140: 6091 26bd b2bc 2ebf 38d4 6f3e c695 133f
00000150: a0bb cdbe 9028 5e3e c6bc 273f eafa 3d3f
00000160: 6860 763f bc85 e6be f0d0 533e 824c 083f
00000170: f0bf ce3d f05a 923e bac1 33bf c85d 36bf
00000180: a6ef 053f 0088 f2bc fc5c 6a3f 1042 b93d
00000190: 3c5e 68bf d6ea 61bf 703b f5bd ac89 083f
000001a0: 9e8a 0fbf c42e cebe c8c1 0ebe 2e4b 08bf
000001b0: 12ce 08bf d0c5 1b3e 6649 743f 6c19 c13e
000001c0: b86f 72bf 0099 12be 5c9d fb3e 1617 54bf
000001d0: d8e4 a7be 224d 73bf c092 c83e bef0 383f
000001e0: bca3 66bf a04b e53d 8c51 2fbf e0ee 99be
000001f0: fc1f 5d3f b0d4 0abf f8eb 073e c0ba e03d
00000200: 10b3 98bd 48cf f13e e28d 3cbf 4a30 5b3f
00000210: e880 c93e f45e 773f 043a 153f 886c e43e
00000220: a8f2 6bbf 18b0 6fbf 281b 323f 0cf0 733f
00000230: f046 69bf 7e20 5abf 1c57 b7be 9a17 55bf
00000240: c25b 643f de5e 1f3f d06c f2be 3473 ea3e
00000250: 804e bcbc 4800 a5be 96f5 06bf e0d0 eebd
00000260: 18e3 193e dc7f d43e e60a 68bf d8c1 5a3e
00000270: 8ca4 cabe 5cf2 c23e 506f cabe d239 14bf

features_hidden f4 [16, 5, 32]
0.08450681 0.6343305 0.2773615 0.09831059 0.5658986 0.23611838 0.3838573 0.6137635
0.34219354 0.21464902 0.7934683 0.64331496 0.37690657 0.7181959 0.022680998 0.5201807
0.28459108 0.96112716 0.898618 0.29160583 0.6007059 0.8410891 0.21983045 0.58960855
0.8454649 0.82454664 0.25388676 0.24241072 0.5471848 0.15185952 0.3956713 0.95756733
0.6104717 0.49614835 0.023597777 0.63375056 0.48892725 0.35649508 0.7279288 0.5985773
0.028240561 0.55307907 0.56897795 0.8150543 0.9467069 0.8635835 0.92665774 0.46279633
0.6460142 0.7205363 0.0077382326 0.699083 0.8369316 0.79749554 0.9711098 0.15193677
0.13658959 0.20306945 0.75567234 0.5935682 0.7079253 0.32381916 0.48928684 0.4670844
0.9441792 0.28429753 0.19088715 0.6290276 0.033073425 0.19110495 0.4842518 0.90475774
0.5540986 0.54799294 0.061522245 0.42933935 0.08435738 0.12197876 0.46206188 0.6563575
0.6338954 0.025616825 0.22841424 0.8371379 0.7906423 0.097791314 0.31547827 0.29117113
0.81480616 0.37538093 0.3045653 0.48383486 0.70136744 0.23957813 0.37717867 0.33950764
0.5466274 0.8314563 0.81159675 0.08697313 0.62863857 0.6484531 0.40542024 0.22231185
0.5306795 0.46531636 0.044371247 0.63549495 0.11262202 0.38091207 0.24952054 0.042199016
0.42162406 0.06418902 0.6136718 0.3978305 0.9025775 0.21903771 0.6325009 0.73987466
0.9390675 0.31642753 0.41684383 0.42428392 0.76670253 0.14365327 0.9280212 0.6789844
0.039051652 0.0148435235 0.06040895 0.89398193 0.4081605 0.03438002 0.9346538 0.86473686
0.3999542 0.40520012 0.9252619 0.99407405 0.9946773 0.7616626 0.28671432 0.8878296
0.9216252 0.48438996 0.4325649 0.19998819 0.79387194 0.63419497 0.5235934 0.68819267
0.56653774 0.22187346 0.9769978 0.74629766 0.8954098 0.17687649 0.799045 0.5060603
0.09761059 0.18576044 0.19157761 0.99045163 0.77621555 0.5800604 0.14171225 0.45821232
0.8502392 0.05458808 0.46863878 0.0958944 0.9761165 0.49935418 0.8232351 0.33933467
0.14314324 0.86859745 0.033866882 0.8439576 0.17105258 0.3727948 0.010892093 0.48715252
0.5833249 0.61585397 0.6210411 0.4655437 0.12813455 0.3113616 0.018216968 0.14756364
0.6777514 0.20807892 0.49859762 0.80988383 0.76415706 0.849179 0.44983977 0.35219467
0.997103 0.91461444 0.12294358 0.43335664 0.08873552 0.42556363 0.063782215 0.7125058
0.119172156 0.4285922 0.32807893 0.18586713 0.037404597 0.17526323 0.9430628 0.29350066
0.94155705 0.06978232 0.7766382 0.9449043 0.905445 0.20028752 0.61225796 0.024064958
0.13375372 0.575563 0.56365174 0.7646061 0.91838557 0.70391417 0.95195615 0.4074
0.43804675 0.4085344 0.027393341 0.23211259 0.9765598 0.23203635 0.12478763 0.69021225
0.40274388 0.595578 0.038904965 0.38289034 0.40164196 0.5386862 0.06601912 0.8394574
0.5540215 0.5559119 0.27630943 0.16812247 0.94257796 0.101894796 0.44486314 0.8526866
00000000: e811 ad3d 7c63 223f 5402 8e3e 1057 c93d
00000010: bbde 103f 04c9 713e f288 c43e 9b1f 1d3f
00000020: fe33 af3e f4cc 5b3e bd20 4b3f 4ab0 243f
00000030: e6f9 c03e b0db 373f 80cd b93c 902a 053f
00000040: ecb5 913e 6e0c 763f d40b 663f 5c4d 953e
00000050: ddc7 193f 9e51 573f 3c1b 613e 96f0 163f
00000060: 6370 583f 7d15 533f 72fd 813e 843a 783e
00000070: 4e14 0c3f 1081 1b3e 6e95 ca3e 2223 753f
00000080: e047 1c3f 2807 fe3e 2050 c13c 7a3d 223f
00000090: ac54 fa3e 8686 b63e 8b59 3a3f 5d3c 193f
000000a0: c058 e73c 9796 0d3f 8aa8 113f 66a7 503f
000000b0: 625b 723f cf13 5d3f 7139 6d3f a4f3 ec3e
000000c0: 3061 253f 1175 383f 0091 fd3b 1af7 323f
000000d0: 2641 563f ab28 4c3f a79a 783f 5095 1b3e
000000e0: 24de 0b3e 70f1 4f3e be73 413f 16f4 173f
000000f0: 983a 353f a0cb a53e ce83 fa3e b025 ef3e
00000100: bab5 713f 728f 913e ec77 433e f407 213f
00000110: 0078 073d 04b1 433e daef f73e 349e 673f
00000120: 68d9 0d3f 4449 0c3f c0fe 7b3d 5ed2 db3e
00000130: 90c3 ac3d 00d0 f93d 6093 ec3e 0c07 283f
00000140: f846 223f 60da d13c 6ce5 693e ab4e 563f
00000150: 8967 4a3f d046 c83d 5e86 a13e 6214 953e
00000160: 2397 503f ee31 c03e fcef 9b3e 34b9 f73e
00000170: d18c 333f f853 753e 901d c13e f2d3 ad3e
00000180: c6ef 0b3f 52da 543f cec4 4f3f f81e b23d
00000190: 75ee 203f 0601 263f 3e93 cf3e b8a5 633e
000001a0: 9dda 073f f23d ee3e a0be 353d ccaf 223f
000001b0: 60a6 e63d e806 c33e 5082 7f3e e0d8 2c3d
000001c0: 1cdf d73e 8875 833d 9819 1d3f 70b0 cb3e
000001d0: 520f 673f 6c4b 603e 94eb 213f 6d68 3d3f
000001e0: ba66 703f ca02 a23e 8e6c d53e be3b d93e
000001f0: 9e46 443f d819 133e cc92 6d3f ecd1 2d3f
00000200: a0f4 1f3d 4032 733c 606f 773d 00dc 643f
00000210: 6afa d03e 10d2 0c3d 7945 6f3f 655f 5d3f
00000220: ccc6 cc3e 6476 cf3e f7dd 6c3f a37b 7e3f
00000230: 2ca3 7e3f 52fc 423f 38cc 923e cd48 633f
00000240: a1ef 6b3f f601 f83e 2679 dd3e b4c9 4c3e
00000250: 313b 4b3f 9a5a 223f 380a 063f 652d 303f
00000260: 9e08 113f cc32 633e 871c 7a3f 5d0d 3f3f
00000270: 9439 653f 1c1f 353e 378e 4c3f 2b8d 013f
00000280: 10e8 c73d fc37 3e3e ec2c 443e 3d8e 7d3f
00000290: 10b6 463f d77e 143f 041d 113e ce9a ea3e
000002a0: 47a9 593f c097 5f3d 6cf1 ef3e 4864 c43d
000002b0: c5e2 793f 5aab ff3e 89bf 523f 46bd ad3e
000002c0: 2494 123e 675c 5e3f 00b8 0a3d 9b0d 583f
000002d0: 6828 2f3e f6de be3e c074 323c 0e6c f93e
000002e0: c854 153f 9ba8 1d3f 8dfc 1e3f be5b ee3e
000002f0: b435 033e ca6a 9f3e c03b 953c ec1a 173e
00000300: 1e81 2d3f a412 553e 3048 ff3e 8c54 4f3f
00000310: cc9f 433f cc63 593f 6651 e63e dc52 b43e
00000320: 2442 7f3f 2c24 6a3f d8c9 fb3d ece0 dd3e
00000330: f8ba b53d 7ae3 d93e 40a0 823d c866 363f
00000340: 8810 f43d 7070 db3e f6f9 a73e f453 3e3e
00000350: 9035 193d 3478 333e 906c 713f b845 963e
00000360: e209 713f 08ea 8e3d c3d1 463f 40e5 713f
00000370: 3ecb 673f 2c18 4d3e f0bc 1c3f e023 c53c
00000380: bcf6 083e 1958 133f 7b4b 103f 3abd 433f
00000390: 511b 6b3f b833 343f 66b3 733f bc96 d03e
000003a0: aa47 e03e 6c2b d13e 0068 e03c ecae 6d3e
000003b0: d3ff 793f f09a 6d3e a890 ff3d c0b1 303f
000003c0: 7234 ce3e cd77 183f d05a 1f3d 340a c43e
000003d0: 04a4 cd3e 57e7 093f 0835 873d aee6 563f
000003e0: 5ad4 0d3f 3e50 0e3f 6e78 8d3e 4c28 2c3e
000003f0: ca4c 713f 38ae d03d 1ac5 e33e ab49 5a3f

walk_encoder.feature_encoder.weight f4 [32, 136]
-0.01691735 -0.2660446 0.39894834 0.20513128 -0.034651086 0.02786949 0.052300647 0.060059458
-0.1261131 0.030958902 -0.067612335 -0.12397728 -0.024732059 0.047921233 0.041668564 0.012993394
-0.04353642 -0.15132907 -0.11671696 -0.18419477 0.057100106 -0.24834412 -0.27897647 -0.023856165
0.14391552 0.060693227 0.15759772 0.03916945 -0.25334302 0.10739761 -0.31142008 -0.31092116
-0.058260452 -0.24230202 -0.18250826 0.024539484 -0.014277739 -0.052164305 0.32182896 -0.19320318
-0.26318213 0.0017568651 0.01902211 -0.32427496 -0.054870162 0.03060748 0.07896337 0.037557203
0.1320168 0.04935367 0.13399996 -0.04480061 0.055481862 0.046725612 0.029971085 -0.32178774
-0.25800768 -0.2744274 0.25154862 -0.11448911 -0.2356758 -0.003184924 -0.22736222 -0.2129477
0.019847894 -0.16664742 -0.040117927 0.06352219 0.027764289 -0.057294592 0.0341315 -0.38825843
0.0671314 -0.0112494035 -0.055420388 -0.016618516 0.06140566 0.08051376 0.051698793 0.060323495
-0.061815392 -0.034997344 -0.00838392 -0.056293827 -0.066036195 0.043746613 -0.15826544 -0.0034984564
-0.07690709 -0.029327791 0.076189145 0.062957056 -0.012510322 -0.02325647 -0.027243176 -0.0062259613
-0.039843503 -0.07123713 0.009767289 0.009293086 0.024916142 0.027487617 -0.07736281 0.053337388
0.07579535 -0.03284937 0.0830533 0.044949673 0.049801894 -0.031574715 0.08574739 -0.016984398
0.011370055 -0.004882111 0.08410656 0.08227259 -0.0061377957 0.06642217 0.05502433 0.031030836
0.046734013 0.00043257934 0.068493985 0.010800826 -0.030048102 -0.07216545 0.010708439 0.0847083
-0.013669243 0.0074463794 -0.054083783 0.07521487 0.05433352 -0.07522659 0.0031348048 -0.08332411
-0.024617177 -0.05716001 0.4412755 -0.023752732 -0.089689925 -0.062716044 -0.0432111 -0.16006087
0.04843746 -0.11158705 -0.09794091 -0.019613456 -0.0090684565 -0.053005293 -0.027794683 -0.0443302
0.082991764 0.151651 -0.015795745 0.005081603 -0.0006485669 0.040429536 0.14167008 0.16350444
0.2132458 0.35209337 -0.039942887 -0.0918326 0.041450545 -0.15424676 0.68354326 0.2728427
-0.06576182 -0.134484 0.11602163 0.072672874 0.18925217 0.11872011 0.06165012 0.42573005
0.21340217 0.15507275 0.48268872 0.28541932 0.16949534 0.3906852 0.021317601 -0.0773776
0.35979274 0.0864271 -0.0990657 0.18139173 -0.040839247 -0.034438644 0.13675487 0.23392469
0.31584126 0.32824472 0.10085525 0.20035288 0.22963803 0.07003078 0.33186546 0.17329977
0.12206832 0.04740581 -0.03083722 0.01148715 0.065571636 0.0652665 0.06317235 0.080173686
-0.03550766 -0.056709394 0.03276461 -0.012715919 0.021111697 -0.0620841 -0.02414885 -0.0134068625
-0.05311815 0.03303944 -0.0030017027 0.12449722 0.08025276 0.0506816 0.105692096 -0.085721426
0.038817663 0.013509482 0.02708317 0.013580975 0.05573634 -0.03945167 0.019006219 0.014387152
-0.01435623 0.059376057 -0.059083123 -0.07210247 -0.047856227 -0.026383098 -0.07380065 -0.069489725
-0.0136539 -0.052926376 0.053736262 0.009780721 0.048501734 0.08480922 -0.059288986 -0.030926447
-0.030229025 -0.04705001 -0.012261986 -0.051951032 0.027863853 -0.067904845 0.023588188 0.053325724
00000000: 4196 8abc ff36 88be f542 cc3e ef0d 523e
00000010: 4cee 0dbd 8f4e e43c 3439 563d e800 763d
00000020: cb23 01be 869d fd3c 5678 8abd cde7 fdbd
00000030: e39a cabc 0e49 443d a8ac 2a3d 3fe2 543c
00000040: 3f53 32bd 02f6 1abe 4d09 efbd 8e9d 3cbe
00000050: cde1 693d ec4d 7ebe 01d6 8ebe 016e c3bc
00000060: 975e 133e 7699 783d 4c61 213e 2570 203d
00000070: 2db6 81be 47f3 db3d 7472 9fbe 0f31 9fbe
00000080: 83a2 6ebd 051e 78be 72e3 3abe 0707 c93c
00000090: 2eed 69bc 3daa 55bd c4c6 a43e 0ed7 45be
000000a0: cfbf 86be 9c46 e63a 42d4 9b3c 5e07 a6be
000000b0: 89bf 60bd 8abc fa3c 8cb7 a13d 95d5 193d
000000c0: 692f 073e 1327 4a3d 4937 093e d880 37bd
000000d0: f340 633d 5b63 3f3d ec85 f53c 5dc1 a4be
000000e0: 9519 84be c081 8cbe fbca 803e 4479 eabd
000000f0: ff54 71be 28ba 50bb a4d1 68be f60e 5abe
00000100: 0d98 a23c 9fa5 2abe b252 24bd ec17 823d
00000110: ef71 e33c bcad 6abd 79cd 0b3d cfc9 c6be
00000120: 307c 893d 6b4f 38bc 7d00 63bd 8e23 88bc
00000130: 8084 7b3d 66e4 a43d 1dc2 533d c515 773d
00000140: 2332 7dbd 6059 0fbd b65c 09bc 5b94 66bd
00000150: fc3d 87bd a62f 333d 5610 22be 5c46 65bb
00000160: 7781 9dbd d640 f0bc 0e09 9c3d a1ef 803d
00000170: 18f8 4cbc 5a84 bebc 152d dfbc 2603 ccbb
00000180: f132 23bd c6e4 91bd fb06 203c 0742 183c
00000190: f01c cc3c b62d e13c 6570 9ebd 4e78 5a3d
000001a0: 983a 9b3d 108d 06bd d917 aa3d 261d 383d
000001b0: 12fd 4b3d 7d54 01bd 549c af3d dd22 8bbc
000001c0: 7849 3a3c 1efa 9fbb 0f40 ac3d 887e a83d
000001d0: 901f c9bb 5908 883d 3161 613d 6134 fe3c
000001e0: 2a6c 3f3d d1cb e239 9346 8c3d f3f5 303c
000001f0: 7027 f6bc 7bcb 93bd 7372 2f3c 8c7b ad3d
00000200: f6f4 5fbc c200 f43b f586 5dbd 410a 9a3d
00000210: d38c 5e3d 6610 9abd 4c71 4d3b d5a5 aabd
00000220: f6a9 c9bc 9d20 6abd ddee e13e 1795 c2bc
00000230: 5aaf b7bd 4571 80bd 1ffe 30bd ffe6 23be
00000240: 5c66 463d c087 e4bd 3e95 c8bd 66ac a0bc
00000250: dd93 14bc 141c 59bd adb1 e3bc 9593 35bd
00000260: 96f7 a93d 664a 1b3e 1466 81bc 9383 a63b
00000270: 9604 2aba 7199 253d f611 113e b56d 273e
00000280: 1b5d 5a3e 9545 b43e 279b 23bd bb12 bcbd
00000290: 0cc8 293d ddf2 1dbe b1fc 2e3f 0ab2 8b3e
000002a0: 22ae 86bd 2cb6 09be c09c ed3d 84d5 943d
000002b0: 52cb 413e 8723 f33d d684 7c3d 4af9 d93e
000002c0: 1986 5a3e 64cb 1e3e fa22 f73e 7b22 923e
000002d0: 3090 2d3e e407 c83e 40a2 ae3c 2678 9ebd
000002e0: c136 b83e b100 b13d f5e2 cabd c1be 393e
000002f0: 0e47 27bd 890f 0dbd 7809 0c3e f489 6f3e
00000300: f2b5 a13e b10f a83e 338d ce3d 4e29 4d3e
00000310: 3b26 6b3e 4c6c 8f3d 45ea a93e 7f75 313e
00000320: f5fe f93d 982c 423d 569e fcbc 9934 3c3c
00000330: 6c4a 863d 71aa 853d 8160 813d 1a32 a43d
00000340: 7b70 11bd 1c48 68bd 2f34 063d 6e56 50bc
00000350: 70f2 ac3c e64b 7ebd cfd3 c5bc 75a8 5bbc
00000360: 6b92 59bd 5d54 073d 37b8 44bb 66f8 fe3d
00000370: 8f5b a43d 8297 4f3d 1975 d83d b78e afbd
00000380: 45ff 1e3d e056 5d3c 86dd dd3c bd82 5e3c
00000390: ca4b 643d 1398 21bd eeb2 9b3c 17b8 6b3c
000003a0: 6536 6bbc 4f34 733d 2501 72bd 76aa 93bd
000003b0: e404 44bd 5e21 d8bc cc24 97bd a150 8ebd
000003c0: 9bb4 5fbc 54c9 58bd 8e1a 5c3d 513f 203c
000003d0: c1a9 463d 75b0 ad3d 02d9 72bd 7659 fdbc
000003e0: dca2 f7bc 83b7 40bd 7fe6 48bc 9bca 54bd
000003f0: bc42 e43c b211 8bbd 043c c13c 136c 5a3d

walk_encoder.feature_encoder.bias f4 [32]
0.13182805 -0.42082438 -0.12027513 0.11090755 -0.051322915 0.1424185 -0.00091316656 -0.27963287
0.14299814 0.11154669 0.17847861 -0.113174915 0.008476829 -0.0019319153 0.15102689 0.19117469
0.07026565 -0.041575674 -0.15552941 -0.022840984 -0.22001265 -0.0040471572 0.03625369 -0.006071845
-0.1765221 0.03792166 0.20010044 -0.048493978 0.09817937 -0.053606942 -0.013419488 0.18910319
00000000: effd 063e 4b76 d7be cf52 f6bd 7f23 e33d
00000010: fa37 52bd 28d6 113e 9261 6fba 0a2c 8fbe
00000020: 1b6e 123e 9772 e43d 19c3 363e 40c8 e7bd
00000030: 66e2 0a3c 5238 fdba cba6 1a3e 4cc3 433e
00000040: 70e7 8f3d 414b 2abd 1a43 1fbe 041d bbbc
00000050: ff4a 61be 049e 84bb c07e 143d 54f6 c6bb
00000060: 36c2 34be be53 1b3d 21e7 4c3e 9fa1 46bd
00000070: 4412 c93d f492 5bbd 6add 5bbc 44a4 413e

walk_encoder.path_encoder.weight_ih_l0 f4 [96, 32]
0.2200683 -0.40052152 -0.059838764 -0.07921128 0.12976822 0.050313517 -0.18394388 -0.20036007
-0.004273889 0.1534351 0.09178549 0.18933026 0.16356096 0.13700564 0.2671855 -0.04653071
-0.097856835 -0.02349546 -0.014618983 0.15666947 -0.18691054 0.15485525 0.08304617 0.078800075
-0.143376 0.21854018 -0.123901404 0.041286454 0.18571791 -0.15781505 0.04081391 0.10087386
-0.048835576 0.023897508 -0.13374801 0.09983674 -0.21975546 0.11244821 0.15224157 0.044646643
0.2019172 -0.0011109168 -0.20085433 -0.03865546 -0.18264736 0.17268902 0.036592968 0.16085461
-0.054767545 0.022808252 -0.20192303 0.08186607 0.049670376 0.0446455 0.0097081335 -0.1073913
-0.12425461 -0.08077326 -0.10888402 0.064432316 0.04128658 -0.10569282 -0.08315949 -0.06812415
0.028262636 -0.03939239 0.16748859 -0.03025941 0.16592991 0.047970105 0.13187836 -0.069147676
-0.14888714 0.036739442 -0.067127496 -0.06920047 -0.12449293 0.08705364 -0.0058545345 0.06956872
-0.05059993 -0.08270575 -0.08254307 0.013362929 0.1953133 -0.16747126 0.031633742 -0.2839597
-0.1657315 0.07239275 0.19811247 0.037020408 -0.20306192 0.09569697 -0.050030608 -0.21128924
0.0491721 0.10944577 0.28122067 -0.0068351342 0.17023824 -0.004132387 0.096905775 0.26392493
0.015009759 -0.0031397184 -0.16681606 -0.020784402 -0.06932303 0.07798166 0.10923028 -0.1245072
-0.023874216 -0.13090791 -0.03282647 0.006647957 0.12136392 0.04455112 -0.06938622 -0.2657548
0.101907074 -0.05355699 -0.081956364 0.06886177 -0.1466801 -0.012096418 0.1812401 -0.1660267
-0.13019145 0.04764298 0.20377916 -0.15998884 0.05462788 -0.052753262 0.06294755 -0.032162372
-0.004766427 0.074612856 -0.09390874 -0.049343564 0.17488588 0.051877204 -0.044033065 -0.1466737
-0.2111901 -0.041003674 -0.0823716 0.3215409 -0.095969975 -0.085865855 0.022585973 -0.06949571
0.12025027 0.016541855 -0.13051899 -0.1953098 -0.118815035 0.02503378 0.22244814 -0.1086335
0.23909536 -0.14104934 -0.1783335 -0.23155476 0.15749355 -0.12995306 -0.28481215 -0.21363609
0.07662905 -0.03882301 0.14564067 -0.02873082 -0.0033756918 -0.14797272 0.15871224 0.06263557
-0.056548826 -0.10389912 -0.0789659 -0.16058515 -0.05667483 -0.18378463 0.14103614 0.18164471
0.10383974 -0.10102794 0.07708533 -0.0038239057 -0.056082577 0.077615716 0.032303717 0.22322235
-0.020435257 0.0047693895 -0.24837759 -0.25227457 -0.062365457 -0.009697713 -0.14493781 -0.006082418
0.07836733 -0.34644726 0.09810033 -0.071092546 -0.18995392 0.019975549 0.063153744 -0.13763852
-0.09795099 0.02226465 0.22177577 0.119218476 -0.20977746 -0.13341206 -0.1827477 -0.06372183
-0.11271031 0.3078729 0.015100911 0.06991471 -0.13729355 0.07466895 -0.20178585 0.15103146
-0.007983567 0.23367089 0.06305707 0.12829737 -0.00890281 0.05807065 -0.08366184 0.21676409
-0.21170926 -0.26940796 -0.23435803 0.039308187 0.15655066 0.0040158513 -0.12265817 -0.20991768
-0.23113595 0.056715794 0.10579725 -0.17874314 -0.02405216 0.14581276 0.02715974 0.16772035
-0.07150136 -0.06590075 -0.019210206 0.2781481 -0.07081699 -0.23744185 -0.06928642 -0.012553923
00000000: 9659 613e 2811 cdbe 7e19 75bd 8639 a2bd
00000010: f6e1 043e 8c15 4e3d c95b 3cbe 312b 4dbe
00000020: fb0b 8cbb 171e 1d3e 08fa bb3d cbdf 413e
00000030: 867c 273e 354b 0c3e 8acc 883e fc96 3ebd
00000040: 2a69 c8bd 8d79 c0bc 7584 6fbc f66d 203e
00000050: 7a65 3fbe 6092 1e3e 1c14 aa3d ef61 a13d
00000060: 28d1 12be ffc8 5f3e 05c0 fdbd fc1b 293d
00000070: d62c 3e3e 459a 21be 7d2c 273d f496 ce3d
00000080: d007 48bd b5c4 c33c 3df5 08be 3477 cc3d
00000090: 9307 61be 3f4b e63d 37e5 1b3e 66df 363d
000000a0: 62c3 4e3e 2f9c 91ba c2ac 4dbe 3055 1ebd
000000b0: e907 3bbe 64d5 303e 82e2 153d 12b7 243e
000000c0: ef53 60bd 5fd8 ba3c e9c4 4ebe 66a9 a73d
000000d0: 2a73 4b3d 33de 363d dd0e 1f3c f8ef dbbd
000000e0: 3379 febd 736c a5bd 96fe debd 17f5 833d
000000f0: 1e1c 293d 7a75 d8bd 864f aabd ad84 8bbd
00000100: 0b87 e73c ea59 21bd 2182 2b3e 95e2 f7bc
00000110: 88e9 293e 4d7c 443d 1f0b 073e 4c9d 8dbd
00000120: df75 18be 197c 163d 247a 89bd fab8 8dbd
00000130: 26f6 febd 2e49 b23d 65d7 bfbb 0c7a 8e3d
00000140: df41 4fbd a261 a9bd 570c a9bd 30f0 5a3c
00000150: 3600 483e 967d 2bbe 6292 013d 2a63 91be
00000160: 85b5 29be a642 943d ffdd 4a3e b6a2 173d
00000170: 77ef 4fbe c6fc c33d e5ec 4cbd 355c 58be
00000180: af68 493d 1b25 e03d 28fc 8f3e 43f9 dfbb
00000190: ef52 2e3e fa68 87bb 8976 c63d 2b21 873e
000001a0: 7eeb 753c bcc3 4dbb d4d1 2abe 0d44 aabc
000001b0: 3cf9 8dbd d9b4 9f3d 20b4 df3d a2fd febd
000001c0: dc93 c3bc b90c 06be 0c75 06bd 1bd7 d93b
000001d0: a68d f83d 3c7b 363d 5d1a 8ebd 0311 88be
000001e0: a8b4 d03d 935e 5bbd bdd8 a7bd 6607 8d3d
000001f0: 4f33 16be 0e30 46bc 0197 393e e702 2abe
00000200: e850 05be 4925 433d 7cab 503e 1dd4 23be
00000210: 7cc1 5f3d ce13 58bd a5ea 803d b1bc 03bd
00000220: b02f 9cbb a0ce 983d 3a53 c0bd 7a1c 4abd
00000230: 4915 333e 317d 543d 045c 34bd a131 16be
00000240: 3842 58be 78f3 27bd 71b2 a8bd 02a1 a43e
00000250: e88b c4bd 70da afbd 3806 b93c c453 8ebd
00000260: c645 f63d c982 873c c5a6 05be 4bff 47be
00000270: 4c55 f3bd a413 cd3c 72c9 633e 3e7b debd
00000280: 6ad5 743e 3d6f 10be 0f9d 36be b11c 6dbe
00000290: fd45 213e 6a12 05be e6d2 91be 6bc3 5abe
000002a0: b1ef 9c3d e004 1fbd d422 153e e65c ebbc
000002b0: b63a 5dbb 2986 17be 7685 223e 1447 803d
000002c0: be9f 67bd 10c9 d4bd e0b8 a1bd 6f70 24be
000002d0: de23 68bd 0a32 3cbe c76b 103e 1201 3a3e
000002e0: eea9 d43d bde7 cebd eade 9d3d 7e9a 7abb
000002f0: d8b6 65bd fdf4 9e3d e750 043d 6694 643e
00000300: d767 a7bc 8a48 9c3b b256 7ebe 222a 81be
00000310: ec72 7fbd 28e3 1ebc 946a 14be 054f c7bb
00000320: 0d7f a03d 8961 b1be d3e8 c83d f898 91bd
00000330: 4883 42be c3a3 a33c c056 813d 1df1 0cbe
00000340: 879a c8bd 5b64 b63c 3019 633e d128 f43d
00000350: e7cf 56be 2c9d 08be 3722 3bbe 9780 82bd
00000360: aad4 e6bd 84a1 9d3e d069 773c 722f 8f3d
00000370: ae96 0cbe 09ec 983d f3a0 4ebe fea7 1a3e
00000380: 82cd 02bc 6c47 6f3e 1124 813d 6360 033e
00000390: 17dd 11bc 7ddb 6d3d e656 abbd 68f7 5d3e
000003a0: 50ca 58be d7ef 89be 8dfb 6fbe 9f01 213d
000003b0: d14e 203e 6797 833b 3534 fbbd a9f4 56be
000003c0: e7ae 6cbe d24e 683d 3bac d83d 7108 37be
000003d0: 0909 c5bc f14f 153e 1a7e de3c e2be 2b3e
000003e0: 4e6f 92bd f9f6 86bd b95e 9dbc 6e69 8e3e
000003f0: 8008 91bd f523 73be 0ae6 8dbd f8ae 4dbc

walk_encoder.path_encoder.weight_hh_l0 f4 [96, 32]
-0.13364148 0.062891774 -0.25965932 -0.0742169 -0.09864639 0.25491765 0.14324456 -0.12747549
-0.075486705 0.013273018 -0.11809956 -0.12821677 0.084864244 0.27080777 0.22271943 0.07019873
0.05711391 -0.0840635 -0.1517256 -0.07473988 0.2925519 0.08685448 0.1140327 0.09707012
-0.08593974 0.009141315 -0.21025424 -0.16545819 -0.017566081 -0.21245581 -0.093413055 -0.0022947888
0.111729816 -0.20308 -0.10650543 -0.13116962 0.26032203 -0.21131006 0.09709099 -0.04919496
-0.013360413 -0.09281507 -0.10558623 -0.043357074 -0.16411018 -0.1188629 -0.19980471 -0.17803782
0.13276881 0.18280514 -0.14934656 0.080061495 -0.25725296 0.08742138 -0.027433775 -0.14880599
-0.124970675 -0.027279446 -0.13726182 -0.045086276 0.22123705 0.06971817 0.10594899 -0.105347276
0.17315558 0.06518047 0.08333184 0.10672271 -0.2338196 -0.19520982 0.05814048 0.20611686
0.08465016 0.00096832967 0.075548895 0.11622786 -0.007797487 -0.0053242384 -0.04405745 0.01884029
0.20998834 -0.080596335 0.06118529 -0.07560255 -0.045693617 0.17757504 0.075240284 -0.049413692
0.05755138 -0.2569542 0.18300512 -0.10999461 0.009725146 0.038685214 -0.08542745 0.14369047
0.23012099 0.082206495 -0.12057164 0.011738792 0.015686594 -0.08476912 -0.09764561 0.08397298
-0.00707126 0.11778666 -0.05334042 0.067293316 0.072074085 0.16988963 -0.08772291 -0.053038202
0.023375927 0.12509893 0.013715652 -0.064681046 0.013109216 0.12924205 -0.165971 -0.051672075
0.13934828 -0.00074489997 -0.11619826 0.23734795 0.024422808 0.03108876 -0.07724405 0.05513715
-0.099013515 -0.19956705 -0.10819711 0.0020497434 -0.013143226 -0.14617898 0.015953403 0.055477493
0.11168736 -0.024542894 -0.120530345 -0.072996214 0.12084434 0.017769145 -0.17880417 0.12026916
-0.18704125 -0.12487158 -0.20431696 0.043898527 0.056708273 -0.020433208 -0.2112451 -0.06102816
0.055770602 -0.19566394 -0.21685946 0.10733174 -0.10632414 0.16272382 -0.069824636 -0.195639
-0.098721825 0.08488044 -0.156976 0.01933471 -0.18895997 -0.25201064 0.0874407 0.08101064
0.13074346 0.14222755 0.20679961 0.033740968 0.0518447 -0.004830598 0.17446978 -0.084483385
-0.058527444 -0.09332651 -0.04532101 0.127214 0.22510193 0.04783706 -0.12365538 -0.18606941
0.013299847 -0.046273366 0.07205886 0.18293516 0.11832596 0.11528011 -0.13609724 0.10365493
-0.15098989 0.08931755 0.050270043 0.17696786 0.06067678 -0.24957919 -0.3128535 0.0012323412
0.17491509 -0.07098426 0.06586017 0.21456563 0.03818192 0.012364872 0.3086832 0.0034138914
0.07196668 0.04663957 -0.08417703 -0.042038474 0.12825489 -0.003131205 0.16314937 -0.15891537
0.15708242 0.13043049 0.04039716 0.2792441 -0.10862956 0.17379062 0.14231664 -0.047849134
0.25566453 -0.023028621 0.22675335 0.05557354 0.07250056 -0.08266117 0.055736344 0.20338489
-0.105545156 0.23424557 0.03258315 0.24520753 0.057572406 -0.13023573 -0.05328229 -0.13689624
-0.13295448 -0.1683789 0.2786593 -0.015612201 -0.12832606 0.04057137 -0.29538882 0.090974696
0.102936864 -0.058424972 -0.03136136 0.11272709 -0.10875005 0.25540045 0.10222461 -0.1013472
00000000: 50d9 08be 67cd 803d 11f2 84be 08ff 97bd
00000010: 1e07 cabd 9184 823e b4ae 123e ef88 02be
00000020: c698 9abd 1377 593c 2fde f1bd 424b 03be
00000030: 4ecd ad3d 51a7 8a3e 9010 643e 5ac4 8f3d
00000040: 46f0 693d 7c29 acbd f55d 1bbe 3911 99bd
00000050: 5dc9 953e c3e0 b13d fa89 e93d b3cc c63d
00000060: 2d01 b0bd 74c5 153c e34c 57be df6d 29be
00000070: bee6 8fbc 048e 59be 584f bfbd 2b64 16bb
00000080: 9ad2 e43d 34f4 4fbe 851f dabd 5451 06be
00000090: ee48 853e aa61 58be a4d7 c63d a880 49bd
000000a0: a2e5 5abc d415 bebd 983d d8bd 3097 31bd
000000b0: 800c 28be 646e f3bd 9b99 4cbe 8c4f 36be
000000c0: 8cf4 073e 4531 3b3e 4eee 18be 48f7 a33d
000000d0: a9b6 83be fb09 b33d ccbc e0bc 9960 18be
000000e0: a0f0 ffbd 2579 dfbc 5d8e 0cbe 63ac 38bd
000000f0: f78b 623e 66c8 8e3d c9fb d83d 50c0 d7bd
00000100: b24f 313e 577d 853d e2a9 aa3d 7091 da3d
00000110: 686e 6fbe 15e5 47be b624 6e3d 4c10 533e
00000120: 105d ad3d 81d7 7d3a 61b9 9a3d df08 ee3d
00000130: 1082 ffbb f376 aebb 9675 34bd f456 9a3c
00000140: 2f07 573e b10f a5bd 6d9d 7a3d 82d5 9abd
00000150: 3b29 3bbd 3bd6 353e 9417 9a3d 0366 4abd
00000160: ffba 6b3d 808f 83be b265 3b3e db44 e1bd
00000170: 3856 1f3c 6374 1e3d 96f4 aebd 9823 133e
00000180: d6a4 6b3e e15b a83d 44ee f6bd 1054 403c
00000190: 2c81 803c 6f9b adbd 6cfa c7bd 07fa ab3d
000001a0: 07b6 e7bb 223a f13d 7c7b 5abd 14d1 893d
000001b0: 949b 933d 8cf7 2d3e 12a8 b3bd 963e 59bd
000001c0: df7e bf3c ef19 003e 9db7 603c 7f77 84bd
000001d0: 09c8 563c 0758 043e 4df4 29be 19a6 53bd
000001e0: 51b1 0e3e 6445 43ba 5af9 edbd 570b 733e
000001f0: 5712 c83c dbad fe3c 2132 9ebd 7ed7 613d
00000200: 99c7 cabd 4e5b 4cbe 7296 ddbd fd54 063b
00000210: af56 57bc f1af 15be b6b0 823c 5e3c 633d
00000220: 58bc e43d 2e0e c9bc 9dd8 f6bd 0a7f 95bd
00000230: 3d7d f73d 9990 913c 7118 37be ad4f f63d
00000240: be87 3fbe acbc ffbd 7738 51be f1ce 333d
00000250: ef46 683d 8b63 a7bc a350 58be aaf8 79bd
00000260: b76f 643d 215c 48be 6810 5ebe bed0 db3d
00000270: 79c0 d9bd 13a1 263e 3800 8fbd 9755 48be
00000280: ab2e cabd ccd5 ad3d 51be 20be d363 9e3c
00000290: b97e 41be 8a07 81be 1c14 b33d e8e8 a53d
000002a0: 9de1 053e 19a4 113e 47c3 533e f833 0a3d
000002b0: 1c5b 543d fe49 9ebb 35a8 323e a005 adbd
000002c0: 79ba 6fbd f821 bfbd 86a2 39bd 6344 023e
000002d0: 1f81 663e cbf0 433d 083f fdbd fb88 3ebe
000002e0: 9ae7 593c 2489 3dbd 9893 933d 5b53 3b3e
000002f0: e254 f23d fa17 ec3d 135d 0bbe 0949 d43d
00000300: 189d 1abe 1fec b63d f6e7 4d3d 1037 353e
00000310: 3788 783d b091 7fbe 552e a0be 8286 a13a
00000320: f11c 333e 3260 91bd b2e1 863d 18b7 5b3e
00000330: a564 1c3d 0896 4a3c b90b 9e3e 98bb 5f3b
00000340: 4463 933d 2209 3f3d 0265 acbd 8930 2cbd
00000350: 4055 033e e734 4dbb a110 273e b6ba 22be
00000360: 37da 203e 928f 053e 7e77 253d 15f9 8e3e
00000370: 2d79 debd 2bf6 313e 74bb 113e 74fd 43bd
00000380: 76e6 823e 85a6 bcbc 0832 683e 15a1 633d
00000390: 2c7b 943d 424a a9bd cb4b 643d 2144 503e
000003a0: 0f28 d8bd 12de 6f3e e975 053d af17 7b3e
000003b0: 0bd1 6b3d 845c 05be 883e 5abd 872e 0cbe
000003c0: 3825 08be 856b 2cbe 6fac 8e3e 51ca 7fbc
000003d0: e867 03be 2a2e 263d 343d 97be f150 ba3d
000003e0: 90d0 d23d 064f 6fbd c574 00bd 76dd e63d
000003f0: 59b8 debd d9c3 823e 235b d13d 1f8f cfbd

walk_encoder.path_encoder.bias_ih_l0 f4 [96]
0.27759266 -0.27012905 -0.011648018 -0.014188739 -0.18944517 -0.055451047 -0.14692475 -0.2649105
-0.21838503 -0.14371479 -0.031524617 -0.095337704 -0.05085766 -0.15446648 0.17635626 0.092035495
-0.18057285 0.10099876 -0.09609379 0.16960531 -0.061689213 -0.36437538 0.092927046 -0.038778234
0.00091469486 -0.20415245 -0.01527079 -0.1440912 -0.2535348 0.14210553 -0.17758825 -0.17724192
-0.19006708 0.028589834 -0.019592652 0.300055 0.124750316 -0.16010936 0.017599564 0.17992955
0.120380454 0.2704259 0.08460748 0.110660866 -0.029100155 0.35644513 -0.0050229165 -0.059998088
0.020428844 0.047953166 0.054120194 -0.14217816 0.031218454 0.24294767 -0.12952198 0.39366508
0.27099854 -0.011344589 -0.023371961 -0.018990248 0.13932449 0.3841785 -0.14808 -0.0014319882
-0.18726401 0.28906417 -0.13096403 0.20340893 -0.16869663 0.4715604 0.14211085 -0.21707453
-0.20665087 -0.11187217 0.16693743 0.0070048077 0.074888386 0.12656033 0.12596364 0.2704519
0.2860522 -0.020557309 -0.2312745 -0.20067511 0.08139285 0.04763686 0.2616624 0.016233869
-0.0715107 0.078992456 -0.18733369 -0.25002939 -0.12777638 -0.25134864 -0.32147664 0.25619033
00000000: a020 8e3e 5b4e 8abe 54d7 3ebc e277 68bc
00000010: eafd 41be a320 63bd 7173 16be 59a2 87be
00000020: 53a0 5fbe f829 13be f51f 01bd 6a40 c3bd
00000030: 1f50 50bd 762c 1ebe bc96 343e 1b7d bc3d
00000040: 17e8 38be 70d8 ce3d d2cc c4bd 04ad 2d3e
00000050: d4ad 7cbd 698f babe 8950 be3d edd5 1ebd
00000060: 22c8 6f3a 570d 51be 5632 7abc a58c 13be
00000070: 50cf 81be 1d84 113e b2d9 35be e87e 35be
00000080: f2a0 42be 3a35 ea3c c580 a0bc cfa0 993e
00000090: 187d ff3d b5f3 23be f62c 903c 743f 383e
000000a0: 078a f63d 4375 8a3e b046 ad3d 2aa2 e23d
000000b0: 7363 eebc fa7f b63e 4797 a4bb 8ec0 75bd
000000c0: 645a a73c 8a6a 443d 23ad 5d3d 2797 11be
000000d0: d8bd ff3c 46c7 783e 69a1 04be 788e c93e
000000e0: 52c0 8a3e a8de 39bc 8e76 bfbc 7091 9bbc
000000f0: 14ab 0e3e 0bb3 c43e 49a2 17be 8db1 bbba
00000100: 23c2 3fbe 3800 943e 6f1b 06be 6e4a 503e
00000110: cfbe 2cbe 5d70 f13e 8285 113e c948 5ebe
00000120: 499c 53be 3c1d e5bd a5f1 2a3e 9688 e53b
00000130: 155f 993d 0899 013e 9dfc 003e ac78 8a3e
00000140: 6f75 923e cd67 a8bc 39d3 6cbe c77d 4dbe
00000150: 4bb1 a63d de1e 433d 9df8 853e e4fc 843c
00000160: 3474 92bd ccc6 a13d 67d4 3fbe da03 80be
00000170: d0d7 02be c5b0 80be 9698 a4be 612b 833e

walk_encoder.path_encoder.bias_hh_l0 f4 [96]
0.3014198 -0.030302433 0.03286964 -0.01724509 -0.18417351 0.061011575 0.1305173 -0.22447859
-0.00042823516 0.017894829 0.053176545 -0.15305375 0.017594786 -0.25463754 -0.07400355 -0.19659889
-0.2137456 -0.0046441047 0.09702178 0.14816603 -0.211483 -0.38641495 0.0022263993 -0.16005465
0.01974869 0.028503159 -0.18110071 -0.13697486 -0.18795675 -0.1568934 -0.029880578 -0.28179455
0.021559276 0.043395534 -0.037954908 0.26984063 0.20379043 0.038449652 -0.11939906 0.08117138
0.11818237 0.15650974 0.16748548 -0.14375755 0.057335127 0.21685101 0.23219343 0.24104178
0.038370296 0.015824737 0.20157215 0.08475498 -0.047573052 0.060755804 -0.13964848 0.21614446
0.022427157 0.30526438 0.13461125 0.20128198 -0.09474812 0.30599657 -0.122263014 -0.013580902
-0.21145093 0.15246941 -0.09184951 0.036365658 -0.0300898 0.19830212 0.11082883 -0.085555784
-0.08735914 -0.19452783 -0.14039427 0.13832277 -0.19764605 0.10191103 0.18034759 -0.12666258
-0.072170384 0.15098685 0.1813927 -0.23334803 -0.06256048 0.051153343 -0.08073024 0.2712792
0.10840617 0.04817311 0.0859773 0.06329648 -0.15752494 -0.21703285 0.005727192 -0.0111885
00000000: b253 9a3e cf3c f8bc 51a2 063d 9345 8dbc
00000010: fb97 3cbe 46e7 793d 54a6 053e b7dd 65be
00000020: c084 e0b9 2d98 923c a6cf 593d 1fba 1cbe
00000030: f122 903c da5f 82be 2c8f 97bd 3851 49be
00000040: 20e0 5abe 932d 98bb 5bb3 c63d d6b8 173e
00000050: 008f 58be 2ed8 c5be c8e8 113b 5ee5 23be
00000060: 01c8 a13c 757f e93c 7772 39be 2343 0cbe
00000070: bc77 40be aaa8 20be 1dc8 f4bc 6047 90be
00000080: 149d b03c 84bf 313d 9b76 1bbd 8d28 8a3e
00000090: 70ae 503e 627d 1d3d 7f87 f4bd 2e3d a63d
000000a0: 9909 f23d 1744 203e 5081 2b3e 2e35 13be
000000b0: 3dd8 6a3d 310e 5e3e 1dc4 6d3e a8d3 763e
000000c0: 2c2a 1d3d e1a2 813c ee68 4e3e 0594 ad3d
000000d0: f6db 42bd 14db 783d 0300 0fbe f954 5d3e
000000e0: 28b9 b73c 9d4b 9c3e 88d7 093e dd1c 4e3e
000000f0: 4d0b c2bd 95ab 9c3e 0865 fabd 6e82 5ebc
00000100: 9886 58be f120 1c3e 991b bcbd 28f4 143d
00000110: e27e f6bc b60f 4b3e 3afa e23d df37 afbd
00000120: 59e9 b2bd 4e32 47be 84c3 0fbe 7ca4 0d3e
00000130: ba63 4abe bbb6 d03d 0aad 383e d6b3 01be
00000140: 11ce 93bd 4c9c 1a3e 02bf 393e c9f2 6ebe
00000150: b51f 80bd 2b86 513d e555 a5bd 1be5 8a3e
00000160: 0e04 de3d 2b51 453d de14 b03d 96a1 813d
00000170: 384e 21be dc3d 5ebe 2bab bb3b f84f 37bc

bn.weight f4 [32]
0.9795869 0.7931069 0.90751684 1.0011163 0.9538602 0.8398803 0.8612372 1.0669347
0.887632 0.9255445 0.76269215 0.8568814 0.8539357 0.91368973 0.7515907 0.891026
0.923238 0.8042395 0.90350777 0.85073614 1.0228821 0.96488595 0.9616943 0.9817994
0.90622747 0.9268269 0.94613457 0.91710454 0.9303368 0.84389085 0.9965721 0.8957108
00000000: 35c6 7a3f 0e09 4b3f 0653 683f 9424 803f
00000010: 2f30 743f 6502 573f 0b7a 5c3f 5191 883f
00000020: da3b 633f 7cf0 6c3f cb3f 433f 945c 5b3f
00000030: 889b 5a3f 92e7 693f 4068 403f 481a 643f
00000040: 5359 6c3f a4e2 4d3f 494c 673f d8c9 593f
00000050: cded 823f c402 773f 9931 763f 3557 7b3f
00000060: 86fe 673f 8744 6d3f e035 723f 5dc7 6a3f
00000070: 8d2a 6e3f 3b09 583f 591f 7f3f 4e4d 653f

bn.bias f4 [32]
-0.09904693 0.04568285 -0.06442332 -0.06661837 -0.071704134 -0.063674584 0.051888354 0.06725591
0.046305656 -0.0154716205 -0.03168084 -0.028048594 -0.053803924 0.14013073 -0.0820908 -0.010439979
0.07943246 0.066996016 -0.059589546 0.057882223 0.19181243 -0.0518972 0.12789334 0.014105589
-0.08409282 0.0003603713 -0.116109885 0.062153038 -0.13453192 0.14451575 0.095345065 0.08421987
00000000: 1ed9 cabd f11d 3b3d 60f0 83bd 366f 88bd
00000010: 9ed9 92bd d267 82bd e288 543d 77bd 893d
00000020: 00ab 3d3d ae7c 7dbc c5c3 01bd 2ac6 e5bc
00000030: 8161 5cbd 6e7e 0f3e 391f a8bd 720c 2bbc
00000040: 7cad a23d 3535 893d 2b14 74bd e915 6d3d
00000050: 7a6a 443e 2992 54bd 79f6 023e 211b 673c
00000060: db38 acbd 38f0 bc39 05cb edbd 2f94 7e3d
00000070: bcc2 09be f0fb 133e 4644 c33d 787b ac3d

bn.running_mean f4 [32]
-0.9158217 0.48279184 -0.15382297 0.062372252 -0.032200843 0.7939484 0.31128532 -0.28420117
-0.19236185 -0.008099475 0.17369924 -0.25699493 -0.17892544 0.13295183 0.1163252 0.18831731
0.30637106 0.18979362 -0.44062257 -0.4951267 0.18816574 0.09195906 0.5593087 -0.0064598056
-0.0351773 0.16975914 -0.34357616 -0.27883348 -0.5032365 -0.14035514 -0.34143323 0.16520967
00000000: 4a73 6abf 7e30 f73e c583 1dbe 0c7a 7f3d
00000010: 08e5 03bd 3440 4b3f ca60 9f3e d182 91be
00000020: 81fa 44be a9b3 04bc 37de 313e d794 83be
00000030: 3b38 37be 8624 083e e83b ee3d 41d6 403e
00000040: abdc 9c3e 4259 423e 4899 e1be 3f81 fdbe
00000050: 85ae 403e 0855 bc3d db2e 0f3f c7ac d3bb
00000060: 1316 10bd 57d5 2d3e 37e9 afbe 43c3 8ebe
00000070: 1bd4 00bf 42b9 0fbe 56d0 aebe b92c 293e

bn.running_var f4 [32]
0.0016895147 0.0028677327 0.0067406883 0.0016506116 0.0018643052 0.0029546693 0.0072803823 0.0064560384
0.0071114562 0.0044386894 0.0032226453 0.006704541 0.0050036972 0.0025061937 0.0018835394 0.0031661566
0.0029784339 0.0061489567 0.0028869056 0.008186648 0.0066473032 0.0050916616 0.010017563 0.001615882
0.002267528 0.0035533197 0.008485181 0.0063408017 0.006010258 0.0015470755 0.0055694515 0.006983401
00000000: b572 dd3a 92f0 3b3b fee0 dc3b 5659 d83a
00000010: b45b f43a 20a3 413b 4690 ee3b 2d8d d33b
00000020: 3807 e93b 6d72 913b 0433 533b c4b1 db3b
00000030: 0ef6 a33b f43e 243b 18e1 f63a 4b7f 4f3b
00000040: d431 433b 307d c93b 3d32 3d3b 4a21 063c
00000050: 9fd1 d93b f4d7 a63b b420 243c 01cc d33a
00000060: cf9a 143b d0de 683b 6e05 0b3c 80c6 cf3b
00000070: b3f1 c43b 3dc7 ca3a f27f b63b 03d5 e43b

fc1.weight f4 [64, 32]
0.08834864 -0.15177186 -0.06143415 0.12265875 0.05289673 0.0028842178 0.049763188 0.14233463
-0.10629972 0.13623303 -0.10303234 -0.0034129883 -0.041781567 0.010702256 0.020132735 0.12073068
0.123477206 0.06739655 0.094726525 -0.10717191 0.0612279 0.018967569 -0.13276413 -0.007930567
0.09072304 0.15890658 0.11819534 -0.011977681 -0.13193944 0.019841045 -0.035406467 0.028997604
-0.0629849 -0.059481375 -0.18127173 -0.011301338 -0.050717458 0.11867351 -0.12967229 0.03315259
-0.0012487946 0.026575444 -0.077572234 0.13461491 0.09368224 0.0014985609 0.06094616 -0.10747233
-0.11588501 0.054778963 -0.069753945 0.1708766 -0.10220375 0.039525956 0.082237415 0.11777831
0.08250057 0.17258075 0.049990952 0.057801805 -0.18672754 -0.17834243 -0.046209447 0.08232506
-0.11577121 0.09634118 0.029469887 -0.08895027 -0.03594589 0.18273684 0.29153538 -0.20912749
0.11686668 0.10348392 0.07896859 -0.1717525 -0.08097666 -0.05285925 0.20468628 0.091423444
-0.11431537 0.14178038 -0.11759859 -0.116842516 0.018012581 -0.09584774 -0.19936636 -0.1827128
-0.090929136 -0.06832937 -0.2741613 0.074419156 -0.07848101 0.122157514 0.0114842225 -0.016046863
-0.019687321 -0.0040879324 0.02394983 -0.010558078 -0.01488128 0.10476064 0.17384742 -0.18309791
0.103890084 -0.061665177 -0.02694015 0.018466245 0.14444746 -0.1437192 0.08270571 -0.060523093
-0.14098895 0.06256506 -0.058073454 0.1487934 0.09896772 -0.14906725 -0.10027782 -0.10486134
0.06255275 0.13451102 -0.17578375 0.02403469 -0.108794264 -0.122683145 -0.09767078 -0.07474318
0.25845984 -0.17228791 0.048802283 0.12213965 0.16389513 -0.08956157 -0.028055616 -0.21202913
0.035006214 -0.064277865 0.05938106 0.069442526 0.018691344 -0.17293954 0.13958845 0.033037093
-0.20261629 -0.060397934 0.1754664 0.18661705 -0.271874 0.07139872 -0.043115266 -0.16674773
0.08924691 -0.0016554823 0.2853515 -0.06287404 -0.028598975 -0.14613155 0.054720227 -0.05614979
0.07229 0.0072103213 -0.12932289 -0.1397958 -0.051291365 0.08669022 -0.013798757 0.10313015
-0.060196567 -0.1369767 -0.0025685034 0.08347691 -0.075074285 -0.044610944 -0.009753549 0.026509065
-0.16924556 -0.14229473 0.044897493 -0.13390175 -0.06754735 -0.1475154 -0.008449867 0.14339888
0.16384597 -0.29312894 0.07834422 0.12399438 -0.015733771 -0.046330415 0.08331109 0.15851001
0.036787838 0.06342583 -0.04566764 -0.11730708 -0.055394627 -0.037544705 -0.05423785 0.21559103
0.23232481 -0.20993774 -0.089627 -0.010124166 0.102240875 -0.10130315 -0.15973249 0.0329374
-0.009991117 -0.10546898 -0.10531598 -0.0797906 0.08564792 -0.20568354 0.084762126 -0.058192026
-0.15911245 -0.20697698 0.028246736 0.24494752 0.112377256 0.04663227 0.0043768627 0.09907864
-0.054206785 -0.102826275 -0.089887805 0.0709012 0.10884659 0.23939627 -0.12463305 0.07711047
-0.015966656 0.037648052 0.08590162 0.098985516 -0.06022569 -0.09557446 0.101234965 0.21494739
0.015493978 0.11578415 0.25740114 -0.10176029 -0.013207711 -0.038354725 0.00089696783 0.02094319
0.08211679 -0.0025783214 -0.023819132 -0.005002562 0.05566934 0.06552116 0.025275594 -0.12557206
00000000: 22f0 b43d 156a 1bbe 60a2 7bbd 8334 fb3d
00000010: 3eaa 583d 2505 3d3b 7cd4 4b3d 2bc0 113e
00000020: abb3 d9bd ac80 0b3e 9f02 d3bd 71ac 5fbb
00000030: 2623 2bbd 8458 2f3c 68ed a43c a641 f73d
00000040: 9ee1 fc3d 3407 8a3d fbff c13d f27c dbbd
00000050: 1bca 7a3d e061 9b3c 52f3 07be 35ef 01bc
00000060: 00cd b93d 68b8 223e 6610 f23d 093e 44bc
00000070: 221b 07be b089 a23c 5f06 11bd 628c ed3c
00000080: 3afe 80bd bea2 73bd 4c9f 39be 3f29 39bc
00000090: 1cbd 4fbd 190b f33d d0c8 04be 03cb 073d
000000a0: 98ae a3ba bfb4 d93c 31de 9ebd 7ed8 093e
000000b0: 79dc bf3d 5c6b c43a aea2 793d 741a dcbd
000000c0: 1f55 edbd e85f 603d 28db 8ebd 47fa 2e3e
000000d0: 3350 d1bd f8e5 213d 176c a83d c135 f13d
000000e0: 0ff6 a83d 02b9 303e 50c3 4c3d 96c1 6c3d
000000f0: 8135 3fbe 669f 36be 1e46 3dbd 0b9a a83d
00000100: 7519 edbd 864e c53d d56a f13c 8f2b b6bd
00000110: ff3b 13bd 5e1f 3b3e 2044 953e 8425 56be
00000120: cc57 ef3d 61ef d33d 49ba a13d e3df 2fbe
00000130: 17d7 a5bd f182 58bd 4899 513e 373c bb3d
00000140: 2d1e eabd e02e 113e 88d7 f0bd 214b efbd
00000150: 1f8f 933c d24b c4bd b226 4cbe 1019 3bbe
00000160: 0e39 babd 45f0 8bbd df5e 8cbe 1269 983d
00000170: a7ba a0bd b82d fa3d 5228 3c3c b674 83bc
00000180: 4e47 a1bc 10f4 85bb 6f32 c43c cafb 2cbc
00000190: 9dd0 73bc bf8c d63d 0f05 323e 057e 3bbe
000001a0: 53c4 d43d a094 7cbd 97b1 dcbc 8646 973c
000001b0: 09ea 133e 202b 13be 9c61 a93d 10e7 77bd
000001c0: 685f 10be 1c22 803d 6ede 6dbd 4c5d 183e
000001d0: 97af ca3d 16a5 18be 755e cdbd 8bc1 d6bd
000001e0: a81b 803d 42bd 093e a800 34be 66e4 c43c
000001f0: 87cf debd 4d41 fbbd 9e07 c8bd f412 99bd
00000200: d954 843e 3e6c 30be e7e4 473d 5a24 fa3d
00000210: 20d4 273e 0e6c b7bd e4d4 e5bc 2a1e 59be
00000220: ad62 0f3d 1da4 83bd 8e39 733d e237 8e3d
00000230: 971e 993c 1017 31be 46f0 0e3e e751 073d
00000240: a57a 4fbe d363 77bd 77ad 333e 8a18 3f3e
00000250: 1233 8bbe 7e39 923d a299 30bd ebbf 2abe
00000260: 15c7 b63d c5fc d8ba 9819 923e 1bc4 80bd
00000270: 6648 eabc 82a3 15be 5122 603d 52fd 65bd
00000280: c80c 943d 8f44 ec3b 386d 04be a126 0fbe
00000290: e516 52bd a48a b13d 2f14 62bc e635 d33d
000002a0: ad90 76bd 9f43 0cbe 5654 28bb f1f5 aa3d
000002b0: 8cc0 99bd f7b9 36bd 59cd 1fbc 8a29 d93c
000002c0: b54e 2dbe b6b5 11be 6fe6 373d 8a1d 09be
000002d0: 4456 8abd 470e 17be 5071 0abc 28d7 123e
000002e0: 3dc7 273e ff14 96be ef72 a03d c4f0 fd3d
000002f0: 1ce4 80bc f6c4 3dbd 019f aa3d 7350 223e
00000300: d8ae 163d 67e5 813d fe0d 3bbd b23e f0bd
00000310: 7ae5 62bd 7ac8 19bd 8228 5ebd e5c3 5c3e
00000320: 8ee6 6d3e ebf9 56be 5c8e b7bd d4df 25bc
00000330: aa63 d13d 0778 cfbd ea90 23be 5ee9 063d
00000340: c8b1 23bc 1f00 d8bd e8af d7bd 4169 a3bd
00000350: 2d68 af3d b59e 52be c497 ad3d c35a 6ebd
00000360: 60ee 22be c6f1 53be b365 e73c 86d3 7a3e
00000370: 0c26 e63d 7b01 3f3d c96b 8f3b bee9 ca3d
00000380: ef07 5ebd 9596 d2bd 1917 b8bd a634 913d
00000390: f6ea de3d 4c24 753e 9d3f ffbd 18ec 9d3d
000003a0: 81cc 82bc d834 1a3d 30ed af3d ebb8 ca3d
000003b0: 37af 76bd 8bbc c3bd 4754 cf3d 2b1b 5c3e
000003c0: 74da 7d3c 3e20 ed3d 15ca 833e b367 d0bd
000003d0: 2865 58bc d819 1dbd 7e22 6b3a 0e91 ab3c
000003e0: d92c a83d 0ef9 28bb 5720 c3bc 88ec a3bb
000003f0: 8905 643d f52f 863d c30e cf3c f695 00be

fc1.bias f4 [64]
-0.22503918 -0.12743993 0.1405531 0.12786174 -0.23853885 0.1587775 0.18208429 -0.036660388
-0.2692585 0.13835782 -0.3713829 -0.1456266 -0.22307286 0.05966372 0.012953566 -0.22925283
-0.26261166 -0.16070773 0.066588975 0.0051712645 -0.11574709 -0.18209404 -0.06383779 -0.16241297
-0.32746583 0.004994016 0.019700374 -0.1584157 -0.1663778 0.10173348 -0.26135823 -0.1768511
0.05108687 -0.30147606 -0.2474971 0.11166826 -0.12209876 0.0233571 0.21039659 -0.06616243
-0.10419284 -0.075994775 0.17031214 -0.2351347 0.02718671 -0.16686594 -0.35350588 -0.1300462
-0.14704604 -0.12743738 0.02778387 -0.20075434 -0.108932965 -0.10544108 0.0883222 -0.085464634
-0.0013177008 -0.3212876 0.09339682 -0.11858868 0.16834536 -0.030084714 -0.25744843 -0.045981295
00000000: ac70 66be 9d7f 02be 27ed 0f3e 30ee 023e
00000010: 8743 74be 9296 223e 4e74 3a3e 3429 16bd
00000020: 40dc 89be acad 0d3e e625 bebe 241f 15be
00000030: 366d 64be f261 743d 323b 543c 41c1 6abe
00000040: 0975 86be 9190 24be cd5f 883d b673 a93b
00000050: cf0c edbd dc76 3abe 63bd 82bd 964f 26be
00000060: 9aa9 a7be d8a4 a33b ae62 a13c ba37 22be
00000070: f15e 2abe a559 d03d bfd0 85be 7418 35be
00000080: 7740 513d 125b 9abe e16f 7dbe 54b2 e43d
00000090: ea0e fabd 6457 bf3c 3472 573e 2b80 87bd
000000a0: 0e63 d5bd 26a3 9bbd 4e66 2e3e 27c7 70be
000000b0: aab6 de3c e8de 2abe b9fe b4be d52a 05be
000000c0: 3d93 16be f27e 02be 009b e33c 8c92 4dbe
000000d0: 3f18 dfbd 7ef1 d7bd 45e2 b43d 1508 afbd
000000e0: b4b6 acba cf7f a4be d546 bf3d 9fde f2bd
000000f0: ba62 2c3e 3874 f6bc 48d0 83be e256 3cbd

fc2.weight f4 [2, 64]
-0.03611948 -0.02320615 0.062037617 -0.07273243 -0.12203378 0.051234946 0.17121972 0.06473777
0.036958314 0.020210933 0.07218356 0.08658863 -0.15881155 0.040481146 0.052110676 -0.12163261
-0.120992236 -0.16472022 -0.07119763 0.08818763 -0.11235809 0.039442424 0.1332675 -0.118063025
-0.0782301 0.013045992 -0.052941643 0.11187398 0.056131814 0.02785814 -0.12100044 0.010400366
-0.059510086 -0.04307098 -0.1942748 -0.092070594 0.11348693 -0.1737204 0.045594648 -0.11397971
-0.028111408 -0.06775298 0.059158407 0.072189465 -0.023498667 -0.05807853 -0.09263689 0.081322186
0.080355376 0.020552902 0.05246394 0.07646024 0.12693413 0.019006804 0.017697567 0.0058714575
-0.0034160772 -0.035982538 -0.03765487 -0.033405066 -0.11103863 -0.046832908 -0.12832151 0.010293945
-0.046004612 -0.012025446 -0.100449786 -0.13481867 0.12477719 -0.05907459 0.0120384665 0.061208453
-0.027716441 -0.065758936 0.06531911 -0.104910426 0.1750391 0.008292106 -0.02070349 0.14868008
-0.04055698 -0.06096268 0.15573388 0.09011284 0.1100644 0.0038295323 -0.053155646 -0.052805312
0.020638805 0.011127335 0.029049017 0.018744387 -0.1574618 -0.042179044 0.12237513 0.11533858
-0.09962987 0.016390534 0.14123186 -0.061683908 -0.06994767 -0.06424988 -0.13938235 -0.030081887
0.14675029 0.060691826 0.03711667 0.06839283 -0.020667603 0.06371489 -0.016206997 -0.01272358
0.0543392 -0.0059301155 -0.11322293 0.023000022 0.02630326 -0.08299659 -0.08291537 -0.03217058
-0.03103737 0.09133701 -0.05780889 -0.010778993 0.11648478 0.08907925 0.16013646 -0.069021486
00000000: 05f2 13bd d31a bebc 281b 7e3d bef4 94bd
00000010: d9ec f9bd bcdb 513d 3954 2f3e 3c95 843d
00000020: 9a61 173d 6691 a53c f9d4 933d 6155 b13d
00000030: 7f9f 22be 8fcf 253d 0172 553d 851a f9bd
00000040: c7ca f7bd 6bac 28be 10d0 91bd b79b b43d
00000050: 001c e6bd 618e 213d 4777 083e 07cb f1bd
00000060: 1a37 a0bd dbbe 553c 56d9 58bd 2f1e e53d
00000070: 79ea 653d c136 e43c 14cf f7bd 4c66 2a3c
00000080: d9c0 73bd 326b 30bd f9ef 46be 828f bcbd
00000090: d66b e83d c3e3 31be 74c1 3a3d 326e e9bd
000000a0: e549 e6bc 13c2 8abd 1650 723d 12d8 933d
000000b0: 4780 c0bc c1e3 6dbd 69b8 bdbd 3f8c a63d
000000c0: 5c91 a43d 8f5e a83c 6ee4 563d 3097 9c3d
000000d0: 05fb 013e 28b4 9b3c 7dfa 903c 5b65 c03b
000000e0: 44e0 5fbb 6d62 13bd fe3b 1abd c0d3 08bd
000000f0: 3968 e3bd ddd3 3fbd b766 03be efa7 283c
00000100: 556f 3cbd 6006 45bc 9eb8 cdbd e80d 0abe
00000110: 2f8b ff3d 33f8 71bd fd3c 453c b7b5 7a3d
00000120: 970d e3bc 9fac 86bd 07c6 853d 47db d6bd
00000130: 733d 333e 9ddb 073c 5e9a a9bc 973f 183e
00000140: 131f 26bd 01b4 79bd b478 1f3e 158d b83d
00000150: 7269 e13d e4f8 7a3b bcb9 59bd 624a 58bd
00000160: b612 a93c 6d4f 363c 34f8 ed3c d48d 993c
00000170: ab3d 21be efc3 2cbd d09f fa3d a236 ec3d
00000180: bf0a ccbd 7145 863c 169f 103e 44a8 7cbd
00000190: b940 8fbd 7195 83bd 3fba 0ebe 4a6e f6bc
000001a0: b545 163e fe97 783d a607 183d 8a11 8c3d
000001b0: 1b4f a9bc f47c 823d 89c4 84bc 9076 50bc
000001c0: c892 5e3d 6a51 c2bb 6ce1 e7bd 8b6a bc3c
000001d0: ef79 d73c 1efa a9bd 89cf a9bd 4cc5 03bd
000001e0: 1542 febc e60e bb3d 04c9 6cbd 609a 30bc
000001f0: 938f ee3d 2f6f b63d d0fa 233e 235b 8dbd

fc2.bias f4 [2]
0.09320235 -0.008788351
00000000: e0e0 be3d 04fd 0fbc
